VIScaler_new_1.5_currentbest.pth (torch, 4861 bytes, 5 tensors)

weight f4 [32, 3]
-0.60867566 0.41463035 2.9868138 -0.4665796 -0.14857383 0.18000248 0.5227912 -0.41243422
7.7560744 -0.19267932 0.19029337 5.479789 0.54046243 0.21873625 8.512995 0.037191503
-0.37984815 -3.7104824 0.23251309 -0.6842528 -1.4486942 0.014784381 -0.33880833 -5.0476627
0.40621495 0.21192752 9.244926 -0.2349263 -0.25422052 1.3390571 -0.053271353 -0.015980845
-0.19076309 -0.23221351 -0.40275264 1.8735065 0.19868417 0.48745957 -4.6446795 -0.22276354
-0.16660944 0.7900573 -0.45710734 0.23323086 -1.797676 0.36024508 -0.39507762 -6.9660473
0.5480376 -0.5013448 -6.410335 -0.09573277 0.13635083 4.208509 0.1209337 -0.23443373
-5.94137 -0.29600853 -0.33541423 -2.839073 -0.4201878 0.26748466 1.1314578 -0.26182452
0.048402846 0.106071524 0.53404236 0.7277272 5.7056246 0.40796742 -0.41735983 3.1966183
0.56441236 0.38842127 6.3374743 -0.49102533 -0.35865316 -0.51404434 0.4544735 -0.89646786
8.221543 -0.26811436 -0.1153542 0.94017226 -0.1636267 -0.023272898 4.94947 0.24076751
0.15125436 -5.961985 0.3162722 -0.786538 -2.3300517 0.33665788 0.13591638 7.7851205
00000000: 2bd2 1bbf 6e4a d43e f527 3f40 85e3 eebe
00000010: bd23 18be 9252 383e a5d5 053f 942a d3be
00000020: c331 f840 ba4d 45be 44dc 423e 6e5a af40
00000030: bf5b 0a3f 65fc 5f3e 3a35 0841 1e56 183d
00000040: 757b c2be 8b78 6dc0 e917 6e3e 312b 2fbf
00000050: d06e b9bf 303a 723c 4978 adbe 7486 a1c0
00000060: 68fb cf3e 8703 593e 38eb 1341 8590 70be
00000070: 3129 82be 3966 ab3f 1033 5abd 43ea 82bc
00000080: 6657 43be 61c9 6dbe 9835 cebe 10cf ef3f
00000090: dd73 4b3e 4d94 f93e 37a1 94c0 201c 64be
000000a0: aa9b 2abe 3241 4a3f f909 eabe 12d4 6e3e
000000b0: 3f1a e6bf 0b72 b83e 9d47 cabe dce9 dec0
000000c0: 314c 0c3f 2258 00bf 7721 cdc0 8b0f c4bd
000000d0: 8d9f 0b3e 1bac 8640 16ac f73d 650f 70be
000000e0: b41f bec0 6e8e 97be 6abb abbe 5fb3 35c0
000000f0: db22 d7be c0f3 883e 9cd3 903f dd0d 86be
00000100: 1042 463d 073c d93d 00b7 083f 544c 3a3f
00000110: 7a94 b640 1be1 d03e 30b0 d5be 6595 4c40
00000120: 547d 103f 27df c63e 97cc ca40 ac67 fbbe
00000130: 63a1 b7be 6998 03bf c0b0 e83e eb7e 65bf
00000140: 718b 0341 4946 89be d33e ecbd 21af 703f
00000150: c28d 27be cea6 bebc 0f62 9e40 c28b 763e
00000160: 6ce2 1a3e 95c8 bec0 6eee a13e 8e5a 49bf
00000170: 911f 15c0 6c5e ac3e aa2d 0b3e b51f f940

bias f4 [32]
0.9310547 0.4059436 -0.43317175 1.7267156 -0.65362626 0.4089226 -0.07050265 0.72394764
-0.9879743 1.3634769 -0.35648152 0.26541507 1.1397973 1.9120709 0.12684205 0.28926992
1.3340156 0.8475791 0.4591647 0.5742982 0.6244353 -0.7331631 0.113032505 0.5078545
-0.2980704 -0.45994905 -0.8649595 -0.28602192 0.7122415 1.2954816 0.21474704 -0.22063221
00000000: 9a59 6e3f d7d7 cf3e b0c8 ddbe 0405 dd3f
00000010: 0d54 27bf 4e5e d13e b263 90bd a254 393f
00000020: e2eb 7cbf 6986 ae3f bf84 b6be 7ce4 873e
00000030: e1e4 913f bdbe f43f e2e2 013e 301b 943e
00000040: 06c1 aa3f f2fa 583f a317 eb3e 3505 133f
00000050: feda 1f3f 94b0 3bbf 967d e73d c102 023f
00000060: af9c 98be 717e ebbe fc6d 5dbf 7771 92be
00000070: 7555 363f 57d2 a53f a6e6 5b3e 69ed 61be

weight f4 [1, 32]
-0.049335398 -0.32230005 0.26071808 -0.9079309 0.25970343 -0.053166315 -0.0019538442 -0.014214753
0.22867633 -0.27319324 0.020605791 0.029773455 -0.058205623 -0.33996353 -0.23840638 -0.018505683
-0.7278025 -0.80682695 -0.051436275 -0.34491676 0.37357146 -0.19061935 0.13917981 0.090770096
0.1760697 -0.025798084 0.0930291 0.0160833 -0.29490978 -1.2213553 0.008593663 0.28952077
00000000: ea13 4abd 8304 a5be d77c 853e 296e 68bf
00000010: d9f7 843e ecc4 59bd 110c 00bb ffe4 68bc
00000020: 212a 6a3e fcdf 8bbe 7acd a83c 76e7 f33c
00000030: 0569 6ebd b30f aebe cd20 74be 3b99 97bc
00000040: 4451 3abf 368c 4ebf d8ae 52bd ee98 b0be
00000050: c244 bf3e b831 43be 2785 0e3e ace5 b93d
00000060: 9e4b 343e 8156 d3bc 0a86 be3d 20c1 833c
00000070: 6afe 96be 5f55 9cbf 6fcc 0c3c 113c 943e

weight f4 [1, 32]
-0.30648863 -0.21337758 -0.1640767 -0.14040051 -0.43014088 -0.3365458 -0.68944824 -0.3063857
-0.27687564 -0.035305556 0.07897822 0.018441666 -1.3719254 -0.20770438 0.05697554 -0.80749595
-0.09343557 -0.19907212 -0.4251388 -0.64813113 -0.28942928 0.07988982 -0.76368535 -0.65848887
-0.63210016 0.056037974 -0.39414728 0.049244706 -0.2730318 -0.26611426 -0.39538717 -0.259178
00000000: 14ec 9cbe a77f 5abe b903 28be 27c5 0fbe
00000010: 6d3b dcbe bb4f acbe ae7f 30bf 96de 9cbe
00000020: a5c2 8dbe 8f9c 10bd 55bf a13d fa12 973c
00000030: 409b afbf 75b0 54be 2f5f 693d 0eb8 4ebf
00000040: 265b bfbd 90d9 4bbe cbab d9be eceb 25bf
00000050: 1330 94be 469d a33d e280 43bf ba92 28bf
00000060: 51d1 21bf 1388 653d accd c9be d1b4 493d
00000070: d3ca 8bbe 2140 88be 3070 cabe fbb2 84be

weight f4 [1, 32]
-0.05347449 -0.30734438 0.11916037 -0.022427227 0.19091901 0.077461824 0.022197746 -0.20047015
0.16735783 -0.14527744 -0.08096419 0.073233254 -0.05037083 -0.48358536 -0.17376283 -0.17329495
0.17288077 0.3050518 -0.11412712 -1.0276006 -0.15799646 0.062148042 -0.087825194 -0.073067375
-0.12876363 -0.05187324 0.1658762 0.10442623 0.2243994 0.071658924 -0.052499834 -0.12961003
00000000: 1108 5bbd 3e5c 9dbe 5a0a f43d 4eb9 b7bc
00000010: 4680 433e 4ea4 9e3d 0cd8 b53c 0c48 4dbe
00000020: da5f 2b3e 9cc3 14be 8ed0 a5bd 51fb 953d
00000030: a551 4ebd 8098 f7be e2ee 31be 3b74 31be
00000040: a807 313e c02f 9c3e 7bbb e9bd 6b88 83bf
00000050: d3c9 21be f28e 7e3d b2dd b3bd 59a4 95bd
00000060: 9dda 03be 0979 54bd 73db 293e 6bdd d53d
00000070: f5c8 653e eac1 923d 110a 57bd 7eb8 04be
