tmppth_copy/VIScaler_test1_29.pth (torch, 42144 bytes, 10 tensors)

weight f4 [64, 3]
000000 e0 1c 8a bc 3c 8c d0 b7 ab 17 00 80 49 bc 80 3e
       -0.016859472 -2.4860834e-05 -8.49e-42 0.2514365
000010 2c 76 13 ba ea cd e4 c0 9e e6 d3 bd 23 1e 35 39
       -0.0005625214 -7.150136 -0.10346721 0.00017272732
000020 16 06 bc 1b 7c c0 12 bd f8 f8 4c bc e0 dd 52 bb
       3.1105924e-22 -0.0358281 -0.012510531 -0.0032175705
000030 11 e2 80 ba b3 5e d4 b3 48 a7 00 00 19 f4 4f bd
       -0.0009832998 -9.889245e-08 6.0009e-41 -0.0507699
000040 bb 44 47 39 77 6c 00 00 70 dd 1e 3f 64 c7 79 3c
       0.00019003723 3.891e-41 0.62056637 0.015245292
000050 b2 67 6f 3f 1c d7 48 bc 3b 11 7e b8 b9 20 01 00
       0.935176 -0.012258317 -6.0574366e-05 1.03574e-40
000060 71 a3 1d be 16 c1 3e bd d7 7b c2 bb 0d 9f cd b5
       -0.15394379 -0.04657086 -0.005935173 -1.531998e-06
000070 52 97 00 80 a8 60 02 00 a4 cf 84 bd 95 de 4b bc
       -5.4283e-41 2.18345e-40 -0.06484917 -0.012443204
000080 da 82 49 b9 c0 0f b6 bc 9f 34 26 3b b0 1d ff ba
       -0.000192176 -0.022224307 0.0025360954 -0.0019463804
000090 4b d8 99 b7 56 ea 14 94 88 d0 00 80 42 20 01 bc
       -1.833974e-05 -7.518305e-27 -7.4807e-41 -0.007881226
0000a0 b9 2e 4f 2d 06 0c 02 80 e0 40 9a bd 2e 39 07 be
       1.1776962e-11 -1.87984e-40 -0.07531905 -0.13205406
0000b0 ce 68 5c be 53 6d c4 bc 35 b7 cb b9 f2 55 cb 15
       -0.21524355 -0.023977911 -0.00038855677 8.2126645e-26
0000c0 4e 53 b5 bc a2 52 4e 3a 7e 97 23 10 bd 0d 29 ba
       -0.02213445 0.00078705896 3.2262787e-29 -0.00064488855
0000d0 6a 58 94 b3 e3 6e 02 00 96 52 6f bd a7 54 61 bd
       -6.9078695e-08 2.2345e-40 -0.05842837 -0.05501237
0000e0 83 90 a4 bc 30 5f ef bc e8 8e c9 bb 31 6b 9a bb
       -0.02008844 -0.029220194 -0.006151069 -0.0047124852
0000f0 a4 3d 9f 3a 7b b5 1d bd 35 c5 40 3d b9 bc ef bb
       0.0012149108 -0.03850315 0.04706307 -0.0073161987
000100 3d c6 af b9 52 74 84 06 d9 5e f5 bc 8d ad d0 bc
       -0.000335263 4.98238e-35 -0.029952453 -0.02547338
000110 a2 db 3e bd 4d 73 a5 bb aa e7 55 b9 81 4d 0a 9d
       -0.046596177 -0.0050491453 -0.00020399565 -1.8304217e-21
000120 61 de 4f 3e 32 5c 51 bc a4 05 61 40 0a 49 9f 3d
       0.20299675 -0.012778329 3.5159693 0.07777603
000130 ee 62 99 bd 55 b8 a0 3f 4f a8 27 bc f9 52 8b bb
       -0.074895725 1.2556254 -0.010232999 -0.0042518345
000140 5b e2 0e 3a 65 d2 3a bc 5a 26 fe 37 a2 32 00 80
       0.00054506 -0.011402701 3.0297018e-05 -1.8164e-41
000150 d9 b2 9c bc 6f b3 bc b8 fa 06 01 80 c4 ab 00 3e
       -0.01912825 -8.997961e-05 -9.4338e-41 0.12565523
000160 e3 17 0c be 63 95 0a 3f 90 7f df 3d 41 30 f8 bc
       -0.13680987 0.54134196 0.109130025 -0.030296447
000170 80 36 aa c0 0f 07 5f bc 13 3d 1c be 98 2f 39 be
       -5.319153 -0.013612523 -0.15257673 -0.18084562
000180 3b 56 f7 3c 73 15 41 be f2 05 09 3f b3 d7 ca bc
       0.030192485 -0.18855838 0.53524697 -0.024761057
000190 49 e0 a7 bc 2f 60 39 bb 92 b6 8d bc b0 5c 99 b8
       -0.02049269 -0.002828609 -0.01729897 -7.312873e-05
0001a0 c3 51 00 00 7f 62 de bd da 3d ae bd 24 19 1f bc
       2.933e-41 -0.108586304 -0.08507891 -0.009710584
0001b0 8f 60 79 3d 4d 83 60 bd b2 cd 9c bf 30 b8 6e a8
       0.0608831 -0.05481272 -1.2250273 -1.3251593e-14
0001c0 e8 e0 00 80 f4 fe 00 80 a4 76 15 bc 66 32 06 b9
       -8.0681e-41 -9.146e-41 -0.009122524 -0.0001279801
0001d0 9a f9 00 00 1a c9 38 bc 18 9a 73 b8 7e 5b 01 00
       8.954e-41 -0.011278415 -5.8079226e-05 1.24657e-40
0001e0 e3 ed c9 bd 19 ed 89 bc d3 2b 3b 3a e4 90 6d bd
       -0.098598264 -0.01683669 0.0007140014 -0.057999507
0001f0 bf 9e 14 bb 06 6b 28 b8 10 1e 4b bc 20 11 5d bd
       -0.0022677628 -4.0153995e-05 -0.012397304 -0.05397141
000200 4d 23 b0 bc 20 14 cb bb 34 fb 89 be 4e 0e 2d 3e
       -0.021501208 -0.0061974674 -0.26949465 0.16899988
000210 78 b1 26 b5 bd 34 fd a5 a0 45 00 00 76 f7 34 bc
       -6.209807e-07 -4.392424e-16 2.4977e-41 -0.011045327
000220 a6 f3 d3 35 ec 2f 21 97 45 f2 29 bd bc 4d a2 ba
       1.5791636e-06 -5.208239e-25 -0.04149081 -0.0012382786
000230 43 0a 87 a1 aa 39 96 bb 18 8c 7e 3d 9e 5c 48 be
       -9.150672e-19 -0.004584511 0.062145323 -0.1956658
000240 52 0a 84 b6 b9 86 61 97 70 ad 00 00 3e a2 08 3d
       -3.935108e-06 -7.2871465e-25 6.2218e-41 0.03335785
000250 9e 3b f7 3c 87 d1 68 bf bc da 15 bd 2e 05 f1 bb
       0.030179795 -0.90944713 -0.036585554 -0.007355354
000260 49 0d b4 ba 64 e7 93 3d 30 25 39 3c 36 d7 d0 3f
       -0.001373687 0.07221869 0.01130037 1.6315677
000270 fe fe b4 bc 2e 38 ec b9 0a 7b 00 00 c7 cc 57 bc
       -0.022094246 -0.00045055285 4.4138e-41 -0.013171381
000280 74 7a 7e b9 00 7a 00 80 d8 8f be bc 8f 00 11 38
       -0.00024268945 -4.3765e-41 -0.02326195 3.4571214e-05
000290 6d 41 01 00 93 f0 0c 3d 15 86 ae bd 89 9a 51 be
       1.15306e-40 0.034409117 -0.08521668 -0.20469107
0002a0 f1 11 23 bd e7 3b 2c bd 18 d8 39 be 1e 2e c2 bd
       -0.039812032 -0.042049315 -0.1814884 -0.094814524
0002b0 92 46 53 bd b1 ac 35 bd cb c7 41 3b 9b 32 30 bd
       -0.051580973 -0.044354144 0.0029568549 -0.04301701
0002c0 d2 4f e6 be 95 09 9d b7 79 45 17 a3 36 7c 00 80
       -0.44982773 -1.872032e-05 -8.200438e-18 -4.4558e-41
0002d0 2e 64 7c 3e 54 66 c9 3c 05 9d bd c0 2c 71 62 b9
       0.2464759 0.024584927 -5.9254174 -0.000215952
0002e0 16 10 1c 36 11 77 00 00 d3 ad d5 3b 26 c7 2f bd
       2.3255175e-06 4.2713e-41 0.0065209656 -0.042914532
0002f0 a6 de fc 3d 5a 21 a1 bb 03 9d 5c bd cc 2f 5f 3c
       0.12347154 -0.004917306 -0.053860676 0.0136222355

bias f4 [64]
000000 2e ec 2d b6 a5 c4 6d be e1 8f 31 bb 98 fe 82 bd
       -2.5916484e-06 -0.23219545 -0.0027093815 -0.06396216
000010 07 aa 88 04 5d 41 8d b5 21 2e 47 bf 1f 76 02 a6
       3.2129592e-36 -1.0524342e-06 -0.7780476 -4.5262894e-16
000020 13 89 45 3d eb e9 01 00 e4 62 6b ba 3d f7 84 bc
       0.048226427 1.7575e-40 -0.00089792744 -0.016231174
000030 65 a6 01 00 0e 42 01 00 36 83 7e be d4 e3 4b b6
       1.51527e-40 1.15531e-40 -0.2485474 -3.038197e-06
000040 0d 95 67 b5 03 1d 01 00 67 1f ae bd e8 4a b2 bd
       -8.6271103e-07 1.02243e-40 -0.08502083 -0.087056935
000050 dc d2 9e be 2e 4c 82 b8 56 ff 0e bd 17 cf c5 32
       -0.31020248 -6.2130726e-05 -0.034911476 2.3027992e-08
000060 76 e5 b8 be 78 83 0b bf 5f 7b 1b bd 32 a6 69 b3
       -0.36112565 -0.5449748 -0.037959453 -5.4400694e-08
000070 a4 1d a9 b2 86 78 b8 be fd ab 24 bf e9 f3 fd be
       -1.9687668e-08 -0.36029452 -0.64324933 -0.4960015
000080 72 e8 ca be c4 9a 9a bd 5c 1c 46 b2 ff 19 58 bd
       -0.39630467 -0.075490505 -1.1531565e-08 -0.052759167
000090 ef 76 2e 3f 21 b9 00 00 09 a3 67 b2 f1 2c 5a a5
       0.6815023 6.6412e-41 -1.348304e-08 -1.8923713e-16
0000a0 4e 6f a9 bb 0e 90 82 3c ac be 92 bd 9f 98 3b be
       -0.0051707393 0.015937831 -0.07165274 -0.18319939
0000b0 01 d4 00 80 80 09 d6 b6 9e 95 17 ba b8 77 f6 3e
       -7.6053e-41 -6.378803e-06 -0.00057824876 0.48138213
0000c0 42 6a 02 00 b5 52 bb 3e dd bb 52 bc 8e e1 10 bf
       2.21789e-40 0.36586538 -0.012862173 -0.5659417
0000d0 66 7c 1b ab 40 7b 7c ad 48 83 09 b0 71 a4 a6 be
       -5.52397e-13 -1.43519086e-11 -5.002687e-10 -0.32547334
0000e0 79 bc 80 be 7e bd 30 be 83 67 08 bf a1 40 02 00
       -0.25143793 -0.17259786 -0.53282946 2.06855e-40
0000f0 c7 1c 74 3f 25 96 3a 90 83 a6 a4 be 3a d5 8c be
       0.9535641 -3.67977e-29 -0.32158288 -0.2750643

weight f4 [64, 64]
000000 e8 7c 11 00 af 51 d6 30 68 81 01 80 a0 29 ed 31
       1.606011e-39 1.5593765e-09 -1.38258e-40 6.90234e-09
000010 95 0a 00 80 90 ce 00 00 5a 4a 02 af 25 80 00 00
       -3.796e-42 7.41e-41 -1.1849846e-10 4.597e-41
000020 3a a4 00 80 85 e2 01 80 4b 18 00 00 db e2 00 80
       -5.8913e-41 -1.73095e-40 8.715e-42 -8.138e-41
000030 43 e9 00 80 9c 79 00 00 57 c6 40 a7 de b1 00 00
       -8.3679e-41 4.3625e-41 -2.6752873e-15 6.3807e-41
000040 cf 71 00 80 bb 7a 00 80 98 0a cf 29 56 3d 00 80
       -4.0827e-41 -4.4027e-41 9.1944844e-14 -2.2003e-41
000050 b8 1a 97 b1 df c5 95 aa bd bf 00 80 03 13 00 00
       -4.397716e-09 -2.6605018e-13 -6.8783e-41 6.82e-42
000060 df b1 ae b1 72 8e 11 b5 b0 53 74 b0 f8 3b 00 80
       -5.084288e-09 -5.4223995e-07 -8.888561e-10 -2.1513e-41
000070 77 17 00 80 f7 53 00 00 b1 0f e0 9a 14 ed 01 00
       -8.418e-42 3.0121e-41 -9.266958e-23 1.76883e-40
000080 24 63 0c b4 59 14 01 80 88 1e 05 00 37 9a 00 80
       -1.3074583e-07 -9.9135e-41 4.7013e-40 -5.5322e-41
000090 90 b2 52 a7 43 18 01 00 6a aa 00 80 6d 9e 00 00
       -2.9240153e-15 1.00539e-40 -6.1133e-41 5.6832e-41
0000a0 7b 20 2a 25 0e 44 01 00 0a 4e 02 80 11 89 01 80
       1.4756154e-16 1.16249e-40 -2.11666e-40 -1.41006e-40
0000b0 f5 09 00 80 4f 08 00 80 08 0a 00 80 72 23 d9 82
       -3.572e-42 -2.98e-42 -3.599e-42 -3.1905629e-37
0000c0 8a 33 00 00 b7 8f 20 88 ff 30 42 09 c1 f0 64 9b
       1.8489e-41 -4.8317185e-34 2.3374938e-33 -1.893751e-22
0000d0 f9 9c 00 80 d3 78 00 00 9a 77 01 80 f3 0c 02 80
       -5.6311e-41 4.3344e-41 -1.3474e-40 -1.88316e-40
0000e0 8b 44 00 80 a9 31 00 80 4d 26 00 00 81 2e 00 00
       -2.4589e-41 -1.7815e-41 1.374e-41 1.6682e-41
0000f0 7f bf ae b2 74 18 02 00 27 82 cf ae ae a5 55 ac
       -2.0343348e-08 1.92443e-40 -9.43639e-11 -3.0361091e-12
000100 98 83 00 00 1c f2 24 bb 19 ed 00 80 ac e9 0a 80
       4.7207e-41 -0.0025168722 -8.5055e-41 -1.00218e-39
000110 68 46 00 00 fe 6c 00 00 d1 79 77 bc e8 99 00 00
       2.5257e-41 3.9099e-41 -0.015104727 5.5211e-41
000120 13 49 bd 01 bf 31 00 00 c4 fc 07 00 db 63 09 80
       6.953249e-38 1.7846e-41 7.33524e-40 -8.62341e-40
000130 8e 0a 00 00 ce 27 00 80 10 df 01 80 44 9a 2c 32
       3.786e-42 -1.4279e-41 -1.71855e-40 1.0046794e-08
000140 ec ff 00 00 d8 f1 00 00 e5 d7 00 80 fd 35 01 80
       9.1807e-41 8.6757e-41 -7.7448e-41 -1.11203e-40
000150 10 e2 05 80 ba 9d 00 80 24 10 d9 02 7d b7 01 00
       -5.40273e-40 -5.6582e-41 3.1894549e-37 1.57659e-40
000160 72 15 bc bc c0 0d 01 bb 1e 36 00 80 6e 25 01 00
       -0.022959445 -0.0019692034 -1.9414e-41 1.05263e-40
000170 a1 68 00 80 18 37 2d 3a 46 76 b5 36 c8 ff 0e 81
       -3.7534e-41 0.0006607636 5.407989e-06 -2.6264795e-38
000180 1a 6e 6a 2e c0 6b 4c 82 da d9 01 00 f4 03 a6 82
       5.330323e-11 -1.5018476e-37 1.69986e-40 -2.4393777e-37
000190 c1 7f f3 ba 42 88 00 80 34 5c 01 80 a4 e0 00 80
       -0.0018577502 -4.888e-41 -1.24912e-40 -8.0586e-41
0001a0 6a 5f 00 80 ae 36 01 00 af fa a6 b9 75 5c 3c 21
       -3.4228e-41 1.11451e-40 -0.0003184876 6.3819243e-19
0001b0 6d 97 01 80 fc 43 2a 2d 17 da 00 80 29 e3 d5 01
       -1.46157e-40 9.678477e-12 -7.8236e-41 7.85698e-38
0001c0 62 62 00 00 49 48 1f ba f7 9f 04 80 68 8d 5e ba
       3.5293e-41 -0.000607614 -4.24727e-40 -0.0008489699
0001d0 f1 54 00 00 e0 84 00 00 5f e4 00 80 56 db 92 02
       3.0471e-41 4.7667e-41 -8.1924e-41 2.1578665e-37
0001e0 f8 1b 00 80 b2 05 00 00 11 67 54 83 9f 87 02 00
       -1.0033e-41 2.043e-42 -6.2419515e-37 2.32323e-40
0001f0 19 c9 8c bc 36 91 02 80 c0 42 3b 80 2c be 8e 80
       -0.017185735 -2.35763e-40 -5.44224e-39 -1.3108861e-38
000200 22 38 11 ae df 6d 27 bd 98 94 00 80 27 bf 68 bc
       -3.301904e-11 -0.040876266 -5.3305e-41 -0.0142057305
000210 a3 06 00 00 5a 79 01 00 c5 77 a9 bc 39 8d 01 95
       2.381e-42 1.35368e-40 -0.020686993 -2.6162748e-26
000220 c4 d3 20 35 6d 18 00 80 95 0b 2d aa 2b 7e 00 80
       5.9912804e-07 -8.762e-42 -1.5369505e-13 -4.526e-41
000230 00 97 00 00 13 f4 00 80 7b 3f 00 b4 3e 52 00 80
       5.4169e-41 -8.7557e-41 -1.1944023e-07 -2.9503e-41
000240 19 26 f9 ac e4 99 00 80 6f 90 c7 39 fb 12 00 00
       -7.0812353e-12 -5.5206e-41 0.0003806385 6.809e-42
000250 5b 10 19 39 16 d4 78 39 ce 9c 0a 36 70 aa b8 9c
       0.0001459731 0.00023730131 2.0654875e-06 -1.2220156e-21
000260 2a 63 04 3c 45 86 71 bb 64 23 8c bb 9f 6d 01 a7
       0.008080283 -0.0036853713 -0.00427668 -1.7961772e-15
000270 7d 68 00 00 08 c5 d4 38 6d 00 02 bc dc 70 00 00
       3.7483e-41 0.00010145648 -0.007934672 4.0486e-41
000280 72 aa f2 bb e4 11 16 b8 9b 8b 8d b2 06 96 6f 35
       -0.0074055726 -3.577945e-05 -1.6478046e-08 8.925275e-07
000290 44 5a 5d bb 73 87 00 80 48 d2 aa 94 54 45 01 00
       -0.0033775726 -4.859e-41 -1.7248555e-26 1.16706e-40
0002a0 11 40 02 38 9f 48 01 00 40 77 bd 37 d9 fd 8c 39
       3.105408e-05 1.17887e-40 2.2586086e-05 0.00026892012
0002b0 82 3d 01 80 e6 09 00 80 85 70 00 80 86 87 34 bb
       -1.139e-40 -3.551e-42 -4.0364e-41 -0.0027546599
0002c0 0f ee 00 80 ac 93 9c b9 df 1d 64 b1 d4 7d 6e 39
       -8.54e-41 -0.00029864663 -3.3195346e-09 0.00022744323
0002d0 7e cd ab 90 cc ad 00 80 e9 04 00 80 fe be 00 00
       -6.776422e-29 -6.2347e-41 -1.761e-42 6.8515e-41
0002e0 13 99 29 aa fc d5 c9 b3 5a ea 69 21 ac ae 00 00
       -1.5063324e-13 -9.3987154e-08 7.925363e-19 6.266e-41
0002f0 1a 98 0f bd 50 da 01 80 91 e9 6c 3c bb c3 cf 3a
       -0.035057165 -1.70151e-40 0.014459983 0.0015851179
000300 f9 bd af 23 53 d7 35 3f 94 f1 e6 a7 62 04 17 3c
       1.9053995e-17 0.71031684 -6.4099743e-15 0.009217354
000310 41 31 01 80 3c 44 01 80 0c 80 17 be d6 3f 00 00
       -1.09504e-40 -1.16313e-40 -0.1479494 2.29e-41
000320 70 3b 3d bc 17 41 00 80 e6 44 df b9 43 0f 17 36
       -0.011549816 -2.335e-41 -0.00042585208 2.2509637e-06
000330 82 47 01 00 56 cf 01 00 77 9a 84 3c d0 a2 00 00
       1.17488e-40 1.66214e-40 0.016186936 5.8406e-41
000340 a7 d3 b0 ae 06 95 00 80 88 20 c8 3d 83 24 83 b4
       -8.0411504e-11 -5.346e-41 0.0977183 -2.4427217e-07
000350 f3 c8 61 bc 4a 9d 15 b2 13 64 ff 3c 30 00 bc 0d
       -0.01378082 -8.708705e-09 0.031175649 1.158644e-30
000360 ef e5 8c bf 41 6c 9d be 45 f5 b2 b8 34 cb 00 00
       -1.100767 -0.30746654 -8.5333864e-05 7.2896e-41
000370 c9 f0 00 00 5e bf 26 3e ec 7a 4a 3d b5 94 2c be
       8.6377e-41 0.16283938 0.049433634 -0.16853602
000380 b6 50 2b be 0b 18 ae 3b 08 c9 48 18 f9 46 84 3d
       -0.16730008 0.0053129247 2.5950889e-24 0.064588495
000390 b5 15 87 3c 52 c6 00 00 a7 00 17 9c 27 17 00 80
       0.016489843 7.1144e-41 -4.996255e-22 -8.305e-42
0003a0 15 68 d0 38 ba 73 3a af 8c 93 14 3e 35 22 c2 bb
       9.9376e-05 -1.6957716e-10 0.1450941 -0.005924488
0003b0 36 3c 00 00 3f 21 00 00 2d 40 c1 a7 fa df 1d 3e
       2.16e-41 1.1926e-41 -5.363784e-15 0.15417472
0003c0 a3 c6 01 00 62 f4 05 be fe d9 8b ba d7 21 55 3e
       1.63093e-40 -0.13081506 -0.0010669825 0.2081369
0003d0 0f 08 01 80 e2 8f 00 00 6e 1f 00 00 51 40 a8 bc
       -9.4726e-41 5.1615e-41 1.1275e-41 -0.020538481
0003e0 5b cc d2 bc 09 bf 7c 3c 57 5c b9 3e 50 2c 01 80
       -0.02573221 0.015426406 0.36203262 -1.07732e-40
0003f0 52 c1 27 3f 45 6a 02 80 84 52 e2 bd a1 de 5c be
       0.6552936 -2.21793e-40 -0.11050895 -0.21569301

bias f4 [64]
000000 a4 f6 f9 8d 94 50 e2 bb 2c 68 2f ba 01 83 a9 bd
       -1.5405186e-30 -0.0069065783 -0.0006691243 -0.0827694
000010 e3 ef 13 b4 05 0d 49 be 10 79 e3 3f 81 8d 01 00
       -1.3777712e-07 -0.19633873 1.777132 1.42598e-40
000020 cc 9b 2e 3e 63 43 22 be bf 51 8e be 8d 57 4f ae
       0.1705162 -0.15846018 -0.27796742 -4.714411e-11
000030 00 a9 bf bd 3b fa ae be 3f 85 00 00 ba 5e c9 be
       -0.09358406 -0.34175286 4.78e-41 -0.39330083
000040 d2 35 02 3e 97 45 1a b6 b3 f7 62 be df cf 08 3e
       0.12715843 -2.2988295e-06 -0.22164802 0.13360547
000050 84 e4 cd be 68 02 4e be 9e af 90 be fc b5 28 40
       -0.40213406 -0.20118105 -0.28258985 2.6361074
000060 ac d7 83 bc 00 ae 20 be a4 b4 95 3f e0 e2 58 bf
       -0.016094051 -0.15691376 1.1695752 -0.84721184
000070 3f 91 a8 bd a2 fd e7 3b 38 59 3f be 4a e4 0c be
       -0.082308285 0.007079796 -0.18686378 -0.1375896
000080 fa a4 00 00 c9 1f 8c bd 0b 58 f1 39 dc 60 0a b8
       5.9182e-41 -0.06842 0.000460327 -3.299197e-05
000090 1c 9c 6d 22 cf 61 10 3f e4 27 69 9e 90 f8 8b 3f
       3.2202133e-18 0.56399244 -1.23431665e-20 1.093523
0000a0 f3 e6 7a be 59 8f 13 bf 8e 76 38 be 83 ae aa bd
       -0.24502163 -0.57640606 -0.18013975 -0.08334067
0000b0 02 80 af bd 44 76 cf b4 66 cd 26 40 a7 50 b9 be
       -0.085693374 -3.8642804e-07 2.6062865 -0.36194345
0000c0 a1 0a 6e b5 81 75 14 be 0c 80 d2 86 7f c9 0d be
       -8.8677376e-07 -0.14497949 -7.918137e-35 -0.13846396
0000d0 13 29 99 bd 5e c8 f2 3e 4b b9 15 bf 51 28 50 b3
       -0.074785374 0.47418493 -0.5848586 -4.846544e-08
0000e0 6d db 20 31 b8 b7 24 be 7b aa 82 be 6f 9f 0c bf
       2.3407793e-09 -0.16085708 -0.2552069 -0.54930776
0000f0 4b 9b b1 b2 99 6d 36 3f 46 5d a2 3e b6 ad 25 3e
       -2.0676131e-08 0.7126098 0.31711787 0.16179547

weight f4 [64, 64]
000000 c3 35 00 80 15 d1 00 80 4f ab 00 80 80 33 02 80
       -1.9286e-41 -7.5005e-41 -6.1454e-41 -2.02146e-40
000010 2e d3 00 80 f1 ae 0b 2b 2a 12 0c ae 4a 9f 00 80
       -7.5757e-41 4.96255e-13 -3.1848447e-11 -5.7142e-41
000020 72 62 00 80 17 31 00 00 68 a1 03 3c 90 aa 00 00
       -3.5316e-41 1.761e-41 0.008034088 6.1186e-41
000030 38 ee 75 31 64 96 15 bb 0d bc 00 80 7c 98 e4 1d
       3.5787604e-09 -0.0022825236 -6.746e-41 6.0508763e-21
000040 17 d4 00 00 ac 16 00 00 c6 2e 67 2f d3 15 c8 b8
       7.6084e-41 8.133e-42 2.1025945e-10 -9.540808e-05
000050 46 ef 07 b9 07 91 24 3c 5c 73 02 80 2a 1d 17 bc
       -0.0001296374 0.010044343 -2.25054e-40 -0.009223262
000060 35 80 00 00 39 37 00 00 d8 b3 c0 b9 26 48 a5 bb
       4.5992e-41 1.981e-41 -0.00036755088 -0.005044001
000070 64 cd 39 9d 47 72 02 80 1c 9e d5 b6 95 5e 66 2c
       -2.459073e-21 -2.24666e-40 -6.366301e-06 3.273747e-12
000080 5b 03 02 00 22 c1 00 80 24 f3 00 80 b1 89 00 00
       1.84875e-40 -6.9283e-41 -8.7222e-41 4.9394e-41
000090 0d 50 00 00 f8 73 a9 10 b9 ed 00 00 5c b8 15 1e
       2.8717e-41 6.6837425e-29 8.5279e-41 7.926119e-21
0000a0 c3 c3 84 33 4c 42 67 3b 15 5f 49 b9 c7 d2 ae b9
       6.182338e-08 0.0035287319 -0.00019204275 -0.00033344908
0000b0 85 0e 01 00 e4 1b 01 00 d6 65 8d bc 03 d1 18 3c
       9.7044e-41 1.01841e-40 -0.017260473 0.009327176
0000c0 b2 7e 01 00 65 6a 02 80 0e 5d 00 80 c9 87 cf 2a
       1.37285e-40 -2.21838e-40 -3.3382e-41 3.6864806e-13
0000d0 8c 06 01 80 ee 20 02 00 c9 b2 1d b9 be 68 00 80
       -9.4184e-41 1.95484e-40 -0.0001503929 -3.7574e-41
0000e0 86 5d 00 00 e6 38 ed b6 b8 6b a3 b7 80 64 49 ba
       3.355e-41 -7.0697743e-06 -1.9481275e-05 -0.0007682517
0000f0 bb 12 01 80 36 09 17 bc 78 bd c2 bb 22 c9 f0 b5
       -9.8555e-41 -0.009218505 -0.0059429966 -1.7939931e-06
000100 ec 60 00 00 c1 4b a5 b3 60 83 8b 2c 85 23 7d 3c
       3.4769e-41 -7.697191e-08 3.965203e-12 0.015450363
000110 0f 5e 63 11 00 1d bb 3c 42 de 76 be f2 1d 01 00
       1.7936127e-28 0.022840977 -0.24108222 1.02578e-40
000120 44 81 b5 3c 44 a9 64 bc 6a ee 12 bd 16 e0 21 10
       0.022156365 -0.013956372 -0.0358719 3.192428e-29
000130 96 aa 17 3d f0 43 01 3e 1e 81 00 00 34 a7 34 be
       0.037027918 0.12623572 4.6319e-41 -0.17641908
000140 2c 8e 67 b9 93 ab 06 0e 67 2e 5b 3d 83 fb 77 3d
       -0.0002208284 1.6599385e-30 0.05351105 0.060542595
000150 f7 d1 06 3e 1d b5 d5 bd e4 43 52 be f5 53 12 bd
       0.13166033 -0.10434935 -0.2053371 -0.0357246
000160 e1 a7 d0 b9 d7 23 22 bd ae a7 af bc 85 f6 2e 3e
       -0.0003979793 -0.03958496 -0.02144226 0.17086227
000170 5c 55 90 37 0a ec af b4 96 4b 51 bd 42 d9 09 3c
       1.7205886e-05 -3.276803e-07 -0.051097475 0.008413615
000180 22 fb 00 00 71 46 ec 34 02 e2 bf 3b 15 c8 78 af
       9.009e-41 4.4009678e-07 0.0058557997 -2.2626552e-10
000190 28 14 8a a3 5d b6 25 3c d1 ff 01 00 87 1f 6d be
       -1.4970526e-17 0.01011428 1.83605e-40 -0.23156558
0001a0 e3 74 19 3c 81 ac 23 3e 72 5b 95 3d 13 56 ae bd
       0.009366247 0.15983774 0.072928324 -0.08512511
0001b0 76 f2 00 80 26 51 72 0c 5b 66 12 be 7a f7 12 3c
       -8.6979e-41 1.8667422e-31 -0.14296858 0.008970136
0001c0 aa 69 cd ae 9e 34 4b bc 34 5d 01 80 ce 84 0d bc
       -9.3410904e-11 -0.012402682 -1.2527e-40 -0.00863762
0001d0 91 3f 81 bd 92 68 1a b6 94 ff 1a be 61 27 9a 24
       -0.063109525 -2.3008656e-06 -0.15136558 6.6853564e-17
0001e0 54 f2 00 00 76 d6 9b 3b 55 33 ad bc ad 4e ed bd
       8.6931e-41 0.0047557903 -0.021142641 -0.11587272
0001f0 01 e0 cd ac db 8c 72 bc bc 26 7d bb f8 11 ea 3c
       -5.85132e-12 -0.01480409 -0.0038627824 0.028573021
000200 66 4f b9 30 9b 3c 01 00 24 a8 e1 a2 11 43 13 b3
       1.3483088e-09 1.13577e-40 -6.11644e-18 -3.42871e-08
000210 f1 a4 01 00 eb f8 00 80 1d 51 87 b1 1a ae 01 00
       1.51005e-40 -8.9295e-41 -3.9382386e-09 1.54291e-40
000220 5f 52 06 b0 fc 5c ba b8 a6 07 bc 3c be 06 02 80
       -4.886597e-10 -8.886491e-05 0.022952866 -1.8609e-40
000230 b5 f6 10 b6 c2 44 38 bc e1 73 02 80 63 aa b1 ba
       -2.1601275e-06 -0.011246862 -2.2524e-40 -0.0013554808
000240 4a 12 dc 27 6a aa 0d 0a 5a 61 24 2b 71 86 9e b1
       6.1082095e-15 6.8209544e-33 5.8399607e-13 -4.6136894e-09
000250 50 66 b0 ba c2 38 b4 b9 6d 46 15 2a bb 0a 5a bb
       -0.0013458226 -0.00034374563 1.3258292e-13 -0.0033270556
000260 ed 4f 00 80 d8 89 68 ab ac 5a a3 b9 a7 1f a5 bc
       -2.8672e-41 -8.2614254e-13 -0.00031157339 -0.020156695
000270 0f 86 c5 39 d0 bc 26 b2 ba 0b 12 3a 25 af 9c b7
       0.0003767465 -9.705403e-09 0.00055712054 -1.8678207e-05
000280 e9 8d 00 00 28 ab c2 b9 42 77 01 80 67 00 00 80
       5.0908e-41 -0.00037130085 -1.34617e-40 -1.44e-43
000290 eb 54 00 80 5b aa 98 a9 ec 61 00 00 85 5b 4b 2d
       -3.0463e-41 -6.779708e-14 3.5128e-41 1.15595354e-11
0002a0 c2 7b 40 af f1 57 c6 bb d2 30 19 bc c3 4f 73 ba
       -1.7506266e-10 -0.006052964 -0.009350019 -0.00092816
0002b0 a1 5c 01 00 93 4c ca b2 cb f7 29 bc 2e ca 86 bb
       1.25064e-40 -2.3550717e-08 -0.01037402 -0.004113457
0002c0 7e 61 94 b4 e0 8b 82 38 19 ac 00 80 44 ce ba ab
       -2.7638083e-07 6.224937e-05 -6.1737e-41 -1.3273345e-12
0002d0 e2 18 1b b7 b9 66 96 a9 37 48 c1 b9 bd 42 00 00
       -9.244513e-06 -6.679158e-14 -0.00036865633 2.3941e-41
0002e0 08 69 56 94 0e 20 00 80 b9 f0 35 b5 5f a3 9a ba
       -1.0824953e-26 -1.1499e-41 -6.777805e-07 -0.0011797956
0002f0 bf 8d 0c ad 29 07 3f bc db 17 4e bb 7f 7c b0 ba
       -7.989553e-12 -0.011659422 -0.0031447324 -0.0013464837
000300 1f 1c 43 10 89 54 00 00 d7 33 bf 3a 61 5a 96 36
       3.8478633e-29 3.0326e-41 0.0014587593 4.48087e-06
000310 bf cd 02 b1 b1 ec 03 3c 9d ed bf 3c 5a cc b7 22
       -1.9034443e-09 0.008052037 0.023428733 4.9818615e-18
000320 36 fb 4e 3a 7d 91 8c bb 8f 61 bb bd 6a e6 8f 33
       0.000789571 -0.0042898045 -0.09149467 6.7008685e-08
000330 2f 4a a9 3b 69 6d 45 be 61 d9 00 00 99 7d 0a bd
       0.005166314 -0.19280018 7.7981e-41 -0.033811186
000340 ed 08 ac bd bb 25 4a 3b f6 33 d2 3b a9 28 19 3c
       -0.0840014 0.0030845243 0.0064148856 0.009348073
000350 74 bf a7 3a 68 2e 62 bd e4 63 89 bb 89 f1 7a be
       0.0012798146 -0.055220038 -0.004192816 -0.24506201
000360 4a 62 04 3a 86 5a 41 3b 9f 24 98 bd 45 f1 03 be
       0.00050500466 0.002950342 -0.0742886 -0.12885006
000370 5c 77 aa 3b d9 c4 c8 3b dd 46 ff 3d 46 81 80 3c
       0.005202217 0.0061269817 0.12464688 0.015686642
000380 0b 09 00 00 9e 49 05 3e d3 a9 00 00 a6 e5 8c 38
       3.244e-42 0.13016364 6.0921e-41 6.7184956e-05
000390 f1 7a 3c 19 a3 55 33 3b f6 c9 03 80 a1 b0 0a b8
       9.7442e-24 0.0027364276 -3.47956e-40 -3.3066262e-05
0003a0 1e 75 2f 3c 86 0a 0f 3e c0 1e f6 3c ae cc e1 bd
       0.010709075 0.13968858 0.03004396 -0.11025368
0003b0 ac 97 6c 3c 9f d7 a0 27 ca 04 90 be 21 39 ee bc
       0.014440458 4.4642698e-15 -0.28128654 -0.029079976
0003c0 a9 cf 22 a9 4e 3a c1 3c 5e 4a a1 81 0e 8d 0e 38
       -3.6151342e-14 0.023587372 -5.924877e-38 3.3986806e-05
0003d0 75 b3 34 bb 49 f2 d6 b3 bc 11 de bc b1 e8 af 37
       -0.0027572785 -1.0009223e-07 -0.027108066 2.0969981e-05
0003e0 8a dd 8b 32 47 bf 80 38 6d c6 83 3c 02 a6 0d 3e
       1.6282474e-08 6.139144e-05 0.016085828 0.13832858
0003f0 6d 4a 02 00 9a bd 9f 3e ce 69 5c bc 3b fc 32 3d
       2.1037e-40 0.31199342 -0.01345296 0.043697577

bias f4 [64]
000000 4b 83 12 b8 ed 6d a6 3d 99 20 14 b8 db ce 43 be
       -3.493139e-05 0.081264354 -3.531631e-05 -0.19121878
000010 f4 25 92 3f b0 44 d5 3f af d7 aa be 62 8a d3 b4
       1.1417832 1.6661587 -0.3336768 -3.94025e-07
000020 46 b2 40 be f3 5d 96 be 85 3b ff b1 b2 09 00 80
       -0.18818006 -0.29368553 -7.4282434e-09 -3.478e-42
000030 f6 a5 02 a8 1f 5c 54 b9 e2 82 04 9d fd 7c 4d be
       -7.252437e-15 -0.00020252213 -1.753772e-21 -0.2006721
000040 67 4d 55 be 00 78 02 80 92 99 a7 04 a1 14 74 be
       -0.20830308 -2.26719e-40 3.9402543e-36 -0.23835994
000050 58 a9 49 b0 2f ca 9c bb c2 ad 48 14 9b c9 ec b7
       -7.3364026e-10 -0.0047848444 1.0131687e-26 -2.8227272e-05
000060 99 a6 f5 be 29 80 03 b9 5b 71 01 00 b1 c1 4b 3f
       -0.47978666 -0.00012540877 1.325e-40 0.79592425
000070 74 2f 11 bf a6 a3 24 b8 16 de 31 3d ec 73 31 be
       -0.5671303 -3.9253056e-05 0.04342469 -0.17329377
000080 a9 27 10 a8 7e 91 07 bc 66 31 46 bc 66 25 13 8c
       -8.002206e-15 -0.008274434 -0.012096738 -1.1335722e-31
000090 78 99 bd b3 c2 89 9e 3f 0a fc 9a b9 e4 fc 71 b6
       -8.828914e-08 1.238579 -0.00029560953 -3.6059e-06
0000a0 d3 65 eb bd 17 57 6f b0 b0 b9 01 80 29 3a 02 80
       -0.11494031 -8.7071456e-10 -1.58448e-40 -2.04535e-40
0000b0 cb 68 db be 05 21 b5 bc 5c d5 25 b7 4f 9d d3 b9
       -0.42853388 -0.022110472 -9.884443e-06 -0.0004036226
0000c0 6a 80 a8 ac 1a 8d f1 3c 2f fe c9 ad 1b 4d b9 3f
       -4.789104e-12 0.029486228 -2.2963935e-11 1.4476656
0000d0 d8 ca 8d be ee 21 af 8f 5d 88 f6 bb b4 ed 63 a6
       -0.2769382 -1.7269402e-29 -0.00752358 -7.9078594e-16
0000e0 d2 40 e0 bd ad da 1d be b5 4f 43 13 54 63 37 b2
       -0.109498635 -0.1541545 2.4651759e-27 -1.06745865e-08
0000f0 bf 55 d8 be 93 3c 00 80 fd e1 fa 14 80 cd ec b5
       -0.4225292 -2.173e-41 2.5332686e-26 -1.7643179e-06

weight f4 [1, 64]
000000 7d 95 04 3d 27 35 8f bb 5a cb 9e 3c ad d6 90 3d
       0.032369126 -0.00437035 0.019384075 0.07072196
000010 2e 54 25 bf 9b 27 88 bf 4b e2 cf 3d cd 67 7b 3c
       -0.64581573 -1.0637087 0.10150584 0.015344572
000020 c1 92 6b bd 2e a8 0f 3e 4d 8c 09 b7 81 aa 24 b7
       -0.057513002 0.14028999 -8.198503e-06 -9.81486e-06
000030 fc a5 57 bc 66 a7 20 3e 7c dd 07 39 ed f3 28 3e
       -0.013162132 0.15688857 0.00012957113 0.164993
000040 f9 d8 49 3a 3a cc e2 31 4c b0 d7 3b cd 44 25 3c
       0.0007699873 6.6006836e-09 0.0065822955 0.010087204
000050 70 f1 4e 35 d0 a8 7b bd d0 79 9b 3a 12 b7 dd 3c
       7.709232e-07 -0.06144029 0.0011861864 0.027064834
000060 1f 96 0f 3e 8c 21 b6 bc d3 3b d0 b8 4a db 49 be
       0.1402211 -0.022232793 -9.929356e-05 -0.19712558
000070 12 c9 bb 3e 91 26 ef 3d 64 ff c3 bb f3 a9 83 3d
       0.36676842 0.11677278 -0.0059813727 0.064288996
000080 a0 76 26 3b 67 a8 d6 3d 2d 07 69 bd a5 21 15 b6
       0.0025400296 0.10481339 -0.05689161 -2.2222314e-06
000090 61 40 84 bc e8 78 29 bf 56 cf 0b 3e 83 f8 ad bb
       -0.01614398 -0.66200113 0.13653311 -0.005309166
0000a0 6c 56 d1 3c 62 bf 4a 3d c5 e9 8d bc 96 51 2c bc
       0.025553904 0.049498923 -0.017323384 -0.0105174985
0000b0 30 3a a9 3e 23 66 dd 3c 92 79 75 3d 1a 08 38 bd
       0.33052206 0.027026242 0.05993039 -0.0449296
0000c0 25 5e ed b9 e2 4f f3 3a 43 e7 0b 3b 57 36 5c bf
       -0.00045274306 0.0018563236 0.002134756 -0.86020416
0000d0 63 fd 00 3e a1 cd 20 36 20 88 f4 39 2d 3f 89 b8
       0.1259666 2.396155e-06 0.00046640728 -6.5444365e-05
0000e0 37 e5 0f 3e 2f 50 30 3d b7 3c e8 bc 7c ea 33 3c
       0.14052282 0.04304522 -0.028349264 0.010981198
0000f0 8b 72 08 c0 21 08 af 37 06 6f 64 b9 c0 18 32 ba
       -2.1319911 2.0865411e-05 -0.00021785134 -0.0006793849

weight f4 [1, 64]
000000 05 94 39 bd 16 ee 0d 3d ba 7f f6 3b 62 d7 a0 bd
       -0.045307178 0.034650885 0.0075225504 -0.07853581
000010 1b 5e c7 3d b9 09 1f be 17 84 10 be 2e 13 42 3c
       0.09734746 -0.15531053 -0.14112888 0.011845393
000020 f2 d7 bd bb aa 39 42 bc fb f3 b5 b6 fd 38 1d 33
       -0.005793565 -0.0118545685 -5.4226234e-06 3.660624e-08
000030 cd d5 a6 39 73 40 f5 bb 2b 51 70 ba e3 c5 d8 ba
       0.0003182128 -0.0074844896 -0.00091673684 -0.0016538467
000040 83 bb ac 3e 46 2a d1 b1 23 b7 26 b7 69 73 d5 3e
       0.3373681 -6.0875065e-09 -9.937011e-06 0.41689613
000050 d1 9a 21 b5 74 05 3a 3d 75 ee 61 39 b3 37 90 bb
       -6.020246e-07 0.045415357 0.00021546504 -0.004401171
000060 12 b8 e6 bd 7a 1a 54 3c a2 70 4e af d5 57 66 3d
       -0.112655774 0.012945766 -1.8775606e-10 0.056236107
000070 c4 44 3d bd ca 65 26 36 5e 03 1d 3e fb a1 21 bd
       -0.046208158 2.4795177e-06 0.15333316 -0.039461117
000080 b2 61 a6 b7 dd 1f 05 bd e7 65 98 b9 b2 a0 86 b0
       -1.9834235e-05 -0.03250109 -0.00029067622 -9.795456e-10
000090 56 54 87 3b a6 83 3c bc 3c f4 8b b9 f4 75 11 b5
       0.0041299267 -0.011505997 -0.00026694115 -5.4188354e-07
0000a0 77 bf 38 bd 09 61 61 bc 97 f6 19 a5 25 37 ad 98
       -0.04510447 -0.013756045 -1.3354182e-16 -4.4775134e-24
0000b0 43 85 f7 bd cf c7 92 3e 96 1b 22 3c 0e e2 92 3c
       -0.120859645 0.28668067 0.009894272 0.017930057
0000c0 89 a8 20 3a 29 ab 16 3e 27 02 b3 38 48 c8 8c bd
       0.00061286293 0.1471373 8.535786e-05 -0.06874138
0000d0 68 39 17 3d 95 ab 35 37 50 89 97 3d ec 8c c7 33
       0.03691998 1.082839e-05 0.07399237 9.292293e-08
0000e0 85 f6 4d 3e e8 be 48 bd 79 41 28 bb 0a 34 63 3b
       0.20113571 -0.049010187 -0.002567379 0.003466847
0000f0 68 c2 38 be 6a 43 93 b7 c9 39 00 3b 03 3c bd ba
       -0.1804291 -1.7555158e-05 0.0019565693 -0.001443744

weight f4 [1, 64]
000000 ce bb ce 3d 8c e2 ab 3d 5c e5 9c 3d 20 6a 85 bc
       0.10094415 0.0839282 0.07660934 -0.016285956
000010 54 cc b3 bd 9e 0b b9 3d 40 ac c9 bc d4 f0 7f 3d
       -0.08779207 0.09035419 -0.024618268 0.06248553
000020 6c a7 72 3d 80 f4 ef 3b 54 12 99 bd 60 ab bd bd
       0.059241697 0.007322848 -0.07474199 -0.09261203
000030 68 62 89 3d 14 15 d5 bd 82 43 ae 3d d8 27 e6 3d
       0.06708223 -0.10404411 0.0850897 0.11238068
000040 0c 56 32 bd 4c 40 4c bd 00 32 30 bc 14 60 50 bd
       -0.043539092 -0.049866006 -0.010754108 -0.050872877
000050 00 28 7c 3c aa e4 91 bd c4 a9 7e 3d b0 08 2d bd
       0.015390396 -0.07123692 0.06217362 -0.042244613
000060 ea ac f0 bd aa 9e ae 3d 38 bd 72 3d 80 4d 41 3d
       -0.11751731 0.085263565 0.059262484 0.04719305
000070 c4 08 5d bd 3c 39 76 bd 06 4f c5 bd 0a 7f 80 bd
       -0.053963438 -0.060113177 -0.09634213 -0.06274231
000080 7c 10 1e bd 06 1b e5 bd 0c 86 06 bd ec 2e 1e bd
       -0.03858994 -0.11186795 -0.03284268 -0.038618967
000090 b4 32 2d bd 50 ea 34 3c 7c ab a5 bd 72 24 ec 3d
       -0.042284682 0.011042193 -0.08089349 0.11530389
0000a0 6e 76 bb 3d 40 33 ef 3b f0 33 75 bd 88 4d 9a 3d
       0.09153448 0.0072998106 -0.059863985 0.07534319
0000b0 28 e4 0d bd 72 81 ab bd c0 e1 7c 3b 00 c0 0a bd
       -0.034641415 -0.08374299 0.0038586706 -0.03387451
0000c0 82 90 82 bd 48 c3 5e bd 20 88 5f bd b8 df f5 3c
       -0.06375219 -0.054385453 -0.05457318 0.030013904
0000d0 78 2b 86 bc 60 60 9f bd 54 de d3 3d 2c a4 45 bd
       -0.01637815 -0.07782054 0.1034514 -0.04825227
0000e0 b4 d6 90 3d 20 f6 d2 bc 14 fe d0 3d 68 bb f5 bd
       0.07072201 -0.025752127 0.102047116 -0.119986355
0000f0 a8 52 2b 3d 82 31 89 3d e4 f0 8b bd c0 90 b7 3c
       0.041826874 0.06698896 -0.068330556 0.02240789

weight f4 [1, 64]
000000 3a 11 dd 3d 24 95 cd bd 5a de c2 bd 90 11 50 3d
       0.10794301 -0.10038212 -0.095150664 0.050798
000010 6c 5d 50 bd 12 ee db bd d0 78 63 bc 8a 1b a3 bd
       -0.050870344 -0.10738768 -0.013883784 -0.07964237
000020 54 6a 20 3d 50 00 bb 3c 88 fa ff bd cc e1 05 bd
       0.039163902 0.022827297 -0.12498957 -0.03268604
000030 14 6c 4c 3d e8 e7 ae bc 90 55 35 bd 7a 38 b0 3d
       0.04990776 -0.021350816 -0.044271052 0.08604522
000040 1c f1 5d bd 90 4c c9 3c 40 a9 4e bb 84 e8 7d 3d
       -0.054185018 0.02457264 -0.0031533986 0.061989322
000050 0a cd ed bd e4 90 42 3d 52 dd dc 3d 46 82 b4 3d
       -0.11611374 0.04750146 0.10784401 0.0881391
000060 b0 bd f9 3d 8c e1 7d 3d ac 0f e8 bd 30 0d cb bd
       0.12194383 0.061982676 -0.11331114 -0.09914625
000070 18 ed 7f 3d 50 51 bf 3c a0 41 17 3d 6c 0f 97 3d
       0.06248197 0.023354203 0.03692782 0.07375988
000080 b2 e4 a0 3d 30 46 c4 bd c8 96 9a bc 20 1d 21 3d
       0.0785612 -0.095837 -0.018870726 0.039334416
000090 dc e3 c3 bd 88 88 12 bd dc c3 35 bd 70 ab b5 bd
       -0.09564945 -0.035774738 -0.04437624 -0.0887059
0000a0 48 aa d8 3d 86 b9 93 bd 98 87 a1 bc 3c 25 9e 3d
       0.105793536 -0.0721312 -0.019717976 0.07721946
0000b0 36 70 fc bd 0e 7a ad 3d 44 e9 9f 3d 48 06 ef 3c
       -0.1232609 0.08470546 0.07808164 0.0291778
0000c0 3e d0 ef bd 26 eb dc 3d ea 3d d9 3d c0 05 0f 3d
       -0.11709641 0.107870385 0.10607512 0.034917593
0000d0 14 a1 bf 3d 94 35 eb 3d 0e 32 d3 3d b8 53 df bd
       0.09356895 0.114848286 0.103122815 -0.1090464
0000e0 b8 66 e0 bc c8 27 eb bc a8 17 72 3d 52 d5 95 bd
       -0.02739273 -0.028705493 0.05910459 -0.07316078
0000f0 0c 93 bc 3d ca 75 c9 bd 82 89 aa bd 40 8e 2f 3d
       0.092077345 -0.098369196 -0.08327009 0.04286027
