tmppth_copy/VIScaler_test1_39.pth (torch, 42144 bytes, 10 tensors)

weight f4 [64, 3]
0	0xb7e0e81d	-2.6810967e-05
1	0x9f0fc6c7	-3.0445853e-20
2	0x800017ab	-8.49e-42
3	0x3e5b5701	0.21419908
4	0xbb964dd9	-0.004586917
5	0xc0cf63f8	-6.480953
6	0xbafd256f	-0.0019313524
7	0x2eb66232	8.293845e-11
8	0x80012389	-1.04583e-40
9	0xbc6dbac0	-0.014509857
10	0xb7c4b87f	-2.3450933e-05
11	0x80024df5	-2.11637e-40
12	0xacaa0946	-4.83272e-12
13	0x80000d54	-4.781e-42
14	0x0000a748	6.0009e-41
15	0xb925fdaa	-0.00015830123
16	0x24dd1dd8	9.589403e-17
17	0x00006c77	3.891e-41
18	0x3f15d753	0.58531684
19	0x3d4b11f9	0.049577687
20	0x3f941680	1.1569366
21	0xb4557b09	-1.9881931e-07
22	0x8ab7efce	-1.7712463e-32
23	0x000120b9	1.03574e-40
24	0xbc0a1314	-0.0084274
25	0x399e4d8d	0.00030193888
26	0x831d5846	-4.6239486e-37
27	0xbb213175	-0.002459613
28	0xbb4794ea	-0.003045375
29	0xbd82c883	-0.06385901
30	0xb9c05659	-0.00036685428
31	0xb26661e6	-1.34100215e-08
32	0x8002aaf0	-2.44992e-40
33	0xbbf552e7	-0.0074866894
34	0x3875389d	5.8465277e-05
35	0x8aed0394	-2.2823616e-32
36	0xbe059a32	-0.13047102
37	0xba3240a6	-0.00067997945
38	0xbc7d270d	-0.015451205
39	0xa7736e80	-3.3782927e-15
40	0x00028e6a	2.3476e-40
41	0x80020c06	-1.87984e-40
42	0xbdaa091d	-0.083025195
43	0xbd29b20f	-0.041429576
44	0x3a573995	0.00082101795
45	0xb718c0e2	-9.104815e-06
46	0xa03618d4	-1.5424215e-19
47	0x0000fb61	9.0178e-41
48	0xb658b85a	-3.2293815e-06
49	0x24247c1f	3.5666966e-17
50	0x0000f235	8.6888e-41
51	0x9858ebe0	-2.8036432e-24
52	0x80012f5d	-1.08826e-40
53	0x00026ee3	2.2345e-40
54	0xbd18aa1f	-0.037271615
55	0xbafa3bad	-0.0019091271
56	0xa54300fc	-1.6913887e-16
57	0xbc6b82ae	-0.014374418
58	0x37d564f2	2.5438585e-05
59	0x99ee346b	-2.4629795e-23
60	0xbbf67f19	-0.0075224754
61	0xbb94b067	-0.0045376304
62	0x39705374	0.00022919272
63	0xb9374e50	-0.00017481414
64	0xac57f74c	-3.0690615e-12
65	0x000183d2	1.39124e-40
66	0xbca48bfc	-0.020086281
67	0xbb631672	-0.003465083
68	0xb707c7cf	-8.093149e-06
69	0xb702efad	-7.804408e-06
70	0x9ac73d25	-8.2403255e-23
71	0x0000885c	4.8917e-41
72	0x3e3fc39e	0.18726966
73	0xbc2e190d	-0.01062609
74	0x406e8af9	3.7272322
75	0xbccc9c33	-0.024976825
76	0x3c8b804e	0.017028954
77	0x3e5e27ec	0.21694916
78	0xbb7dd6b5	-0.0038732712
79	0xb6e0ac7d	-6.6958005e-06
80	0x80029bb3	-2.39525e-40
81	0xb7ac9025	-2.057112e-05
82	0x199a2bdb	1.594094e-23
83	0x800032a2	-1.8164e-41
84	0xb5cb2eab	-1.5138261e-06
85	0x9385f9df	-3.3820312e-27
86	0x800106fa	-9.4338e-41
87	0x3d29a46f	0.04141658
88	0xbd3a22f5	-0.045443494
89	0x3ed4fb75	0.41598096
90	0x3db75943	0.08952572
91	0xbd35b4e9	-0.044361982
92	0xc08d45a5	-4.4147515
93	0xbda8a961	-0.082354315
94	0xbd781894	-0.060570315
95	0x3abac14a	0.0014248278
96	0xbc888493	-0.016664779
97	0xbd27a288	-0.040926486
98	0x3ab4c8e8	0.0013792785
99	0xbc6a8e5f	-0.0143161705
100	0xb9a70932	-0.00031859573
101	0x00012c0d	1.07638e-40
102	0xb791396e	-1.731209e-05
103	0x9bcf083c	-3.4250599e-22
104	0x000051c3	2.933e-41
105	0xbd4d0696	-0.05005511
106	0xbc32d530	-0.010915086
107	0x385f5140	5.3243013e-05
108	0x3ccfa6da	0.025348116
109	0xbc9c7fc7	-0.019103898
110	0xbfb1c114	-1.3887048
111	0xbcb2d2d8	-0.021829054
112	0x3d12f79c	0.03588067
113	0xbe0a1d56	-0.13487753
114	0xb72b7c76	-1.0221373e-05
115	0xa0528f4f	-1.7835109e-19
116	0x0000f99a	8.954e-41
117	0xaee62fbd	-1.0467669e-10
118	0x8eda2ea5	-5.3786066e-30
119	0x00015b7e	1.24657e-40
120	0xbd033248	-0.032030374
121	0xba26897d	-0.0006352885
122	0x8001f6da	-1.80389e-40
123	0xbb9a36f5	-0.0047062584
124	0xb581d8ee	-9.674384e-07
125	0x019456b6	5.449104e-38
126	0xbc902eff	-0.017600534
127	0xbd8a8428	-0.06763488
128	0xbd884eb6	-0.06655638
129	0xbdaad46e	-0.08341299
130	0xbe44b7a3	-0.19210677
131	0x3e2a144d	0.16609307
132	0x3e0f1dbf	0.13976191
133	0xbdfe9ecf	-0.12432634
134	0xbe46643d	-0.19374175
135	0xb501e6da	-4.839218e-07
136	0x00021e6c	1.94584e-40
137	0x0001da93	1.70245e-40
138	0xba6a4dda	-0.00089379924
139	0xab721ca5	-8.6015423e-13
140	0x0000af37	6.2855e-41
141	0xbdf97607	-0.12180715
142	0xbdad3e9d	-0.08459208
143	0xbdd1e53d	-0.10248802
144	0xbdbfc9ca	-0.0936466
145	0x3cc998ad	0.024608934
146	0xbe0abb1a	-0.13547936
147	0xbc8b6211	-0.017014535
148	0xbc427b01	-0.011870147
149	0xbf02bb7e	-0.5106734
150	0xbae719cb	-0.0017631588
151	0xb6809148	-3.8316102e-06
152	0x800127a2	-1.06053e-40
153	0x3d0e4683	0.034735214
154	0xbd384bd8	-0.044994205
155	0x3fb58d1b	1.4183687
156	0xb78e9fe6	-1.7002178e-05
157	0xa41b7fb1	-3.3718426e-17
158	0x00007b0a	4.4138e-41
159	0xb587d3b4	-1.0119898e-06
160	0xa0915754	-2.4621744e-19
161	0x80007a00	-4.3765e-41
162	0xb1bf0b7b	-5.560137e-09
163	0x849209f7	-3.4333586e-36
164	0x0001416d	1.15306e-40
165	0xbd9c6204	-0.076358825
166	0x3c6289bd	0.013826785
167	0xbd67f762	-0.056632407
168	0xbd14de7d	-0.036344994
169	0x3b19c05f	0.002346061
170	0x34e34868	4.2334727e-07
171	0xbd92f34b	-0.07175311
172	0xbaa4d829	-0.0012576628
173	0x00013a24	1.12692e-40
174	0xbd01a93c	-0.031655535
175	0xbc54deaa	-0.01299254
176	0xba7bedc4	-0.000961032
177	0xbe0b766c	-0.13619393
178	0x3c4b0f8f	0.012393846
179	0xbd1611e1	-0.036638144
180	0x3e639a0f	0.22226737
181	0x3c79c617	0.015244982
182	0xc0b8222d	-5.754172
183	0xbda1ed12	-0.07906546
184	0xbd0b2b4a	-0.03397683
185	0xbcc73b26	-0.024320196
186	0xbcb7bf1a	-0.022429992
187	0xbb873af5	-0.0041269013
188	0x372753ab	9.973456e-06
189	0xbc6bfa2d	-0.014402908
190	0xbb5a26c0	-0.0033287257
191	0x389e77ac	7.556318e-05

bias f4 [64]
0	0x0000c342	7.0045e-41
1	0xbe2341b9	-0.1594304
2	0x9946d973	-1.02802736e-23
3	0xaa79e98e	-2.2196673e-13
4	0x80001f7f	-1.1299e-41
5	0x80010705	-9.4354e-41
6	0xbf55df3b	-0.8354375
7	0x0000307d	1.7394e-41
8	0xb689179a	-4.0856658e-06
9	0xbddce2ee	-0.10785471
10	0x0000a33c	5.8557e-41
11	0xb56959c9	-8.692992e-07
12	0xbd8306f6	-0.06397812
13	0x0001420e	1.15531e-40
14	0xbcef6e7c	-0.029227488
15	0x8000d507	-7.642e-41
16	0x00026045	2.18206e-40
17	0x00011d03	1.02243e-40
18	0xb7fcb93e	-3.0127001e-05
19	0xb763d40a	-1.3579624e-05
20	0xbd485e3b	-0.04891799
21	0x00000bac	4.187e-42
22	0x3802598f	3.1077823e-05
23	0x00013819	1.1196e-40
24	0xbea90e84	-0.33018887
25	0xbef5ec2e	-0.48031753
26	0xa82b4a54	-9.508524e-15
27	0x80008725	-4.8481e-41
28	0x8000db30	-7.863e-41
29	0xbe9a7ce2	-0.30173403
30	0xbf113496	-0.56720865
31	0xbe097761	-0.13424446
32	0xbe525b56	-0.20542654
33	0xb1e9278f	-6.78569e-09
34	0x80009f05	-5.7045e-41
35	0x37c0a716	2.2965989e-05
36	0x3f2e5747	0.68101925
37	0xbe618d70	-0.2202661
38	0x8000d298	-7.5547e-41
39	0x80011a6c	-1.01314e-40
40	0x1d32db65	2.3671528e-21
41	0x308c88fa	1.0225272e-09
42	0xbe01acac	-0.12663525
43	0x3ce2cc67	0.027685357
44	0xbe1d228f	-0.15345214
45	0x8000cc42	-7.3274e-41
46	0x0001e2c8	1.73189e-40
47	0x3ed7137d	0.42007056
48	0xbe127709	-0.14303221
49	0x3e2336f7	0.15938936
50	0xaaf8a88b	-4.41706e-13
51	0xbef768a8	-0.48322034
52	0x80019d8c	-1.48353e-40
53	0x800190c9	-1.43775e-40
54	0x80014d4a	-1.19562e-40
55	0xbe28e4d1	-0.16493537
56	0xba9af315	-0.0011821712
57	0xb1768be0	-3.5877221e-09
58	0xbe00b95b	-0.12570707
59	0x3d6e4079	0.058166955
60	0x3f6a63fb	0.9155881
61	0xbd9f3c26	-0.07775144
62	0xbcd8dde5	-0.026472995
63	0xbccb144e	-0.024789955

weight f4 [64, 64]
0	0x00015389	1.21802e-40
1	0xbc096895	-0.008386751
2	0x80018168	-1.38258e-40
3	0x0002ec71	2.6849e-40
4	0x80000a95	-3.796e-42
5	0x0000ce90	7.41e-41
6	0xbcbff748	-0.023433343
7	0x00008025	4.597e-41
8	0x80174986	-2.138592e-39
9	0x8001e285	-1.73095e-40
10	0x8002d42f	-2.59788e-40
11	0x8000e2db	-8.138e-41
12	0x8000e943	-8.3679e-41
13	0x0000799c	4.3625e-41
14	0x800040b2	-2.3208e-41
15	0x0000b1de	6.3807e-41
16	0x800071cf	-4.0827e-41
17	0x80007abb	-4.4027e-41
18	0x00013047	1.09154e-40
19	0x80003d56	-2.2003e-41
20	0x0000f2b4	8.7065e-41
21	0x8000bea7	-6.8393e-41
22	0x00033734	2.9531e-40
23	0x00001303	6.82e-42
24	0xbcfe2a5d	-0.03102606
25	0xba270434	-0.0006371171
26	0x80031a3a	-2.84915e-40
27	0x80003bf8	-2.1513e-41
28	0x80001777	-8.418e-42
29	0x3be21398	0.0068993084
30	0xbb0196b9	-0.0019773676
31	0x80022233	-1.9594e-40
32	0xbaa50323	-0.0012589436
33	0x80021172	-1.89929e-40
34	0x0000f0d1	8.6389e-41
35	0x80011b18	-1.01555e-40
36	0xbbc9927e	-0.0061514964
37	0x00011843	1.00539e-40
38	0x8000aa6a	-6.1133e-41
39	0x00009e6d	5.6832e-41
40	0x800051c4	-2.9332e-41
41	0x0001440e	1.16249e-40
42	0x9828a15c	-2.1794957e-24
43	0xbb7a8630	-0.0038226955
44	0x800009f5	-3.572e-42
45	0x8000084f	-2.98e-42
46	0x80000a08	-3.599e-42
47	0x800145af	-1.16833e-40
48	0x0000338a	1.8489e-41
49	0xb3e1584c	-1.049344e-07
50	0x00009fd4	5.7336e-41
51	0xb7acb456	-2.0587973e-05
52	0x80009cf9	-5.6311e-41
53	0x000078d3	4.3344e-41
54	0x8001779a	-1.3474e-40
55	0xba5de7d8	-0.00084650284
56	0x00cf3c3d	1.9031557e-38
57	0x803b934e	-5.471137e-39
58	0x8000f264	-8.6953e-41
59	0x00002e81	1.6682e-41
60	0xbc9dd06a	-0.019264419
61	0x00021874	1.92443e-40
62	0x80014970	-1.1818e-40
63	0x8000cb16	-7.2854e-41
64	0x00008398	4.7207e-41
65	0xa29620d1	-4.0692327e-18
66	0x8000ed19	-8.5055e-41
67	0x80004827	-2.5883e-41
68	0x00004668	2.5257e-41
69	0x00006cfe	3.9099e-41
70	0xb52fcb2d	-6.548824e-07
71	0x000099e8	5.5211e-41
72	0x8002865d	-2.31871e-40
73	0x000031bf	1.7846e-41
74	0x8001e0ee	-1.72525e-40
75	0x002880d0	3.719629e-39
76	0x00000a8e	3.786e-42
77	0x800027ce	-1.4279e-41
78	0x8001df10	-1.71855e-40
79	0x2ba54e06	1.1745611e-12
80	0x0000ffec	9.1807e-41
81	0x0000f1d8	8.6757e-41
82	0x8000d7e5	-7.7448e-41
83	0x800135fd	-1.11203e-40
84	0x80025181	-2.12909e-40
85	0x80009dba	-5.6582e-41
86	0x00017834	1.34956e-40
87	0x0001b77d	1.57659e-40
88	0xa98c4a49	-6.2301354e-14
89	0x079446a7	2.231009e-34
90	0x8000361e	-1.9414e-41
91	0x0001256e	1.05263e-40
92	0x800068a1	-3.7534e-41
93	0x124225d6	6.1262243e-28
94	0x0000d670	7.6926e-41
95	0x00030d1c	2.80209e-40
96	0x0002f7f8	2.72625e-40
97	0x8059a937	-8.234062e-39
98	0x0001d9da	1.69986e-40
99	0x80006b34	-3.8457e-41
100	0x0001ec66	1.76639e-40
101	0x80008842	-4.888e-41
102	0x80015c34	-1.24912e-40
103	0x8000e0a4	-8.0586e-41
104	0x80005f6a	-3.4228e-41
105	0x000136ae	1.11451e-40
106	0x000209cd	1.87187e-40
107	0x0002a9f7	2.44643e-40
108	0x8001976d	-1.46157e-40
109	0x3481c597	2.4171888e-07
110	0x8000da17	-7.8236e-41
111	0x8002b9e4	-2.50356e-40
112	0x00006262	3.5293e-41
113	0x00013d43	1.13812e-40
114	0x8000b4e8	-6.4897e-41
115	0x00014f84	1.2036e-40
116	0x000054f1	3.0471e-41
117	0x000084e0	4.7667e-41
118	0x8000e45f	-8.1924e-41
119	0x00234c15	3.241535e-39
120	0x80001bf8	-1.0033e-41
121	0x000005b2	2.043e-42
122	0x00030546	2.77398e-40
123	0x0002879f	2.32323e-40
124	0xaaa7265d	-2.969178e-13
125	0x80029136	-2.35763e-40
126	0x80004416	-2.4425e-41
127	0x8002cb38	-2.56572e-40
128	0x80025e78	-2.1756e-40
129	0xb71bc0e0	-9.283627e-06
130	0x80009498	-5.3305e-41
131	0xb22e1dfd	-1.01349515e-08
132	0x000006a3	2.381e-42
133	0x0001795a	1.35368e-40
134	0xb924f23e	-0.00015730501
135	0x00000b9e	4.167e-42
136	0x00027911	2.27101e-40
137	0x8000186d	-8.762e-42
138	0x80021481	-1.91026e-40
139	0x80007e2b	-4.526e-41
140	0x00009700	5.4169e-41
141	0x8000f413	-8.7557e-41
142	0x003d0621	5.604164e-39
143	0x8000523e	-2.9503e-41
144	0x8002714f	-2.24318e-40
145	0x800099e4	-5.5206e-41
146	0x280dd73d	7.873745e-15
147	0x000012fb	6.809e-42
148	0x30be8133	1.386104e-09
149	0x1f5984ab	4.6061278e-20
150	0x00027ddb	2.2882e-40
151	0x0001d975	1.69844e-40
152	0xb487984e	-2.5256526e-07
153	0xb63934fa	-2.7597985e-06
154	0xb0824ef9	-9.48119e-10
155	0x00009491	5.3296e-41
156	0x0000687d	3.7483e-41
157	0x80026957	-2.2146e-40
158	0xa851057a	-1.1603018e-14
159	0x000306e6	2.77981e-40
160	0xb6342228	-2.6841972e-06
161	0x99952c3e	-1.5424108e-23
162	0x800139ca	-1.12566e-40
163	0x0002b98e	2.50235e-40
164	0xa9cbabdc	-9.044824e-14
165	0x80008773	-4.859e-41
166	0x800096a1	-5.4035e-41
167	0x00014554	1.16706e-40
168	0x8000e6f2	-8.2848e-41
169	0x0001489f	1.17887e-40
170	0x001d5b7f	2.696052e-39
171	0x8dedb646	-1.4650133e-30
172	0x80013d82	-1.139e-40
173	0x800009e6	-3.551e-42
174	0x80007085	-4.0364e-41
175	0x17db511d	1.4173019e-24
176	0x8000ee0f	-8.54e-41
177	0x9eb7e458	-1.947032e-20
178	0x800014e4	-7.494e-42
179	0xa05f208f	-1.8899607e-19
180	0x80004fb6	-2.8595e-41
181	0x8000adcc	-6.2347e-41
182	0x800004e9	-1.761e-42
183	0x8041946c	-6.022551e-39
184	0x00023ea0	2.06137e-40
185	0x002ad8ce	3.934866e-39
186	0x016229fa	4.153976e-38
187	0x0000aeac	6.266e-41
188	0xb88f835c	-6.843239e-05
189	0x8001da50	-1.70151e-40
190	0x34641e66	2.1245214e-07
191	0x32a5f27c	1.9318797e-08
192	0x80007701	-4.269e-41
193	0x3f42d578	0.7610698
194	0x8001480e	-1.17684e-40
195	0x1b0b3912	1.1516251e-22
196	0x80013141	-1.09504e-40
197	0x8001443c	-1.16313e-40
198	0xbdedb8e7	-0.11607533
199	0x00003fd6	2.29e-41
200	0x8000e92f	-8.365e-41
201	0x3cbb2a64	0.022847362
202	0x80005d42	-3.3455e-41
203	0x800032b5	-1.819e-41
204	0x3c1852fa	0.009297127
205	0x0001cf56	1.66214e-40
206	0xbaad1cf3	-0.001320748
207	0x0000a2d0	5.8406e-41
208	0x0001bf27	1.60408e-40
209	0x80009506	-5.346e-41
210	0xb0599b3a	-7.916473e-10
211	0x800077d7	-4.299e-41
212	0xb89e0697	-7.5352546e-05
213	0x80010f89	-9.7408e-41
214	0xb6e6479f	-6.862872e-06
215	0x00011cd2	1.02174e-40
216	0xbf861106	-1.0473945
217	0xbe5d8deb	-0.21636169
218	0x800099b1	-5.5134e-41
219	0x0000cb34	7.2896e-41
220	0x0000f0c9	8.6377e-41
221	0x3e71ae4b	0.23601644
222	0x3d1cc3bf	0.038272616
223	0xbc41ffd5	-0.01184078
224	0xbce37b7a	-0.02776884
225	0x257ff0ba	2.2199286e-16
226	0x000039e2	2.0764e-41
227	0xb8824b12	-6.212866e-05
228	0x3bf2de80	0.007411778
229	0x3cd10a67	0.025517656
230	0x0000da25	7.8256e-41
231	0x80001727	-8.305e-42
232	0x0001bf91	1.60557e-40
233	0x800078c3	-4.3321e-41
234	0xbcbcd8b9	-0.02305256
235	0x3d9ed2cd	0.07755051
236	0xbe2b02de	-0.16700312
237	0x0000213f	1.1926e-41
238	0x8000b9f0	-6.6702e-41
239	0x3e325414	0.17414886
240	0x3b9a7fde	0.00471495
241	0xbcbab910	-0.022793323
242	0x80014477	-1.16396e-40
243	0x3e1cfe34	0.15331346
244	0x8001080f	-9.4726e-41
245	0x00008fe2	5.1615e-41
246	0x00001f6e	1.1275e-41
247	0x3d0ebdc3	0.03484894
248	0xb7eb4a1f	-2.8048698e-05
249	0x36e8bd0c	6.9361467e-06
250	0x3e6484eb	0.22316329
251	0x3d80c141	0.0628686
252	0x3f32d29d	0.6985262
253	0xbca34d54	-0.019934334
254	0xbaed15a2	-0.0018088112
255	0xbbbdb163	-0.0057889684

bias f4 [64]
0	0xbb9ebc5d	-0.004844232
1	0x0700c2ba	9.686875e-35
2	0x0a886b6a	1.3136728e-32
3	0xbd9e31f3	-0.07724371
4	0xb61874f8	-2.271785e-06
5	0xbd49a387	-0.049228217
6	0x3fe65933	1.7995971
7	0xbc199cc8	-0.0093757585
8	0x3dd0b6dd	0.101911284
9	0xbe00e875	-0.12588675
10	0xbe6aeaac	-0.22941083
11	0x8000ae05	-6.2426e-41
12	0xbdb9e2a4	-0.090764314
13	0xbeab46e4	-0.33452523
14	0xbbabe21e	-0.005245461
15	0xbd3f4beb	-0.04670326
16	0x3d23a3a2	0.039950974
17	0x0002c706	2.55067e-40
18	0xbdc4f41f	-0.09616875
19	0x3e12816e	0.14307186
20	0xbeb5f1f9	-0.35536173
21	0xbcb549d7	-0.022129936
22	0xbe8adc41	-0.27121165
23	0x402b9146	2.6807418
24	0x9a47dff1	-4.1333134e-23
25	0xbdbab4f4	-0.09116545
26	0x3f484b59	0.7823997
27	0xbf441626	-0.76596296
28	0xbb445bb3	-0.0029961884
29	0xbdc9faf6	-0.0986232
30	0xbb6b28e2	-0.0035882522
31	0xbcba4dd0	-0.022742182
32	0xbc510afc	-0.012758967
33	0xbd921716	-0.071333095
34	0xbd9f7bd7	-0.077872925
35	0x00017033	1.32085e-40
36	0x3d135ccf	0.03597718
37	0x3ee932fc	0.4554671
38	0xbd36c19b	-0.04461823
39	0x3f8eb9a8	1.1150408
40	0xbe804c18	-0.25058055
41	0xbf0f8d96	-0.5607542
42	0xbe80ee6e	-0.25181907
43	0x3cc22e4a	0.023703713
44	0xbdbee742	-0.09321453
45	0xb30808a8	-3.167284e-08
46	0x402c5e82	2.6932683
47	0xbe513395	-0.20429833
48	0xbb92957f	-0.0044733877
49	0xb6e1366f	-6.7118594e-06
50	0x933d9186	-2.3926902e-27
51	0xbdb12591	-0.08649743
52	0xbe0aebe4	-0.13566548
53	0x3f4c4fbf	0.7980918
54	0xbf35c236	-0.7099947
55	0x8000e2da	-8.1379e-41
56	0xbeb5dcae	-0.35519928
57	0x3ca0334e	0.019555714
58	0xbe1c783f	-0.15280245
59	0xbdfdbf9c	-0.12390062
60	0xbe3ba4ef	-0.18324636
61	0x3f1c9748	0.61168337
62	0x3dfbdacb	0.12297591
63	0x3d2d807c	0.04235886

weight f4 [64, 64]
0	0x800035c3	-1.9286e-41
1	0x8000d115	-7.5005e-41
2	0x8000ab4f	-6.1454e-41
3	0xb4099218	-1.2812268e-07
4	0x8000d32e	-7.5757e-41
5	0xa9b6bc1f	-8.1150574e-14
6	0x00028412	2.31049e-40
7	0x80009f4a	-5.7142e-41
8	0x80006272	-3.5316e-41
9	0x0002219e	1.9573e-40
10	0xbc4cf2da	-0.012509072
11	0x0000aa90	6.1186e-41
12	0x80015bb5	-1.24734e-40
13	0xb4fb7754	-4.6839216e-07
14	0x8000bc0d	-6.746e-41
15	0xafceb925	-3.7602735e-10
16	0x0000d417	7.6084e-41
17	0x000016ac	8.133e-42
18	0x8000e521	-8.2196e-41
19	0x80015fb0	-1.26162e-40
20	0xbc2dbdd0	-0.010604337
21	0x2cf8832d	7.0631474e-12
22	0xbcaf4ce9	-0.021398978
23	0xb932763c	-0.00017019449
24	0x00008035	4.5992e-41
25	0x00003739	1.981e-41
26	0xb7975615	-1.8040688e-05
27	0xbb119c5d	-0.0022218444
28	0x00125b20	1.685728e-39
29	0x80027247	-2.24666e-40
30	0x0001cc9a	1.65233e-40
31	0x00007182	4.0719e-41
32	0x0002035b	1.84875e-40
33	0x8000c122	-6.9283e-41
34	0x8000f324	-8.7222e-41
35	0x000089b1	4.9394e-41
36	0x0000500d	2.8717e-41
37	0x00015f53	1.26031e-40
38	0x0000edb9	8.5279e-41
39	0x9e393ef5	-9.806838e-21
40	0x80014403	-1.16234e-40
41	0xb9c8715e	-0.00038231438
42	0xbc2e79c9	-0.010649153
43	0xb8293555	-4.034241e-05
44	0x00010e85	9.7044e-41
45	0x00011be4	1.01841e-40
46	0xbb13aa0f	-0.0022531783
47	0xb7cadb60	-2.4182431e-05
48	0x00017eb2	1.37285e-40
49	0x80026a65	-2.21838e-40
50	0x80005d0e	-3.3382e-41
51	0x0000c3af	7.0198e-41
52	0x800084d3	-4.7648e-41
53	0x000220ee	1.95484e-40
54	0xba735984	-0.0009283053
55	0x800068be	-3.7574e-41
56	0x00005d86	3.355e-41
57	0x8000b399	-6.4427e-41
58	0x8000c698	-7.1242e-41
59	0xafd5e5c0	-3.8907721e-10
60	0x01f3b8c8	8.952925e-38
61	0xb9e16677	-0.00042991686
62	0xba655fcd	-0.0008749932
63	0x800095ae	-5.3695e-41
64	0x80011640	-9.9817e-41
65	0x8002854e	-2.31492e-40
66	0x800280aa	-2.29827e-40
67	0xbc4f0d9c	-0.012637522
68	0xaf1a4038	-1.4029033e-10
69	0x3556d023	8.002409e-07
70	0xb7d9f3a6	-2.5981873e-05
71	0x9a7957c7	-5.15629e-23
72	0xb8d2f503	-0.00010059217
73	0x39d924f1	0.0004141699
74	0xbd1b6ba8	-0.037944466
75	0x00009ca4	5.6192e-41
76	0xbc31a123	-0.010841641
77	0xbc0115db	-0.007878746
78	0x9aa2441b	-6.711166e-23
79	0xbbdd2762	-0.0067490796
80	0x8001d0af	-1.66697e-40
81	0x0000d228	7.539e-41
82	0x3126a6ab	2.425092e-09
83	0xbcaa7192	-0.020806108
84	0x3d1c834f	0.038211163
85	0xb9f75e34	-0.00047181698
86	0xbd1dd83c	-0.038536295
87	0xbdab4b87	-0.08364015
88	0x8ca356b2	-2.5166304e-31
89	0x2507fbf8	1.1794754e-16
90	0xbccb05fd	-0.024783129
91	0x3b809e36	0.00392511
92	0xb83b0078	-4.458471e-05
93	0xbc58c743	-0.013231101
94	0x3610260e	2.1479823e-06
95	0x00004612	2.5136e-41
96	0x3c62c5ac	0.013841074
97	0xb977ca67	-0.00023631156
98	0x207b421a	2.1282398e-19
99	0x80003c6e	-2.1678e-41
100	0x000239db	2.04426e-40
101	0xba2a8ab9	-0.00065056566
102	0x00012dad	1.08221e-40
103	0xbd53f428	-0.051746517
104	0xbb583db0	-0.0032995753
105	0x3cb1168c	0.021617197
106	0x3b90b1aa	0.0044157105
107	0xbcd59c02	-0.026075367
108	0x3b83d045	0.0040226304
109	0x8000c470	-7.0468e-41
110	0xbd93adc7	-0.0721088
111	0x3b87d3ba	0.004145113
112	0x8b2a8c60	-3.2846415e-32
113	0xb431f723	-1.6574317e-07
114	0x00004105	2.3325e-41
115	0xbb8fce27	-0.004388589
116	0xbada8993	-0.001667308
117	0x80005b1e	-3.2687e-41
118	0xbc7262a2	-0.014794024
119	0x8000886e	-4.8942e-41
120	0xbca5ef86	-0.020255815
121	0x1d0893bf	1.8075833e-21
122	0x0bc2d0e9	7.5040415e-32
123	0xbb78387e	-0.003787547
124	0x3d9b435a	0.07581206
125	0xbd447828	-0.047966152
126	0xbcb3e490	-0.021959573
127	0xbcc86ec2	-0.024466876
128	0x2cf1231d	6.8535303e-12
129	0x00013c9b	1.13577e-40
130	0x800114be	-9.9276e-41
131	0xb62dbc32	-2.5888553e-06
132	0x0001a4f1	1.51005e-40
133	0x123b57ee	5.9115177e-28
134	0x9796184f	-9.699659e-25
135	0x8000dfac	-8.0238e-41
136	0x09864aa6	3.2329526e-33
137	0x80026660	-2.20396e-40
138	0xbbc23817	-0.0059270966
139	0x800206be	-1.8609e-40
140	0x83d643e4	-1.25933765e-36
141	0xb737a376	-1.0945709e-05
142	0x8036740b	-5.000745e-39
143	0xacaf32d1	-4.979441e-12
144	0x8000c630	-7.1096e-41
145	0x00002559	1.3398e-41
146	0x80024220	-2.07392e-40
147	0xaa48e262	-1.7842111e-13
148	0x3ac41abf	0.0014961584
149	0x00011acc	1.01448e-40
150	0x3beabbf6	0.00716352
151	0xbb289403	-0.0025722987
152	0x80004fed	-2.8672e-41
153	0x80014e77	-1.19983e-40
154	0xb93c770b	-0.00017973424
155	0xbb3c7986	-0.0028758957
156	0x8a1943ef	-7.379459e-33
157	0x00007158	4.066e-41
158	0xa79e1414	-4.387558e-15
159	0x81dfec3e	-8.2256253e-38
160	0x836dddae	-6.9902516e-37
161	0x9a947542	-6.1400806e-23
162	0x96f3aec6	-3.9369065e-25
163	0x80000067	-1.44e-43
164	0x800054eb	-3.0463e-41
165	0xa02157fe	-1.3666345e-19
166	0x000061ec	3.5128e-41
167	0xb4c103d6	-3.5951842e-07
168	0x02a7e877	2.4671873e-37
169	0xba19e422	-0.0005870481
170	0xbaa59e0d	-0.0012635604
171	0xb9a1a91c	-0.0003083431
172	0xb58cfce3	-1.0504413e-06
173	0x34d34d05	3.9357852e-07
174	0xbb4682d1	-0.0030290375
175	0xb6226da9	-2.4203712e-06
176	0x37a3d97b	1.9532386e-05
177	0x00231743	3.222587e-39
178	0x007c96ae	1.1441655e-38
179	0x18107585	1.8670896e-24
180	0x0000b8ed	6.6339e-41
181	0x8000f0b5	-8.635e-41
182	0x38efe177	0.00011438404
183	0x000042bd	2.3941e-41
184	0x8001d2c7	-1.67448e-40
185	0x80015ed2	-1.2585e-40
186	0x8001fb19	-1.81912e-40
187	0x00003b33	2.1237e-41
188	0xbb54e7a0	-0.0032486692
189	0xbb0f0c12	-0.0021827263
190	0xba75d096	-0.000937709
191	0xad0c2c15	-7.967867e-12
192	0x00011a03	1.01167e-40
193	0x00005489	3.0326e-41
194	0x29d1cefa	9.317369e-14
195	0x00005330	2.9842e-41
196	0x80027ff6	-2.29575e-40
197	0x2641be30	6.721808e-16
198	0x2fdceef9	4.0187567e-10
199	0x8000fbdb	-9.0349e-41
200	0x13b08388	4.4558346e-27
201	0xa0c6b3ba	-3.3661438e-19
202	0xbd391ed7	-0.045195427
203	0x0001b94b	1.58306e-40
204	0x1e59a03b	1.1521019e-20
205	0xbccd8d30	-0.025091738
206	0x0000d961	7.7981e-41
207	0xbc1b1b28	-0.009466924
208	0xb47a6012	-2.3318015e-07
209	0x1743c5b5	6.325744e-25
210	0x21801c13	8.681049e-19
211	0x29a28adf	7.2183355e-14
212	0x119bae5d	2.4562148e-28
213	0xbc2c883f	-0.0105305305
214	0x9e3e1115	-1.0062049e-20
215	0xbb1872dc	-0.002326182
216	0x1c346851	5.969183e-22
217	0x21fa2104	1.6949398e-18
218	0xb6eed42e	-7.1176537e-06
219	0xbd1c2952	-0.038125344
220	0x30ce99ee	1.5032222e-09
221	0x1d896535	3.6368244e-21
222	0x38145958	3.5369158e-05
223	0x2ce49888	6.497084e-12
224	0x0000090b	3.244e-42
225	0x3b1ef892	0.0024257046
226	0x0000a9d3	6.0921e-41
227	0x00003a00	2.0806e-41
228	0x80006ba8	-3.862e-41
229	0x308ff3c9	1.0473907e-09
230	0x800195c7	-1.45565e-40
231	0x80004baf	-2.715e-41
232	0x256e66a9	2.0677992e-16
233	0x3d3a03fc	0.045413956
234	0x34bded22	3.537653e-07
235	0xba4c27df	-0.00077879237
236	0x25215cac	1.3995922e-16
237	0x8000c022	-6.8924e-41
238	0xbd1ea453	-0.03873093
239	0xbc31016a	-0.01080356
240	0x8002278f	-1.97862e-40
241	0x3870b5e3	5.7389854e-05
242	0x80013637	-1.11284e-40
243	0x00009aeb	5.5574e-41
244	0xa56aa25e	-2.0351277e-16
245	0x8000c7a2	-7.1615e-41
246	0xb85fdf60	-5.3375377e-05
247	0x0000f750	8.8719e-41
248	0x00020010	1.83693e-40
249	0x0b15f29a	2.887887e-32
250	0x2819db51	8.540763e-15
251	0x3ced23ee	0.028947797
252	0x00024a6d	2.1037e-40
253	0x3cd01bbd	0.025403852
254	0xbac52f1b	-0.0015043946
255	0x35eab0d4	1.7485822e-06

bias f4 [64]
0	0x993e725a	-9.845863e-24
1	0xbd2e127a	-0.04249809
2	0xb50c82cb	-5.2344393e-07
3	0xb6e43993	-6.801632e-06
4	0x3f8d44bf	1.1036605
5	0x3fd53fb7	1.6660069
6	0xbe01fc8d	-0.12693997
7	0x80006dcb	-3.9386e-41
8	0xb9ceccae	-0.0003944388
9	0xbe02ff79	-0.12792768
10	0xbe3d7c4a	-0.18504444
11	0xbe7ff605	-0.24996193
12	0x168c9380	2.2711305e-25
13	0xb8d8f4dd	-0.00010345292
14	0x800080b3	-4.6169e-41
15	0xbe5345cb	-0.20632093
16	0xb8a9b010	-8.091342e-05
17	0xb1aa5c1a	-4.958122e-09
18	0xb3ef9658	-1.1156652e-07
19	0xbe32b26e	-0.17450878
20	0x800051d5	-2.9356e-41
21	0xaeb8a8a7	-8.39731e-11
22	0xb6b392fa	-5.351726e-06
23	0x9dbded60	-5.0273323e-21
24	0xbdd753bc	-0.10514018
25	0x9e63b2b4	-1.2054235e-20
26	0xa70b4f35	-1.9333063e-15
27	0x3ef66574	0.48124278
28	0xbf0209fa	-0.50796473
29	0xbde8eac5	-0.11372904
30	0x3d0c57ad	0.0342633
31	0xb2e70c3b	-2.6897501e-08
32	0xb431eec4	-1.6571272e-07
33	0xbe205d2d	-0.15660544
34	0xae429837	-4.4245687e-11
35	0xbcbaeaac	-0.022816978
36	0xb470186d	-2.2360628e-07
37	0x3f99eb1d	1.2024876
38	0xbd677d2a	-0.05651585
39	0xb4cc4873	-3.8050675e-07
40	0xb23f0efc	-1.112107e-08
41	0xba17082a	-0.00057614094
42	0xbe02c158	-0.12769067
43	0x24a97693	7.349294e-17
44	0xbec54e7e	-0.38536447
45	0x3cf9d7f6	0.030498486
46	0xbd81a228	-0.06329757
47	0xbb3ab150	-0.0028487034
48	0x11c9af6b	3.1820318e-28
49	0x3c952425	0.018205712
50	0x80004e25	-2.8033e-41
51	0x3fb7d56f	1.436201
52	0xbdb0eb0b	-0.08638581
53	0xad171167	-8.58722e-12
54	0xbc314333	-0.010819244
55	0x9e250229	-8.735474e-21
56	0xba4dff54	-0.0007858176
57	0xbc1b56d8	-0.009481154
58	0xb7d0a88e	-2.4874022e-05
59	0x8002e444	-2.65557e-40
60	0xbebe1d9a	-0.3713196
61	0x04f6d8c8	5.8033404e-36
62	0xb3eb6442	-1.0961277e-07
63	0x80007571	-4.213e-41

weight f4 [1, 64]
0	0x3bb0a660	0.005390927
1	0xbb4facf8	-0.003168879
2	0x3b33b4cb	0.0027420993
3	0x3d2b073c	0.041754946
4	0xbf20451b	-0.62605447
5	0xbf8fb6b8	-1.1227636
6	0x3da8097b	0.08204933
7	0x28a3ed3c	1.819952e-14
8	0xbc6e354a	-0.014539072
9	0x3cbf7ff0	0.023376435
10	0x3e5d47d1	0.21609427
11	0x3dd6328a	0.10458858
12	0xbb9e92d4	-0.0048392806
13	0xbc5a77c2	-0.013334217
14	0x35784880	9.24927e-07
15	0x3d8a40ff	0.06750678
16	0x3a575086	0.0008213598
17	0xbc66e652	-0.014092999
18	0x3d116c2c	0.03550355
19	0x3d8244e6	0.063607976
20	0xbc177a88	-0.009245522
21	0xbc10c654	-0.008836348
22	0x3a372756	0.00069867575
23	0xbc079ae4	-0.008276675
24	0x3dc3a578	0.09553045
25	0xba0df808	-0.00054156827
26	0xbb53dece	-0.0032328847
27	0xbe0250bc	-0.1272611
28	0x3eca425a	0.39503747
29	0x3ca7ae0e	0.020468738
30	0xbc63b937	-0.013899139
31	0x3d062609	0.032751117
32	0x3c035956	0.008016905
33	0x3e071eee	0.13195392
34	0xbd0affe4	-0.033935443
35	0x3a99e89e	0.0011742299
36	0x3c912b27	0.017720772
37	0xbf326240	-0.6968117
38	0xbb9e8f4a	-0.0048388587
39	0x3ceb8da6	0.028754067
40	0x3c9816bc	0.018565528
41	0x3b864942	0.0040980885
42	0x3de77872	0.1130227
43	0x3bc5617f	0.0060235853
44	0x3eb63f85	0.35595337
45	0x3c80efbc	0.015739314
46	0x3d10492a	0.035226025
47	0x3a0b188a	0.0005306086
48	0xb8194d36	-3.654995e-05
49	0xbc81a417	-0.015825314
50	0x346b852b	2.1934527e-07
51	0xbf685d40	-0.9076729
52	0x3bc6dc52	0.0060687447
53	0xbbd45635	-0.0064800032
54	0x3bf9d6fd	0.0076245056
55	0x34df2ef5	4.1571153e-07
56	0x3d56db5a	0.052455284
57	0x3be1f3e2	0.006895528
58	0x3d146fac	0.03623931
59	0x38e1b54d	0.00010762606
60	0xc00b9829	-2.181162
61	0xb683bbae	-3.925953e-06
62	0xbca74793	-0.020419871
63	0xb34636d4	-4.6150333e-08

weight f4 [1, 64]
0	0xba450e86	-0.0007517118
1	0xbd6d1684	-0.0578828
2	0xbb37da40	-0.002805367
3	0xbd20c56b	-0.039250772
4	0x3dd9a3be	0.106269345
5	0xbe23466f	-0.15944837
6	0xbe0d5de4	-0.13805348
7	0x2afff90d	4.5469913e-13
8	0x3930fcfd	0.00016878913
9	0x3d9c6cb0	0.07637918
10	0x3d82085c	0.06349251
11	0x3c4d9f54	0.012550194
12	0x3bb299e1	0.0054504727
13	0x3b896c3a	0.00419381
14	0x1758fe5b	7.0114406e-25
15	0x3d96b369	0.073584385
16	0x3dfa444a	0.12220056
17	0xbaed7470	-0.0018116366
18	0x3c317590	0.010831252
19	0x3ef2742a	0.4735425
20	0xaa5204f7	-1.865347e-13
21	0x3ae921d0	0.0017786566
22	0xbd4b66cb	-0.049658578
23	0xba88a0c3	-0.0010423887
24	0xbde80398	-0.113288105
25	0xb962f55c	-0.00021644443
26	0x39bc484b	0.00035912017
27	0x3c0862e7	0.008324361
28	0xbccd2ee1	-0.025046768
29	0xbd57498f	-0.052560385
30	0x3e00dadc	0.12583488
31	0xbc822ee2	-0.015891496
32	0x3bf6d15d	0.0075322823
33	0xbc8d574a	-0.017253537
34	0xb793c361	-1.7614746e-05
35	0x3d5a9fb3	0.053374957
36	0x3c862ac7	0.01637782
37	0xbb01bce3	-0.0019796423
38	0xbdfec286	-0.12439446
39	0x385ecdbd	5.3120533e-05
40	0xbcedf8f4	-0.029049374
41	0xbceb2b9a	-0.028707314
42	0xbc629dc6	-0.013831561
43	0x395f5400	0.0002129823
44	0xbe0f44c7	-0.1399108
45	0x3e8c03d5	0.27346674
46	0xbbffd66c	-0.0078075435
47	0xbc2f0264	-0.010681722
48	0xbc265a2e	-0.010153336
49	0x3dcfbe38	0.10143703
50	0x161de454	1.2754407e-25
51	0xbd86d791	-0.06584085
52	0xbbd4cc56	-0.0064940853
53	0x39928d41	0.00027952532
54	0xbd5903e8	-0.05298224
55	0xb9bfadec	-0.0003655994
56	0x3d896b78	0.06709951
57	0xbbaa541e	-0.005198016
58	0x3b2ae14c	0.0026074229
59	0x2891ddf0	1.6194484e-14
60	0xbe452d66	-0.192556
61	0x382cdcf0	4.121376e-05
62	0x39aa11c9	0.00032438178
63	0xa4e2d1e7	-9.8367465e-17

weight f4 [1, 64]
0	0x3dcebbce	0.10094415
1	0x3dabe28c	0.0839282
2	0x3d9ce55c	0.07660934
3	0xbc856a20	-0.016285956
4	0xbdb3cc54	-0.08779207
5	0x3db90b9e	0.09035419
6	0xbcc9ac40	-0.024618268
7	0x3d7ff0d4	0.06248553
8	0x3d72a76c	0.059241697
9	0x3beff480	0.007322848
10	0xbd991254	-0.07474199
11	0xbdbdab60	-0.09261203
12	0x3d896268	0.06708223
13	0xbdd51514	-0.10404411
14	0x3dae4382	0.0850897
15	0x3de627d8	0.11238068
16	0xbd32560c	-0.043539092
17	0xbd4c404c	-0.049866006
18	0xbc303200	-0.010754108
19	0xbd506014	-0.050872877
20	0x3c7c2800	0.015390396
21	0xbd91e4aa	-0.07123692
22	0x3d7ea9c4	0.06217362
23	0xbd2d08b0	-0.042244613
24	0xbdf0acea	-0.11751731
25	0x3dae9eaa	0.085263565
26	0x3d72bd38	0.059262484
27	0x3d414d80	0.04719305
28	0xbd5d08c4	-0.053963438
29	0xbd76393c	-0.060113177
30	0xbdc54f06	-0.09634213
31	0xbd807f0a	-0.06274231
32	0xbd1e107c	-0.03858994
33	0xbde51b06	-0.11186795
34	0xbd06860c	-0.03284268
35	0xbd1e2eec	-0.038618967
36	0xbd2d32b4	-0.042284682
37	0x3c34ea50	0.011042193
38	0xbda5ab7c	-0.08089349
39	0x3dec2472	0.11530389
40	0x3dbb766e	0.09153448
41	0x3bef3340	0.0072998106
42	0xbd7533f0	-0.059863985
43	0x3d9a4d88	0.07534319
44	0xbd0de428	-0.034641415
45	0xbdab8172	-0.08374299
46	0x3b7ce1c0	0.0038586706
47	0xbd0ac000	-0.03387451
48	0xbd829082	-0.06375219
49	0xbd5ec348	-0.054385453
50	0xbd5f8820	-0.05457318
51	0x3cf5dfb8	0.030013904
52	0xbc862b78	-0.01637815
53	0xbd9f6060	-0.07782054
54	0x3dd3de54	0.1034514
55	0xbd45a42c	-0.04825227
56	0x3d90d6b4	0.07072201
57	0xbcd2f620	-0.025752127
58	0x3dd0fe14	0.102047116
59	0xbdf5bb68	-0.119986355
60	0x3d2b52a8	0.041826874
61	0x3d893182	0.06698896
62	0xbd8bf0e4	-0.068330556
63	0x3cb790c0	0.02240789

weight f4 [1, 64]
0	0x3ddd113a	0.10794301
1	0xbdcd9524	-0.10038212
2	0xbdc2de5a	-0.095150664
3	0x3d501190	0.050798
4	0xbd505d6c	-0.050870344
5	0xbddbee12	-0.10738768
6	0xbc6378d0	-0.013883784
7	0xbda31b8a	-0.07964237
8	0x3d206a54	0.039163902
9	0x3cbb0050	0.022827297
10	0xbdfffa88	-0.12498957
11	0xbd05e1cc	-0.03268604
12	0x3d4c6c14	0.04990776
13	0xbcaee7e8	-0.021350816
14	0xbd355590	-0.044271052
15	0x3db0387a	0.08604522
16	0xbd5df11c	-0.054185018
17	0x3cc94c90	0.02457264
18	0xbb4ea940	-0.0031533986
19	0x3d7de884	0.061989322
20	0xbdedcd0a	-0.11611374
21	0x3d4290e4	0.04750146
22	0x3ddcdd52	0.10784401
23	0x3db48246	0.0881391
24	0x3df9bdb0	0.12194383
25	0x3d7de18c	0.061982676
26	0xbde80fac	-0.11331114
27	0xbdcb0d30	-0.09914625
28	0x3d7fed18	0.06248197
29	0x3cbf5150	0.023354203
30	0x3d1741a0	0.03692782
31	0x3d970f6c	0.07375988
32	0x3da0e4b2	0.0785612
33	0xbdc44630	-0.095837
34	0xbc9a96c8	-0.018870726
35	0x3d211d20	0.039334416
36	0xbdc3e3dc	-0.09564945
37	0xbd128888	-0.035774738
38	0xbd35c3dc	-0.04437624
39	0xbdb5ab70	-0.0887059
40	0x3dd8aa48	0.105793536
41	0xbd93b986	-0.0721312
42	0xbca18798	-0.019717976
43	0x3d9e253c	0.07721946
44	0xbdfc7036	-0.1232609
45	0x3dad7a0e	0.08470546
46	0x3d9fe944	0.07808164
47	0x3cef0648	0.0291778
48	0xbdefd03e	-0.11709641
49	0x3ddceb26	0.107870385
50	0x3dd93dea	0.10607512
51	0x3d0f05c0	0.034917593
52	0x3dbfa114	0.09356895
53	0x3deb3594	0.114848286
54	0x3dd3320e	0.103122815
55	0xbddf53b8	-0.1090464
56	0xbce066b8	-0.02739273
57	0xbceb27c8	-0.028705493
58	0x3d7217a8	0.05910459
59	0xbd95d552	-0.07316078
60	0x3dbc930c	0.092077345
61	0xbdc975ca	-0.098369196
62	0xbdaa8982	-0.08327009
63	0x3d2f8e40	0.04286027
