tmppth_copy/VIScaler_test1_179.pth (torch, 42162 bytes, 10 tensors)

weight f4 [64, 3]
0	0xbae031a6	-0.001710464
1	0x3670ee80	3.5901612e-06
2	0x8b25615d	-3.1851092e-32
3	0x3dd139e8	0.10216123
4	0xbb11adff	-0.0022228954
5	0xc08ad424	-4.338396
6	0xb9f4aaac	-0.00046666467
7	0x304fc111	7.5580525e-10
8	0x8002c2e0	-2.53579e-40
9	0xb661d348	-3.3650595e-06
10	0x8fa10dec	-1.5881188e-29
11	0x8001b0a5	-1.55204e-40
12	0xbccd5657	-0.025065584
13	0x3ae18671	0.0017206204
14	0x371dc055	9.40271e-06
15	0xbd8361b8	-0.06415123
16	0xbce9dff6	-0.028549176
17	0xbd7e83cf	-0.06213742
18	0x3ee0bd41	0.4389439
19	0x3cc974e1	0.024591865
20	0x3fc72fd0	1.5561466
21	0x3c7eb644	0.015546385
22	0xbe635848	-0.22201645
23	0x3d36b9c4	0.044610754
24	0xbc861fbf	-0.01637256
25	0xbcd78e3e	-0.026312944
26	0xbc490af2	-0.012270676
27	0xbba81312	-0.0051292265
28	0xbc05d28a	-0.008167872
29	0xbc1f7da4	-0.009734545
30	0x910d60cd	-1.1152768e-28
31	0x80033a55	-2.96432e-40
32	0x8004f85e	-4.5644e-40
33	0xbc296602	-0.010339262
34	0xba06c480	-0.0005140975
35	0xb00147ae	-4.703179e-10
36	0x977c4ee2	-8.1525156e-25
37	0x8003610f	-3.10325e-40
38	0x0000c927	7.216e-41
39	0xbae0f00e	-0.0017161386
40	0xbad2eee1	-0.001609292
41	0xb58dc56c	-1.0562776e-06
42	0xbdd3758f	-0.10325157
43	0xbdcea8a2	-0.10090758
44	0x3b9c609a	0.004772258
45	0xbc9808da	-0.018558908
46	0xbc314777	-0.010820261
47	0xbb234def	-0.0024918278
48	0xb862e819	-5.4098757e-05
49	0x262265c6	5.634297e-16
50	0x8005714f	-4.99825e-40
51	0xb89c6829	-7.458061e-05
52	0xb0121e39	-5.315744e-10
53	0x8002f8bc	-2.729e-40
54	0xb5b706f2	-1.3636584e-06
55	0x0d3ebc45	5.877489e-31
56	0x0001d349	1.6763e-40
57	0xbc55241d	-0.013009098
58	0xbb0aeaa8	-0.0021196995
59	0xb7c1529d	-2.3045863e-05
60	0xb14f86ee	-3.0199163e-09
61	0x301ded7b	5.745375e-10
62	0xacc17549	-5.498411e-12
63	0xb98ce9eb	-0.00026877163
64	0x2fa6d8f1	3.034937e-10
65	0x00007b4d	4.4232e-41
66	0xbdaf42d5	-0.08557669
67	0xbc8f61b1	-0.017502638
68	0xbc8b3c4a	-0.016996522
69	0x9a3ddab2	-3.9260945e-23
70	0x800466fe	-4.04289e-40
71	0x80009a46	-5.5343e-41
72	0x3db3f1b2	0.08786334
73	0x39d2bd4a	0.00040195353
74	0x407f6949	3.990801
75	0x3e228d90	0.15874314
76	0xbc005169	-0.00783191
77	0x3ec40cc9	0.38291004
78	0x962e8a51	-1.4099253e-25
79	0x80033d28	-2.97445e-40
80	0x00018e51	1.42889e-40
81	0xb34a173b	-4.7052918e-08
82	0x944ee6bc	-1.04458465e-26
83	0x8002aa8d	-2.44853e-40
84	0xbe3eb4ad	-0.1862361
85	0x3e46bb78	0.19407451
86	0x3d47f82b	0.048820656
87	0xa2d2ecb3	-5.717123e-18
88	0x0002dd99	2.63165e-40
89	0x8002148b	-1.9104e-40
90	0x3d6fca8a	0.058542766
91	0xbce7360c	-0.028224014
92	0xbee988ed	-0.4561228
93	0xbc4fe08c	-0.0126878135
94	0xbb019683	-0.001977355
95	0xbacdbecb	-0.001569712
96	0xbb8be35b	-0.0042690462
97	0xba095d73	-0.000524006
98	0xb00356d9	-4.778094e-10
99	0xb5045624	-4.9299183e-07
100	0x800706b2	-6.4525e-40
101	0x800200bd	-1.83936e-40
102	0xbb99cf29	-0.004693885
103	0xbc11d1ee	-0.008900149
104	0x39d3f48b	0.00040427255
105	0xbb685b54	-0.0035454826
106	0xba0582c8	-0.0005093035
107	0x334186c8	4.5058897e-08
108	0xb73b2637	-1.1154966e-05
109	0x321439f9	8.627915e-09
110	0x8004f861	-4.56444e-40
111	0xbc7cb07c	-0.0154229365
112	0xba6b16b2	-0.00089679204
113	0x1e1070e0	7.6466385e-21
114	0xbb8986c7	-0.004196975
115	0x3962cdd4	0.00021629717
116	0xac348950	-2.5655762e-12
117	0xba0ba2e1	-0.00053267
118	0xb5e7bf11	-1.7266449e-06
119	0x00045378	3.97285e-40
120	0xbb3c0bb3	-0.0028693497
121	0xb91a6f4f	-0.0001472805
122	0x95007f84	-2.5949986e-26
123	0xaf739842	-2.2154814e-10
124	0x86bc12e1	-7.074548e-35
125	0x00033d02	2.97392e-40
126	0xbb4add08	-0.0030954499
127	0x387c55e5	6.0161477e-05
128	0x9e35d92d	-9.626971e-21
129	0xbcd41260	-0.025887668
130	0x3c2fdf31	0.010734365
131	0xbbc6282c	-0.0060472693
132	0xa88f8ccb	-1.5937248e-14
133	0x9c921008	-9.665614e-22
134	0x800056b1	-3.1099e-41
135	0xa2b6e87e	-4.957736e-18
136	0x0005168d	4.67267e-40
137	0x8003dd83	-3.5497e-40
138	0xb4142726	-1.3797816e-07
139	0xad96e34a	-1.7153962e-11
140	0x0001fc1a	1.82272e-40
141	0xbb47fca3	-0.0030515573
142	0xbc07b5f4	-0.008283127
143	0xbd3040c1	-0.043030504
144	0xbc256888	-0.010095723
145	0xbb27eae4	-0.0025622183
146	0xbae8247a	-0.0017711066
147	0xbd1f4ba5	-0.0388905
148	0x3cf6bdb3	0.030119753
149	0xbd12467e	-0.035711758
150	0xbc090c0a	-0.008364687
151	0xb9df4748	-0.00042586983
152	0x85885cd8	-1.2823484e-35
153	0xbae41ea7	-0.0017404155
154	0xb60076c6	-1.9142622e-06
155	0x8000986c	-5.4679e-41
156	0xb9bded6f	-0.0003622579
157	0xb34eb38c	-4.812641e-08
158	0x000108c9	9.4987e-41
159	0xbba5cd3d	-0.0050598667
160	0x35918f57	1.0845059e-06
161	0x97c5a4ee	-1.2772461e-24
162	0xa8a3d9da	-1.8191113e-14
163	0x9c038c91	-4.352594e-22
164	0x000049ec	2.6518e-41
165	0xba011bfc	-0.00049251295
166	0x3814f396	3.5512807e-05
167	0x2659fe6b	7.56318e-16
168	0xbd077ec4	-0.033079877
169	0x3d70083f	0.058601614
170	0xbe04c876	-0.12967095
171	0xbbfde465	-0.007748174
172	0xbb9bbedd	-0.0047529773
173	0x38ecf3a2	0.00011298737
174	0xbbb0d599	-0.0053965566
175	0x333eea6c	4.4451028e-08
176	0x00029ec8	2.40631e-40
177	0xb6285353	-2.5082452e-06
178	0xa0d61777	-3.6268538e-19
179	0x8000c1cf	-6.9525e-41
180	0x3e211596	0.1573089
181	0x3c1035d6	0.008801898
182	0xc0878035	-4.2344003
183	0xb39e535b	-7.3726106e-08
184	0x800244f4	-2.08407e-40
185	0x0000cfbb	7.452e-41
186	0xbcb910ed	-0.022591079
187	0xba42b41d	-0.00074273517
188	0xa4ca74d3	-8.7801443e-17
189	0xbcd9a3d5	-0.026567379
190	0xbb392a18	-0.002825385
191	0x33b374a0	8.356551e-08

bias f4 [64]
0	0xb38765a6	-6.304917e-08
1	0x3a532400	0.00080543756
2	0x037369bb	7.1532654e-37
3	0x0002a1a1	2.41653e-40
4	0xbc2c3948	-0.010511704
5	0xbd617347	-0.055041578
6	0xbf1a240a	-0.6021124
7	0xbdbf141c	-0.093300074
8	0xbd8db1b9	-0.069186635
9	0xbdfa54ea	-0.12223227
10	0x80017293	-1.32937e-40
11	0xb9871b83	-0.00025769704
12	0x0001bdbc	1.599e-40
13	0xbd03ce24	-0.032179013
14	0x3dbb82cb	0.09155806
15	0xbd01aca2	-0.031658776
16	0x00009a8e	5.5444e-41
17	0xab33a984	-6.3828825e-13
18	0x80010e36	-9.6933e-41
19	0xbb059e73	-0.0020388633
20	0xad2c8f62	-9.808905e-12
21	0x92861620	-8.462043e-28
22	0xbd3ca43c	-0.046055064
23	0x00030aef	2.79429e-40
24	0xbe1adf7d	-0.15124317
25	0xbe6f7492	-0.23384312
26	0x00000077	1.67e-43
27	0x0992cfdb	3.5343688e-33
28	0x3e124736	0.14284977
29	0x00032d11	2.91673e-40
30	0xbf8387b1	-1.0275785
31	0xbca8646d	-0.0205557
32	0xbbae377a	-0.005316672
33	0x80007fcc	-4.5845e-41
34	0xbe06d3b2	-0.13166693
35	0xb52acc3d	-6.362714e-07
36	0x80005881	-3.1749e-41
37	0xb83b895f	-4.471221e-05
38	0xbb03ed98	-0.002013063
39	0xacc9b1b9	-5.7324948e-12
40	0xb40ce19a	-1.312059e-07
41	0x80003fcb	-2.2885e-41
42	0xb8b6cb6d	-8.716327e-05
43	0xbc3a2a47	-0.011362619
44	0x80019055	-1.43612e-40
45	0x000062f5	3.5499e-41
46	0x00031204	2.81969e-40
47	0xbdc55181	-0.09634686
48	0xbc85d988	-0.016339079
49	0xbd81f1bd	-0.06344936
50	0xb4f4ee7d	-4.5622065e-07
51	0xab350f3f	-6.4325276e-13
52	0xad0517e1	-7.565477e-12
53	0xb65eeb59	-3.3217568e-06
54	0x8000595e	-3.2059e-41
55	0x2e99c060	6.991807e-11
56	0xbe023177	-0.12714182
57	0xbc96e206	-0.018418323
58	0xa9b28d13	-7.9292604e-14
59	0x000201ed	1.84362e-40
60	0x3f4802e4	0.7812941
61	0x0000d2eb	7.5663e-41
62	0x3685d692	3.988688e-06
63	0xb9020a7e	-0.00012401675

weight f4 [64, 64]
0	0x0001ee00	1.77214e-40
1	0xb91f7027	-0.00015205202
2	0x80009419	-5.3127e-41
3	0xad2bce94	-9.766094e-12
4	0x00063d25	5.72948e-40
5	0x00041afb	3.77021e-40
6	0x3b3258d9	0.0027213602
7	0xb7f56197	-2.925172e-05
8	0x2d06727f	7.642441e-12
9	0x0003df73	3.55665e-40
10	0x35eb5a58	1.7535158e-06
11	0x0003ba17	3.42263e-40
12	0xaef8fce0	-1.1322654e-10
13	0x0002c6e0	2.55014e-40
14	0x8000af74	-6.2941e-41
15	0x8003c67c	-3.46709e-40
16	0x01207c00	2.9476324e-38
17	0x8000473a	-2.5551e-41
18	0x9cac4698	-1.1400253e-21
19	0x8000f29e	-8.7035e-41
20	0x8001c8d0	-1.63873e-40
21	0x0001e93b	1.75503e-40
22	0x0005ec7d	5.44013e-40
23	0xa8c50948	-2.1875419e-14
24	0xbbc14566	-0.0058981655
25	0xba8db765	-0.0010812102
26	0x3784f48e	1.5849506e-05
27	0xaf0d6858	-1.2860946e-10
28	0x0001283c	1.06269e-40
29	0x8001f60f	-1.80105e-40
30	0xb95c06cd	-0.00020983368
31	0x36082cdd	2.0291693e-06
32	0x0006b30a	6.1524e-40
33	0xa6f1209b	-1.6731572e-15
34	0xb926bed1	-0.00015902078
35	0x80053d1a	-4.81097e-40
36	0x8000e17e	-8.0891e-41
37	0x800012b7	-6.714e-42
38	0x901697d9	-2.9699263e-29
39	0x80027a64	-2.27576e-40
40	0x0000d95c	7.7974e-41
41	0x800264bf	-2.19812e-40
42	0x8001b66e	-1.57279e-40
43	0x2aed0010	4.20997e-13
44	0x8000dcd3	-7.9217e-41
45	0x8000ba2b	-6.6784e-41
46	0x800519df	-4.68458e-40
47	0x0a0adc5f	6.6859055e-33
48	0x80011a11	-1.01186e-40
49	0x800497df	-4.21823e-40
50	0x0000551c	3.0531e-41
51	0x00049cd0	4.23596e-40
52	0x30474c50	7.2504225e-10
53	0x31f55220	7.139775e-09
54	0x80029710	-2.37862e-40
55	0x80002941	-1.4799e-41
56	0x00069427	6.0416e-40
57	0xae556b34	-4.852581e-11
58	0x80022d9d	-2.00034e-40
59	0x80000a47	-3.687e-42
60	0xbb97f37a	-0.004637179
61	0xa7bdf03e	-5.271851e-15
62	0x8002bd58	-2.51595e-40
63	0xb8806c98	-6.123743e-05
64	0x31c6519f	5.7718377e-09
65	0x3eb02c08	0.34408593
66	0xa9acc6a6	-7.6727944e-14
67	0x0000db4f	7.8673e-41
68	0x3b14716b	0.002265061
69	0xba9d3cd5	-0.0011996279
70	0x3eeb86ee	0.4600138
71	0xbd1073e6	-0.03526678
72	0xbc807974	-0.015682913
73	0xbcf22510	-0.029558688
74	0x8003d218	-3.50874e-40
75	0x378c41fb	1.6720025e-05
76	0x0001bb1d	1.58959e-40
77	0xbca16958	-0.019703552
78	0x3d154004	0.036438003
79	0x3be8cba1	0.0071043526
80	0x184c028a	2.6367664e-24
81	0x1194a6ab	2.3453e-28
82	0x00030ac9	2.79375e-40
83	0x393fa1f3	0.0001827551
84	0xaeef04b5	-1.0869298e-10
85	0x00027f90	2.29432e-40
86	0x3bbb8e3a	0.005723742
87	0x0003c5fa	3.46527e-40
88	0x3ea32969	0.3186753
89	0x3e0d5006	0.13800058
90	0x0002764f	2.26112e-40
91	0x8002278c	-1.97858e-40
92	0x3be87d14	0.0070949886
93	0x800028e1	-1.4665e-41
94	0x3eb7a95c	0.35871398
95	0x3b70d6cb	0.003674912
96	0x3a3e033f	0.00072484085
97	0x0002de89	2.63502e-40
98	0xbb1adca0	-0.0023630038
99	0x377df996	1.5138086e-05
100	0x80056c71	-4.98079e-40
101	0x395112eb	0.0001993884
102	0x3b2f64f9	0.0026763065
103	0x2011491b	1.2306166e-19
104	0x2aa8c410	2.997884e-13
105	0x8002f2dd	-2.70794e-40
106	0xb641afc3	-2.8861548e-06
107	0xbb744e48	-0.0037278105
108	0x0003dfd6	3.55804e-40
109	0x0003fec9	3.66906e-40
110	0x80059a7a	-5.14593e-40
111	0x3c44b282	0.01200545
112	0x3b24d92b	0.0025153856
113	0xbc748ce4	-0.014926169
114	0x35740a09	9.0911686e-07
115	0x31bcb276	5.491809e-09
116	0x1e83fded	1.3975186e-20
117	0xb415e988	-1.3961665e-07
118	0x0006bb8f	6.18296e-40
119	0x2b054d4e	4.7358374e-13
120	0xbc546845	-0.012964313
121	0xba272d19	-0.00063772645
122	0x1eaffec7	1.8634219e-20
123	0x00000706	2.52e-42
124	0x3e6606bb	0.22463505
125	0x0001a505	1.51033e-40
126	0x2d47b4ac	1.1351958e-11
127	0x372d54dc	1.0331361e-05
128	0x19463e7f	1.0248981e-23
129	0x3dafbe55	0.08581225
130	0x02be7e6a	2.799055e-37
131	0x80022b4e	-1.99206e-40
132	0x36360264	2.7121505e-06
133	0xb9fc7554	-0.00048152602
134	0x3dde99c3	0.108691715
135	0x3b0a815b	0.002113423
136	0xbba6c903	-0.0050898804
137	0xbca40453	-0.020021593
138	0x8004cf3e	-4.41686e-40
139	0x2b3a42c0	6.617311e-13
140	0x80003d0f	-2.1904e-41
141	0xbb85cd6d	-0.0040833266
142	0x3c52011d	0.012817648
143	0x3a141238	0.0005648467
144	0x0001c537	1.62583e-40
145	0x80000a88	-3.778e-42
146	0x80063dec	-5.73226e-40
147	0x38cd70da	9.796182e-05
148	0xaeaf7350	-7.978562e-11
149	0x000187c4	1.40539e-40
150	0x3a817b64	0.0009878692
151	0x80020b8b	-1.87812e-40
152	0x3db8ef8f	0.09030067
153	0x3d331fba	0.04373143
154	0x00030535	2.77374e-40
155	0x8001652f	-1.28133e-40
156	0x3c38688a	0.011255393
157	0x8001aee4	-1.54574e-40
158	0x3dbda690	0.09260285
159	0x38bb9581	8.944702e-05
160	0x360a7196	2.0629718e-06
161	0x000319ed	2.84807e-40
162	0xbd0171f7	-0.031602826
163	0x36f25e2e	7.223126e-06
164	0x8001e8fe	-1.75417e-40
165	0x3210bbe3	8.424624e-09
166	0x3791be77	1.7374039e-05
167	0x0007abd1	7.04485e-40
168	0x02f0eaf3	3.5399685e-37
169	0x0002cece	2.57859e-40
170	0xac80f991	-3.6656862e-12
171	0xba7f3974	-0.0009736039
172	0x8004b933	-4.33779e-40
173	0x0002d468	2.59868e-40
174	0x8004677e	-4.04468e-40
175	0x3bcbf8d0	0.006224729
176	0x39a2dcb9	0.000310635
177	0xbbad3782	-0.005286158
178	0xa5c77095	-3.4597286e-16
179	0x221a8cfd	2.094553e-18
180	0x8000938e	-5.2933e-41
181	0x9b5fd257	-1.8514092e-22
182	0x80002a7b	-1.5239e-41
183	0x2acabe0c	3.601428e-13
184	0xbc5a1e42	-0.013312878
185	0xbae0b540	-0.001714386
186	0x0000518d	2.9255e-41
187	0x00011e29	1.02655e-40
188	0x3d4e82b5	0.05041762
189	0x0001a3c3	1.50582e-40
190	0x0736f7ef	1.3765019e-34
191	0xb241cc52	-1.1280536e-08
192	0x2cd5f910	6.0814756e-12
193	0x3f29baa3	0.6630041
194	0x9cf500fb	-1.6212993e-21
195	0x00023daa	2.05792e-40
196	0x36fc4a1d	7.518813e-06
197	0x3c173045	0.009227817
198	0xbe22b7fb	-0.15890495
199	0x3db7f905	0.089830436
200	0xbc523b1f	-0.012831478
201	0x3d851b13	0.064993046
202	0x80004cb2	-2.7513e-41
203	0xa0021efa	-1.1021678e-19
204	0x800001e7	-6.82e-43
205	0x3c0569bc	0.008142885
206	0x3b285d58	0.0025690403
207	0x3b121daa	0.0022295513
208	0x8001a503	-1.5103e-40
209	0x80015ac1	-1.24392e-40
210	0x0002e91f	2.67299e-40
211	0xb9c29994	-0.00037116988
212	0x2f944a42	2.6973807e-10
213	0x0002c05c	2.52677e-40
214	0xba838208	-0.0010033259
215	0x00016322	1.27398e-40
216	0xbf3ea25e	-0.744665
217	0x3d103b65	0.035212893
218	0x000059fc	3.228e-41
219	0x80074c58	-6.70235e-40
220	0x3d8281a7	0.063723855
221	0x00001406	7.183e-42
222	0xbdbd8194	-0.09253231
223	0x39f4fd5e	0.0004672808
224	0x3709aa25	8.205451e-06
225	0x80015aed	-1.24454e-40
226	0x3d1428f9	0.036171887
227	0x291deafd	3.5064823e-14
228	0x8004dc64	-4.46403e-40
229	0xb7df9376	-2.6652338e-05
230	0x3aa17da1	0.0012320766
231	0xa635d6cc	-6.3088094e-16
232	0x0f3b3ea6	9.2318775e-30
233	0x000332f3	2.93784e-40
234	0x34a40252	3.054907e-07
235	0x3ae21eea	0.0017251645
236	0x8002869e	-2.31963e-40
237	0x80013c2f	-1.13425e-40
238	0x800135fa	-1.11199e-40
239	0x3ca8a71d	0.020587498
240	0x3ba53b7b	0.005042491
241	0x3c015351	0.007893399
242	0x35c3a7c7	1.4577462e-06
243	0xa1d89a97	-1.4677649e-18
244	0x0000cffb	7.461e-41
245	0x09018957	1.5592387e-33
246	0x8000190a	-8.982e-42
247	0x80044e0c	-3.9534e-40
248	0x3c60eebe	0.013728796
249	0xbb365c44	-0.002782599
250	0x111f78d5	1.2580123e-28
251	0x000390d5	3.27462e-40
252	0x3f05d93c	0.522846
253	0x00011a52	1.01277e-40
254	0x2457d9a3	4.680504e-17
255	0xa67b7390	-8.7239735e-16

bias f4 [64]
0	0xba86a34c	-0.0010272055
1	0xbe7ad904	-0.24496847
2	0xbda82939	-0.082109876
3	0xbea454ee	-0.32096046
4	0xbd2f4ed8	-0.0427998
5	0x289a8165	1.715355e-14
6	0x3fdda910	1.7317219
7	0xbe73cb06	-0.23807916
8	0x3dd536ad	0.10410819
9	0xbd86c97a	-0.06581397
10	0xbd14131b	-0.036151033
11	0xb2e45d6b	-2.6585175e-08
12	0xbc89806c	-0.01678487
13	0xbe074f1d	-0.13213773
14	0xbcf70884	-0.030155428
15	0x3a987dad	0.0011634134
16	0xbb6360dc	-0.0034695184
17	0xbcaa834b	-0.020814558
18	0xbc9098a5	-0.017650912
19	0xbd7cad0a	-0.06168846
20	0xb8393b0a	-4.416242e-05
21	0xbc357a29	-0.0110764885
22	0x3e86d4b1	0.26334146
23	0x40239318	2.555853
24	0xbdd92191	-0.106021054
25	0xbd143a99	-0.036188696
26	0xbcd7ea67	-0.026356889
27	0xbf00cd5d	-0.5031336
28	0xb15bbeda	-3.197718e-09
29	0xbe9cc9d1	-0.30622724
30	0xbce5ea62	-0.028065864
31	0xba76e34d	-0.0009418026
32	0xbc5ce1ae	-0.013481541
33	0xb510967b	-5.386316e-07
34	0xbd808b06	-0.062765166
35	0x337e3480	5.9186732e-08
36	0xa7b6efc0	-5.0775085e-15
37	0x3e277d58	0.16356409
38	0xbc0b0645	-0.0084853815
39	0xbd457844	-0.048210397
40	0xbe3503ae	-0.17677185
41	0xbd2dccdf	-0.04243171
42	0x3d7d65d7	0.0618647
43	0xbaf55bd1	-0.001871938
44	0xbbab7f37	-0.005233671
45	0xbdbd4ab1	-0.09242762
46	0x403619e7	2.845331
47	0xadd1d6da	-2.3855962e-11
48	0xbce6b0b9	-0.02816044
49	0xbcbefd92	-0.023314271
50	0xb5bf25b9	-1.4241588e-06
51	0x3d690c39	0.056896422
52	0xb235ba8f	-1.0578005e-08
53	0x3f85a09c	1.0439639
54	0xbfa1c224	-1.2637372
55	0xbc69a4fc	-0.014260527
56	0x3b1bc779	0.0023770018
57	0xbcf9307a	-0.030418623
58	0xbd2648a0	-0.040596604
59	0xbdc1a877	-0.0945596
60	0xbd5e9af0	-0.05434698
61	0x3d4d87d1	0.050178353
62	0xbbd02069	-0.00635152
63	0x3d8050ac	0.06265387

weight f4 [64, 64]
0	0x8004093a	-3.70652e-40
1	0xb77c5216	-1.5039483e-05
2	0xb4120c32	-1.3601746e-07
3	0x3600b39b	1.917803e-06
4	0xb555bb8e	-7.962161e-07
5	0xa5d2d058	-3.6570372e-16
6	0xb6934316	-4.388751e-06
7	0xb67cc8dd	-3.7667844e-06
8	0xb547524a	-7.4253023e-07
9	0xb407db80	-1.2652708e-07
10	0xb41745bd	-1.4088342e-07
11	0xb1d4cc6e	-6.193253e-09
12	0x34b632f3	3.3937212e-07
13	0x2edc3f4e	1.0015687e-10
14	0xb36bbf22	-5.4889036e-08
15	0xb3dba3a0	-1.02277454e-07
16	0x80017959	-1.35367e-40
17	0x0001b4e5	1.56728e-40
18	0xb52b01c0	-6.370501e-07
19	0xb587314c	-1.0072631e-06
20	0xb61a3d88	-2.2983604e-06
21	0x339ebfc9	7.392334e-08
22	0x353c3fbf	7.012822e-07
23	0xb617d9e5	-2.2627585e-06
24	0xb410cafa	-1.3484888e-07
25	0xae95c1d2	-6.810165e-11
26	0xb56f3e92	-8.912549e-07
27	0x2f42bb8e	1.771083e-10
28	0x00063af4	5.72161e-40
29	0x36106217	2.1514768e-06
30	0x00044666	3.92596e-40
31	0xa9045a24	-2.9388072e-14
32	0xb5bb8dda	-1.397387e-06
33	0x000669a0	5.88904e-40
34	0xb42fb3d4	-1.6363566e-07
35	0x2b392e58	6.578952e-13
36	0x2acb10e9	3.6071778e-13
37	0xb559d658	-8.115071e-07
38	0x813d5786	-3.4776613e-38
39	0x344a9218	1.8865865e-07
40	0x358ef0d2	1.0649912e-06
41	0xad23ef2b	-9.318583e-12
42	0xb4a6a99c	-3.1043317e-07
43	0x8002a950	-2.44409e-40
44	0x00029af5	2.39259e-40
45	0xb5787138	-9.2551954e-07
46	0xb5f72483	-1.841356e-06
47	0x2a85ff62	2.3802753e-13
48	0xb58b1cd4	-1.0364697e-06
49	0x3166e0a8	3.3597107e-09
50	0xa420b840	-3.4850535e-17
51	0xb628a063	-2.5127308e-06
52	0x9ea0156b	-1.6949517e-20
53	0x35681f38	8.6472164e-07
54	0x350ceaaf	5.2495574e-07
55	0xb46bfbe0	-2.1977712e-07
56	0xb6a7eac2	-5.0043172e-06
57	0x00012e19	1.08372e-40
58	0x3317696c	3.5253308e-08
59	0xb903052c	-0.0001249506
60	0x8001849c	-1.39407e-40
61	0xb5fd7db0	-1.8886549e-06
62	0x000238a3	2.03988e-40
63	0xb5eec01d	-1.7788294e-06
64	0x800188c6	-1.409e-40
65	0xb0049b62	-4.824213e-10
66	0x236b70be	1.276325e-17
67	0xa29b4eb2	-4.2096156e-18
68	0x222da3b3	2.3532534e-18
69	0xb51f888c	-5.943082e-07
70	0xb3842a72	-6.15445e-08
71	0x288604c1	1.487905e-14
72	0xa306af28	-7.301245e-18
73	0x2297c88c	4.114097e-18
74	0x22e95411	6.3243785e-18
75	0x00044e9b	3.9554e-40
76	0x21bf3e9a	1.2959234e-18
77	0x22260941	2.2502094e-18
78	0xa32a825c	-9.243323e-18
79	0xa1d86ea4	-1.4666016e-18
80	0x800347cd	-3.01264e-40
81	0x805070d0	-7.387309e-39
82	0x237816f7	1.344897e-17
83	0x231196ff	7.8924404e-18
84	0x800070f8	-4.0526e-41
85	0xa2b2b7c8	-4.8441583e-18
86	0xa46e407f	-5.1662654e-17
87	0xb8bfb590	-9.1414084e-05
88	0xa183c0f2	-8.927977e-19
89	0x1fe82bf0	9.832851e-20
90	0x8001042a	-9.3329e-41
91	0x23bee18c	2.0695364e-17
92	0x01414192	3.5495546e-38
93	0x232b18b8	9.275163e-18
94	0x3038e0f2	6.7258477e-10
95	0x00009d5a	5.6447e-41
96	0x21dca89d	1.4952411e-18
97	0x9f27cdb0	-3.5533766e-20
98	0xa3b422ed	-1.953043e-17
99	0xaeaa4784	-7.743409e-11
100	0x80060dab	-5.55916e-40
101	0x23955e4a	1.6194545e-17
102	0x34c08318	3.585817e-07
103	0x2272258e	3.2816997e-18
104	0x2132d332	6.058826e-19
105	0x21a3ada9	1.1091277e-18
106	0xa4a9331a	-7.3378636e-17
107	0x800092a9	-5.2612e-41
108	0x014aef99	3.7273443e-38
109	0xa3133aa4	-7.981304e-18
110	0xb78fb016	-1.7128925e-05
111	0x00015699	1.22901e-40
112	0xa2d91a66	-5.884592e-18
113	0x2f10a551	1.3155456e-10
114	0x80bdf3b2	-1.744433e-38
115	0xa3501895	-1.1280908e-17
116	0xb606aca1	-2.006804e-06
117	0xa1b199de	-1.2034715e-18
118	0x21181a78	5.1534634e-19
119	0x21cd022f	1.3891918e-18
120	0x20e17fd4	3.8201072e-19
121	0x00013c09	1.13372e-40
122	0x2265ca30	3.1142324e-18
123	0x9459812e	-1.09811765e-26
124	0x80001a03	-9.331e-42
125	0x22c45b2c	5.322244e-18
126	0x80001443	-7.269e-42
127	0xa30001b8	-6.939258e-18
128	0x00011729	1.00144e-40
129	0xb9e1f2fb	-0.0004309638
130	0xb9007bf7	-0.00012253212
131	0x000413d7	3.74459e-40
132	0x000ce5ec	1.184506e-39
133	0xb81461e4	-3.5377117e-05
134	0xb7580f8a	-1.2878221e-05
135	0x390a1b48	0.00013170869
136	0x10815f80	5.102867e-29
137	0xb8f50aae	-0.000116844996
138	0xb88d07c2	-6.724849e-05
139	0x35fa194d	1.8633815e-06
140	0x0000f567	8.8034e-41
141	0xb438c619	-1.7208403e-07
142	0xb61dcc66	-2.3513799e-06
143	0x000c12c5	1.108759e-39
144	0x00039845	3.3013e-40
145	0x80c6c3f5	-1.8253724e-38
146	0xb64b2b7b	-3.0274666e-06
147	0x000259a2	2.15825e-40
148	0xb39e760e	-7.3789224e-08
149	0x80042c22	-3.83174e-40
150	0x93fed2b1	-6.4326372e-27
151	0xbb40c647	-0.0029415058
152	0xb9009670	-0.00012263074
153	0x341d8210	1.4669081e-07
154	0x80066cbe	-5.90022e-40
155	0xb999c109	-0.00029326256
156	0xadd99eb7	-2.4740527e-11
157	0x0003484e	3.01445e-40
158	0x3442bab9	1.8135587e-07
159	0x80018439	-1.39268e-40
160	0x8004c985	-4.39634e-40
161	0xaa8a65ec	-2.4584447e-13
162	0xb930a7b6	-0.00016847145
163	0xab078337	-4.814373e-13
164	0x31a539e4	4.8087134e-09
165	0x37a0bbc2	1.9160918e-05
166	0x38b75a47	8.7429355e-05
167	0x00058167	5.05598e-40
168	0x0001af62	1.54751e-40
169	0xb70185a8	-7.720118e-06
170	0xb9933a78	-0.00028081588
171	0x8001af70	-1.5477e-40
172	0x80d74f72	-1.9773131e-38
173	0x348212fa	2.4228194e-07
174	0xbb09e2a5	-0.0021039632
175	0x292bca56	3.8145126e-14
176	0xb875631e	-5.8504862e-05
177	0xa7268694	-2.3110083e-15
178	0x31356219	2.6394729e-09
179	0x334babc0	4.7420826e-08
180	0x01257844	3.0392e-38
181	0x9b80290e	-2.1202355e-22
182	0x2eb2aa74	8.1247814e-11
183	0xaedad575	-9.95141e-11
184	0x002e546f	4.254722e-39
185	0x8004f9b1	-4.56914e-40
186	0x8006e0d6	-6.31669e-40
187	0x37f983ba	2.9744453e-05
188	0xae9fd873	-7.268932e-11
189	0xb33c74a4	-4.3878245e-08
190	0x0123e100	3.00998e-38
191	0xa991ef49	-6.480803e-14
192	0x00056751	4.9624e-40
193	0xb8b9c40d	-8.858005e-05
194	0x36419d28	2.8850718e-06
195	0xb5af2bfc	-1.3051317e-06
196	0x33f64450	1.14676936e-07
197	0xab56ee22	-7.635855e-13
198	0x36045ea3	1.9724619e-06
199	0xb633fb0e	-2.6819212e-06
200	0x35845402	9.859216e-07
201	0xb6205af4	-2.38948e-06
202	0x36964b0d	4.4790854e-06
203	0x0002e4a8	2.65697e-40
204	0x31ed4868	6.9058395e-09
205	0x35f044f4	1.7901461e-06
206	0xb49683f9	-2.80357e-07
207	0xb47a66ea	-2.3320504e-07
208	0x8005e26f	-5.40407e-40
209	0x2ec67da3	9.026315e-11
210	0x36595f8f	3.2391142e-06
211	0xb548f75b	-7.4865756e-07
212	0xae3fb9ae	-4.359329e-11
213	0xb3512a3f	-4.8700027e-08
214	0xb3ba6aac	-8.6807034e-08
215	0xb6e3841c	-6.7805067e-06
216	0xb6f6fd33	-7.3608476e-06
217	0xb1debae8	-6.482299e-09
218	0x34814157	2.4075663e-07
219	0xb75b3cde	-1.3067589e-05
220	0x0004491f	3.93573e-40
221	0xb47670ac	-2.2951525e-07
222	0x0005df22	5.39222e-40
223	0x80757afd	-1.0788873e-38
224	0x342101fe	1.4995018e-07
225	0x9b185196	-1.2599507e-22
226	0xb7167ffb	-8.9704945e-06
227	0x37b7dd3c	2.191832e-05
228	0x28a9b7b2	1.8842434e-14
229	0x366d4e3c	3.536129e-06
230	0x2c188198	2.1672438e-12
231	0xb42d0655	-1.6114184e-07
232	0xb4cc3532	-3.8036666e-07
233	0xb4a33c40	-3.0404954e-07
234	0xb74d75af	-1.22463525e-05
235	0x0001970d	1.46022e-40
236	0x01b59ea0	6.6716515e-38
237	0x37957228	1.7815342e-05
238	0xb685fddc	-3.993262e-06
239	0xa8dc1edf	-2.4438295e-14
240	0xb68e3bdc	-4.2388983e-06
241	0xa397ab26	-1.6443937e-17
242	0x157c7220	5.0981023e-26
243	0xb5cc6c48	-1.5230698e-06
244	0x0004a615	4.26921e-40
245	0xb68f5f7e	-4.272849e-06
246	0x34fec499	4.745423e-07
247	0x33e405a0	1.06181005e-07
248	0x350723cc	5.034351e-07
249	0x80027c62	-2.28291e-40
250	0xb2165261	-8.74988e-09
251	0xb783f83d	-1.5732012e-05
252	0x80215d78	-3.064102e-39
253	0x362f118e	2.608725e-06
254	0x8006962a	-6.04882e-40
255	0xb63532dc	-2.7000706e-06

bias f4 [64]
0	0xb6094169	-2.0452665e-06
1	0xaf99541f	-2.789031e-10
2	0xb8bab5d0	-8.903036e-05
3	0x36a89057	5.0235935e-06
4	0x3e27d4b5	0.16389735
5	0x3f9fed86	1.2494361
6	0xbe91b9e4	-0.28462136
7	0xbd1367d4	-0.03598769
8	0xbc833c4c	-0.016019963
9	0xb001c4bf	-4.720952e-10
10	0xbcd6a91a	-0.02620368
11	0xaa1ded9f	-1.4026843e-13
12	0x000383f2	3.2284e-40
13	0xbd74e42e	-0.05978792
14	0xb70c9ce3	-8.381178e-06
15	0x362809d0	2.5039662e-06
16	0xbc453892	-0.012037413
17	0xbb18aa99	-0.0023295044
18	0xb256a225	-1.2493307e-08
19	0xbd1bd02e	-0.038040332
20	0x28f0121c	2.6653206e-14
21	0xbd0ccb86	-0.034373783
22	0xbc59b89b	-0.013288642
23	0xbc690b3b	-0.014223869
24	0xb6020cba	-1.9378917e-06
25	0xb741f4c0	-1.1560682e-05
26	0xaaf7705d	-4.3953982e-13
27	0xbd862650	-0.06550276
28	0xbd810c3d	-0.063011624
29	0xbd544eb1	-0.05183286
30	0x8588dea3	-1.2871162e-35
31	0xbc999b54	-0.018750824
32	0x3d77a175	0.06045671
33	0xbb9d405f	-0.0047989334
34	0xbbcb31d6	-0.0062010093
35	0x269567d3	1.0367094e-15
36	0x329303ee	1.711484e-08
37	0x3f267dea	0.6503588
38	0xbb3f60b4	-0.0029201927
39	0xbda173ac	-0.07883391
40	0xac7ab297	-3.5626274e-12
41	0xb6ae9927	-5.2034334e-06
42	0xbb9c58cb	-0.004771327
43	0xaea99b6e	-7.71284e-11
44	0xbd1f538d	-0.03889804
45	0xbbf5e463	-0.0075040325
46	0xb3dd53ae	-1.0306336e-07
47	0xbdb13c27	-0.08654051
48	0xb1d96ca8	-6.327884e-09
49	0xb9d8d94d	-0.00041360632
50	0xbc8349a9	-0.016026335
51	0x3f76509c	0.9621675
52	0xbe569b6e	-0.20957729
53	0xb8248ab3	-3.922982e-05
54	0xbdcc4d85	-0.09975723
55	0xb90431e7	-0.00012607091
56	0x1d0be8be	1.8516822e-21
57	0xa47fc7c3	-5.5463516e-17
58	0x35afc224	1.3095018e-06
59	0x3792b23b	1.7487551e-05
60	0xbe830964	-0.25593102
61	0xba08ce58	-0.0005218736
62	0xbaa99c65	-0.0012940286
63	0xb5696bc1	-8.6956067e-07

weight f4 [1, 64]
0	0xb78b23e9	-1.6586813e-05
1	0xbba15b0d	-0.004924184
2	0xbca9c9fb	-0.020726195
3	0x37903f4a	1.7195609e-05
4	0xbe9fe2d6	-0.3122775
5	0xbfccf604	-1.6012578
6	0x3fb6e925	1.42899
7	0x3d2b85a4	0.041875497
8	0x3e69683c	0.22793669
9	0x3a4ca4fe	0.0007806568
10	0x3baabd83	0.00521058
11	0xbbed072e	-0.007233522
12	0xb48afe4c	-2.5889528e-07
13	0x3e118af3	0.14213161
14	0x3b9f14d6	0.0048547788
15	0x39de07b8	0.0004234889
16	0x3e931842	0.28729445
17	0xbcedf5a7	-0.0290478
18	0x39a699dd	0.00031776624
19	0x3d4a5a3f	0.04940247
20	0xb4308026	-1.6437897e-07
21	0x3c584ef4	0.013202418
22	0x3c29402c	0.010330241
23	0x3c43105e	0.011905758
24	0x39d13548	0.00039903284
25	0x3d11b2df	0.035570975
26	0x381cd5e0	3.7392485e-05
27	0x3d312738	0.043250293
28	0x3efdf721	0.49602607
29	0x3d559a4e	0.05214911
30	0xb698b699	-4.55121e-06
31	0x3d687670	0.056753576
32	0x3e56b5c0	0.2096777
33	0x3c52b165	0.012859677
34	0x3d1ea6dd	0.038733352
35	0xb8c6655a	-9.460254e-05
36	0xb81b1da9	-3.6982503e-05
37	0xbf7ab65f	-0.97934526
38	0x3db1a6de	0.086744055
39	0x3d42a460	0.04752004
40	0x37938412	1.7585266e-05
41	0x39a91187	0.0003224725
42	0x3d0f55a3	0.03499378
43	0x3aa7f0d8	0.0012812866
44	0x3ef5d830	0.480165
45	0xbc502c4c	-0.012705874
46	0xb8e164a9	-0.000107475855
47	0x3da30bb0	0.079612136
48	0xb73866f2	-1.09912235e-05
49	0x3aa4245c	0.0012523043
50	0x3e9eb994	0.3100096
51	0xbfa7a8be	-1.3098371
52	0x3e03407c	0.12817568
53	0xb99b25a8	-0.0002959196
54	0x3dad6a1f	0.084675066
55	0x3c1c3b51	0.0095356265
56	0x38e8c80e	0.00011099885
57	0xbab6f6aa	-0.001395901
58	0x3777dee3	1.4774242e-05
59	0x3b909cd2	0.0044132257
60	0xc01f31ac	-2.4874067
61	0xbb09c3cb	-0.0021021243
62	0x3d94ba6e	0.07262121
63	0x37c7f648	2.3837332e-05

weight f4 [1, 64]
0	0xb6851db6	-3.9671677e-06
1	0x3bb1c697	0.005425285
2	0x3b0d9684	0.0021604607
3	0x37c50179	2.3484916e-05
4	0xbd987811	-0.07444776
5	0xbe4ae8fb	-0.19815437
6	0xbd86b677	-0.06577771
7	0xbd88f14c	-0.06686649
8	0xbcca36b3	-0.024684286
9	0x3485402f	2.481988e-07
10	0xbd67551e	-0.05647766
11	0xb67e08f5	-3.7854163e-06
12	0x381da0a8	3.758134e-05
13	0x3cfb4781	0.030673744
14	0x3b29be4d	0.0025900782
15	0x3a029488	0.00049812393
16	0xbde93dae	-0.113887176
17	0x3a06c0d1	0.0005140426
18	0x39c7a057	0.000380757
19	0x3f333c8c	0.7001426
20	0x34ea603e	4.3655922e-07
21	0xbc0a2bc6	-0.008433288
22	0x39059a88	0.00012741436
23	0xbd33b5e2	-0.04387463
24	0x3a143c5f	0.0005654748
25	0x3a1b41f9	0.00059226115
26	0xb742cd10	-1.1611046e-05
27	0x3a35312d	0.000691193
28	0x3e1ef923	0.15524726
29	0x3bfd6892	0.007733413
30	0x3b8e1b12	0.004336723
31	0xbd8de4f8	-0.06928438
32	0xbe907321	-0.28212836
33	0x3cd7bfb9	0.026336538
34	0xbc52b9ed	-0.012861711
35	0xb8a3da2b	-7.8130826e-05
36	0x38d46255	0.000101272635
37	0x3c025c61	0.007956595
38	0xbdc63a48	-0.09679085
39	0x3e75a898	0.23990095
40	0xb838c4af	-4.4052194e-05
41	0x39f04a6b	0.00045831813
42	0xbc8349f3	-0.016026473
43	0x38aaf3c6	8.151638e-05
44	0xbc8fc3cc	-0.017549418
45	0x3c322b35	0.010874559
46	0x3462adf3	2.1111173e-07
47	0x3cf86fd6	0.030326765
48	0x3b640b39	0.0034796728
49	0x3b63f915	0.0034785916
50	0xbdd5ed45	-0.10445646
51	0xbda4d7e1	-0.08048988
52	0xbd4c0551	-0.049809758
53	0x32e14b90	2.622781e-08
54	0x3c190538	0.009339623
55	0x3cb823ff	0.022478102
56	0xb92c56ca	-0.0001643553
57	0x3748c80e	1.1967508e-05
58	0x35f7dd5e	1.846736e-06
59	0xbcfea534	-0.031084634
60	0xbe61ea1a	-0.22061959
61	0xbc214dcc	-0.009845208
62	0xbc7e0806	-0.015504843
63	0x379c5cf9	1.8639943e-05

weight f4 [1, 64]
0	0x3dcebbce	0.10094415
1	0x3dabe28c	0.0839282
2	0x3d9ce55c	0.07660934
3	0xbc856a20	-0.016285956
4	0xbdb3cc54	-0.08779207
5	0x3db90b9e	0.09035419
6	0xbcc9ac40	-0.024618268
7	0x3d7ff0d4	0.06248553
8	0x3d72a76c	0.059241697
9	0x3beff480	0.007322848
10	0xbd991254	-0.07474199
11	0xbdbdab60	-0.09261203
12	0x3d896268	0.06708223
13	0xbdd51514	-0.10404411
14	0x3dae4382	0.0850897
15	0x3de627d8	0.11238068
16	0xbd32560c	-0.043539092
17	0xbd4c404c	-0.049866006
18	0xbc303200	-0.010754108
19	0xbd506014	-0.050872877
20	0x3c7c2800	0.015390396
21	0xbd91e4aa	-0.07123692
22	0x3d7ea9c4	0.06217362
23	0xbd2d08b0	-0.042244613
24	0xbdf0acea	-0.11751731
25	0x3dae9eaa	0.085263565
26	0x3d72bd38	0.059262484
27	0x3d414d80	0.04719305
28	0xbd5d08c4	-0.053963438
29	0xbd76393c	-0.060113177
30	0xbdc54f06	-0.09634213
31	0xbd807f0a	-0.06274231
32	0xbd1e107c	-0.03858994
33	0xbde51b06	-0.11186795
34	0xbd06860c	-0.03284268
35	0xbd1e2eec	-0.038618967
36	0xbd2d32b4	-0.042284682
37	0x3c34ea50	0.011042193
38	0xbda5ab7c	-0.08089349
39	0x3dec2472	0.11530389
40	0x3dbb766e	0.09153448
41	0x3bef3340	0.0072998106
42	0xbd7533f0	-0.059863985
43	0x3d9a4d88	0.07534319
44	0xbd0de428	-0.034641415
45	0xbdab8172	-0.08374299
46	0x3b7ce1c0	0.0038586706
47	0xbd0ac000	-0.03387451
48	0xbd829082	-0.06375219
49	0xbd5ec348	-0.054385453
50	0xbd5f8820	-0.05457318
51	0x3cf5dfb8	0.030013904
52	0xbc862b78	-0.01637815
53	0xbd9f6060	-0.07782054
54	0x3dd3de54	0.1034514
55	0xbd45a42c	-0.04825227
56	0x3d90d6b4	0.07072201
57	0xbcd2f620	-0.025752127
58	0x3dd0fe14	0.102047116
59	0xbdf5bb68	-0.119986355
60	0x3d2b52a8	0.041826874
61	0x3d893182	0.06698896
62	0xbd8bf0e4	-0.068330556
63	0x3cb790c0	0.02240789

weight f4 [1, 64]
0	0x3ddd113a	0.10794301
1	0xbdcd9524	-0.10038212
2	0xbdc2de5a	-0.095150664
3	0x3d501190	0.050798
4	0xbd505d6c	-0.050870344
5	0xbddbee12	-0.10738768
6	0xbc6378d0	-0.013883784
7	0xbda31b8a	-0.07964237
8	0x3d206a54	0.039163902
9	0x3cbb0050	0.022827297
10	0xbdfffa88	-0.12498957
11	0xbd05e1cc	-0.03268604
12	0x3d4c6c14	0.04990776
13	0xbcaee7e8	-0.021350816
14	0xbd355590	-0.044271052
15	0x3db0387a	0.08604522
16	0xbd5df11c	-0.054185018
17	0x3cc94c90	0.02457264
18	0xbb4ea940	-0.0031533986
19	0x3d7de884	0.061989322
20	0xbdedcd0a	-0.11611374
21	0x3d4290e4	0.04750146
22	0x3ddcdd52	0.10784401
23	0x3db48246	0.0881391
24	0x3df9bdb0	0.12194383
25	0x3d7de18c	0.061982676
26	0xbde80fac	-0.11331114
27	0xbdcb0d30	-0.09914625
28	0x3d7fed18	0.06248197
29	0x3cbf5150	0.023354203
30	0x3d1741a0	0.03692782
31	0x3d970f6c	0.07375988
32	0x3da0e4b2	0.0785612
33	0xbdc44630	-0.095837
34	0xbc9a96c8	-0.018870726
35	0x3d211d20	0.039334416
36	0xbdc3e3dc	-0.09564945
37	0xbd128888	-0.035774738
38	0xbd35c3dc	-0.04437624
39	0xbdb5ab70	-0.0887059
40	0x3dd8aa48	0.105793536
41	0xbd93b986	-0.0721312
42	0xbca18798	-0.019717976
43	0x3d9e253c	0.07721946
44	0xbdfc7036	-0.1232609
45	0x3dad7a0e	0.08470546
46	0x3d9fe944	0.07808164
47	0x3cef0648	0.0291778
48	0xbdefd03e	-0.11709641
49	0x3ddceb26	0.107870385
50	0x3dd93dea	0.10607512
51	0x3d0f05c0	0.034917593
52	0x3dbfa114	0.09356895
53	0x3deb3594	0.114848286
54	0x3dd3320e	0.103122815
55	0xbddf53b8	-0.1090464
56	0xbce066b8	-0.02739273
57	0xbceb27c8	-0.028705493
58	0x3d7217a8	0.05910459
59	0xbd95d552	-0.07316078
60	0x3dbc930c	0.092077345
61	0xbdc975ca	-0.098369196
62	0xbdaa8982	-0.08327009
63	0x3d2f8e40	0.04286027
