tmppth_copy/VIScaler_test1_109.pth (torch, 42162 bytes, 10 tensors)

weight f4 [64, 3]
-0.03756918 -0.02542542 -0.0018965432 0.1197604 -0.0088193165 -5.1585617 -0.10167174 -0.08259598
0.015081961 -2.3870198e-20 -1.01472e-40 4.3531e-40 -6.712926e-07 1.6047141e-24 -6.2459e-41 -0.024440916
0.0014958169 -4.4174125e-05 0.46455073 0.019827584 1.6248145 0.13470615 -0.16024694 0.18205935
-4.9287007e-18 -3.82172e-40 4.49504e-40 -0.03872985 -0.002987936 -2.509883e-16 -0.035237905 0.0007278317
-3.2498743e-13 -2.5671095e-06 1.8113864e-17 1.5899e-41 -0.115778066 0.14080568 -0.33766675 -0.013056178
-0.0006759735 -7.1755345e-08 -0.002337197 -0.21482846 0.03005391 -0.048714634 -0.039993975 -0.001060858
-8.431085e-09 1.8473292e-33 2.80047e-40 -6.322335e-12 -1.57447e-40 -3.79324e-40 -0.0012801151 9.1217546e-05
-2.4925684e-14 -0.004596388 -9.7848904e-05 3.10465e-40 -0.008918534 -0.0003623674 -6.8324633e-32 -0.015104918
0.08178393 0.010565684 -0.013612112 -0.1187106 -0.074209705 -0.032593492 0.0013460239 -1.3272103e-05
0.10366288 0.018670745 4.3013215 -0.00049996376 -6.1336825e-05 1.0016404e-06 -7.2127395e-06 -1.287766e-06
-2.8779127e-07 -0.0015728939 -7.867099e-08 -1.87841e-40 -0.20111656 0.20917365 -0.0033485282 -0.09304527
0.029360326 -0.0037977896 0.05273067 -0.01815028 -1.2767919 -0.0030806975 0.0044231615 0.035279233
-0.026125036 0.0013791549 -1.4627346e-14 -0.0137580875 -0.00081272895 -2.7739066e-22 -3.5615586e-12 -6.1561096e-21
2.58245e-40 -5.155827e-10 -6.03262e-16 1.7268e-41 -0.022654187 -0.026607009 -0.027695393 -0.13627565
0.07682605 -0.01895047 -2.9900299e-05 -1.0519225e-18 -7.4382e-41 -0.0027629777 -1.3995623e-07 4.44828e-40
-0.0024849272 6.884237e-08 3.89753e-40 -0.045248613 -0.005296595 9.518258e-06 -0.08902273 -0.04634064
-0.0041608852 -3.0395745e-12 -4.330031e-23 2.51584e-40 -4.956172e-07 -2.6437205e-10 3.41005e-40 -0.012080105
-0.0132825645 -0.0629328 -2.3553479e-05 -4.9650594e-13 -3.4213e-40 -0.02669307 -0.002530927 -0.00016111908
-1.8565456e-11 -2.42761e-40 -6.663e-41 -4.9387243e-32 4.17183e-40 -1.51842e-40 -0.0149316015 -0.008742607
-3.79501e-05 -0.000756934 -1.7822604e-05 2.68585e-40 -9.394533e-33 9.6754e-41 1.31795e-40 -0.038605172
-0.025803195 -0.0010055458 -0.051460017 -0.003568072 -0.0006007947 -0.032206036 0.003963812 -5.5724677e-06
-4.438375e-05 1.6899769e-21 1.67195e-40 -0.021848418 -0.014409251 -0.002129233 -5.0366753e-32 -8.4004e-41
1.2093e-41 -0.011813242 0.0025380936 0.00020348524 0.17703544 -0.00126072 -5.095073 -0.011526041
-0.001079126 -6.0417335e-08 -1.2819491e-10 2.5271421e-24 4.259e-42 -0.022561038 0.00010093215 1.7998265e-21
00000000: 24e2 19bd f848 d0bc 6e95 f8ba f144 f53d
00000010: e57e 10bc f012 a5c0 4639 d0bd 1528 a9bd
00000020: 541a 773c 9972 e19e dd1a 0180 78bd 0400
00000030: e032 34b5 4651 f817 1cae 0080 5138 c8bc
00000040: 490f c43a 9b47 39b8 98d9 ed3e 756d a23c
00000050: ecf9 cf3f 69f0 093e c617 24be c46d 3a3e
00000060: 43d6 b5a2 5729 0480 09e5 0400 31a3 1ebd
00000070: 3fd1 43bb 56af 90a5 9f55 10bd f5cb 3e3a
00000080: a0f3 b6aa 9b46 2cb6 2712 a723 522c 0000
00000090: 0d1d edbd 5d2f 103e a8e2 acbe 94e9 55bc
000000a0: d033 31ba eb17 9ab3 a92b 19bb fefb 5bbe
000000b0: 9e33 f63c ff88 47bd b9d0 23bd 7d0c 8bba
000000c0: 4ed8 10b2 5978 1909 a80c 0300 8872 deac
000000d0: e6b6 0180 6721 0480 89c9 a7ba 0c4c bf38
000000e0: b782 e0a8 4c9d 96bb 3b34 cdb8 7361 0300
000000f0: 0b1f 12bc 21fc bdb9 8261 b18b 9e7a 77bc
00000100: 557e a73d b11b 2d3c 5605 5fbc 8b1e f3bd
00000110: 42fb 97bd c180 05bd 116d b03a 40ab 5eb7
00000120: 344d d43d 64f3 983c 6da4 8940 0010 03ba
00000130: f5a1 80b8 1a70 8635 f604 f2b6 4ed7 acb5
00000140: bb81 9ab4 9029 ceba d6f1 a8b3 a00b 0280
00000150: 80f1 4dbe 9e31 563e fb72 5bbb 858e bebd
00000160: 1185 f03c 56e4 78bb 1dfc 573d e5af 94bc
00000170: eb6d a3bf 87e5 49bb 2bf0 903b f580 103d
00000180: 2c04 d6bc c2c4 b43a 5dc0 83a8 9a69 61bc
00000190: 510d 55ba 20ac a79b 569f 7aac 3d92 e89d
000001a0: e2cf 0200 e8b8 0db0 e1e0 2da6 2330 0000
000001b0: 4695 b9bc f1f6 d9bc 73e1 e2bc d88b 0bbe
000001c0: fa56 9d3d 043e 9bbc 67d2 fab7 823c 9ba1
000001d0: 59cf 0080 1313 35bb e046 16b4 00d8 0400
000001e0: 29da 22bb 7ed6 9333 793e 0400 9c56 39bd
000001f0: 0f8f adbb 9bb0 1f37 8d51 b6bd afcf 3dbd
00000200: 0958 88bb 1be4 55ac 3063 519a 50bd 0200
00000210: 8e0a 05b5 0f57 91af 95b6 0300 a2eb 45bc
00000220: 1d9f 59bc e9e2 80bd b694 c5b7 06c1 0bab
00000230: b8b9 0380 6dab dabc e9dd 25bb 13f2 28b9
00000240: b14d a3ad b8a4 0280 bdb9 0080 7437 808b
00000250: f08a 0400 46a7 0180 ada3 74bc 273d 0fbc
00000260: 9c2c 1fb8 fb6c 46ba c081 95b7 b5ec 0200
00000270: e81d 438a b60d 0100 646f 0100 7520 1ebd
00000280: 3961 d3bc 85cc 83ba bdc7 52bd 51d6 69bb
00000290: a67e 1dba 7aea 03bd dde2 813b 22fb bab6
000002a0: b028 3ab8 d161 ff1c 12d2 0100 74fb b2bc
000002b0: c714 6cbc 9a8a 0bbb 73c2 828b 2bea 0080
000002c0: b621 0000 548c 41bc 2556 263b a75e 5539
000002d0: c748 353e be3e a5ba d70a a3c0 b8d7 3cbc
000002e0: 7671 8dba c8be 81b3 a9f3 0caf 3587 4318
000002f0: df0b 0000 edd1 b8bc 89ab d338 b5fd 071d

bias f4 [64]
-0.015619601 -0.03042388 -0.0073729274 -2.05992e-40 4.13394e-40 -0.006798031 -0.6627174 -0.12587276
-7.4497e-41 -0.012334372 -0.00020084438 2.13297e-40 -0.07074105 -0.017455952 -0.08393758 -0.064425446
3.05015e-40 8.1677e-41 -9.649902e-10 -4.8512707e-06 -2.5650937e-05 -0.2830404 -0.21488251 0.0010588347
-0.1402486 -3.0682462e-05 -1.3551797e-06 2.844986e-33 0.21232451 -0.021202499 -0.9749213 -0.27810362
-0.0010498359 -4.8090865e-06 -7.4976e-41 1.92253e-40 -0.04466267 -0.0072840345 8.4389e-41 -4.535173e-18
3.724752e-34 -0.004118831 -0.015426864 -2.1249e-41 -1.686e-42 -0.113570906 1.16861e-40 -0.009303923
8.5105e-41 -6.3358e-41 0.0008820615 3.5075363e-11 -1.62171e-40 -0.0104635265 -0.02944487 -0.00047825335
7.3942e-41 -0.00026606122 -1.84171e-40 -0.005534367 0.817293 -0.000993523 1.2951e-40 7.869113e-07
00000000: 5be9 7fbc 803b f9bc 9998 f1bb 393e 0280
00000010: 6080 0400 04c2 debb d9a7 29bf cae4 00be
00000020: abcf 0080 1b16 4abc c199 52b9 9652 0200
00000030: afe0 90bd c9ff 8ebc 77e7 abbd 7df1 83bd
00000040: 4252 0300 afe3 0000 93a0 84b0 19c8 a2b6
00000050: f82c d7b7 acea 90be 290a 5cbe 99c8 8a3a
00000060: 549d 0fbe 0bb1 00b8 9fe3 b5b5 295a 6c09
00000070: 996b 593e ddb0 adbc 7194 79bf 9963 8ebe
00000080: a69a 89ba bd5d a1b6 01d1 0080 ec17 0200
00000090: 34f0 36bd e9ae eebb 3eeb 0000 7f51 a7a2
000000a0: 5f8d f707 42f7 86bb f5c0 7cbc 3c3b 0080
000000b0: b304 0080 dd97 e8bd c345 0100 7b6f 18bc
000000c0: 3ded 0000 9eb0 0080 253a 673a 5943 1a2e
000000d0: 11c4 0180 366f 2bbc 5e36 f1bc 14be fab9
000000e0: 1fce 0000 227e 8bb9 6501 0280 a359 b5bb
000000f0: 1d3a 513f 1a39 82ba 0569 0100 223c 5335

weight f4 [64, 64]
0.0019495003 0.014940688 0.015210661 -4.7341207e-05 -7.2021e-41 2.234309e-39 -0.009846688 0.004049598
-2.5018453e-13 -1.61749e-40 -1.5860426e-29 -1.1441209e-11 -0.0047724308 -1.35378e-40 0.007502686 0.0028381175
2.87591e-40 -3.2943964e-14 -1.8116717e-09 -2.2131386e-10 -8.07e-41 0.00018391866 -0.0022308067 -9.743102e-30
-0.04177334 -9.393501e-08 0.00010266585 -7.0631096e-15 -0.004048314 0.00026872597 -0.00019148106 -0.0010680899
8.7619e-41 -7.72769e-09 8.6389e-41 3.42298e-40 0.004049308 -0.00501554 1.8592507e-08 1.8143e-41
-4.3015996e-16 -4.11844e-40 0.003251026 -7.2946e-41 -0.0001744569 1.6936317e-05 2.68738e-40 3.459729e-39
2.882571e-05 9.485e-41 -0.0015634383 -1.6193167e-07 -1.2693562e-09 0.0011673567 -6.690371e-08 -2.50341e-07
4.77223e-13 -0.00090913626 -8.6953e-41 -1.0600208e-06 0.021582104 3.1404e-41 9.2982e-41 -6.5183503e-06
-0.0043258527 0.41195408 0.026048444 -1.4232e-41 -1.02136e-40 0.00786492 0.41100645 -0.009802936
-7.9896e-41 -0.00016808229 4.2573443e-05 -1.46548e-40 -0.010906109 -0.0032704254 -0.021172347 0.0017942257
-1.08955e-40 1.81357e-40 8.0975787e-10 -0.0008663529 0.00031658722 -0.054170802 0.0039911307 0.0044607907
0.24602358 1.9393497e-06 -5.7769364e-07 2.7529073e-12 -0.006246764 -0.0011842449 0.4625679 0.033953365
1.5990514e-06 -9.1557624e-08 1.0189e-41 -2.21272e-40 0.04478885 -0.008794265 1.5306e-40 -1.0735845e-12
1.3880578e-31 -1.2120856e-05 -0.007957601 1.42312e-40 -1.22672e-40 -0.022279166 9.530826e-21 5.6910223e-05
1.64577e-40 -3.71637e-40 -0.00075309636 7.024618e-37 -1.97342e-40 -0.014686763 0.0062414263 5.216309e-05
8.1462e-41 -0.0020787704 -1.65876e-40 -0.0010111171 0.23079023 0.00032591083 -8.2116e-41 2.5858538e-08
1.298703e-28 -0.00038084746 -1.870582e-07 8.378657e-07 -2.18132e-40 -5.07927e-39 -0.007708152 -0.0010236764
2.27101e-40 -4.3332e-41 5.07718e-28 3.5282057e-05 -2.77174e-40 -2.463002e-39 -9.136086e-05 6.165819e-19
-9.3576e-41 1.14088e-40 -4.49853e-40 -3.2447e-41 -8.886e-41 1.8432995e-07 -1.3487535e-06 5.3398945e-28
-0.009970348 -1.076964e-38 2.307562e-39 -2.49154e-40 -9.156607e-06 -2.2845034e-06 -2.7931826e-06 -1.5550095e-05
1.23204e-40 -4.426891e-39 0.0001603878 -5.1625e-41 1.7855589e-11 -1.0528e-41 -5.4035e-41 -1.17702645e-11
-1.1331659e-38 3.25768e-40 -3.0437083e-10 -2.04208e-40 -1.90453e-40 3.8802645e-11 2.12518e-40 2.79792e-40
2.366394e-12 2.20812e-40 -2.6493858e-28 -8.58307e-39 -2.1675677e-09 -1.5154421e-21 1.0072948e-21 6.94175e-40
2.06137e-40 3.3887232e-13 9.3657e-41 2.21785e-40 0.0027693666 1.84809e-40 3.02825e-40 3.8831e-41
0.0072507 0.67593455 -0.008000128 -6.0477e-41 1.95174e-40 -1.5778572e-07 -0.16488253 -0.07260698
6.577e-41 8.80897e-05 1.81682e-07 -4.05683e-40 0.040543906 -0.0011194255 0.12910505 0.0060756565
-1.67789e-40 3.93671e-40 -5.9862e-41 2.535026e-09 -1.3169637e-18 -0.09577979 0.04924386 0.0004910908
-0.88032496 -8.19982e-06 3.9539012e-07 1.39658e-40 0.08099562 0.0012680562 -0.20746745 -0.2000161
4.2462374e-18 -1.1208628e-15 1.37382e-40 -3.42368e-40 0.010487838 0.017954191 -1.3594e-41 -1.17964e-40
-1.07616e-40 2.4950212e-11 0.016531462 3.8554e-41 -1.03641e-40 0.016780777 2.048e-40 -1.0393929e-06
3.7635e-41 1.45647e-40 0.001981688 -9.3901e-41 2.5148e-41 0.006121457 0.00091700983 3.703694e-16
2.04155e-40 0.0036000833 5.8884e-41 0.0007143829 0.5997734 -7.4279416e-11 8.7028e-41 -5.761e-42
00000000: 6086 ff3a cac9 743c 2336 793c 3c90 46b8
00000010: c4c8 0080 5854 1800 0154 21bc 7db2 843b
00000020: 64d7 8caa e4c2 0180 05d8 a08f a046 49ad
00000030: 0d62 9cbb 6179 0180 18d9 f53b b6ff 393b
00000040: b021 0300 ce5d 14a9 88fe f8b0 5056 73af
00000050: f5e0 0080 4ada 4039 ba32 12bb 149d 458f
00000060: 861a 2bbd 51b9 c9b3 4f4e d738 b079 fea7
00000070: b8a7 84bb cae3 8c39 4ec8 48b9 26ff 8bba
00000080: 3ff4 0000 bdc2 04b2 d1f0 0000 30ba 0300
00000090: 0fb0 843b 6659 a4bb 5bb5 9f32 9332 0000
000000a0: 68f8 f7a5 0e7c 0480 2a0f 553b 58cb 0080
000000b0: 6bee 36b9 7712 8e37 22ed 0200 51ac 2500
000000c0: bece f137 6708 0100 49ec ccba 70df 2db4
000000d0: 8075 aeb0 fe01 993a b4ac 8fb3 9b66 86b4
000000e0: 8b53 062b 1a53 6eba 64f2 0080 0a46 8eb5
000000f0: f4cc b03c 8b57 0000 3203 0100 34b8 dab6
00000100: e2bf 8dbb a5eb d23e 8c63 d53c ac27 0080
00000110: b71c 0180 dedb 003c 706f d23e 7e9c 20bc
00000120: b8de 0080 3f3f 30b9 e390 3238 8498 0180
00000130: 89af 32bc a254 56bb a171 adbc 392c eb3a
00000140: b92f 0180 8df9 0100 a595 5e30 f51b 63ba
00000150: 9efb a539 34e2 5dbd 08c8 823b d32b 923b
00000160: 9bed 7b3e c625 0236 ce12 1bb5 f8b7 412c
00000170: a8b1 ccbb aa38 9bba b3d5 ec3e af12 0b3d
00000180: fd9e d635 569e c4b3 671c 0000 d168 0280
00000190: 8374 373d d215 10bc abaa 0100 f517 97ab
000001a0: 222e 340c ae5a 4bb7 9960 02bc b58c 0100
000001b0: f655 0180 cc82 b6bc 3f08 341e e3b2 6e38
000001c0: c6ca 0100 f90b 0480 716b 45ba 0e09 6f03
000001d0: 1c26 0280 c0a0 70bc e184 cc3b b1c9 5a38
000001e0: 15e3 0000 fb3b 08bb 65ce 0180 7687 84ba
000001f0: 4654 6c3e 03df aa39 e8e4 0080 871f de32
00000200: 52a1 2411 7bac c7b9 2bda 48b4 b1e9 6035
00000210: 1060 0280 f04e 3780 aa94 fcbb e12c 86ba
00000220: 1179 0200 cb78 0080 fae6 2012 d2fb 1338
00000230: a604 0380 d9d1 1a80 fd98 bfb8 9cfb 3521
00000240: da04 0180 083e 0100 02e6 0480 735a 0080
00000250: b5f7 0080 3bec 4534 d106 b5b5 5f3a 2912
00000260: ac5a 23bc 6045 7580 8b20 1900 8ab6 0280
00000270: 549f 19b7 784f 19b6 8372 3bb6 9371 82b7
00000280: 7157 0100 5f34 3080 c62d 2839 e98f 0080
00000290: 360f 9d2d 591d 0080 a196 0080 8f10 4fad
000002a0: 0e64 7b80 1c8c 0300 6354 a7af 4039 0280
000002b0: e812 0280 e5a7 2a2e 6a50 0200 f20b 0300
000002c0: 2a85 262c 8967 0200 beec a791 1b76 5d80
000002d0: 41f4 14b1 d401 e59c d537 981c 148f 0700
000002e0: a03e 0200 a6c4 be2a 1405 0100 3f6a 0200
000002f0: 437e 353b 2c03 0200 274c 0300 3f6c 0000
00000300: 4897 ed3b 0c0a 2d3f f812 03bc 96a8 0080
00000310: 1120 0200 cf6b 29b4 f7d6 28be f8b2 94bd
00000320: 57b7 0000 ccbc b838 5e14 4334 e16a 0480
00000330: 5e11 263d b0b9 92ba 1d34 043e 4d16 c73b
00000340: bad3 0180 6549 0400 dfa6 0080 a634 2e31
00000350: 7b59 c2a1 3228 c4bd eeb3 493d 8cbc 003a
00000360: fa5c 61bf f591 09b7 0146 d434 4f85 0100
00000370: 08e1 a53d e834 a63a 5972 54be 05d1 4cbe
00000380: 94a8 9c22 8a88 a1a6 f77e 0100 62ba 0380
00000390: 2ed5 2b3c ab14 933c e525 0080 d648 0180
000003a0: fd2b 0180 e276 db2d fd6c 873c 796b 0000
000003b0: e920 0180 d777 893c e63a 0200 4581 8bb5
000003c0: e968 0000 0196 0100 35df 013b c205 0180
000003d0: 1a46 0000 8196 c83b 7d63 703a e080 d525
000003e0: 1a39 0200 60ef 6b3b 25a4 0000 6d45 3b3a
000003f0: c08a 193f 9857 a3ae 99f2 0000 0f10 0080

bias f4 [64]
-0.0062255184 -0.27460676 -0.0021787465 -0.21171893 -0.07866565 -1.9776391e-05 1.874085 -0.15189518
0.12571253 -0.010285697 -0.0036945841 -0.004839772 -0.050323717 -7.2113736e-14 -0.04128918 -1.0149126e-09
-6.7788666e-29 0.0010308614 -0.03950448 0.06678185 -0.0031894224 -0.002889025 0.0024932965 2.6694736
-2.6562486e-05 0.13916026 -0.0468159 -0.29230186 3.9387773e-09 -0.3107449 -0.11156903 -0.02425675
0.015121901 -7.441378e-05 -0.15338321 -0.030165687 -0.049515404 0.24044988 -6.5398766e-08 0.36179587
-0.03542749 2.913505e-34 -0.015817925 -0.00038991103 -0.007424115 -9.574862e-07 2.8898096 0.00020755618
-0.002429041 -5.1526263e-06 -1.5303937e-14 -0.101468414 -1.661235e-19 1.096952 -1.0203874 -1.3448644e-07
-0.010034903 -0.0056153783 -0.01517335 9.066905e-14 -0.1386299 -0.03919904 -0.08417781 0.14656785
00000000: 6fff cbbb 4299 8cbe 4dc9 0ebb d9cc 58be
00000010: 751b a1bd 7ae5 a5b7 04e2 ef3f 698a 1bbe
00000020: c9ba 003e 5785 28bc d620 72bb f396 9ebb
00000030: 3e20 4ebd bd62 a2a9 d81e 29bd 107d 8bb0
00000040: 5cdd ab90 f81d 873a 73cf 21bd ecc4 883d
00000050: a105 51bb cc55 3dbb 9366 233b a8d8 2a40
00000060: 81d2 deb7 0780 0e3e 07c2 3fbd 97a8 95be
00000070: da55 8731 f519 9fbe 4e7e e4bd 17b6 c6bc
00000080: dac1 773c 980e 9cb8 7d10 1dbe 081e f7bc
00000090: aad0 4abd 7e38 763e 5a71 8cb3 4f3d b93e
000000a0: 6a1c 11bd b8a2 c107 9894 81bc f96c ccb9
000000b0: fe45 f3bb fa82 80b5 a4f2 3840 70a3 5939
000000c0: 8c30 1fbb b9e4 acb6 7ad8 89a8 acce cfbd
000000d0: bf1f 44a0 ec68 8c3f 0e9c 82bf 5a67 10b4
000000e0: 6f69 24bc 3501 b8bb a599 78bc 262b cc29
000000f0: fff4 0dbe 2c8f 20bd 6a65 acbd e215 163e

weight f4 [64, 64]
0.00024866426 0.14671612 4.0012463e-10 -0.0138539085 -0.007488302 -9.44847e-15 -0.0034574026 0.15434594
-0.042041417 -0.0025357166 -0.00036886908 -9.120665e-13 -0.003057622 -2.31015e-40 -0.002673968 -1.4340263e-21
2.0302e-41 -0.009403381 0.0027642543 -0.031108005 -0.0037395738 -1.6955632e-15 -0.0102031585 -0.21946096
-7.170863e-13 -0.034447778 0.0009948824 -0.06445174 -1.48905e-40 -0.015023003 0.070528366 0.009548888
0.00015872622 -6.1091444e-11 0.108722545 -0.00609707 -0.03454197 0.08878844 2.18732e-12 -0.0077433675
-0.013704422 -7.2143e-41 -0.0565806 8.087527e-08 0.000119127544 -5.8705e-41 -0.08582292 -5.0639184e-33
-3.7553047e-05 1.95791e-40 -1.07611e-40 0.07134864 3.15532e-40 4.1265935e-37 0.017370813 7.737e-42
-2.571646e-06 -0.014654836 -0.00054460275 9.8775e-41 0.056237668 0.03217209 0.09673913 0.043482043
-3.7909932e-11 -1.890381e-08 2.257284e-39 -1.780437e-11 2.1461029e-38 -2.47877e-40 2.0007952e-10 -6.947824e-08
-4.749605e-11 1.1400877e-12 -2.7778615e-14 2.1941098e-11 -1.19201385e-11 9.5759e-41 -5.9227144e-11 -2.0407143e-17
6.240928e-14 -2.4322929e-12 1.1626144e-12 9.593932e-11 -6.6067053e-24 -2.647921e-13 -2.9309914e-12 -7.0096385e-06
5.9554506e-10 -1.0392676e-11 -1.8342962e-12 8.343027e-12 5.386754e-07 6.0393357e-12 -9.795061e-12 -4.631e-41
1.5422813e-12 6.5575684e-38 -4.4472412e-13 -2.2442846e-38 4.4124574e-12 -1.0674405e-10 -5.3842e-41 1.06559574e-10
2.4662699e-11 1.30764e-40 -7.780346e-12 -2.15544e-40 -1.3196456e-12 2.85439e-40 -5.513051e-06 2.4572266e-10
1.4302e-40 3.669504e-05 -1.8475395e-06 8.8148724e-12 -1.63453e-40 -1.065691e-11 5.072443e-12 -2.32538e-40
-6.8657493e-13 -1.5329233e-12 2.7228682e-12 -2.122043e-18 1.1926412e-11 2.8179148e-11 4.364642e-11 -1.413071e-10
3.63966e-40 -5.267475e-19 -2.310528e-39 -1.14412e-40 -4.0264e-41 -1.14241e-40 -6.5588516e-21 -6.225955e-31
8.1662e-41 2.1046e-41 -1.69769e-40 -3.27902e-40 -3.40199e-40 1.66631e-40 -4.4095e-41 1.89133e-40
3.6064e-41 3.59863e-40 1.83475e-40 1.14033e-40 -2.2417e-41 1.10626e-40 1.8514e-41 -1.6235443e-09
-1.793e-41 -2.9758e-40 -2.329e-42 -7.6854446e-31 1.20206e-40 4.48804e-40 4.3003e-41 -2.1926e-41
4.24373e-40 1.32683e-40 2.566526e-33 -2.8048e-40 -4.6456e-41 -2.58879e-40 4.31841e-40 -1.51766e-40
-5.5332e-41 -4.35065e-40 2.1003535e-28 -2.5254e-41 1.68945e-40 1.1704e-40 -6.423255e-11 4.8072e-41
-8.689e-41 -3.9954e-41 -1.3325e-40 -1.34101e-40 -3.39e-42 -1.13916e-40 1.95501e-40 -3.26732e-40
2.1745e-40 -3.39806e-40 -4.47922e-40 -6.3213e-41 8.7051e-41 -2.51344e-40 1.4621e-41 1.14274e-40
1.8274258e-06 -0.0012230976 -7.2533114e-13 -1.9598655e-18 1.35496e-40 -1.3272362e-38 -2.12916e-40 -0.0012842166
4.005e-42 -3.12994e-40 2.91068e-40 -3.1893222e-08 -9.8443e-41 3.5534e-40 -3.09956e-40 8.3564e-41
1.17405e-40 7.8648e-41 1.8289e-40 4.32145e-40 -1.59845e-40 -4.47555e-40 -4.55e-41 -2.7671329e-11
-1.73359e-40 -2.2750546e-13 9.5518e-41 -8.638618e-07 2.4267152e-05 1.74292e-40 -4.7133058e-06 -1.8449513e-13
8.107983e-39 -5.405139e-08 -8.964721e-05 -1.20049e-40 -1.04556e-40 -2.9300656e-07 -1.72053e-40 -1.0108783e-20
9.3624e-41 3.8551023e-11 -1.0965828e-07 -2.2816e-40 -9.7223e-41 1.01177e-40 -6.2743224e-05 -3.7978e-41
3.8083468e-33 -3.44829e-40 2.0207386e-12 -1.4739538e-05 8.8698e-41 5.6241e-41 -4.3451633e-09 1.91115e-40
6.3756e-41 1.34896e-40 -1.04415e-40 -2.69742e-40 -3.9855595e-06 -4.15216e-40 -3.57286e-40 -2.1643384e-32
00000000: 275f 8239 c03c 163e 89f8 db2f 81fb 62bc
00000010: 6e60 f5bb 6135 2aa8 9795 62bb dd0c 1e3e
00000020: 9f33 2cbd 442e 26bb c564 c1b9 a95c 80ab
00000030: 6262 48bb fa83 0280 bd3d 2fbb 35b4 d89c
00000040: 9838 0000 a310 1abc 7e28 353b 37d6 febc
00000050: a313 75bb 3e5b f4a6 262b 27bc 60ba 60be
00000060: 83d7 49ab 1d19 0dbd b766 823a 46ff 83bd
00000070: 169f 0180 0b23 76bc 2d71 903d f072 1c3c
00000080: bf6f 2639 6d57 86ae eda9 de3d eec9 c7bb
00000090: e17b 0dbd b7d6 b53d 41eb 192c 13bc fdbb
000000a0: 8388 60bc 1bc9 0080 0fc1 67bd a6ad ad33
000000b0: 1dd4 f938 a5a3 0080 edc3 afbd d158 d289
000000c0: 4782 1db8 c921 0200 fa2b 0180 3c1f 923d
000000d0: 936f 0300 b36b 0c03 3c4d 8e3c 9115 0000
000000e0: 8b94 2cb6 d61a 70bc acc3 0eba 5813 0100
000000f0: 7859 663d e2c6 033d 2a1f c63d 3a1a 323d
00000100: caba 26ae eb61 a2b2 6494 1800 e19b 9cad
00000110: 9eb0 e900 fbb2 0280 61fd 5b2f 1134 95b3
00000120: cce3 50ae fd73 a02b 2035 faa8 f6fe c02d
00000130: 88b3 51ad f00a 0100 eb3d 82ae 0139 bca3
00000140: 8088 8c29 4b28 2bac 999f a32b 09f9 d22e
00000150: a495 ff98 9010 95aa 0c40 4eac 5634 ebb6
00000160: c2b3 2330 74d4 36ad be13 01ac a7c5 122d
00000170: 7e99 1035 807d d42c 0851 2cad 1881 0080
00000180: 8a0e d92b 9583 b201 805b faaa 8661 f480
00000190: e23f 9b2c 8fbb eaae 1796 0080 b553 ea2e
000001a0: 76ef d82d 846c 0100 90df 08ad d958 0280
000001b0: 3eb9 b9ab b01b 0300 bffc b8b6 6416 872f
000001c0: ae8e 0100 00e9 1938 f9f8 f7b5 a812 1b2d
000001d0: a4c7 0180 757a 3bad 8178 b22c 3988 0280
000001e0: f040 41ab 62bd d7ab d59a 3f2c 4294 1ca2
000001f0: c9cf 512d cddd f72d 80f5 3f2e 6a5e 1baf
00000200: 97f6 0300 ea77 1ba1 d028 1980 ef3e 0180
00000210: 3d70 0080 753e 0180 52c9 f79d 360b 4a8d
00000220: a4e3 0000 ab3a 0000 3fd9 0180 0f92 0380
00000230: 56b4 0380 80d0 0100 eb7a 0080 3a0f 0200
00000240: 8864 0000 27eb 0300 74ff 0100 e13d 0100
00000250: 7d3e 0080 6134 0100 9c33 0000 6323 dfb0
00000260: fb31 0080 883d 0380 7e06 0080 2d68 798d
00000270: 164f 0100 15e3 0400 e077 0000 1f3d 0080
00000280: fb9e 0400 de71 0100 f937 5509 dd0d 0380
00000290: 8081 0080 a6d1 0280 ccb3 0400 10a7 0180
000002a0: 3e9a 0080 c9bc 0480 2f20 8511 6646 0080
000002b0: f3d6 0100 4346 0100 b63f 8dae 0186 0000
000002c0: 37f2 0080 606f 0080 7273 0180 d275 0180
000002d0: 7309 0080 8d3d 0180 fa20 0200 cc8e 0380
000002e0: 2a5e 0200 3eb3 0380 a0e0 0480 36b0 0080
000002f0: aaf2 0000 a5bc 0280 c228 0000 8d3e 0100
00000300: df45 f535 5850 a0ba 9e29 4cab d09c 10a2
00000310: b579 0100 f285 9080 8651 0280 2953 a8ba
00000320: 2a0b 0000 8068 0380 612b 0300 f8fa 08b3
00000330: 6b12 0180 8bde 0300 0860 0380 f1e8 0000
00000340: 4747 0100 3ddb 0000 d3fd 0100 a5b4 0400
00000350: 95bd 0180 9adf 0480 d67e 0080 4b66 f3ad
00000360: 41e3 0180 fe12 80aa 440a 0100 22e4 67b5
00000370: 5091 cb37 dbe5 0100 fd26 9eb6 1ab9 4faa
00000380: c249 5800 2226 68b3 fb00 bcb8 a64e 0180
00000390: 7623 0180 844e 9db4 9ddf 0180 13f3 3e9e
000003a0: fc04 0100 988c 292e 477d ebb3 047c 0280
000003b0: 050f 0180 0a1a 0100 0395 83b8 de69 0080
000003c0: 4a31 9e09 3ec1 0380 6432 0e2c d549 77b7
000003d0: 41f7 0000 c79c 0000 764c 95b1 c014 0200
000003e0: bab1 0000 0978 0100 1123 0180 eeef 0280
000003f0: b2bb 85b6 7485 0480 f8e3 0380 fcc1 e08a

bias f4 [64]
-0.13197349 -1.3073091e-10 -2.5847218e-27 2.8254344e-32 0.48533574 1.4711088 -0.061533377 -2.99016e-40
-0.009293025 -9.188517e-09 -0.0008185156 -2.204139e-36 -0.0011897654 0.00043040203 -0.006916232 9.990763e-11
-0.038079146 -3.432989e-09 -0.0008764004 -0.07533777 -9.319333e-08 -1.573274e-05 -7.7401156e-17 -2.524556e-07
-0.0063326107 -0.00012615445 -7.652847e-05 -0.004128428 -0.12509675 -0.07064731 -5.286165e-15 -8.638559e-21
-0.01679953 -0.022183305 -5.0116433e-37 -1.6295983e-12 3.0375659e-13 0.86418414 -0.038569838 -5.8464117e-10
-0.0015283864 -6.7160943e-09 -0.083691895 0.00038536402 -0.11984035 -0.011589858 -0.090955354 -1.0238274e-05
1.0560697e-12 -3.907088e-08 -0.038283914 1.1826459 -0.005330543 -7.291683e-12 -0.069811165 8.022686e-19
-7.7884e-14 -7.8018223e-13 -3.2415546e-27 -0.14368877 -0.23626009 -0.00034076438 -0.012874403 -1.0281304e-13
00000000: 0f24 07be 7bbd 0faf 63c8 4c93 77b4 120b
00000010: ed7d f83e 4b4d bc3f 6c0a 7cbd 8941 0380
00000020: c641 18bc 86db 1db2 a791 56ba e681 3b84
00000030: e7f1 9bba 95a7 e139 8fa1 e2bb ffb2 db2e
00000040: e1f8 1bbd c8e9 6bb1 3cbe 65ba b04a 9abd
00000050: 9321 c8b3 cdf9 83b7 9479 b2a4 3c89 87b4
00000060: ca81 cfbb 5448 04b9 e97d a0b8 c447 87bb
00000070: 5d19 00be 89af 90bd 4474 bea7 822d 239e
00000080: 2b9f 89bc c3b9 b5bc 9289 2a83 7758 e5ab
00000090: f0ff aa2a 2c3b 5d3f 68fb 1dbd 77b4 20b0
000000a0: 2354 c8ba 64c3 e6b1 a866 abbd af0a ca39
000000b0: db6e f5bd 63e3 3dbc cd46 babd 0dc5 2bb7
000000c0: eca0 942b e3ce 27b3 98cf 1cbd f160 973f
000000d0: d6ab aebb d246 00ad 28f9 8ebd b4c9 6c21
000000e0: 1261 afa9 0e9a 5bab 4569 8093 2623 13be
000000f0: 2aee 71be 9fa8 b2b9 29ef 52bc af83 e7a9

weight f4 [1, 64]
0.109485835 -3.4141016e-05 0.0008227672 0.00032930096 -0.40161496 -1.408739 0.735422 5.1393363e-05
0.0005050251 -0.014729174 -0.004910424 -0.00023892385 -0.012124854 0.028141726 -0.0010729999 -0.00042246425
0.27520615 0.015742458 0.044587072 0.10827804 0.0009990556 0.0041205985 0.008391471 -0.038524933
0.017710727 0.014783556 0.046219647 0.0145218335 0.4463425 0.07293179 0.0009957313 -0.00011685884
0.046327714 -0.07615429 0.00049281475 -0.0010662485 -1.2353362e-05 -0.8528972 0.08729747 0.0018652569
-0.0684289 -0.0075675044 0.09575619 0.04621261 0.4170361 0.052770335 -0.06452775 -0.02353616
2.1958768e-10 0.0008341524 0.29073775 -1.1413807 -0.010196863 7.4577392e-06 0.057127602 -3.289052e-05
0.00019755284 -0.0002935421 0.0030209532 0.16384378 -2.1873534 0.022874134 -0.022299027 0.00015885357
00000000: 1c3a e03d a332 0fb8 f9ae 573a 07a6 ac39
00000010: 7aa0 cdbe 8f51 b4bf 9e44 3c3f 348f 5738
00000020: a963 043a a252 71bc 9fe7 a0bb a287 7ab9
00000030: 53a7 46bc 7a89 e63c e7a3 8cba 317e ddb9
00000040: d2e7 8c3e 54f6 803c efa0 363d e1c0 dd3d
00000050: bef2 823a 1606 873b 617c 093c 52cc 1dbd
00000060: 1616 913c ba36 723c d050 3d3d fcec 6d3c
00000070: 0187 e43e 435d 953d 3383 823a 1d12 f5b8
00000080: 21c2 3d3d c8f6 9bbd 3d30 013a 5dc1 8bba
00000090: 4941 4fb7 7957 5abf 04c9 b23d a37b f43a
000000a0: 7324 8cbd d4f8 f7bb d21b c43d 6f49 3d3d
000000b0: c185 d53e b525 583d 2027 84bd e8ce c0bc
000000c0: 7070 712f 05ab 5a3a 94db 943e c318 92bf
000000d0: be10 27bc 7e3d fa36 a2fe 693d edf3 09b8
000000e0: 3026 4f39 8ee6 99b9 2ffb 453b aac6 273e
000000f0: 99fd 0bc0 8962 bb3c 73ac b6bc ee91 2639

weight f4 [1, 64]
0.114457645 0.00010394055 9.161162e-05 2.1608901e-13 -0.0042425347 -0.18199201 -0.31567678 -4.8425847e-19
0.024051309 -0.023004254 0.001649559 -2.4281963e-12 -0.025430368 0.014015231 -0.00547137 9.494427e-09
-0.07752844 5.169926e-05 0.0023873039 0.70845217 3.6011424e-18 0.00286709 -0.000122073 -0.0009580766
0.010093342 0.030324128 -0.019655114 -0.008040058 0.06209865 0.06992175 0.0005753889 -7.615607e-05
-0.20571212 -0.00018217691 -9.721746e-08 5.4137097e-05 -1.3579829e-13 0.010058063 -0.03516233 0.0034377766
0.010958523 -0.0019797988 0.09768469 0.007335551 -0.044965584 -0.029163133 0.047420084 0.049863596
6.2417543e-10 2.1453355e-09 -0.06416531 -0.07186172 0.06723398 -1.0213255e-13 0.043363918 -2.3626589e-08
-0.0012114001 0.009134456 5.7500057e-07 0.07240932 -0.18842308 0.032501236 0.018883763 -2.2574472e-05
00000000: c568 ea3d a8fa d938 9d1f c038 6b4b 732a
00000010: f604 8bbb 1d5c 3abe 63a0 a1be 89ed 0ea1
00000020: 4007 c53c 6b73 bcbc 0436 d83a 7fde 2aac
00000030: 5953 d0bc 24a0 653c 2e49 b3bb ee1c 2332
00000040: 3bc7 9ebd a8d7 5838 5074 1c3b 1f5d 353f
00000050: d4db 8422 cae5 3b3b b900 00b9 6f27 7bba
00000060: 8b5e 253c 4e6a f83c c303 a1bc 73ba 03bc
00000070: 275b 7e3d 2233 8f3d b2d5 163a fbb5 9fb8
00000080: 33a6 52be be06 3fb9 ddc5 d0b3 4411 6338
00000090: 31e5 18aa 93ca 243c 6006 10bd 524c 613b
000000a0: 608b 333c 83bf 01bb e90e c83d 105f f03b
000000b0: d52d 38bd 86e7 eebc 903b 423d c53d 4c3d
000000c0: 7192 2b30 246d 1331 1a69 83bd 3d2c 93bd
000000d0: f8b1 893d 68fb e5a9 5d9e 313d 6bf3 cab2
000000e0: d8c7 9eba afa8 153c bd59 1a35 564b 943d
000000f0: fbf1 40be 0420 053d 1fb2 9a3c 4f5e bdb7

weight f4 [1, 64]
0.10094415 0.0839282 0.07660934 -0.016285956 -0.08779207 0.09035419 -0.024618268 0.06248553
0.059241697 0.007322848 -0.07474199 -0.09261203 0.06708223 -0.10404411 0.0850897 0.11238068
-0.043539092 -0.049866006 -0.010754108 -0.050872877 0.015390396 -0.07123692 0.06217362 -0.042244613
-0.11751731 0.085263565 0.059262484 0.04719305 -0.053963438 -0.060113177 -0.09634213 -0.06274231
-0.03858994 -0.11186795 -0.03284268 -0.038618967 -0.042284682 0.011042193 -0.08089349 0.11530389
0.09153448 0.0072998106 -0.059863985 0.07534319 -0.034641415 -0.08374299 0.0038586706 -0.03387451
-0.06375219 -0.054385453 -0.05457318 0.030013904 -0.01637815 -0.07782054 0.1034514 -0.04825227
0.07072201 -0.025752127 0.102047116 -0.119986355 0.041826874 0.06698896 -0.068330556 0.02240789
00000000: cebb ce3d 8ce2 ab3d 5ce5 9c3d 206a 85bc
00000010: 54cc b3bd 9e0b b93d 40ac c9bc d4f0 7f3d
00000020: 6ca7 723d 80f4 ef3b 5412 99bd 60ab bdbd
00000030: 6862 893d 1415 d5bd 8243 ae3d d827 e63d
00000040: 0c56 32bd 4c40 4cbd 0032 30bc 1460 50bd
00000050: 0028 7c3c aae4 91bd c4a9 7e3d b008 2dbd
00000060: eaac f0bd aa9e ae3d 38bd 723d 804d 413d
00000070: c408 5dbd 3c39 76bd 064f c5bd 0a7f 80bd
00000080: 7c10 1ebd 061b e5bd 0c86 06bd ec2e 1ebd
00000090: b432 2dbd 50ea 343c 7cab a5bd 7224 ec3d
000000a0: 6e76 bb3d 4033 ef3b f033 75bd 884d 9a3d
000000b0: 28e4 0dbd 7281 abbd c0e1 7c3b 00c0 0abd
000000c0: 8290 82bd 48c3 5ebd 2088 5fbd b8df f53c
000000d0: 782b 86bc 6060 9fbd 54de d33d 2ca4 45bd
000000e0: b4d6 903d 20f6 d2bc 14fe d03d 68bb f5bd
000000f0: a852 2b3d 8231 893d e4f0 8bbd c090 b73c

weight f4 [1, 64]
0.10794301 -0.10038212 -0.095150664 0.050798 -0.050870344 -0.10738768 -0.013883784 -0.07964237
0.039163902 0.022827297 -0.12498957 -0.03268604 0.04990776 -0.021350816 -0.044271052 0.08604522
-0.054185018 0.02457264 -0.0031533986 0.061989322 -0.11611374 0.04750146 0.10784401 0.0881391
0.12194383 0.061982676 -0.11331114 -0.09914625 0.06248197 0.023354203 0.03692782 0.07375988
0.0785612 -0.095837 -0.018870726 0.039334416 -0.09564945 -0.035774738 -0.04437624 -0.0887059
0.105793536 -0.0721312 -0.019717976 0.07721946 -0.1232609 0.08470546 0.07808164 0.0291778
-0.11709641 0.107870385 0.10607512 0.034917593 0.09356895 0.114848286 0.103122815 -0.1090464
-0.02739273 -0.028705493 0.05910459 -0.07316078 0.092077345 -0.098369196 -0.08327009 0.04286027
00000000: 3a11 dd3d 2495 cdbd 5ade c2bd 9011 503d
00000010: 6c5d 50bd 12ee dbbd d078 63bc 8a1b a3bd
00000020: 546a 203d 5000 bb3c 88fa ffbd cce1 05bd
00000030: 146c 4c3d e8e7 aebc 9055 35bd 7a38 b03d
00000040: 1cf1 5dbd 904c c93c 40a9 4ebb 84e8 7d3d
00000050: 0acd edbd e490 423d 52dd dc3d 4682 b43d
00000060: b0bd f93d 8ce1 7d3d ac0f e8bd 300d cbbd
00000070: 18ed 7f3d 5051 bf3c a041 173d 6c0f 973d
00000080: b2e4 a03d 3046 c4bd c896 9abc 201d 213d
00000090: dce3 c3bd 8888 12bd dcc3 35bd 70ab b5bd
000000a0: 48aa d83d 86b9 93bd 9887 a1bc 3c25 9e3d
000000b0: 3670 fcbd 0e7a ad3d 44e9 9f3d 4806 ef3c
000000c0: 3ed0 efbd 26eb dc3d ea3d d93d c005 0f3d
000000d0: 14a1 bf3d 9435 eb3d 0e32 d33d b853 dfbd
000000e0: b866 e0bc c827 ebbc a817 723d 52d5 95bd
000000f0: 0c93 bc3d ca75 c9bd 8289 aabd 408e 2f3d
