tmppth_copy/VIScaler_test1_69.pth (torch, 42144 bytes, 10 tensors)

weight f4 [64, 3]
000000 e2 5f 92 b6 df 4b 2d 28 2e 9c 01 00 eb 9b 28 3e
       -4.3623013e-06 9.619881e-15 1.47862e-40 0.16465728
000010 04 63 39 bc 95 07 c0 c0 bc 3d 30 bc 80 0e 84 b7
       -0.011315111 -6.0009255 -0.010756906 -1.5742378e-05
000020 c6 a2 00 00 60 aa f8 bd 22 dc 3a bd 3d aa 21 bd
       5.8392e-41 -0.121418715 -0.04562009 -0.039468993
000030 7a ad fd 3d bc 5f 7d bd 28 d4 37 be 97 d9 1d bd
       0.12386604 -0.061858878 -0.17952025 -0.038537588
000040 b1 1a 1b bd f0 c0 f5 ba f8 60 fb 3e df 98 0d 3d
       -0.03786725 -0.0018749516 0.4909742 0.034569617
000050 38 a9 cb 3f 92 a7 2f be 5a f4 91 bd 32 81 43 bd
       1.5911016 -0.17153767 -0.071266845 -0.047730632
000060 4f 2a 6b bd d9 9f 31 3b 63 9b f8 b1 b7 58 c3 89
       -0.057413395 0.0027103333 -7.2354154e-09 -4.702797e-33
000070 07 88 03 00 9c 1c 00 80 a7 29 31 b8 22 f7 97 b4
       3.24304e-40 -1.0263e-41 -4.223888e-05 -2.8305755e-07
000080 61 22 00 00 af 35 3b bd 68 77 3f bb fb fb 0d a8
       1.2333e-41 -0.045705494 -0.0029215459 -7.881712e-15
000090 e8 db 17 3d 58 c6 22 3d 78 ab 4d 3d 6e de ca b6
       0.037074953 0.039739937 0.050212353 -6.0459633e-06
0000a0 c6 08 d8 a3 b6 81 02 80 03 18 c6 3c d5 2c 7f be
       -2.3422483e-17 -2.30203e-40 0.024181372 -0.24919446
0000b0 5b a8 85 bd 6e 8b 41 b7 d8 00 02 00 1c ff 02 00
       -0.06526252 -1.153616e-05 1.83974e-40 2.75187e-40
0000c0 97 eb 22 af 77 f7 45 02 39 8a 02 00 18 54 7d b8
       -1.4817512e-10 1.4544293e-37 2.33256e-40 -6.039822e-05
0000d0 95 eb 62 b5 ff 93 1b 36 5e b7 47 bb 34 ce 90 bb
       -8.453438e-07 2.3182945e-06 -0.0030474286 -0.0044191126
0000e0 91 6c b2 ba 0c 5c 51 bc 5b 2a e9 3a c7 45 9b b9
       -0.0013612678 -0.012778293 0.0017789112 -0.00029615892
0000f0 0c 44 c6 bc c1 7d d0 3a c5 88 7a a5 39 7f 60 3e
       -0.02420237 0.0015906618 -2.1730383e-16 0.21923532
000100 3d 96 da bc 61 13 b6 3e 74 e3 e1 bd df dd f0 3d
       -0.026682967 0.3556166 -0.11029711 0.117610686
000110 72 36 77 be ad 91 a7 bc c7 7e 24 bb 2d 6a a7 2e
       -0.24141863 -0.020455206 -0.002509998 7.6131414e-11
000120 6f 05 f7 3d af 16 2b 3c a9 db 8c 40 e1 a2 0c ad
       0.12061583 0.01044242 4.401814 -7.994245e-12
000130 a6 be 00 00 a2 d0 00 00 fd ce c0 ba 64 fc be b8
       6.8392e-41 7.4843e-41 -0.0014710125 -9.1069174e-05
000140 1c ab 00 80 8b 54 89 bb 63 b2 cd b7 fe 72 01 00
       -6.1382e-41 -0.0041909865 -2.4520972e-05 1.33087e-40
000150 33 d1 dc b9 96 46 8c a3 be 98 01 00 49 a7 6a b9
       -0.00042117535 -1.5208725e-17 1.46629e-40 -0.00022378298
000160 dd 07 8e 2c d9 37 01 80 b5 d5 81 3d c3 7e 16 bd
       4.0367557e-12 -1.1187e-40 0.063395895 -0.036741983
000170 a8 98 21 c0 fc af c6 3b a0 e2 ef 3d c6 f5 59 be
       -2.5249424 0.0060634594 0.11713147 -0.21285161
000180 ad 7d 7c 90 85 67 01 00 76 b2 01 00 aa 41 72 bd
       -4.9795054e-29 1.28971e-40 1.55855e-40 -0.059144653
000190 29 f0 06 3b 51 ba a7 b1 ca 6e c5 b0 45 e4 99 1c
       0.0020589924 -4.8815214e-09 -1.4365125e-09 1.0183697e-21
0001a0 75 26 02 00 e3 6a 39 b7 2a bf a7 1e a5 09 00 80
       1.97467e-40 -1.1051746e-05 1.7760876e-20 -3.46e-42
0001b0 7a 8c a6 3a 1f 75 aa 3c 18 92 b0 bf 09 71 39 b1
       0.001270666 0.0208078 -1.3794584 -2.6985296e-09
0001c0 f3 50 6e 2d a7 18 01 80 93 e9 7b b8 7f 0c 59 a9
       1.3546708e-11 -1.00679e-40 -6.0060596e-05 -4.8194518e-14
0001d0 e0 af 01 80 df ee 0a bd 47 e7 52 3b a8 2b 86 b6
       -1.54928e-40 -0.03391921 0.003218131 -3.9985935e-06
0001e0 9c 54 0e ba c6 94 11 31 46 0b 00 80 05 83 2d bb
       -0.0005429478 2.1184845e-09 -4.044e-42 -0.0026475799
0001f0 34 b8 10 be 5d 2a e6 bd a4 37 fe b4 89 38 02 80
       -0.14132768 -0.11238549 -4.735167e-07 -2.03952e-40
000200 bf dd 01 00 53 b3 c1 3c 81 55 36 be b1 1c 9a 3d
       1.71383e-40 0.023645079 -0.17806055 0.07525004
000210 ed 3c 7f bd 48 84 39 3a f3 ca 88 29 5a cd 04 ac
       -0.062313963 0.00070769014 6.074819e-14 -1.8872321e-12
000220 68 19 fa a1 24 e1 00 80 ca 62 f3 3c 9c 96 05 3e
       -1.6947384e-18 -8.0765e-41 0.029710192 0.13045734
000230 6c 82 72 be e3 cd b7 bd 48 c7 92 bb cd 43 fd 33
       -0.23682564 -0.08974817 -0.0044793226 1.17935635e-07
000240 d3 8f c9 bc a5 f8 09 39 83 6f 00 00 5a b4 93 b2
       -0.024604714 0.00013157965 4.0003e-41 -1.7195067e-08
000250 10 83 e0 a0 ca 38 00 80 68 1b a7 bd 59 68 cc bd
       -3.8033806e-19 -2.0372e-41 -0.08159524 -0.0998084
000260 73 ed 5e 3d 61 ff 90 bc 19 d6 78 38 b7 4f 01 00
       0.054425668 -0.0176999 5.93272e-05 1.20432e-40
000270 f3 64 c6 a4 4b 00 51 90 44 6d e8 10 b3 d2 ad bb
       -8.6039827e-17 -4.1218208e-29 9.1676215e-29 -0.0053046583
000280 12 ac 1d bd df d4 c6 bd 13 09 ab bc 43 21 87 b9
       -0.038494177 -0.09708571 -0.02087835 -0.00025773988
000290 a8 3e 00 00 57 2c c0 bc 3b 72 0c ba da 49 a1 a6
       2.2477e-41 -0.023458643 -0.0005357598 -1.1191637e-15
0002a0 8f db 4d bc 1d 42 ce 38 a5 cd 00 00 80 94 ef 3c
       -0.012564554 9.83516e-05 7.3771e-41 0.029245615
0002b0 6b a5 11 3d 45 f3 c9 3d b1 57 e0 ab fb 9b b4 1c
       0.035558145 0.09860853 -1.5940497e-12 1.1951721e-21
0002c0 86 5d 43 9d b2 60 21 ba 72 9f 41 b4 5c 80 02 00
       -2.5856386e-21 -0.00061560713 -1.8032532e-07 2.29718e-40
0002d0 6f 32 58 3e 2f 69 07 ba 0d 34 b9 c0 f1 f5 57 bd
       0.21112989 -0.0005165515 -5.787604 -0.052724782
0002e0 7f ad 6c ba 73 1e 84 b6 53 74 02 3d 7f a2 1e be
       -0.00090285385 -3.9374513e-06 0.031849217 -0.15491675
0002f0 8c 7e 4c be 52 89 f4 bc ba 2e cd 3b 8b d2 14 bd
       -0.19970149 -0.029850636 0.0062616738 -0.036333602

bias f4 [64]
000000 60 ac 00 80 88 f8 f6 bd 37 b5 c6 ae 6b a5 bf bb
       -6.1836e-41 -0.12059122 -9.036188e-11 -0.005848577
000010 eb bd af be c7 2f 37 be 74 bb 3b bf b0 d1 96 bd
       -0.34324583 -0.1788932 -0.73332906 -0.073642135
000020 92 7e 89 bc 78 fa 01 00 0e 2a a8 23 9c 66 ed b9
       -0.016783986 1.81687e-40 1.8232407e-17 -0.00045280613
000030 96 ac 07 be 03 bb 00 80 94 62 de bd 27 2b 01 80
       -0.1324943 -6.7087e-41 -0.10858646 -1.07316e-40
000040 e2 7e 01 80 89 dd fb b6 a9 b5 54 bd 91 88 f8 bc
       -1.37352e-40 -7.506173e-06 -0.051931057 -0.030338557
000050 45 e0 67 b9 8d 50 87 be e6 37 bf 3d 34 2a 16 36
       -0.00022113424 -0.26428643 0.09336834 2.2376307e-06
000060 04 40 50 be aa 47 01 00 b1 56 75 b1 3a 41 c1 af
       -0.2033692 1.17544e-40 -3.570147e-09 -3.5152842e-10
000070 5b f5 00 00 61 a0 00 80 f0 e5 49 bf a6 9c 0d 3d
       8.8017e-41 -5.7533e-41 -0.7886648 0.03457322
000080 f8 f9 02 00 67 37 99 39 1b 4f 01 80 f5 11 07 80
       2.73343e-40 0.00029223712 -1.20213e-40 -6.4929e-40
000090 67 a9 e4 3e b4 41 00 80 36 34 00 80 97 78 80 bc
       0.44660494 -2.357e-41 -1.873e-41 -0.015682502
0000a0 3e 80 fe 9f 35 5e 03 3d 4b 7f 03 80 c4 b3 48 be
       -1.0778534e-19 0.032072265 -3.2117e-40 -0.19599825
0000b0 fc e1 74 3a d5 b6 00 80 77 7a af 3d 69 f1 1d 3c
       0.00093415356 -6.5588e-41 0.0856828 0.009640076
0000c0 1d cb c6 ab 0e 59 dc 83 f0 47 22 3d 74 dd ae ab
       -1.4125121e-12 -1.2950884e-36 0.039619386 -1.2424909e-12
0000d0 53 57 94 11 83 c5 a7 bd 94 55 0f ac 11 c0 51 b9
       2.34041e-28 -0.08191969 -2.0369028e-12 -0.00020003344
0000e0 0f 86 6b b4 4f 20 09 be 36 5c 2e 9e 95 6b e4 9b
       -2.1934851e-07 -0.13391231 -9.230552e-21 -3.778896e-22
0000f0 1e 03 51 3f 02 08 5c bc 37 1d d5 be 2c 8f bb bd
       0.8164538 -0.013429644 -0.41623852 -0.09158167

weight f4 [64, 64]
000000 f8 66 91 31 91 9f e2 3c fc 20 02 80 fb 68 10 91
       4.2317616e-09 0.027663978 -1.95504e-40 -1.1391947e-28
000010 ed d5 5d 91 e6 08 e2 11 5d 35 c7 bb e7 a2 93 95
       -1.7499747e-28 3.5661997e-28 -0.0060793594 -5.962984e-26
000020 ec a6 04 2b 85 e2 01 80 b7 51 01 00 84 3c b2 2e
       4.712747e-13 -1.73095e-40 1.21149e-40 8.1052526e-11
000030 43 d2 e6 ba 61 79 01 80 74 09 9c 3c 2a 21 1c b5
       -0.001761027 -1.35378e-40 0.019047476 -5.816279e-07
000040 c0 57 c2 ac bb 7a 00 80 c6 9d 64 a7 56 3d 00 80
       -5.523554e-12 -4.4027e-41 -3.1726885e-15 -2.2003e-41
000050 f5 e0 00 80 4b 29 12 3c 69 d4 e0 10 03 13 00 00
       -8.07e-41 0.008920978 8.867969e-29 6.82e-42
000060 99 ca a3 bd 96 b1 00 00 fa 72 e4 27 80 f0 24 2d
       -0.07997627 6.3706e-41 6.340737e-15 9.375722e-12
000070 77 17 00 80 b0 65 00 00 3d cb 93 bb 33 22 02 80
       -8.418e-42 3.6479e-41 -0.004510312 -1.9594e-40
000080 3f f4 00 00 72 11 02 80 d1 f0 00 00 18 1b 01 80
       8.7619e-41 -1.89929e-40 8.6389e-41 -1.01555e-40
000090 47 ba 64 bd f8 e5 bd a5 e4 ef 02 00 e2 31 f8 8f
       -0.05584171 -3.2942107e-16 2.69728e-40 -2.4473902e-29
0000a0 c4 51 00 80 96 4a ee bb e8 1e 01 00 dc 82 a0 bb
       -2.9332e-41 -0.007272075 1.02923e-40 -0.004898412
0000b0 c5 0d 02 80 10 0b 12 ac 86 77 1d be bc 76 6f 00
       -1.8861e-40 -2.0753989e-12 -0.15377626 1.0236334e-38
0000c0 c7 59 03 b9 67 08 01 00 b8 c2 65 b3 90 b0 01 80
       -0.00012526578 9.485e-41 -5.3495313e-08 -1.55174e-40
0000d0 02 30 5f 8f fc d2 a5 2a 64 19 03 80 c2 e1 33 1e
       -1.1003995e-29 2.9456288e-13 -2.84615e-40 9.522867e-21
0000e0 34 2a 09 b8 a5 07 cb 3b 64 f2 00 80 34 0c 74 23
       -3.270265e-05 0.0061959797 -8.6953e-41 1.3229851e-17
0000f0 bc 87 04 3c 6c 83 31 12 be ac f5 b9 07 5f 03 80
       0.008089002 5.601334e-28 -0.00046858744 -3.09596e-40
000100 4a be 00 00 a2 b5 07 3f 6c 92 02 80 51 10 a9 3c
       6.8263e-41 0.53011525 -2.36197e-40 0.020637663
000110 6b 4c 16 3d 9d 70 26 bc 12 45 c5 3e cf 9a 0a 3c
       0.03669397 -0.010158685 0.3852926 0.008459761
000120 c4 c9 d2 b4 bf 31 00 00 f9 5f 00 00 10 2f 65 38
       -3.9262352e-07 1.7846e-41 3.4429e-41 5.4641685e-05
000130 37 b0 0b 3c 59 0b 02 00 3e 79 83 bc 10 ba e9 2d
       0.0085259 1.87742e-40 -0.016049024 2.6571662e-11
000140 73 9d 00 00 30 19 d3 b6 fb ba 0e 3c dd fc 84 3b
       5.6482e-41 -6.2912222e-06 0.008711572 0.004058464
000150 79 8d 9c 2e 33 ef 43 3d 85 53 5c 3b 1e f1 93 21
       7.119189e-11 0.04783554 0.0033619117 1.0024931e-18
000160 9c a3 28 3e 1c f8 00 80 ef 96 19 35 4a ea c1 32
       0.16468662 -8.9005e-41 5.721658e-07 2.25747e-08
000170 a1 68 00 80 b4 a4 00 80 91 d2 11 3f 44 0e b4 3c
       -3.7534e-41 -5.9084e-41 0.56961924 0.021979459
000180 f8 f7 02 00 01 ce ad 31 69 de 72 80 14 6c 02 80
       2.72625e-40 5.0583826e-09 -1.0549032e-38 -2.22442e-40
000190 44 52 a9 3c 0a 27 01 80 a7 0e 03 00 52 56 2d ba
       0.02066911 -1.0584e-40 2.80763e-40 -0.0006612289
0001a0 70 16 d4 a2 81 18 a8 3c 26 b9 e6 af a2 55 76 bd
       -5.748647e-18 0.020519497 -4.1968312e-10 -0.06014026
0001b0 81 0e 13 38 a0 81 01 00 50 b9 eb bc 74 29 c2 39
       3.506104e-05 1.38336e-40 -0.028774887 0.00037033448
0001c0 47 7f 95 b1 f9 2e 02 80 69 ed c0 3c d8 6c 01 80
       -4.3509405e-09 -2.00522e-40 0.023550706 -1.30881e-40
0001d0 46 b0 13 91 4d 84 67 3c cb 1f 00 80 e5 ac 88 bd
       -1.1650574e-28 0.014130664 -1.1405e-41 -0.06673602
0001e0 0f 70 a4 2a 08 44 a2 3c 08 ab 7f 9c b9 f2 5b 1c
       2.9210008e-13 0.01980783 -8.4593475e-22 7.2774733e-22
0001f0 d0 2f 96 3e bd 8b ba 3a a0 e3 4e bd ae 92 c4 bc
       0.29333353 0.0014232319 -0.05051005 -0.023995724
000200 78 5e 02 80 e7 52 5e b4 df 5c 01 00 00 3f 16 99
       -2.1756e-40 -2.0705521e-07 1.25151e-40 -7.767541e-24
000210 d0 5f 9e 9b 44 08 60 9b d5 87 99 b9 14 60 31 9d
       -2.6200825e-22 -1.8531516e-22 -0.00029283637 -2.3475426e-21
000220 11 79 02 00 d0 7f 70 b8 4c d9 01 80 71 df 9b 01
       2.27101e-40 -5.7339494e-05 -1.69787e-40 5.725863e-38
000230 2a c1 06 b0 18 b2 c3 36 2f 3a c9 9d c5 14 0a ac
       -4.902342e-10 5.8321857e-06 -5.3264417e-21 -1.9622509e-12
000240 f2 17 f0 b5 e4 99 00 80 99 a0 95 84 fb 12 00 00
       -1.7888362e-06 -5.5206e-41 -3.5177217e-36 6.809e-42
000250 5a 24 01 00 3b 9d 33 2f a0 c7 de b2 75 d9 01 00
       1.04876e-40 1.6335815e-10 -2.593498e-08 1.69844e-40
000260 2e 18 5b b5 8f 2a 00 00 24 6b 37 80 91 94 00 00
       -8.1619044e-07 1.5267e-41 -5.089387e-39 5.3296e-41
000270 4f e5 b1 26 76 2a 53 2b f6 17 35 1d 33 77 18 b5
       1.2343996e-15 7.5021185e-13 2.3967538e-21 -5.679787e-07
000280 2d e5 00 00 2a 6a 01 80 0e 33 e2 2f e9 8f 00 80
       8.2213e-41 -1.2992e-40 4.1145437e-10 -5.1625e-41
000290 f2 ab 2b b1 ca b9 ce 27 a1 96 00 80 52 39 f3 35
       -2.4981515e-09 5.737792e-15 -5.4035e-41 1.8121593e-06
0002a0 f2 e6 00 80 66 e2 8c ad a9 a8 9e 2a b1 c0 77 9c
       -8.2848e-41 -1.6016698e-11 2.818347e-13 -8.197449e-22
0002b0 e8 12 02 80 40 f9 93 31 dc 3b 47 31 d6 25 0e 00
       -1.90453e-40 4.3065995e-09 2.8992337e-09 1.29927e-39
0002c0 72 fd 61 b1 89 67 02 00 66 bf 74 9c df 3d 00 80
       -3.2885876e-09 2.20812e-40 -8.0980204e-22 -2.2195e-41
0002d0 83 5c 34 89 4b ad fd 31 d1 8b 02 80 b6 e0 74 1f
       -2.171021e-33 7.3829702e-09 -2.33828e-40 5.1854886e-20
0002e0 a0 3e 02 00 68 0f c0 2e b0 05 91 b4 ac ae 00 00
       2.06137e-40 8.733886e-11 -2.7012493e-07 6.266e-41
0002f0 1c b0 f9 b6 e3 58 e8 06 f7 2d d3 1c 3f 6c 00 00
       -7.44128e-06 8.739931e-35 1.397469e-21 3.8831e-41
000300 28 50 00 80 d9 f4 4f 3f ce 08 a2 b5 3c d0 75 3c
       -2.8755e-41 0.8123298 -1.2072503e-06 0.01500326
000310 c6 c1 a2 be ab a4 34 3c 1a 3b b9 bd 23 31 b8 3b
       -0.31788462 0.011025588 -0.09044476 0.005621092
000320 89 f8 da b1 c1 6a 01 00 70 4c 01 00 1a f6 69 33
       -6.37289e-09 1.30132e-40 1.19256e-40 5.4473368e-08
000330 14 78 1c 3d 0c 56 01 00 a3 09 39 3d ec 85 03 80
       0.038200453 1.22703e-40 0.045175206 -3.23549e-40
000340 c8 3b 00 00 c2 97 a9 b5 d6 81 af 38 fa 83 f9 39
       2.1445e-41 -1.2635649e-06 8.368834e-05 0.0004759131
000350 52 82 c7 0b 1d a7 8d be 3a 39 e1 3d fb b3 95 88
       7.6848096e-32 -0.2766656 0.10997243 -9.0099245e-34
000360 27 c6 7d bf 8f 2f 01 00 4b 38 15 2c e9 a5 74 31
       -0.9913048 1.08896e-40 2.1205422e-12 3.5600982e-09
000370 17 52 03 00 c4 5f 00 00 83 8b 09 bd 4f 08 1f 3c
       3.04955e-40 3.4354e-41 -0.033580314 0.009706571
000380 8d 27 00 80 1d 08 42 a2 a8 00 00 80 b3 6a 01 80
       -1.4188e-41 -2.6296198e-18 -2.35e-43 -1.30112e-40
000390 76 f0 05 bd c9 cb 00 00 6c 1e 00 80 d5 45 c2 38
       -0.032700025 7.3104e-41 -1.0913e-41 9.263648e-05
0003a0 ab fc 00 80 05 3d 89 be 16 5b 01 80 8f de 21 be
       -9.064e-41 -0.26804367 -1.24511e-40 -0.15807556
0003b0 59 12 94 b3 1b 70 01 80 1f 2d 46 3e bb ad c1 b4
       -6.8951245e-08 -1.32051e-40 0.1935315 -3.6075457e-07
0003c0 fc 1f a8 21 5c 47 00 00 99 b0 8d 3d fe 9a 01 80
       1.1392589e-18 2.5599e-41 0.06918449 -1.47436e-40
0003d0 f9 05 63 0f 3f 82 31 3d 7b fb 36 2a 27 8c c7 b9
       1.11931144e-29 0.043337103 1.6252097e-13 -0.0003806066
0003e0 59 19 a9 9f c6 55 94 bd 08 56 66 99 f7 5c 00 00
       -7.161622e-20 -0.072429225 -1.1908095e-23 3.335e-41
0003f0 86 75 35 3f 0b f6 02 b7 de 46 92 be 48 bd 25 3d
       0.7088245 -7.80589e-06 -0.28569692 0.040463716

bias f4 [64]
000000 87 a3 1c be e8 48 70 be 70 5f 2d b3 52 17 99 be
       -0.15296756 -0.23465312 -4.03665e-08 -0.29900604
000010 00 f7 e7 b8 ec 16 06 ba 6a da f1 3f 97 98 45 be
       -0.00011060946 -0.000511511 1.889478 -0.1929649
000020 40 b0 43 3e ce 91 0c be fe fc 0d be 81 7c ae b6
       0.19110203 -0.13727495 -0.1386604 -5.2000983e-06
000030 26 50 81 bd 10 6d 64 b8 cc e7 4c a9 4e 4e 0b 93
       -0.06314115 -5.446101e-05 -4.549815e-14 -1.7582874e-27
000040 3b ad ae bb 64 5a 78 27 b4 a5 7c 3c 54 d7 b6 bc
       -0.0053307093 3.4465915e-15 0.015420366 -0.022319473
000050 0c d1 30 be e0 01 e2 bc 6d 74 86 be c8 20 2d 40
       -0.17267245 -0.027588785 -0.262607 2.7051258
000060 4a 4c 16 b0 10 a3 8c b8 a1 38 d3 3c 9f 7d fe be
       -5.4678095e-10 -6.706093e-05 0.025783839 -0.49705216
000070 d2 a4 b2 b8 cc eb 4e be bc 5a 29 be 60 40 fd bd
       -8.5184016e-05 -0.20207137 -0.16538519 -0.12365794
000080 c5 d4 38 97 da be 01 80 b5 1b 33 be d4 ae 4e 3e
       -5.972216e-25 -1.603e-40 -0.17491038 0.20183879
000090 c7 05 c3 bd 83 b2 50 3e 76 36 a4 be 8e 46 76 3f
       -0.09522586 0.20380597 -0.320728 0.9620141
0000a0 28 0f a5 be 7a 7f 69 be 47 e0 05 be ab f1 6e bd
       -0.32238126 -0.22802535 -0.13073836 -0.05833594
0000b0 8b 7f 87 bd aa c1 25 be 10 59 35 40 d6 42 b8 bb
       -0.06616124 -0.16187158 2.833561 -0.005623202
0000c0 8c 71 18 be f4 a9 41 be 1e e7 6b b9 08 52 1d ba
       -0.14887065 -0.18912488 -0.00022497444 -0.00060012983
0000d0 0e 98 1f be 4f 74 89 3f f3 12 45 bf 33 8b 57 be
       -0.15585348 1.073862 -0.7698204 -0.21049194
0000e0 95 d1 5f be 3f ee d1 bd bb f6 85 be f6 49 e4 b3
       -0.21857293 -0.1025052 -0.26164803 -1.0630531e-07
0000f0 64 5f 63 be 58 9d 6d 3c b0 cd c0 bd c7 57 7c bd
       -0.22204357 0.014502846 -0.09414232 -0.06160715

weight f4 [64, 64]
000000 58 7f 28 08 9f 21 ca b9 06 c8 2e 12 3c ae 90 26
       5.0705353e-34 -0.00038553492 5.5151267e-28 1.0039234e-15
000010 2e d3 00 80 fc 13 01 80 21 78 90 a3 cd 55 06 80
       -7.5757e-41 -9.9005e-41 -1.5663388e-17 -5.81792e-40
000020 3a 03 24 23 17 e1 25 b6 8e 99 a7 a0 94 bd 00 00
       8.891141e-18 -2.4717936e-06 -2.8392514e-19 6.8008e-41
000030 75 43 8d a4 e8 27 01 80 21 ce 67 a6 49 44 02 80
       -6.126328e-17 -1.06151e-40 -8.042358e-16 -2.08167e-40
000040 68 67 7b aa 44 9f f8 b6 34 5e 92 b3 ed 59 a2 22
       -2.2329155e-13 -7.409517e-06 -6.81579e-08 4.40054e-18
000050 bf fc 01 88 43 86 ad 1d e7 24 c1 b2 f3 15 db ad
       -3.9116627e-34 4.5931542e-21 -2.2484938e-08 -2.4907165e-11
000060 88 96 1b b1 7e 31 39 b3 12 5c 34 20 ec b5 b1 27
       -2.2641036e-09 -4.3118682e-08 1.5277057e-19 4.932461e-15
000070 10 a9 82 b7 a2 c4 d2 24 c9 93 f8 b7 0f b7 36 b7
       -1.5575934e-05 9.140609e-17 -2.9632722e-05 -1.0890667e-05
000080 6e 08 aa b5 e1 97 38 80 8e 89 58 b8 33 df a0 a7
       -1.266844e-06 -5.197272e-39 -5.162652e-05 -4.4650914e-15
000090 70 cf 33 a2 24 ae 60 b0 f7 98 80 b7 00 ce d9 22
       -2.436884e-18 -8.1738194e-10 -1.5330019e-05 5.903608e-18
0000a0 14 3b 2d 26 ae 46 3c 88 6e f7 14 b4 73 09 00 00
       6.01015e-16 -5.6657276e-34 -1.3873589e-07 3.39e-42
0000b0 0e 5b 27 89 b4 f8 d8 14 b3 79 61 b6 a0 f3 02 00
       -2.0144708e-33 2.1908522e-26 -3.359845e-06 2.71067e-40
0000c0 4c e5 19 2b 41 46 1c a4 54 b9 00 80 82 f1 bc b3
       5.467473e-13 -3.3886615e-17 -6.6483e-41 -8.798362e-08
0000d0 f0 e5 3f b0 42 9b de a2 6b b5 43 2b 94 82 6e 00
       -6.9812156e-10 -6.0337606e-18 6.9529685e-13 1.0148747e-38
0000e0 f2 37 cb a5 20 d9 1e 06 6c 00 17 25 a9 b3 01 00
       -3.5252797e-16 2.9876015e-35 1.3097305e-16 1.56285e-40
0000f0 ae bb bb b6 79 cc 35 21 91 3d 9d 12 4f 26 fa a7
       -5.594883e-06 6.1595803e-19 9.92327e-28 -6.9430473e-15
000100 40 16 01 80 fa b9 85 bb aa 80 02 80 96 1a 6b a7
       -9.9817e-41 -0.004081008 -2.29827e-40 -3.2627214e-15
000110 55 99 00 00 80 7d 02 00 13 de 01 00 46 56 02 00
       5.5005e-41 2.28692e-40 1.71501e-40 2.1462e-40
000120 e0 40 03 80 f2 72 01 00 30 76 a8 b8 a4 9c 00 00
       -2.98779e-40 1.3307e-40 -8.0328784e-05 5.6192e-41
000130 c9 6e 06 a7 f0 0a 01 00 f3 dd 01 00 43 d4 00 80
       -1.8656292e-15 9.5759e-41 1.71456e-40 -7.6145e-41
000140 f2 5a 04 29 28 d2 00 00 d0 0a 02 80 a6 17 0c aa
       2.938877e-14 7.539e-41 -1.8755e-40 -1.2442703e-13
000150 f1 6b cf ac 57 e5 00 80 35 1b cd b9 46 74 78 b4
       -5.8952778e-12 -8.2272e-41 -0.00039120918 -2.31391e-07
000160 95 2c 02 00 e6 e2 01 00 e2 cc d3 a5 1e 7f 10 b5
       1.99664e-40 1.73231e-40 -3.67415e-16 -5.382916e-07
000170 70 eb 56 b6 67 ab 94 ac 48 f0 01 80 bc 8d 70 00
       -3.2025528e-06 -4.2254425e-12 -1.78032e-40 1.033642e-38
000180 0d 13 01 00 e9 83 00 80 d4 dd 55 bb 6e 3c 00 80
       9.867e-41 -4.732e-41 -0.003263344 -2.1678e-41
000190 f5 95 3e ad 04 95 8f b6 ad 2d 01 00 43 50 ef af
       -1.0833547e-11 -4.27908e-06 1.08221e-40 -4.3530876e-10
0001a0 99 56 49 80 72 dd b9 a9 ad de a9 b9 42 76 02 80
       -6.735057e-39 -8.254065e-14 -0.00032400098 -2.26094e-40
0001b0 d6 b2 00 80 70 c4 00 80 80 3e a4 b9 04 3e 00 00
       -6.4154e-41 -7.0468e-41 -0.00031327084 2.2247e-41
0001c0 25 70 08 ba a1 52 01 00 7b 7d 01 80 19 8c 62 80
       -0.0005204699 1.21477e-40 -1.3685e-40 -9.050136e-39
0001d0 8d 28 fa b9 d0 e5 00 00 63 82 c8 b5 48 0b 00 00
       -0.00047713929 8.2441e-41 -1.4939109e-06 4.047e-42
0001e0 1d ef 00 80 27 f7 00 80 4e 83 00 00 4f 7a 00 00
       -8.5778e-41 -8.8662e-41 4.7103e-41 4.3876e-41
0001f0 e6 a2 ac ba 63 33 95 9b 53 ca 02 00 bb 6f 87 b2
       -0.0013171106 -2.468319e-22 2.56251e-40 -1.5766878e-08
000200 fd 60 bf 3b 64 e6 03 3e 4e 89 b1 b0 84 f0 81 3b
       0.0058404193 0.12880856 -1.2917469e-09 0.0039654393
000210 2f 03 17 b7 53 d2 68 34 9c 02 14 3c 7a 0e c3 3c
       -9.001043e-06 2.1683199e-07 0.009033825 0.023810614
000220 a0 06 95 bd 04 8f 96 3e e7 38 9a 3d be 0f 00 80
       -0.07276654 0.29405987 0.075303845 -5.647e-42
000230 79 66 e2 bc 27 86 a4 32 fb f2 01 00 dc 9c 81 90
       -0.027636753 1.9153118e-08 1.79e-40 -5.112321e-29
000240 c6 7a 02 36 79 16 2c 26 8a b8 52 bb 57 3b 9d bc
       1.9442973e-06 5.9704944e-16 -0.003215345 -0.019193335
000250 52 8c fe 3c 74 1c 5d bd 79 9f c4 3d 5f 78 ad bc
       0.03107277 -0.053982213 0.096007295 -0.021175561
000260 99 82 93 86 fe 13 03 00 6b 4e 9f bb 2c 61 3e 3d
       -5.548715e-35 2.82678e-40 -0.004861643 0.04647939
000270 32 e6 3f b3 25 3e 3b 3d e9 70 51 3e 48 c3 2c 3e
       -4.4680014e-08 0.045713563 0.20453228 0.16871369
000280 83 42 a8 0b 86 30 00 80 64 ec 42 3e 13 cf 19 be
       6.481132e-32 -1.7407e-41 0.19035488 -0.15020399
000290 52 d6 98 3d 93 db 51 3c e7 d3 7e 3d 80 87 91 3c
       0.07462753 0.012808698 0.062213805 0.017764807
0002a0 03 4a 14 3c 77 e5 42 3d 9c 14 c2 3d 97 a2 d3 3b
       0.009050849 0.047582116 0.09476587 0.006458591
0002b0 43 96 ae b9 e4 01 e2 bb 37 bf ba bc 2d a3 e3 b7
       -0.0003329982 -0.006897198 -0.022796256 -2.7136493e-05
0002c0 7d 8a d7 3d 31 ad 03 3c f9 51 03 00 1c 69 36 35
       0.105244614 0.0080368975 3.04913e-40 6.795324e-07
0002d0 62 13 f8 3d 52 e6 d1 3a 54 b6 c2 3c 83 b5 e5 3c
       0.12113072 0.0016014075 0.023768581 0.028040653
0002e0 2f a4 07 3d 62 98 d6 ba 3c 51 36 3c 9e 25 53 87
       0.033115562 -0.0016372318 0.011127766 -1.588493e-34
0002f0 b5 64 d5 3d bd 35 35 3d 4f 23 81 bb a8 1a 8a 3c
       0.10419599 0.044240702 -0.0039409767 0.016858414
000300 03 1a 01 00 8a b6 ba a9 89 ec 6f 91 af d6 8f 12
       1.01167e-40 -8.291725e-14 -1.8926664e-28 9.077492e-28
000310 f6 7f 02 80 72 a7 02 00 37 e3 64 15 db fb 00 80
       -2.29575e-40 2.43739e-40 4.6223474e-26 -9.0349e-41
000320 86 52 3f 95 20 97 a3 95 50 65 f3 15 a0 fa a9 a3
       -3.8637242e-26 -6.607361e-26 9.830676e-26 -1.842916e-17
000330 52 ba 3b 15 b5 12 01 00 61 d9 00 00 ba 93 00 80
       3.791133e-26 9.8546e-41 7.7981e-41 -5.2994e-41
000340 47 47 01 00 71 70 00 80 df 62 02 80 50 68 91 94
       1.17405e-40 -4.0336e-41 -2.19139e-40 -1.4682402e-26
000350 c6 cb 00 00 50 18 cb 94 38 fe ba 97 1f 6d b7 b1
       7.31e-41 -2.0507351e-26 -1.2084142e-24 -5.3384066e-09
000360 81 e9 00 00 81 60 00 00 6a e2 a5 96 4d 35 3f 99
       8.3765e-41 3.4619e-41 -2.6800075e-25 -9.8852326e-24
000370 56 ad 00 00 97 ef 55 91 a5 64 1b 97 24 12 0d 98
       6.2181e-41 -1.6876567e-28 -5.021023e-25 -1.8232982e-24
000380 0b 09 00 00 fe cf 02 00 49 30 c4 a5 5a ba ca 97
       3.244e-42 2.58285e-40 -3.40333e-16 -1.3100986e-24
000390 1e 90 a5 96 79 94 5d 16 c7 95 01 80 81 83 37 1e
       -2.6748138e-25 1.7899088e-25 -1.45565e-40 9.715134e-21
0003a0 2e 56 e4 14 05 31 01 80 1d e1 37 22 2a f0 01 00
       2.3056109e-26 -1.0942e-40 2.4920299e-18 1.7799e-40
0003b0 69 85 19 15 3c d9 98 15 67 01 21 af de 69 00 80
       3.1003346e-26 6.1735046e-26 -1.4643363e-10 -3.7978e-41
0003c0 90 b5 50 97 9a 77 83 96 37 36 01 80 79 b2 98 02
       -6.743759e-25 -2.123967e-25 -1.11284e-40 2.243683e-37
0003d0 3a f4 70 97 49 02 d8 91 88 d1 03 95 50 f7 00 00
       -7.785644e-25 -3.40802e-28 -2.662053e-26 8.8719e-41
0003e0 66 3b 01 00 08 c2 34 12 c3 9f 10 15 c3 a6 00 80
       1.13144e-40 5.7037147e-28 2.9206598e-26 -5.9823e-41
0003f0 12 83 7b 9b 1b 25 86 97 67 be 00 80 ac 07 63 16
       -2.0804584e-22 -8.668914e-25 -6.8303e-41 1.8339335e-25

bias f4 [64]
000000 43 1e 2d a6 a5 a8 05 00 82 bd 9d bd e4 29 e4 95
       -6.0062445e-16 5.19676e-40 -0.07702161 -9.215456e-26
000010 fa e3 57 3f 10 11 cd 3f 43 5f dc 3d ba 5d 0e be
       0.8433224 1.6020832 0.10760357 -0.13902941
000020 d1 fc 03 b0 88 9b ff bd 1b e8 77 bd 0b 4e 00 00
       -4.8016796e-10 -0.12480837 -0.060524087 2.7997e-41
000030 de 65 b1 a0 0d 13 8d b6 c4 8f 69 bd 4d 82 42 a2
       -3.0052376e-19 -4.2043453e-06 -0.05702187 -2.6360883e-18
000040 06 67 09 bb 43 98 bd be fb 2b 9f a1 77 be 33 be
       -0.0020965948 -0.3703023 -1.0785901e-18 -0.17553125
000050 23 d9 83 bc 18 d9 a6 b6 f3 dc 86 9b d2 aa ea a6
       -0.01609475 -4.9724586e-06 -2.2311226e-22 -1.6283313e-15
000060 e7 f6 6c 8f 17 e2 a0 b9 fd 5f 49 b8 81 e6 2d bd
       -1.168325e-29 -0.00030686028 -4.801153e-05 -0.042456154
000070 8d 7b 92 be 52 ad 27 8e c0 ef e9 bc 18 ef 09 bd
       -0.28609887 -2.066779e-30 -0.028556705 -0.033675283
000080 35 55 3e bd ab 95 01 b7 b2 19 ce 3a 14 68 cd bd
       -0.04646798 -7.7238465e-06 0.001572421 -0.10029617
000090 98 90 00 80 1a 6c 85 3f 40 74 5a bd c3 d7 a7 af
       -5.187e-41 1.0423615 -0.05333352 -3.053043e-10
0000a0 74 4e d8 bb d2 2f a0 bc a6 2d a4 be 33 80 66 a3
       -0.006601149 -0.019554053 -0.32066077 -1.2495472e-17
0000b0 91 a1 5a be f0 d1 24 bd c3 93 51 b9 6e 16 b9 b3
       -0.21350695 -0.040239275 -0.00019986839 -8.618814e-08
0000c0 2e 04 62 b4 fc 34 b5 bb 5e c8 95 36 41 c4 aa 3f
       -2.1049411e-07 -0.005529998 4.463872e-06 1.3341142
0000d0 f6 cf 2a 2d 52 3e 05 bb 56 60 64 b8 a4 7c ff bd
       9.709558e-12 -0.0020331335 -5.4449156e-05 -0.12474945
0000e0 31 ab 10 bc ce c7 64 ba 74 60 77 b7 c1 e9 ba 23
       -0.008829878 -0.0008727283 -1.47448045e-05 2.0265159e-17
0000f0 cf 2c b9 be e7 a7 e2 a2 21 0f d3 b3 31 31 7a b7
       -0.36167 -6.1435196e-18 -9.828205e-08 -1.49126145e-05

weight f4 [1, 64]
000000 a7 ef 83 b9 5a 56 45 b9 38 74 b0 3d dd 0d 39 b9
       -0.00025164822 -0.00018819552 0.08615917 -0.0001764814
000010 95 34 00 bf 71 50 a0 bf 1f a1 9b 3d 45 e6 8d 3d
       -0.50080234 -1.2524549 0.07599091 0.06928686
000020 65 b1 7c 3b 88 96 18 3e 89 de d3 3d 48 d2 e6 33
       0.0038557884 0.14901173 0.103451796 1.07484595e-07
000030 96 bb 97 bc 13 a2 7c 3b 62 9b 95 3c 75 8e dd 3a
       -0.018522065 0.0038548752 0.018262569 0.0016903417
000040 98 e1 e9 3c 02 cb 79 3e 2a f8 16 3b d6 a4 c7 3d
       0.028549954 0.24393848 0.00230361 0.09748237
000050 e9 16 f8 3c 57 45 c1 3d 4a 7c 00 b9 6e f9 63 3a
       0.030284362 0.09437054 -0.00012253333 0.0008696531
000060 dc 3b 99 ba 42 e7 58 3c a8 b0 ba b9 f8 82 3a bd
       -0.0011690813 0.01323873 -0.00035608304 -0.045535058
000070 65 ce d4 3e aa 73 c3 b8 3c 52 e1 3c fc 20 b2 3d
       0.41563717 -9.319869e-05 0.027505033 0.086976975
000080 3b 9e 4d 3e 9b 27 82 bb ad 5c a5 bb 22 19 7e 3d
       0.20079891 -0.0039720065 -0.005046448 0.062035687
000090 67 56 40 35 8f 0d 41 bf 48 c2 07 3c 56 8d 31 3c
       7.1651306e-07 -0.75411314 0.008286066 0.01083692
0000a0 2e c3 85 3c 7d 31 e8 3c 24 53 8b 3e 1e cb bb 3b
       0.01632842 0.02834391 0.2721187 0.0057310006
0000b0 7f b1 c3 3e 70 f5 db 3d 58 74 1c bb 82 0e 46 bc
       0.38221356 0.10740173 -0.0023873057 -0.01208842
0000c0 7c 8b a8 bb 86 bb ed 3c e0 b0 68 ba 6f fb 80 bf
       -0.005143581 0.029020082 -0.0008876454 -1.0076731
0000d0 ee 1a 48 3a 70 c0 26 bc fe 04 08 3b b3 f1 45 3c
       0.00076334074 -0.010177717 0.0020754929 0.012081551
0000e0 28 0f 3f 3d ff a2 76 bb 0f 6a 9a 3b 44 d2 a4 39
       0.046645314 -0.0037633774 0.00471235 0.00031437178
0000f0 e8 e1 02 c0 97 9e 1a bc d3 09 cf bb 08 94 6f bc
       -2.0450382 -0.009437225 -0.00631831 -0.014622696

weight f4 [1, 64]
000000 68 54 6b ad 42 44 9b b2 05 1e fa bc f8 0b c5 37
       -1.3376945e-11 -1.8075415e-08 -0.030531893 2.3489803e-05
000010 63 0e 2d 3d 1c 09 24 be 95 32 a4 be 5f 13 ca 3c
       0.04225005 -0.160191 -0.3206984 0.02466744
000020 93 04 53 38 98 98 d9 3d 6d 9a 89 3d ad 4c 96 a3
       5.031058e-05 0.10624808 0.067189075 -1.6295506e-17
000030 b0 0b ff ba 1e 1b ae 36 b4 b7 58 3d 9b e9 69 b9
       -0.0019458439 5.188761e-06 0.052909568 -0.00022307636
000040 6b 8f ae 3c 0d c5 d3 3c 0a ff 57 bb 58 bc 24 3f
       0.021308621 0.025850797 -0.0032958412 0.6434989
000050 e4 f4 2c 3d ff 8f 9c 3b b6 4c e2 b8 db 2f a0 32
       0.042225733 0.004777908 -0.00010790808 1.8648214e-08
000060 2d 99 ce ae 46 75 15 b9 1b 96 c1 b9 43 d6 bd bd
       -9.395005e-11 -0.00014253435 -0.00036923666 -0.09269383
000070 03 4c 00 bd 86 e4 d2 b9 db 31 82 3c 5c 00 9c 3d
       -0.03132249 -0.00040224585 0.015892914 0.07617256
000080 74 40 b1 bd d8 71 3e bb b2 7b 41 3b 93 e7 fb 3d
       -0.086548716 -0.0029059555 0.002952319 0.12300029
000090 c6 d5 37 27 e6 68 77 3c b7 ef ba bc b4 f7 30 b6
       2.5512239e-15 0.015100693 -0.022819383 -2.6370226e-06
0000a0 bb 9d 3b bd 1f 6c fb bb ad cf c0 3c 0e df cb 35
       -0.04580472 -0.007672801 0.023536528 1.5189596e-06
0000b0 27 59 00 be ff 4a 39 3e 0a 2e 13 ba c3 aa df 37
       -0.12534009 0.18095015 -0.00056144653 2.6663189e-05
0000c0 41 42 6c 3b 02 12 8f ba 24 0a 97 bc 0f f5 6d bd
       0.0036050233 -0.0010915401 -0.018437453 -0.058095034
0000d0 80 af 8b b9 1a c8 1c 3d 69 f4 6d bb 5e 5c b8 3b
       -0.00026642904 0.03827677 -0.003630901 0.0056262454
0000e0 ac 05 8e 3d b8 77 ae 3b 10 d4 ea b9 33 5a 16 ba
       0.069346756 0.00532433 -0.00044789957 -0.00057354866
0000f0 d4 eb 36 be d8 1d 93 39 bd b1 27 3b 19 ee 0a 36
       -0.17863399 0.0002806026 0.0025588118 2.0702194e-06

weight f4 [1, 64]
000000 ce bb ce 3d 8c e2 ab 3d 5c e5 9c 3d 20 6a 85 bc
       0.10094415 0.0839282 0.07660934 -0.016285956
000010 54 cc b3 bd 9e 0b b9 3d 40 ac c9 bc d4 f0 7f 3d
       -0.08779207 0.09035419 -0.024618268 0.06248553
000020 6c a7 72 3d 80 f4 ef 3b 54 12 99 bd 60 ab bd bd
       0.059241697 0.007322848 -0.07474199 -0.09261203
000030 68 62 89 3d 14 15 d5 bd 82 43 ae 3d d8 27 e6 3d
       0.06708223 -0.10404411 0.0850897 0.11238068
000040 0c 56 32 bd 4c 40 4c bd 00 32 30 bc 14 60 50 bd
       -0.043539092 -0.049866006 -0.010754108 -0.050872877
000050 00 28 7c 3c aa e4 91 bd c4 a9 7e 3d b0 08 2d bd
       0.015390396 -0.07123692 0.06217362 -0.042244613
000060 ea ac f0 bd aa 9e ae 3d 38 bd 72 3d 80 4d 41 3d
       -0.11751731 0.085263565 0.059262484 0.04719305
000070 c4 08 5d bd 3c 39 76 bd 06 4f c5 bd 0a 7f 80 bd
       -0.053963438 -0.060113177 -0.09634213 -0.06274231
000080 7c 10 1e bd 06 1b e5 bd 0c 86 06 bd ec 2e 1e bd
       -0.03858994 -0.11186795 -0.03284268 -0.038618967
000090 b4 32 2d bd 50 ea 34 3c 7c ab a5 bd 72 24 ec 3d
       -0.042284682 0.011042193 -0.08089349 0.11530389
0000a0 6e 76 bb 3d 40 33 ef 3b f0 33 75 bd 88 4d 9a 3d
       0.09153448 0.0072998106 -0.059863985 0.07534319
0000b0 28 e4 0d bd 72 81 ab bd c0 e1 7c 3b 00 c0 0a bd
       -0.034641415 -0.08374299 0.0038586706 -0.03387451
0000c0 82 90 82 bd 48 c3 5e bd 20 88 5f bd b8 df f5 3c
       -0.06375219 -0.054385453 -0.05457318 0.030013904
0000d0 78 2b 86 bc 60 60 9f bd 54 de d3 3d 2c a4 45 bd
       -0.01637815 -0.07782054 0.1034514 -0.04825227
0000e0 b4 d6 90 3d 20 f6 d2 bc 14 fe d0 3d 68 bb f5 bd
       0.07072201 -0.025752127 0.102047116 -0.119986355
0000f0 a8 52 2b 3d 82 31 89 3d e4 f0 8b bd c0 90 b7 3c
       0.041826874 0.06698896 -0.068330556 0.02240789

weight f4 [1, 64]
000000 3a 11 dd 3d 24 95 cd bd 5a de c2 bd 90 11 50 3d
       0.10794301 -0.10038212 -0.095150664 0.050798
000010 6c 5d 50 bd 12 ee db bd d0 78 63 bc 8a 1b a3 bd
       -0.050870344 -0.10738768 -0.013883784 -0.07964237
000020 54 6a 20 3d 50 00 bb 3c 88 fa ff bd cc e1 05 bd
       0.039163902 0.022827297 -0.12498957 -0.03268604
000030 14 6c 4c 3d e8 e7 ae bc 90 55 35 bd 7a 38 b0 3d
       0.04990776 -0.021350816 -0.044271052 0.08604522
000040 1c f1 5d bd 90 4c c9 3c 40 a9 4e bb 84 e8 7d 3d
       -0.054185018 0.02457264 -0.0031533986 0.061989322
000050 0a cd ed bd e4 90 42 3d 52 dd dc 3d 46 82 b4 3d
       -0.11611374 0.04750146 0.10784401 0.0881391
000060 b0 bd f9 3d 8c e1 7d 3d ac 0f e8 bd 30 0d cb bd
       0.12194383 0.061982676 -0.11331114 -0.09914625
000070 18 ed 7f 3d 50 51 bf 3c a0 41 17 3d 6c 0f 97 3d
       0.06248197 0.023354203 0.03692782 0.07375988
000080 b2 e4 a0 3d 30 46 c4 bd c8 96 9a bc 20 1d 21 3d
       0.0785612 -0.095837 -0.018870726 0.039334416
000090 dc e3 c3 bd 88 88 12 bd dc c3 35 bd 70 ab b5 bd
       -0.09564945 -0.035774738 -0.04437624 -0.0887059
0000a0 48 aa d8 3d 86 b9 93 bd 98 87 a1 bc 3c 25 9e 3d
       0.105793536 -0.0721312 -0.019717976 0.07721946
0000b0 36 70 fc bd 0e 7a ad 3d 44 e9 9f 3d 48 06 ef 3c
       -0.1232609 0.08470546 0.07808164 0.0291778
0000c0 3e d0 ef bd 26 eb dc 3d ea 3d d9 3d c0 05 0f 3d
       -0.11709641 0.107870385 0.10607512 0.034917593
0000d0 14 a1 bf 3d 94 35 eb 3d 0e 32 d3 3d b8 53 df bd
       0.09356895 0.114848286 0.103122815 -0.1090464
0000e0 b8 66 e0 bc c8 27 eb bc a8 17 72 3d 52 d5 95 bd
       -0.02739273 -0.028705493 0.05910459 -0.07316078
0000f0 0c 93 bc 3d ca 75 c9 bd 82 89 aa bd 40 8e 2f 3d
       0.092077345 -0.098369196 -0.08327009 0.04286027
