pth/EM_model_step1_loss_66.47882779975482.pt (torch, 66855 bytes, 19 tensors)

alpha_r f8 []
000000 5f d5 3f 1a a3 75 94 bf
       -0.01997999999726596

beta_r f8 []
000000 60 52 50 36 e5 0a c7 3f
       0.1800200000003711

alpha_u f8 []
000000 2e f3 2d e7 52 5c ef 3f
       0.9800200000023318

beta_u f8 []
000000 9a 99 99 99 99 99 d9 3f
       0.4

gamma f8 []
000000 9a 99 99 99 99 99 b9 3f
       0.1

theta f8 []
000000 00 28 39 b0 b5 f8 f4 3e
       2.0000002235932846e-05

_lambda f8 []
000000 00 00 00 00 00 00 04 40
       2.5

d f8 []
000000 00 00 00 00 00 00 18 40
       6.0

r f8 [1, 261]
000000 61 e9 1e 0b 89 fd 00 40 20 d1 86 d2 69 e5 b9 3f
       2.123796545868729 0.10115682020006433
000010 e1 a7 c5 17 fe a3 d6 bf b4 5b e8 0e 04 b7 f6 3f
       -0.35375931092732854 1.4196816046075869
000020 84 d8 32 d5 cb 74 d3 bf e9 9f 39 08 ce 6d e3 bf
       -0.3040036756532418 -0.6071539078375255
000030 68 8c b7 44 b6 eb 04 c0 61 a6 79 43 c8 c5 d9 3f
       -2.615093743182616 0.40269667233824263
000040 10 be e2 ab ee 9f f6 3f ea 7f a5 18 45 24 e0 bf
       1.4140459741864824 -0.5044274789215681
000050 50 32 e6 85 a7 1a f0 bf e7 e6 1b 84 90 76 fe bf
       -1.00650741867425 -1.9039464149959089
000060 5c e8 a3 e1 09 12 f0 3f 5c a1 29 6d 70 92 f6 3f
       1.004403954894335 1.4107517494358808
000070 50 32 e6 85 a7 1a e0 bf ae e3 0b 97 f9 95 00 40
       -0.503253709337125 2.0732299614432668
000080 95 7b ad 78 e1 71 e3 3f 9c fc e4 12 22 70 c3 bf
       0.6076514584527667 -0.15185953066427238
000090 04 a5 a5 90 f3 ed c9 3f a3 a5 bc c0 b8 cd e1 bf
       0.20257420122951697 -0.5563625111000657
0000a0 cb 3c 24 5e a5 7c 01 40 da 79 e5 f7 62 6d 07 c0
       2.1858622889336394 -2.928411423388053
0000b0 38 35 b9 34 5a a1 f2 3f c2 f7 ee b6 20 37 f8 bf
       1.1643926677237015 -1.5134589334333985
0000c0 45 81 60 54 22 1b f0 bf 5c 7c 4e 5b c1 b8 e9 bf
       -1.0066245361304749 -0.803803137143301
0000d0 ce f2 17 b5 25 32 01 c0 19 e5 ac 44 6f 35 d3 3f
       -2.149485983651494 0.3001363917024534
0000e0 44 25 b4 44 d2 9b a9 bf 0d 4a e9 41 7a 17 f8 3f
       -0.05001694763820777 1.5057318281802765
0000f0 07 70 16 52 98 01 05 40 02 ac 7f 45 ac 65 c3 3f
       2.6257788098428168 0.1515403117512904
000100 2c 1e 8d ec 06 c2 e1 bf ae 1b 72 41 7d d7 c9 3f
       -0.554934942258972 0.201888710933614
000110 18 f2 a1 31 18 29 d0 3f 2e 22 bf 60 8b 5a f7 bf
       0.25250820967610954 -1.4596055773892078
000120 fb 7a be 93 e0 f5 dc bf b3 c8 38 a4 dc 4c c3 bf
       -0.45250715664035085 -0.15078313845294175
000130 23 e3 a4 28 a5 71 f6 bf ca f5 c2 e3 e6 52 f7 3f
       -1.4027453982982443 1.4577397248207142
000140 2e 6e 03 4a 67 8e e6 3f e6 54 df 90 22 48 fb bf
       0.7048832364629953 -1.7051110896184638
000150 43 7c 88 95 3a c4 fc bf ec fe 20 c0 bb dc 00 40
       -1.79790743266473 2.1077799806661144
000160 c3 a1 7a 6d 2f 53 f3 3f 7d 18 76 b6 91 f7 e4 3f
       1.2078089024090424 0.6552208484361156
000170 88 d0 71 fe 1b 98 ff 3f bd 46 49 93 d9 f8 e9 3f
       1.9746360720864988 0.8116271855053224
000180 91 e5 70 35 e2 78 c3 bf 45 a7 10 ce ed b2 d6 bf
       -0.15212657555984468 -0.35467095492878215
000190 62 b1 29 9b f1 10 f1 3f cb 66 ae 93 b2 b7 e6 bf
       1.0666366635369617 -0.7099240192794353
0001a0 cb c3 3e f2 48 f6 02 c0 b2 4a 9d 33 ee cb d9 bf
       -2.3702563214687635 -0.40307192841025163
0001b0 6e f8 89 a0 dc 21 d0 3f 9e 93 8b be 3a b3 f1 bf
       0.2520667617571978 -1.1062571948216156
0001c0 7a ce 1e 2a be 2d e8 3f 86 65 43 be eb 52 fc 3f
       0.755583841577802 1.7702443535002614
0001d0 00 c3 c2 03 51 6a c3 bf 10 58 f1 a4 4a e9 d9 3f
       -0.15168202098495698 0.4048639879960101
0001e0 ed cf 9d c6 43 d6 e1 3f f4 ba 42 23 ed 79 ff bf
       0.5574053649165741 -1.9672671677942022
0001f0 23 4f 53 64 dc d2 a9 bf 46 1c 43 67 c7 cf c9 bf
       -0.05043686604190458 -0.20165340940568138
000200 4b d7 4b 03 08 b9 e1 bf 7f f7 46 cd 13 20 e8 bf
       -0.5538368286495169 -0.7539156922646127
000210 60 6d ca 95 d3 02 ed 3f 9d 25 d7 6c f3 fb e4 3f
       0.9065950322723602 0.6557557225980194
000220 48 6a a8 8b 98 53 f7 bf 65 c5 19 8b 5e a6 f5 bf
       -1.4579091506372084 -1.3531175073261121
000230 61 39 a9 01 ef b4 e9 3f 44 0f 72 49 a9 75 ee bf
       0.8033366234247233 -0.9518629488452253
000240 10 27 db ed 7d c2 f8 bf 86 66 5d cc 5f a2 fc bf
       -1.5474833766224414 -1.7896421416284354
000250 92 f3 6f 48 c5 24 f7 3f b9 40 e5 2e 85 42 ee bf
       1.4464772061903415 -0.9456201473167517
000260 4b 34 4b 56 ef ff ff 3f 37 bf 7f 01 75 31 c3 bf
       1.999984109005953 -0.14994680951303405
000270 c8 ea 0f 58 87 c2 dc bf 4e 14 86 3d a7 2a c3 bf
       -0.4493730888349714 -0.14973917488183236
000280 53 57 c5 ee b6 8f b9 3f b9 27 0d 4c 61 62 d6 3f
       0.0998491604744605 0.34975464274304674
000290 11 ee 42 72 04 67 d6 3f db eb ac 44 6f 35 c3 3f
       0.35003768118232964 0.1500681958512747
0002a0 cd 7e 7d 86 79 0d e8 3f e5 ba 4a 3e b1 3f c3 3f
       0.7516448618661912 0.15038123647305848
0002b0 e0 2c f9 7b 5a b0 d9 3f 90 e6 b0 54 2d 6a f2 bf
       0.40138876063129025 -1.1509221370928664
0002c0 7e d9 67 bc 5a 66 d6 bf bb 96 e8 25 b5 04 e0 3f
       -0.34999721907606574 0.5005746593858115
0002d0 67 07 28 02 a0 e3 ff bf 17 45 7e 6a 54 e8 cf 3f
       -1.993072517798703 0.2492776412951023
0002e0 35 eb 68 62 1e 99 fc bf 3a 0b 7d 08 1c 14 d3 3f
       -1.7873824924597106 0.29810238675070233
0002f0 8c 93 70 7c a6 6e b9 bf 30 98 ea e8 65 6f a9 3f
       -0.09934464014129513 0.04967802494256579
000300 7b 13 0b f7 ef cd e7 bf 83 b8 a6 60 25 70 e9 3f
       -0.7438888382972516 0.7949396980018409
000310 d6 a1 ef c5 8c 3d d6 bf 0a 2f ec f8 f1 64 d9 bf
       -0.3475067074746482 -0.39678620632979344
000320 df c6 67 38 dc d0 ef 3f 77 a7 86 18 8b d5 cf 3f
       0.9942456342380089 0.24870432565267794
000330 7e c3 67 38 dc d0 cf bf 26 39 17 46 4a 26 fb 3f
       -0.24856140855947823 1.6968481767576775
000340 6c 04 1c 9b 89 52 e6 bf 09 fc 88 df 84 0d eb bf
       -0.6975753812295244 -0.8454002729339446
000350 64 31 fd 7b 02 00 eb bf bf ce bf be 74 ba df bf
       -0.8437511846218908 -0.49575537326675695
000360 45 2f de c8 b9 6d e1 bf 1a cd f6 fe ba 74 f5 3f
       -0.5446442530824035 1.3409986457380172
000370 3a 64 94 08 cb 15 d3 3f 69 a9 b0 f1 42 c6 f7 bf
       0.2982051452432334 -1.4859036866206117
000380 f4 9b 8d cd bb a9 df bf fd 26 91 6c 79 25 d6 bf
       -0.494734717116841 -0.34603725054022033
000390 8d 50 12 d2 5c 52 c9 3f ee 84 33 07 9a 18 03 40
       0.19782600648307316 2.387012535342925
0003a0 44 ef a6 13 34 3e e6 bf 9e 20 67 68 74 df e7 3f
       -0.6950931915120937 0.7460271872632978
0003b0 11 11 66 6c 63 e7 ef 3f d7 e6 e8 94 ec 88 c9 3f
       0.996995650974471 0.19949109335885026
0003c0 7f ce c7 5d 1f 2f eb 3f 0a dc 9d 1b d1 3c eb 3f
       0.8495022613191877 0.8511739291560627
0003d0 1b 4f 78 cb 65 e6 ec 3f 80 48 9d 1b c1 a8 08 40
       0.903124711420307 3.0823995740293526
0003e0 b8 3d 07 08 7c 0b ed bf ae 1b 72 41 7d d7 d9 3f
       -0.9076519161989642 0.403777421867228
0003f0 02 8b 39 94 08 d9 b9 3f 00 00 00 00 00 00 00 00
       0.10096791857499102 0.0
000400 6f b4 e7 88 2d 99 d6 bf f6 7f c4 a9 b7 d6 c9 3f
       -0.35309923524511694 0.2018651560729265
000410 ba 85 6f 39 f6 01 ed bf 86 28 1b ae 04 b0 f5 bf
       -0.9064894792356235 -1.3554732132929828
000420 cb 47 87 84 54 82 d6 3f b5 87 9f 4c 9a 9d ee 3f
       0.35170472089987176 0.9567386147066289
000430 93 ff a3 80 58 3c 01 c0 4f 44 fb 80 44 0d e0 3f
       -2.1544656801269837 0.5016195792360437
000440 ea 34 bc f6 87 fe f7 bf 7b 1b 23 ba 27 eb ef bf
       -1.4996413839428961 -0.9974554667941072
000450 52 e9 97 4f 16 2a d3 3f 4d a7 27 f1 18 ec cf bf
       0.2994437958983741 -0.2493926217569488
000460 61 66 7c a7 2b 88 b9 bf ce cb e8 94 ec 88 a9 3f
       -0.0997340473080839 0.04987277333966454
000470 69 86 db 49 eb 1f e3 bf 5d e1 63 77 21 bf ec 3f
       -0.5976463739900285 0.8983313876952185
000480 45 db 8c 32 26 57 d6 bf 60 c6 af eb ec ee cf 3f
       -0.34906916557831763 0.2494789267362192
000490 b0 49 d7 0d f3 dc 02 40 9c 7e bc 73 43 40 d3 bf
       2.357885463841022 -0.30079733183263513
0004a0 e5 9b be 6e b3 b9 f5 3f 31 af 0b e3 17 91 e6 3f
       1.357837135883295 0.7052115854726023
0004b0 f8 66 fa 66 56 b5 e1 bf 96 57 65 a2 6d 14 e0 bf
       -0.5533859263698266 -0.5024936839861194
0004c0 54 da 44 61 73 ef e4 3f ee 34 6d 2a bb bc e1 3f
       0.6542298221382432 0.554288466324264
0004d0 5e 05 f0 94 9f 5b eb bf b5 4a 03 d8 94 bc c9 bf
       -0.8549344929635188 -0.20106754825117937
0004e0 12 7c 10 b4 41 5b f3 3f f7 81 d9 9e 27 69 f3 3f
       1.2097794564977034 1.2131725506843603
0004f0 cf 8e 59 af 5d f1 f0 bf c6 52 f8 c4 58 7c eb 3f
       -1.0589272355654662 0.8589290473051612
000500 8a 31 29 64 61 a7 d6 3f 14 37 d2 cf f6 e6 c9 3f
       0.35396609097804144 0.2023609652282451
000510 1a d4 09 6d 65 f3 e9 3f af 48 e7 a0 2c ed d9 bf
       0.8109614495903117 -0.4051009723017484
000520 fa 16 04 fb 36 db ee 3f 87 32 eb 93 81 ef e9 bf
       0.9642596151977323 -0.8104865922010313
000530 d1 65 7d 96 7d 5b e8 3f 94 3c 2f fc 11 f8 c9 bf
       0.7611682833914363 -0.2028830033654897
000540 50 e8 59 f2 d6 f1 d9 bf 02 8b 39 94 08 d9 f9 bf
       -0.40538571993932226 -1.6154866971998563
000550 50 e8 59 f2 d6 f1 f9 3f 74 6c ee 22 61 b8 d6 3f
       1.621542879757289 0.35500362788452056
000560 e4 fd 72 fc b0 35 e0 bf 05 76 ee c6 0f f1 b9 3f
       -0.5065541201255965 0.1013345585510806
000570 0e cd 0d fc 87 3b e0 3f 82 f8 eb 83 b6 2a f5 3f
       0.5072669909408505 1.3229279664224411
000580 16 43 cc bf 31 2f fd bf 7f 63 b6 bd da cf e1 bf
       -1.824022053919355 -0.5566228585549736
000590 b2 c7 4c 60 bd e7 a9 bf df 59 aa 59 06 a6 d6 bf
       -0.05059615898643645 -0.3538833499564173
0005a0 4a 35 ae af 16 e3 a9 3f d6 7b 79 66 50 e2 a9 bf
       0.0505606736615883 -0.05055476427946075
0005b0 12 83 8f f9 73 26 dd 3f ed cf 9d c6 43 d6 e1 3f
       0.45547198649551135 0.5574053649165741
0005c0 6f e9 d7 f5 17 aa e6 bf 0c 02 b5 fb f7 6e c3 3f
       -0.7082633782986657 0.15182399549850378
0005d0 d5 b8 48 73 9a 1e dd bf 4a 35 ae af 16 e3 a9 3f
       -0.4549928785153388 0.0505606736615883
0005e0 89 d4 89 c0 a3 17 dd bf 6f e9 d7 f5 17 aa e6 3f
       -0.4545678501375013 0.7082633782986657
0005f0 9d 8d 72 05 d9 ae d6 3f 5a 43 2c b8 b7 42 e8 bf
       0.35442185909251994 -0.758144244873715
000600 c7 09 78 94 cf 0e e5 3f 93 74 73 85 f0 ae 00 40
       0.6580579662116229 2.085419695459288
000610 1d c5 93 d6 54 0c f1 bf 1a b7 0e 08 3b 13 e5 bf
       -1.0655105955050381 -0.6585974843380626
000620 1c 15 20 3d 07 0b e5 bf 3a 42 38 2f 95 39 f0 3f
       -0.6575962251523921 1.0140582890054604
000630 8a 8b 35 1a 71 0f e5 bf e4 fd 72 fc b0 35 d0 3f
       -0.6581349861047425 0.25327706006279826
000640 00 00 00 00 00 00 00 00 bf 33 51 8c ba ee a9 bf
       0.0 -0.05064948046547312
000650 07 85 6f 55 2b 76 ff bf 53 b5 27 da 33 9b d6 3f
       -1.9663499200181052 0.3532228117390634
000660 2f 2b d0 9d 2c d5 a9 bf 5a 7b 3e 4b 25 5e c3 bf
       -0.050454515709210994 -0.15131059812571374
000670 5b 38 b1 d5 17 65 e3 3f 85 e8 15 c4 22 03 f1 3f
       0.6060904668500017 1.0632655772774637
000680 d3 5e f1 a4 4a e9 c9 bf 7c 42 b5 59 f6 2c e0 bf
       -0.2024319939980531 -0.5054885627851742
000690 f5 1b 53 aa 71 de c9 bf 44 e4 3d a8 ab dd a9 bf
       -0.20210095230706285 -0.05051933697445368
0006a0 f3 58 50 88 3a 9d d6 bf d0 2a 6b 96 75 60 c3 bf
       -0.3533464747610104 -0.1513812050310066
0006b0 9b 7f af 5a fd 5c d3 bf c6 52 f8 c4 58 7c eb 3f
       -0.3025506387330041 0.8589290473051612
0006c0 7e 82 ff b1 e5 dc b9 bf 43 62 da 14 96 a3 f2 3f
       -0.10102687450081224 1.16493805070617
0006d0 01 ce be 0f c7 32 d0 bf 8b 5b 3c 8d 21 77 e3 3f
       -0.2530992177737233 0.608292365885846
0006e0 af 3d 2d 96 bf 33 e0 bf 08 29 00 70 1a 95 f2 bf
       -0.5063169415606604 -1.1614021658920723
0006f0 ca ad a6 f7 c3 e0 d9 3f e9 56 44 1d d6 7f 04 c0
       0.4043435972659749 -2.5624201094132
000700 65 e6 86 b5 4d ad e9 bf d3 1f 39 3f c1 94 fa 3f
       -0.8024052186439802 1.6613171071676234
000710 80 c6 b9 8f 51 be e1 3f b4 38 d0 9d 2c d5 d9 3f
       0.5544822508947647 0.4036361256738801
000720 f8 3f 2c b8 b7 42 e8 3f 26 59 f2 32 56 e7 f5 3f
       0.7581442448736189 1.3689786901573568
000730 84 d8 32 d5 cb 74 d3 bf bb d8 16 a7 ce 31 e0 bf
       -0.3040036756532418 -0.5060799849950607
000740 53 50 ae af 16 e3 d9 bf 19 3e 8a 31 d2 0f ed bf
       -0.4044853892930906 -0.908181282766182
000750 f6 7f c4 a9 b7 d6 b9 3f 3d 02 f4 03 08 89 f6 bf
       0.10093257803646324 -1.4084549097461967
000760 a1 16 de cf 28 4f c3 bf cb 47 87 84 54 82 d6 bf
       -0.15085325383931994 -0.35170472089987176
000770 a8 68 fa 66 56 b5 e1 3f 6b 87 6f 39 f6 01 dd 3f
       0.5533859263698746 0.4532447396178358
000780 a9 77 97 a1 9f c9 a9 3f 01 95 e7 20 d3 22 e0 3f
       0.05036639068178712 0.5042510645550068
000790 cb 96 c6 50 b9 5e c3 3f 7c 45 46 6e bb 1d ed 3f
       0.15132824367645123 0.9098794130133423
0007a0 a2 d9 d8 d6 59 4e e8 3f 62 06 55 dc a9 36 d0 3f
       0.7595643230659344 0.2533363963776535
0007b0 de c4 6a f3 f9 96 f7 3f 1f 60 e2 62 40 82 d3 bf
       1.4743594654540213 -0.304824921194724
0007c0 f8 9d 76 0e 91 04 ba 3f 75 40 90 8d 11 4d dd 3f
       0.10163218119725304 0.4578288919883627
0007d0 77 b0 3d 1b d5 0a aa bf 7f ab 2e 97 66 0c ba 3f
       -0.05086389501124782 0.10175172034239031
0007e0 a6 37 8c 53 89 87 c3 bf 00 00 00 00 00 00 00 00
       -0.15257374362448423 0.0
0007f0 54 b9 a7 ec fe c3 d6 bf 9d a2 d5 04 50 fe d9 bf
       -0.35571263419014554 -0.4061470076763188

weight f4 [64, 3]
000000 fb 93 14 bd 1b 91 4b bd 07 ea 3c ba 84 57 01 a9
       -0.036273938 -0.04969893 -0.00072065037 -2.8719662e-14
000010 98 d1 26 28 4e 7d d1 bf 66 ae 69 bc 16 48 2e bb
       9.2602995e-15 -1.6366365 -0.014262771 -0.002659326
000020 da 6f 8a 3a 56 5d 3a bd 3b ca 06 3b da 9a 01 bb
       0.0010561899 -0.04549917 0.0020567316 -0.0019776137
000030 a0 3a d4 bc e7 5b b2 bc 24 6d 47 bb 75 ba 41 bd
       -0.02590686 -0.021772338 -0.0030430043 -0.04729696
000040 0b d3 85 3c 6f 46 42 39 26 c4 e5 3e f2 0c 3a 3c
       0.016335985 0.0001852752 0.44876212 0.011355625
000050 a9 92 95 3f c2 e4 bc 3b 2e 2b a2 be 10 bf 98 3c
       1.1685382 0.0057645747 -0.31673568 0.018645793
000060 f6 cb bc bc 1b 0f b8 3b c4 9c 75 38 46 6d 92 bc
       -0.023046475 0.005617035 5.855855e-05 -0.017874371
000070 48 51 87 3b 72 dd 6e b8 51 db 26 bd 5e 3f 16 3a
       0.0041295625 -5.694986e-05 -0.0407365 0.00057314883
000080 38 21 7c bc b2 88 13 3d f7 96 9d bd e8 ea 3a bd
       -0.015388779 0.036019035 -0.0769481 -0.04563418
000090 00 32 d2 bc ea 2f 1c bc 17 39 53 b9 54 ba cf bd
       -0.025658607 -0.009532908 -0.00020143796 -0.10142961
0000a0 c7 85 85 bd bd 4f 07 bd 51 c2 a6 bd c8 49 66 be
       -0.06519657 -0.03303503 -0.08142532 -0.22489083
0000b0 4a 49 02 3c c4 7f e9 bd 02 5d 20 bc ee 88 24 bc
       0.007952044 -0.114013225 -0.0097878 -0.010042412
0000c0 61 2e 38 bd 42 41 85 bb 5c 92 64 bb 71 7d 87 bc
       -0.044966105 -0.004066617 -0.0034877276 -0.016539307
0000d0 4b 83 2a bd 45 12 5e bc a0 eb eb bc 53 86 3e 3b
       -0.041629117 -0.0135541605 -0.028798878 0.0029071763
0000e0 ce 55 23 bc ca 08 08 bd ae 4e d9 ba 8f bb 15 bc
       -0.009969188 -0.033211507 -0.0016579235 -0.009138956
0000f0 21 f5 59 bd 98 4c 62 3c e5 3a 68 bc 8e ab 5e bd
       -0.05321229 0.013812207 -0.014174198 -0.054362826
000100 03 34 9f bb 06 04 c1 ba ea 6f b0 bc a3 8b 10 3b
       -0.004858495 -0.001472593 -0.02153774 0.0022055886
000110 83 7e 97 bb ad ba 62 bd d8 43 3f bd e8 59 d9 bc
       -0.0046232357 -0.05535381 -0.04669556 -0.026532128
000120 78 44 b2 3d 75 12 5a bc 4f 09 49 40 07 83 26 bd
       0.08704466 -0.013310065 3.1411932 -0.0406523
000130 2b a8 c6 3c c0 45 4c 3d 4b 51 6b bc 05 68 55 bc
       0.02425011 0.049871206 -0.0143626435 -0.0130252885
000140 98 3e cb 3b 23 02 88 bd 30 ac b8 bc 83 34 58 ba
       0.00620253 -0.066410325 -0.022543043 -0.0008247571
000150 38 fe 25 be 26 f1 b1 3e 50 24 15 3d cb d1 63 bd
       -0.16210258 0.34754294 0.036411583 -0.055619996
000160 01 b0 d7 3b ce 4e 49 bc c8 c8 7f bd 0e 42 40 3b
       0.0065822606 -0.012286855 -0.06244734 0.0029336247
000170 7d 68 94 bc 4c 84 84 bd 92 b4 24 bc b5 7d 9b bc
       -0.01811623 -0.06470546 -0.010052817 -0.01898084
000180 a6 af 5a bc 2e 20 1c 3b 24 0d 43 32 43 40 2d bd
       -0.013347542 0.0023822892 1.1353482e-08 -0.042297613
000190 0c f1 4b bc 9e c5 57 b9 53 05 0e bd 6f 29 cb bb
       -0.012447607 -0.00020577616 -0.034673046 -0.0062000076
0001a0 4c e6 0e bc 63 96 f4 bc f6 27 aa 3a 0d 7c ce bb
       -0.008721899 -0.029856866 0.001298188 -0.006301409
0001b0 09 2f c6 bc 64 7a 17 3b 5b 8b 30 b4 b3 4b fb bc
       -0.02419235 0.0023113722 -1.6441975e-07 -0.030675745
0001c0 92 7c 91 bb 2e ad 5d bb c8 1f 13 bd 57 b2 fb bc
       -0.0044398988 -0.0033825147 -0.03591898 -0.030724688
0001d0 c7 27 96 3a 65 0b 8b bc 3d 88 1e bb 94 ff c2 31
       0.0011455946 -0.016973207 -0.002419009 5.675199e-09
0001e0 7c ef ce bc 08 1c 71 bb a5 a9 a5 3a 97 4a c1 bc
       -0.02526068 -0.003679039 0.0012639059 -0.023595138
0001f0 38 77 a6 bc ce 46 59 bb c2 1b 74 bc 03 c0 71 3a
       -0.02032052 -0.0033153775 -0.014899196 0.00092220324
000200 ce d4 2b bc 59 84 89 3b 3d 40 97 3d a5 dc 47 bd
       -0.010487748 0.0041966853 0.07385299 -0.048794407
000210 80 43 03 bd f7 03 93 3b e3 ce cc b9 59 c8 84 b9
       -0.032046795 0.0044865566 -0.00039064055 -0.00025326273
000220 f1 1f 8b 38 b8 6d ff 33 c0 12 1a bd db 08 d7 bc
       6.633986e-05 1.18943206e-07 -0.037615538 -0.02624934
000230 8c 24 d4 bb 7c 19 e2 bb 82 5b ae bb 23 98 f6 ba
       -0.0064740833 -0.0069000106 -0.005320967 -0.0018813651
000240 a1 0f c8 bd ea d2 69 bb d3 cb 9c bc eb 4c 11 bd
       -0.09768606 -0.0035678693 -0.01914016 -0.035473745
000250 53 54 76 3c 10 8f 11 38 a9 b6 84 bc f0 3f c5 3a
       0.015034753 3.470393e-05 -0.01620038 0.0015048962
000260 ac e0 0c b3 69 98 79 bc 12 26 b2 bd 24 f8 b3 bd
       -3.2800628e-08 -0.015234091 -0.086986676 -0.087875634
000270 24 a5 13 bd 90 fe 3a bd 30 50 62 ba b3 d4 39 bc
       -0.036046162 -0.045652926 -0.00086331647 -0.011342215
000280 ea 1b fc 37 7e 01 f2 bb 5a ec 32 bd a7 d8 ac 3b
       3.005374e-05 -0.007385432 -0.043682434 0.0052748504
000290 45 98 4f b7 86 0b 46 bc b5 60 b6 3a e5 a2 7a 32
       -1.23736145e-05 -0.012087708 0.0013914319 1.4588953e-08
0002a0 5f f4 43 bd 37 c8 60 3d 04 49 08 bc 5e 21 88 bd
       -0.047840472 0.05487844 -0.0083181895 -0.06646989
0002b0 dc 22 2c 3c b0 18 89 bc 0d 0f 50 bd 6a fd b9 ba
       0.010506358 -0.016735405 -0.050795604 -0.0014189903
0002c0 61 e4 68 bc d2 1d 90 bd af 63 df 3b b7 50 41 ba
       -0.014214606 -0.07036938 0.006817303 -0.0007374393
0002d0 65 d2 83 3d 4b ca d4 bc 19 cf 50 c0 95 59 5d bd
       0.06436614 -0.025975367 -3.2626402 -0.05404051
0002e0 21 a7 a7 bc 7f 10 c1 ba cb 50 8b bd 3d ea ee bb
       -0.020465435 -0.0014729648 -0.068025194 -0.007291107
0002f0 fd 1c 65 bc e0 a0 22 bc 0d 4e 24 3b 4d ea 3e b8
       -0.013983962 -0.009926051 0.0025070936 -4.551774e-05

bias f4 [64]
000000 d7 6d bb bd e2 54 83 2a 18 96 87 bb 33 2b cf bc
       -0.0915181 2.3329174e-13 -0.0041377656 -0.025289154
000010 ae 33 a0 bc 96 75 c5 bc 8a 0b 21 bf 62 53 9f bd
       -0.019555893 -0.02410392 -0.6290823 -0.07779576
000020 ce 4b 35 bc 70 b7 00 bc 81 d8 8a bc 8a be 73 bd
       -0.0110654365 -0.007856235 -0.01694894 -0.059507884
000030 2a 4e 64 bc 9c 51 96 bd 59 50 d7 3b 10 84 0d be
       -0.013934651 -0.073397845 0.0065708575 -0.13819909
000040 cc 65 d8 bc 7e da b3 bc 78 d1 5e bb a4 af c1 bc
       -0.026415728 -0.021954771 -0.0033999365 -0.023643322
000050 29 c9 48 bd 05 27 3b bd 98 4e 89 bc d0 c5 4b bd
       -0.049019966 -0.04569151 -0.01676111 -0.049749196
000060 7e 9f fe bd b2 7f 17 be 71 e0 6a bb dc df 26 bd
       -0.124327645 -0.14794806 -0.0035839344 -0.040740833
000070 ce c8 a3 3d 29 db 5b bd 7c a5 49 bd 9c 7a 5a bd
       0.07997285 -0.053675804 -0.049230084 -0.053339586
000080 c8 98 85 bb 77 fb 63 bd 5c 9b b8 bc 94 ea 94 bc
       -0.004077051 -0.055659737 -0.022535019 -0.018178262
000090 e4 9b b4 bb 65 13 b7 bd c6 61 3b bd 9f 6d 97 bb
       -0.0055117477 -0.08939246 -0.04574754 -0.004621222
0000a0 c7 ff ea bb 55 d3 9a bc 3c 30 11 bc a7 b2 7f bd
       -0.0071716043 -0.0188996 -0.008861598 -0.062426236
0000b0 98 5f fe bc 48 5f c4 b7 d0 ac 71 bc ef aa 69 bb
       -0.031051442 -2.340939e-05 -0.014750674 -0.0035654863
0000c0 42 8e a2 bd 40 17 78 bc 8f 2d e7 bb 50 3a f8 bd
       -0.0793729 -0.015142262 -0.0070549916 -0.12120497
0000d0 2b db a0 bd 62 60 66 bc c5 f8 b0 bc 52 b3 95 bb
       -0.07854303 -0.014061065 -0.021602998 -0.004568496
0000e0 55 12 41 be 5c 7b 53 bd eb 80 25 bd f8 44 39 bd
       -0.1885465 -0.051631317 -0.04040615 -0.04523179
0000f0 45 17 23 3f 63 15 2f bd 41 c5 44 bd 86 1c 4c bb
       0.6370738 -0.042745005 -0.04803968 -0.003114493

weight f4 [64, 64]
000000 e4 48 6d a8 40 75 1f a9 1f bb fe a8 45 36 d4 a8
       -1.31719485e-14 -3.540679e-14 -2.8280816e-14 -2.3560264e-14
000010 12 cd 14 28 3a 6f 61 28 4d 6f 8f bb 63 dd c9 b0
       8.260118e-15 1.25141274e-14 -0.0043772818 -1.4687597e-09
000020 dc c7 83 a8 e2 3f 39 29 4d 76 d4 a8 ac be 52 b1
       -1.4630597e-14 4.113366e-14 -2.3588033e-14 -3.0667406e-09
000030 4e c6 1a aa 2f 52 57 a9 57 dd 37 b0 27 1c f1 29
       -1.3746748e-13 -4.7810873e-14 -6.6889555e-10 1.07074336e-13
000040 ed 20 91 a8 8d 19 0c a9 d2 e2 7b a9 da 6b bf a8
       -1.6112513e-14 -3.1108406e-14 -5.592993e-14 -2.1252033e-14
000050 14 93 78 a7 91 47 70 a9 5a a2 79 29 fd 59 ba 29
       -3.4496645e-15 -5.335278e-14 5.5429924e-14 8.27567e-14
000060 8f b3 b2 bb a8 9b 04 2a 6b 0c 55 a8 68 59 d3 27
       -0.005453534 1.1777959e-13 -1.1826568e-14 5.86612e-15
000070 79 73 15 b4 2d f7 a0 a7 10 07 9e 28 e2 f7 7f 29
       -1.3918715e-07 -4.467691e-15 1.7544587e-14 5.683638e-14
000080 3a 69 81 28 30 0b 54 a6 04 be 0f 29 6d c9 76 29
       1.4367512e-14 -7.3567437e-16 3.191719e-14 5.4797682e-14
000090 e4 15 b8 26 4a 40 48 2e c8 4c d7 29 48 79 94 a8
       1.2773498e-15 4.5531835e-11 9.5612374e-14 -1.6483898e-14
0000a0 a5 29 08 a9 e6 b0 5c a7 f5 d7 62 a8 6d d6 f8 2f
       -3.0234187e-14 -3.062703e-15 -1.2592348e-14 4.5263296e-10
0000b0 8a 39 72 a8 02 51 de 28 c7 0e 03 29 1f ce 1a aa
       -1.3446175e-14 2.4682083e-14 2.910066e-14 -1.374946e-13
0000c0 06 de 90 a8 54 f2 16 28 59 7b 1c 28 e0 4a 07 29
       -1.6083499e-14 8.379219e-15 8.686486e-15 3.0040965e-14
0000d0 bf c0 94 2a b2 d6 3d 29 24 37 31 a9 47 62 ea 28
       2.6423826e-13 4.215265e-14 -3.9349722e-14 2.602184e-14
0000e0 12 91 3c a9 59 d0 2d 29 80 98 5b 26 4c 07 a4 a9
       -4.1870214e-14 3.859443e-14 7.6187564e-16 -7.284329e-14
0000f0 b6 f2 6b b9 eb b7 61 a9 46 bd d0 28 86 80 a7 a8
       -0.00022501763 -5.011956e-14 2.3174723e-14 -1.8596463e-14
000100 83 ac fc ba 4a 3b e9 2f b3 e6 c6 bc e0 14 0f 34
       -0.0019277487 4.242458e-10 -0.024279928 1.3325507e-07
000110 10 f0 09 bd 87 83 69 b9 dd 82 e2 3e d0 52 c4 bc
       -0.033676207 -0.0002226961 0.44240466 -0.02396527
000120 8a ca 1e b4 5a de 2f ac 13 02 1b 3c e3 8c f2 bc
       -1.478858e-07 -2.4992426e-12 0.009460944 -0.029608196
000130 24 ea 44 b7 51 0d ae bb d6 e3 29 bd 10 37 72 bc
       -1.17370255e-05 -0.005311646 -0.041477047 -0.014783636
000140 91 38 56 b5 9d 6c 03 3b c3 d6 22 bc 8b fa ed b8
       -7.980353e-07 0.0020053752 -0.0099388985 -0.00011347708
000150 06 39 c4 ba ab c9 31 36 f2 70 43 bc 9d ec e7 bc
       -0.0014970608 2.6492442e-06 -0.011928784 -0.028311068
000160 85 01 9a 3e 0d ff 90 3c de fb b8 bc 40 d6 df 30
       0.30079284 0.017699743 -0.022581037 1.6286279e-09
000170 41 93 c2 bc d9 19 17 3c 15 c3 ad 3a 2c ff 14 3c
       -0.023751857 0.009222471 0.0013256992 0.009094041
000180 57 01 ca aa 41 2f 8e 34 d0 e7 7b bc 74 de d6 3b
       -3.5883338e-13 2.6483943e-07 -0.015375093 0.00655728
000190 c1 31 ac b0 8e 7d 64 bb 41 32 92 ba 27 07 91 2b
       -1.2528788e-09 -0.0034864875 -0.0011153893 1.0304855e-12
0001a0 b2 33 be bc 16 40 de bc 54 2a ed bb 46 4a dc bc
       -0.02321801 -0.027130168 -0.007237712 -0.026890885
0001b0 3f 8e fa 39 a8 82 98 b5 13 f3 bd bb 2b 50 10 3b
       0.00047789697 -1.1362908e-06 -0.005796799 0.002202044
0001c0 ec 3b 52 ba 88 4b eb ba 6d 6a e7 a9 0c 5f 55 bc
       -0.00080197933 -0.0017951587 -1.0276923e-13 -0.013023149
0001d0 a1 1d bc ba 4d e5 8b ba 2d 0c c2 32 3e 98 f8 2b
       -0.0014352092 -0.0010673195 2.259011e-08 1.7663716e-12
0001e0 9a d7 f7 3b 8d a4 2d 3c 14 17 7c bb 4a 43 97 ba
       0.0075635435 0.010598314 -0.0038465904 -0.001154044
0001f0 50 09 42 3e 39 0c b1 b7 b5 aa 26 39 06 41 32 37
       0.18948865 -2.1105736e-05 0.00015894587 1.0624766e-05
000200 86 13 00 af aa 0a 04 ab e2 e4 5f 2d 80 e8 27 a8
       -1.1648468e-10 -4.691062e-13 1.2726905e-11 -9.320778e-15
000210 2a 41 a8 ae ed cb b6 ab 8a 30 c4 bc cd 93 1d bb
       -7.651331e-11 -1.2988479e-12 -0.023948926 -0.0024044395
000220 5e 24 e8 a8 47 24 f5 28 b8 9f fe 27 65 8a b4 35
       -2.5772946e-14 2.7216197e-14 7.067233e-15 1.3451323e-06
000230 14 58 95 ab be cf 89 2d 17 5f 63 ba 19 95 a1 2a
       -1.0611533e-12 1.5667353e-11 -0.0008673532 2.8702802e-13
000240 a0 40 f4 aa 7e c2 c0 29 9f 3d af 29 d0 a4 2d ae
       -4.338795e-13 8.560252e-14 7.782251e-14 -3.948203e-11
000250 a7 73 16 29 c4 96 33 a8 fc 55 4a a9 00 5b b4 ae
       3.3407003e-14 -9.969188e-15 -4.492759e-14 -8.201617e-11
000260 46 a3 e6 bc 45 80 bd 2d 92 8f 21 ad 3b d1 8f ae
       -0.028154027 2.1543775e-11 -9.1836694e-12 -6.540054e-11
000270 07 53 e7 3b e0 80 24 a9 d0 77 d1 a8 de 26 b6 28
       0.007059458 -3.6527096e-14 -2.3255622e-14 2.0222915e-14
000280 6a 89 ac 28 40 65 2a 26 40 b0 d7 a9 55 2b 7d a9
       1.915543e-14 5.911782e-16 -9.5784925e-14 -5.621487e-14
000290 35 97 55 a9 c0 a0 3d 2c 37 25 2d 2e 3c 5b 40 a9
       -4.7426652e-14 2.694775e-12 3.93687e-11 -4.2711697e-14
0002a0 47 2f 33 ae 72 29 82 ae fe d0 71 29 c6 ea f1 b7
       -4.074188e-11 -5.919078e-11 5.369402e-14 -2.8838764e-05
0002b0 80 f3 d4 25 14 72 a6 27 de a0 c0 2e c3 6a ac aa
       3.694114e-16 4.619794e-15 8.759725e-11 -3.0627418e-13
0002c0 a7 77 b0 a8 1f f8 12 2e 00 17 f1 28 00 67 5a 29
       -1.9591816e-14 3.3416932e-11 2.676635e-14 4.8495062e-14
0002d0 34 1c 62 ae ee fa 04 29 1b 25 05 a9 00 63 51 28
       -5.14115e-11 2.9527535e-14 -2.9564116e-14 1.1623298e-14
0002e0 ba 5b 34 2f 9e 3f 03 29 d7 9e 42 28 f0 40 a9 a8
       1.6403492e-10 2.9143022e-14 1.0803606e-14 -1.8790931e-14
0002f0 26 48 36 bc 3c 4b 70 ac e9 ac d1 28 66 c6 f4 a8
       -0.0111256 -3.4147815e-12 2.3278649e-14 -2.7175483e-14
000300 9f 57 d4 29 b2 93 2a 2f 34 74 86 27 e6 5a a1 a8
       9.429891e-14 1.5513882e-10 3.731846e-15 -1.7914012e-14
000310 f2 ae d1 28 8e 7b c1 a8 15 bf 8c aa 74 65 2e a9
       2.3279532e-14 -2.1480888e-14 -2.5001586e-13 -3.8723758e-14
000320 3e d7 d3 a8 f9 d8 cf a8 dd be 3c 28 01 ce 8a aa
       -2.3519052e-14 -2.3075713e-14 1.0477483e-14 -2.4656668e-13
000330 2a 3d 6d 29 da 5c 34 28 66 53 49 a8 a5 1d 7b 29
       5.2677623e-14 1.0012141e-14 -1.11758256e-14 5.575891e-14
000340 70 56 5b 26 00 96 20 28 6a 3f d1 28 08 24 f7 a8
       7.6098033e-16 8.91431e-15 2.3231163e-14 -2.7438135e-14
000350 52 6f fc 28 b6 61 61 28 90 e3 c2 a8 be 33 41 29
       2.8025898e-14 1.2511197e-14 -2.1637016e-14 4.2899488e-14
000360 b7 b7 3c b7 60 00 27 2a 94 68 cd a8 6d 89 6e a8
       -1.1248448e-05 1.483271e-13 -2.2804926e-14 -1.32414535e-14
000370 0c cd a3 a8 26 cb 87 28 8f ae c8 a8 70 56 5b 26
       -1.818556e-14 1.5076112e-14 -2.2280163e-14 7.6098033e-16
000380 30 bf 1b 27 7c b5 da 29 90 40 4a 26 0b 5d 28 a9
       2.1614214e-15 9.712627e-14 7.0170327e-16 -3.7384196e-14
000390 26 58 17 28 02 a9 2d 2a 39 29 bb 29 98 92 18 29
       8.401298e-15 1.5424123e-13 8.311619e-14 3.387793e-14
0003a0 0c 3d c0 28 d5 ea fe a8 24 71 ff 28 72 82 b2 aa
       2.1342757e-14 -2.8301507e-14 2.8359754e-14 -3.1709666e-13
0003b0 66 2b 3d a9 a4 16 94 28 16 6f 2d 29 82 69 a6 a8
       -4.2004072e-14 1.644112e-14 3.851007e-14 -1.8475459e-14
0003c0 97 f2 fd a8 60 bb fc 28 d8 8d 94 28 94 68 cd 28
       -2.8193849e-14 2.8058881e-14 1.6492816e-14 2.2804926e-14
0003d0 50 6a 61 2a a9 13 b1 a8 78 54 e4 27 76 5d a2 a8
       2.0020899e-13 -1.9659474e-14 6.3374294e-15 -1.8026145e-14
0003e0 b4 d1 26 a7 b7 d3 d4 28 e4 25 a4 28 19 29 31 a8
       -2.3150808e-15 2.3628545e-14 1.822409e-14 -9.834385e-15
0003f0 2b 08 ef b0 ee 55 e9 a8 23 d7 5f a8 26 58 17 28
       -1.739186e-09 -2.5905463e-14 -1.2425637e-14 8.401298e-15

bias f4 [64]
000000 64 95 67 bc a0 0f 66 be 32 7f fa bc a0 86 f9 ae
       -0.014134739 -0.22466898 -0.03057823 -1.1347123e-10
000010 e9 6f 62 b8 55 49 b3 3e 6a 72 a8 3f 18 de 34 be
       -5.3986823e-05 0.35016885 1.3159916 -0.17662847
000020 e8 3f a1 a7 bc 6d 24 bd 7a 0b 37 bd 74 69 4f bc
       -4.4755764e-15 -0.040143713 -0.04468868 -0.012659419
000030 84 7f a0 bd c5 a1 f8 ba 52 84 27 bc 06 92 83 bb
       -0.07836822 -0.001896911 -0.010224419 -0.00401521
000040 52 4a 05 bd a3 9f 45 bc c8 c3 f2 bb 6d 6f 86 bc
       -0.03254158 -0.012061986 -0.007408593 -0.016410554
000050 c4 ea d3 3a a4 64 fd bb 93 c6 d6 3e 8c 43 14 40
       0.0016167988 -0.0077329446 0.41948375 2.3166227
000060 e3 d4 2c bc c4 00 84 3e 26 a1 f1 bc 55 92 b7 b8
       -0.010548803 0.25781834 -0.029495787 -8.7533765e-05
000070 c1 ce 09 bd 94 76 43 bd 17 f3 aa bc 68 f3 5f bd
       -0.03364444 -0.047720507 -0.020867867 -0.05467549
000080 bc db 92 3e 95 57 bf bc f3 92 09 be 86 53 d2 bb
       0.2868327 -0.023357192 -0.13434963 -0.006418648
000090 c5 1d e9 b9 a1 4a 56 bc 2b ea 22 bd 66 f2 74 bb
       -0.00044463403 -0.013079316 -0.0397741 -0.0037375926
0000a0 7c 6f 25 bd cd 50 ba bc e8 ad 4f 3d 7b d0 ce bc
       -0.040389523 -0.022743607 0.05070296 -0.025245896
0000b0 4c 1a 08 bd 9a 0b 8f bc c3 63 28 40 fe 1d ab bc
       -0.033228204 -0.017461587 2.631089 -0.020888325
0000c0 b8 77 00 bc a5 46 f4 bd 12 d3 79 bc a1 8f 43 bd
       -0.007841043 -0.11927537 -0.015248077 -0.047744397
0000d0 29 a8 cd bd 23 f9 4d 3f f8 cb e6 bc e6 bd 22 bd
       -0.1004184 0.8045828 -0.028173432 -0.039731883
0000e0 ab 62 4c bd 3c 0d 27 bb ed 44 1f bd 46 43 80 3c
       -0.049898785 -0.0025490066 -0.038884092 0.015657078
0000f0 34 c2 b3 bd ff db 2d bc d7 4e 44 bc 8c b7 0b 3d
       -0.08777276 -0.010611533 -0.0119816875 0.03411059

weight f4 [64, 64]
000000 c0 48 35 29 a5 71 74 bc cf 1e 67 29 46 89 96 a8
       4.0253174e-14 -0.014919673 5.1319026e-14 -1.6712878e-14
000010 9c bb 83 28 ba a3 41 35 52 68 13 bc 9a 85 37 bc
       1.4625284e-14 7.2136356e-07 -0.00899704 -0.011201287
000020 f5 77 8c a8 9e ff 38 28 ce ce b9 a8 34 f1 cf a8
       -1.5595145e-14 1.026948e-14 -2.0628813e-14 -2.3086222e-14
000030 c8 12 de a8 32 30 a4 a8 12 f7 0e 2a a0 56 a4 25
       -2.4655096e-14 -1.8228559e-14 1.2697853e-13 2.8508164e-16
000040 9c 48 fb ab 74 63 b7 28 be be 26 29 9a 8c 88 ac
       -1.7854776e-12 2.0360212e-14 3.7024847e-14 -3.8809624e-12
000050 3e 19 dc b9 74 80 15 a8 39 a2 72 bb 78 91 6b bc
       -0.00041980477 -8.299015e-15 -0.0037022962 -0.014377944
000060 90 f1 db 26 c3 58 84 34 88 b7 08 29 4f f5 24 a9
       1.5261653e-15 2.46515e-07 3.0357254e-14 -3.6628086e-14
000070 6f 13 a3 a8 23 fd f9 28 22 8a 3d 29 f8 60 ce a8
       -1.8105063e-14 2.7754334e-14 4.208624e-14 -2.2912648e-14
000080 73 d0 29 b4 f8 c5 80 35 87 b4 84 29 52 6e 08 29
       -1.5815185e-07 9.59436e-07 5.893294e-14 3.0293754e-14
000090 c3 81 98 aa 10 93 12 a6 66 f5 ea a7 5d d7 7c 29
       -2.7090664e-13 -5.085323e-16 -6.521411e-15 5.614204e-14
0000a0 28 97 05 29 68 09 d1 28 3e 54 b1 2a c8 78 10 ac
       2.966304e-14 2.320774e-14 3.149997e-13 -2.0530678e-12
0000b0 97 ea d9 28 02 9a cc a8 ae e3 e2 bc aa 1e da 2c
       2.4193577e-14 -2.271534e-14 -0.027696457 6.199337e-12
0000c0 70 a8 0c a9 74 f3 84 aa 9e f3 80 28 a2 03 2e 28
       -3.123234e-14 -2.361684e-13 1.4316507e-14 9.659728e-15
0000d0 04 49 44 a8 83 e7 e9 bb 5f 83 e6 a8 98 c0 8a 30
       -1.0896018e-14 -0.007138194 -2.5592103e-14 1.009556e-09
0000e0 49 36 dd b1 1a f1 8a 28 72 1c af 27 9f db 3c bc
       -6.438118e-09 1.5425639e-14 4.8603098e-15 -0.011526971
0000f0 74 29 7c 28 b2 b4 37 28 98 14 1e a7 f5 42 8b 29
       1.3997799e-14 1.0197723e-14 -2.1938069e-15 6.184455e-14
000100 10 7e 99 a8 37 fc 45 bb 4d 21 75 a9 d2 3b 27 a9
       -1.7041083e-14 -0.0030210146 -5.4429812e-14 -3.7133335e-14
000110 f2 df 08 28 0a c4 9f 35 a5 3a ee bc 8b e2 3b ba
       7.598077e-15 1.1903478e-06 -0.029080698 -0.00071672414
000120 98 c6 9c a8 e8 6d 70 af d9 25 83 af b4 20 f0 a8
       -1.7405605e-14 -2.186692e-10 -2.3855654e-10 -2.6659535e-14
000130 2d 2c fd 28 c5 df 8f a9 a7 0b 0a 29 a6 28 62 aa
       2.81078e-14 -6.3892935e-14 3.0652262e-14 -2.0086935e-13
000140 ea af ae aa fd d5 8a a9 2e 7d 75 a9 3e d7 d3 28
       -3.1030674e-13 -6.165552e-14 -5.4509504e-14 2.3519052e-14
000150 e8 fd a1 26 10 7c 8e a9 dc 1d 3f bc f4 b4 35 bd
       1.1240441e-15 -6.327588e-14 -0.011664834 -0.044362023
000160 e8 b5 29 29 16 71 86 b4 0e 64 d1 2a 3c 8f ab 28
       3.7683317e-14 -2.5041726e-07 3.7195285e-13 1.9046932e-14
000170 42 a8 b8 a9 28 ed 79 a7 0e 8a 35 a8 7c b6 6b a9
       -8.2004295e-14 -3.4684254e-15 -1.0077454e-14 -5.2338762e-14
000180 d7 f8 87 b4 7a 63 fc 28 9c 5a 87 28 f7 0f 8e 29
       -2.5326764e-07 2.8020761e-14 1.5027306e-14 6.308836e-14
000190 df 5e f0 a8 34 af 5c a7 44 3f 67 2d 65 6f 78 aa
       -2.6686496e-14 -3.062611e-15 1.31448775e-11 -2.2065473e-13
0001a0 0e 3d 94 2a 92 86 8d 28 1f d8 06 b2 35 e8 a0 2c
       2.6332446e-13 1.5712505e-14 -7.848967e-09 4.5732537e-12
0001b0 eb 37 18 29 67 19 07 2a a1 e6 2d bd 52 6d 78 ab
       3.379928e-14 1.1999222e-13 -0.042456273 -8.825901e-13
0001c0 7d 06 ee 29 a5 a0 8c ac 2d a6 1b 2a 98 6d d8 ad
       1.0570449e-13 -3.9968744e-12 1.3824419e-13 -2.4605026e-11
0001d0 e6 b9 12 29 9b 24 69 bc 35 1e 00 80 1a 13 60 a8
       3.2579754e-14 -0.014229919 -1.0836e-41 -1.243864e-14
0001e0 55 de 43 29 cc bc d0 a8 4e 5a 97 2c 4e 1d 8e bb
       4.349154e-14 -2.3174517e-14 4.301704e-12 -0.0043369895
0001f0 f2 a4 b1 a8 a2 64 6b 28 8b e0 c1 28 51 e8 e6 a9
       -1.9722481e-14 1.3066942e-14 2.1524684e-14 -1.0254352e-13
000200 02 23 20 a9 e0 eb ac a9 e2 36 09 a9 48 8e e3 a6
       -3.55575e-14 -7.679252e-14 -3.0467714e-14 -1.5789855e-15
000210 66 ec 68 28 63 b3 a6 aa f5 b3 44 b5 f6 27 74 29
       1.2929848e-14 -2.9611998e-13 -7.327756e-07 5.4213544e-14
000220 08 24 f7 28 6e fd 23 a9 ea 75 28 29 90 be 01 a9
       2.7438135e-14 -3.6413086e-14 3.7405768e-14 -2.880904e-14
000230 f6 e8 e4 a8 1c ba 38 29 7c 95 85 28 34 ae 9d a7
       -2.5414116e-14 4.101763e-14 1.4830795e-14 -4.3765125e-15
000240 06 e8 01 a9 1c d9 a1 27 93 c7 b1 28 ee 55 e9 a8
       -2.8845002e-14 4.4921867e-15 1.9737499e-14 -2.5905463e-14
000250 70 40 e0 28 2c 05 90 a8 06 41 2f b1 ad ec 67 ba
       2.4896941e-14 -1.5989454e-14 -2.5502813e-09 -0.0008847218
000260 a8 81 34 a9 81 01 8e 2a 52 9a e2 a9 76 5d ce a8
       -4.0080488e-14 2.522531e-13 -1.00631864e-13 -2.2911127e-14
000270 9f 17 d7 28 5c 4e 9d a8 6a 70 01 29 7e 25 40 a7
       2.3880039e-14 -1.7464484e-14 2.8741258e-14 -2.6665677e-15
000280 ca c9 04 29 35 4f b6 28 1c 37 3a 29 ad c6 05 a9
       2.9484912e-14 2.024041e-14 4.1348096e-14 -2.9704256e-14
000290 b5 cd 0e a9 1c b3 0d a8 1a 55 8e 28 75 cb 2b 28
       -3.1708756e-14 -7.8659105e-15 1.5802074e-14 9.5365246e-15
0002a0 aa c4 86 a8 68 c2 39 28 a0 68 bc 26 88 f5 1c 29
       -1.4962278e-14 1.0311718e-14 1.3073479e-15 3.4851923e-14
0002b0 4c 72 83 28 d4 f5 58 a9 41 2d 23 ba 8a a7 aa 28
       1.459349e-14 -4.8174857e-14 -0.00062247 1.894645e-14
0002c0 e3 0a ae 28 00 6e 37 a9 2e e7 91 28 80 8d 27 a9
       1.9322602e-14 -4.0729572e-14 1.6198492e-14 -3.720418e-14
0002d0 10 86 60 a8 b3 d3 32 b2 18 1f 1b 27 04 d1 92 28
       -1.2463568e-14 -1.04090985e-08 2.1527427e-15 1.6299902e-14
0002e0 9c d1 49 27 91 84 ee 28 a2 3c 8f a9 6e 28 94 2c
       2.8007983e-15 2.64808e-14 -6.360994e-14 4.2109016e-12
0002f0 86 22 77 29 b6 65 a1 28 45 9e 02 a9 d0 03 03 aa
       5.4874962e-14 1.79187e-14 -2.9003076e-14 -1.163646e-13
000300 1a ee ea 28 0c 7a bb ab 1a 19 87 ac 6e 21 8e 28
       2.6082479e-14 -1.3321024e-12 -3.8397176e-12 1.5779665e-14
000310 6a 09 05 29 01 b1 cc 2c 36 ea b3 b1 12 b5 03 2c
       2.9540098e-14 5.81768e-12 -5.2362124e-09 1.8716734e-12
000320 5a 9c c7 27 38 ba df a8 78 8c f5 a8 a2 b6 34 a9
       5.5403112e-15 -2.4838733e-14 -2.7261383e-14 -4.0126438e-14
000330 52 fc 0d ab 3a 11 41 28 ec 41 99 29 75 91 a8 28
       -5.044343e-13 1.0717388e-14 6.8060005e-14 1.8714829e-14
000340 48 a8 b4 29 50 51 d0 28 ba ed 8a 29 76 e6 27 a9
       8.022798e-14 2.3127903e-14 6.16967e-14 -3.7281342e-14
000350 5c 2e 8f aa 8a c5 8d 29 a6 e6 f6 ab 97 cc 44 b5
       -2.543407e-13 6.2959254e-14 -1.7543369e-12 -7.331341e-07
000360 e3 46 94 a8 3a 46 18 2d 38 fa eb a6 ec b8 3b a7
       -1.6462043e-14 8.655793e-12 -1.6374223e-15 -2.605171e-15
000370 f8 73 90 a8 2b 33 cb a8 20 f8 4b a8 c0 32 4f ab
       -1.6037505e-14 -2.2559718e-14 -1.1322567e-14 -7.3611603e-13
000380 86 f1 08 ad 20 02 75 a6 0c c6 1a a9 ca 92 96 28
       -7.784334e-12 -8.500433e-16 -3.4366647e-14 1.6717005e-14
000390 c1 80 34 a8 2a dc 01 29 9b 31 f9 27 38 38 9b 28
       -1.0019926e-14 2.8834716e-14 6.9165166e-15 1.7232838e-14
0003a0 16 23 1d a9 1d 77 49 29 c8 2b ad a9 66 a3 82 a9
       -3.4891435e-14 4.473428e-14 -7.690338e-14 -5.801505e-14
0003b0 5c 61 5c 2c b2 e9 e4 28 fc 9a 88 b3 25 75 98 29
       3.1317926e-12 2.5414434e-14 -6.361185e-08 6.770477e-14
0003c0 e0 06 cc 25 9a 37 7e a9 7a d7 be a8 bb c5 4e a8
       3.5393018e-16 -5.6447556e-14 -2.1187686e-14 -1.1478173e-14
0003d0 47 a7 1b a8 ca 07 9f af 31 0d fa a7 cc cb 8f 28
       -8.640501e-15 -2.8927466e-10 -6.940324e-15 1.5964572e-14
0003e0 b2 cc 6c 2a e4 77 98 a8 73 72 9a a8 3c cf 37 ac
       2.1032029e-13 -1.6927384e-14 -1.7147069e-14 -2.6120902e-12
0003f0 46 25 92 aa 23 e1 d1 a8 43 f5 1b a8 34 2f c0 aa
       -2.5960673e-13 -2.3301299e-14 -8.657411e-15 -3.4138805e-13

bias f4 [64]
000000 20 94 2c bc ef a5 eb bc 57 d6 1e 34 cf 02 8d 31
       -0.010533363 -0.028765647 1.4792873e-07 4.1039594e-09
000010 22 0e 07 3e 3d f2 66 3f 42 dc 46 b2 81 d0 42 bc
       0.13188985 0.90213376 -1.1575198e-08 -0.0118905315
000020 7b 81 9e bd 7b b6 3f bc b1 22 36 b8 86 91 b4 bc
       -0.0773954 -0.011701222 -4.342449e-05 -0.022042047
000030 07 9e 0c bd 18 00 c2 bc 8d 87 ab bc 02 21 e8 30
       -0.034330394 -0.023681685 -0.02093866 1.6889603e-09
000040 c3 86 1d bd 8d f4 28 b7 7f f8 39 bb 0c 02 f1 3d
       -0.038458597 -1.0070519e-05 -0.0028376875 0.117679685
000050 13 33 2b bc c1 dd 9d b9 f4 7e bc bc fc 32 76 3d
       -0.010449189 -0.00030110593 -0.023009755 0.060107216
000060 c2 d3 87 bd fa f5 93 bc 9c 50 00 bd 58 15 b5 bc
       -0.066321865 -0.018061627 -0.031326875 -0.022104904
000070 b8 0f 76 bd 5e d7 5e b9 58 f0 4f bc fa 42 fc b3
       -0.060073584 -0.000212518 -0.01269158 -1.17468474e-07
000080 36 3d 87 bc 97 0f 97 bb 09 98 a4 bc 43 c2 19 bb
       -0.01650868 -0.0046100128 -0.020092027 -0.0023461736
000090 3b b6 06 bc 7a 0f d6 3e 77 b7 ac bc 08 1a 05 bc
       -0.008222158 0.41808683 -0.021083577 -0.008123882
0000a0 0c b5 d0 bb d2 cf b3 b3 7f f0 1e bc 24 55 1f bc
       -0.0063692387 -8.373139e-08 -0.009700893 -0.009724889
0000b0 50 01 9b 3b 4d dc 7a ba f6 5e 87 bc 72 6c d7 3a
       0.004730381 -0.00095695705 -0.016524773 0.0016435517
0000c0 5b e6 b2 bc 98 89 b4 b9 7e e6 01 bd 40 2c 29 3f
       -0.021838358 -0.0003443479 -0.031713955 0.66083145
0000d0 96 eb aa bc 4f 43 40 ba 8a 61 53 bc 16 b8 95 bb
       -0.02086429 -0.00073342485 -0.012901673 -0.004569064
0000e0 31 69 30 ba b7 cd 54 3a 7a b4 27 ba 19 08 dc bc
       -0.0006729542 0.0008117812 -0.00063974375 -0.02685933
0000f0 3e 9d 48 bd d5 42 23 bd 96 99 c2 b8 0b 20 06 31
       -0.048978083 -0.039858658 -9.2792485e-05 1.951778e-09

weight f4 [1, 64]
000000 fd f5 db 3c 07 48 84 bc e4 b2 a3 ac a6 97 e5 2d
       0.026850695 -0.016147627 -4.6525995e-12 2.6101631e-11
000010 d3 bc c8 be d0 83 f6 bf f5 c1 24 3e 94 98 ab bc
       -0.3920656 -1.9258976 0.16089614 -0.020946778
000020 d3 f5 4d 3d a0 e9 c9 3b b1 6f ac ae 64 f0 19 bd
       0.050283264 0.0061618835 -7.841495e-11 -0.03758277
000030 16 74 02 bd 2d 6c b7 3c be ee 58 bd 1d 44 b8 ab
       -0.03184899 0.02239045 -0.052962057 -1.3092892e-12
000040 15 c2 82 3e 47 e9 18 b7 13 ca 22 bc 10 d2 eb be
       0.25538698 -9.11422e-06 -0.009935874 -0.46058702
000050 09 ac d7 3a 78 b8 18 2e 66 cc c6 bb 41 71 24 be
       0.0016454469 3.472464e-11 -0.0060668467 -0.16058828
000060 ac 64 06 3c 7f fb d3 bb fd ef f2 bc 1c 57 11 bd
       0.008202713 -0.0064691897 -0.029655451 -0.035483465
000070 ef 47 da 3e ac 5d c7 bd af 37 e8 bd 3d 41 96 ba
       0.42633006 -0.09734663 -0.11338746 -0.0011463534
000080 ce cf c3 bb e9 48 c0 3b e7 ea cb 3c b8 15 0f bc
       -0.0059757 0.0058680666 0.024892284 -0.0087332055
000090 86 7d e3 3b 4f a6 a2 bf 95 c4 09 bd df ce 16 3b
       0.006942454 -1.2707003 -0.03363474 0.0023011488
0000a0 31 f7 ee 3b 61 f5 3c 31 cd ba a3 bb 17 e7 1a bb
       0.007292651 2.7497082e-09 -0.0049966336 -0.0023636275
0000b0 7d 80 f5 3e fe 5d a9 3a fb e6 63 35 4e 0d 63 bc
       0.4794959 0.0012921689 8.490021e-07 -0.013858153
0000c0 d6 d2 4e bd b3 1f 7c 2a 7a 06 90 3e b0 e7 cf bf
       -0.050494038 2.2393094e-13 0.2812994 -1.624258
0000d0 b7 8a 59 bd eb da f0 ba 1a 63 56 3c 13 c2 65 ac
       -0.053110804 -0.001837579 0.013085151 -3.265059e-12
0000e0 cd b9 22 bb 05 fa cc ba 80 23 3c 34 4c 88 e0 bc
       -0.0024829984 -0.0015638476 1.7521779e-07 -0.027408741
0000f0 8b 26 92 bf 44 8c 95 be 26 c5 32 bc 2b 61 21 ac
       -1.1418012 -0.29208577 -0.010911262 -2.2933415e-12

weight f4 [1, 64]
000000 b7 2c 6d bb ea 10 e7 bc 20 d0 e8 2b ca 4e a0 2d
       -0.0036189982 -0.028206307 1.6542358e-12 1.8224883e-11
000010 fd b5 10 be 08 3c 70 be e4 77 a2 aa b7 27 12 bd
       -0.14131923 -0.234604 -2.8860172e-13 -0.035682406
000020 ad 9a 02 3a 63 09 2b 3d f6 bd 21 b5 b4 14 36 bd
       0.0004982155 0.041757 -6.0253603e-07 -0.044453338
000030 ff ae 44 bd c3 5a 94 3c 58 53 9a bc 23 e2 97 35
       -0.04801845 0.018109685 -0.01883857 1.1316191e-06
000040 49 d3 06 be 97 6c 65 2f c2 3e 02 bd f6 23 4b 3f
       -0.13166536 2.0866008e-10 -0.03179813 0.7935175
000050 59 5f 37 3c 1e e9 12 b4 76 8f 53 bc 1f cc 36 bd
       0.011192166 -1.3682117e-07 -0.012912622 -0.04462826
000060 d9 ae bb 3d cc b0 3c bc 73 09 4e bd 26 28 2b bd
       0.09164209 -0.011516761 -0.05030198 -0.041786335
000070 89 78 47 3d 0b e2 0d be 8a 89 08 be 38 fb 89 39
       0.048698936 -0.1385576 -0.13333717 0.0002631785
000080 09 2a 25 bd c7 d9 b1 3c 6f 62 57 3d 63 6b 0f bd
       -0.04032329 0.02171029 0.052584108 -0.03501452
000090 de 1e a5 3c 85 5f 15 bd 42 c3 22 bd 0d 49 bb 3c
       0.02015632 -0.036468048 -0.039736994 0.022861982
0000a0 d0 fb b4 3c 92 4d 89 38 5c 24 47 3c 2c 18 cc bc
       0.02209273 6.547118e-05 0.012154665 -0.02491387
0000b0 18 c5 ab bd 72 ef b0 ba ae 16 17 bb 38 0e 7b bb
       -0.08387202 -0.0013499095 -0.002305429 -0.0038308036
0000c0 ab 79 ab bc 76 fa c2 2d 9e 5a fe bd 7e de f6 bd
       -0.02093204 2.2166474e-11 -0.124196276 -0.12054156
0000d0 15 b7 82 bc 51 22 7e bc d8 99 96 3d de cd fe b3
       -0.015956441 -0.015511111 0.07353562 -1.1865244e-07
0000e0 fe 71 8f bc 6c 77 9a 3b 25 95 1a 3b 06 2d 1e bd
       -0.01751041 0.004713943 0.0023587432 -0.038617156
0000f0 03 53 42 bb 54 ff 10 be 6b f9 ca bc 0e 0d fa 2e
       -0.002965153 -0.141599 -0.024777135 1.1371003e-10

weight f4 [1, 64]
000000 ce bb ce 3d 8c e2 ab 3d 5c e5 9c 3d 20 6a 85 bc
       0.10094415 0.0839282 0.07660934 -0.016285956
000010 54 cc b3 bd 9e 0b b9 3d 40 ac c9 bc d4 f0 7f 3d
       -0.08779207 0.09035419 -0.024618268 0.06248553
000020 6c a7 72 3d 80 f4 ef 3b 54 12 99 bd 60 ab bd bd
       0.059241697 0.007322848 -0.07474199 -0.09261203
000030 68 62 89 3d 14 15 d5 bd 82 43 ae 3d d8 27 e6 3d
       0.06708223 -0.10404411 0.0850897 0.11238068
000040 0c 56 32 bd 4c 40 4c bd 00 32 30 bc 14 60 50 bd
       -0.043539092 -0.049866006 -0.010754108 -0.050872877
000050 00 28 7c 3c aa e4 91 bd c4 a9 7e 3d b0 08 2d bd
       0.015390396 -0.07123692 0.06217362 -0.042244613
000060 ea ac f0 bd aa 9e ae 3d 38 bd 72 3d 80 4d 41 3d
       -0.11751731 0.085263565 0.059262484 0.04719305
000070 c4 08 5d bd 3c 39 76 bd 06 4f c5 bd 0a 7f 80 bd
       -0.053963438 -0.060113177 -0.09634213 -0.06274231
000080 7c 10 1e bd 06 1b e5 bd 0c 86 06 bd ec 2e 1e bd
       -0.03858994 -0.11186795 -0.03284268 -0.038618967
000090 b4 32 2d bd 50 ea 34 3c 7c ab a5 bd 72 24 ec 3d
       -0.042284682 0.011042193 -0.08089349 0.11530389
0000a0 6e 76 bb 3d 40 33 ef 3b f0 33 75 bd 88 4d 9a 3d
       0.09153448 0.0072998106 -0.059863985 0.07534319
0000b0 28 e4 0d bd 72 81 ab bd c0 e1 7c 3b 00 c0 0a bd
       -0.034641415 -0.08374299 0.0038586706 -0.03387451
0000c0 82 90 82 bd 48 c3 5e bd 20 88 5f bd b8 df f5 3c
       -0.06375219 -0.054385453 -0.05457318 0.030013904
0000d0 78 2b 86 bc 60 60 9f bd 54 de d3 3d 2c a4 45 bd
       -0.01637815 -0.07782054 0.1034514 -0.04825227
0000e0 b4 d6 90 3d 20 f6 d2 bc 14 fe d0 3d 68 bb f5 bd
       0.07072201 -0.025752127 0.102047116 -0.119986355
0000f0 a8 52 2b 3d 82 31 89 3d e4 f0 8b bd c0 90 b7 3c
       0.041826874 0.06698896 -0.068330556 0.02240789

weight f4 [1, 64]
000000 3a 11 dd 3d 24 95 cd bd 5a de c2 bd 90 11 50 3d
       0.10794301 -0.10038212 -0.095150664 0.050798
000010 6c 5d 50 bd 12 ee db bd d0 78 63 bc 8a 1b a3 bd
       -0.050870344 -0.10738768 -0.013883784 -0.07964237
000020 54 6a 20 3d 50 00 bb 3c 88 fa ff bd cc e1 05 bd
       0.039163902 0.022827297 -0.12498957 -0.03268604
000030 14 6c 4c 3d e8 e7 ae bc 90 55 35 bd 7a 38 b0 3d
       0.04990776 -0.021350816 -0.044271052 0.08604522
000040 1c f1 5d bd 90 4c c9 3c 40 a9 4e bb 84 e8 7d 3d
       -0.054185018 0.02457264 -0.0031533986 0.061989322
000050 0a cd ed bd e4 90 42 3d 52 dd dc 3d 46 82 b4 3d
       -0.11611374 0.04750146 0.10784401 0.0881391
000060 b0 bd f9 3d 8c e1 7d 3d ac 0f e8 bd 30 0d cb bd
       0.12194383 0.061982676 -0.11331114 -0.09914625
000070 18 ed 7f 3d 50 51 bf 3c a0 41 17 3d 6c 0f 97 3d
       0.06248197 0.023354203 0.03692782 0.07375988
000080 b2 e4 a0 3d 30 46 c4 bd c8 96 9a bc 20 1d 21 3d
       0.0785612 -0.095837 -0.018870726 0.039334416
000090 dc e3 c3 bd 88 88 12 bd dc c3 35 bd 70 ab b5 bd
       -0.09564945 -0.035774738 -0.04437624 -0.0887059
0000a0 48 aa d8 3d 86 b9 93 bd 98 87 a1 bc 3c 25 9e 3d
       0.105793536 -0.0721312 -0.019717976 0.07721946
0000b0 36 70 fc bd 0e 7a ad 3d 44 e9 9f 3d 48 06 ef 3c
       -0.1232609 0.08470546 0.07808164 0.0291778
0000c0 3e d0 ef bd 26 eb dc 3d ea 3d d9 3d c0 05 0f 3d
       -0.11709641 0.107870385 0.10607512 0.034917593
0000d0 14 a1 bf 3d 94 35 eb 3d 0e 32 d3 3d b8 53 df bd
       0.09356895 0.114848286 0.103122815 -0.1090464
0000e0 b8 66 e0 bc c8 27 eb bc a8 17 72 3d 52 d5 95 bd
       -0.02739273 -0.028705493 0.05910459 -0.07316078
0000f0 0c 93 bc 3d ca 75 c9 bd 82 89 aa bd 40 8e 2f 3d
       0.092077345 -0.098369196 -0.08327009 0.04286027
