pth/EM_model_step801_loss_57.91757446423405.pt (torch, 47900 bytes, 9 tensors)

alpha_r f8 []
00000000: ae5b 9059 13bf f63f
1.4216493128385355

beta_r f8 []
00000000: 0012 a2df a0d2 9f3f
0.031076921128731172

alpha_u f8 []
00000000: 1046 4b5c 16a1 f43f
1.2893279652820446

beta_u f8 []
00000000: 7505 285e 9e6a d93f
0.39713248438791676

gamma f8 []
00000000: 74d9 491f 8bec d23f
0.2956874661971576

theta f8 []
00000000: 7701 0648 7135 d33f
0.30013687165776254

_lambda f8 []
00000000: 0000 0000 0000 0440
2.5

d f8 []
00000000: 0000 0000 0000 1840
6.0

r f8 [1, 261]
00000000: 61e9 1e0b 89fd 0040 20d1 86d2 69e5 b93f
00000010: e1a7 c517 fea3 d6bf b45b e80e 04b7 f63f
00000020: 84d8 32d5 cb74 d3bf e99f 3908 ce6d e3bf
00000030: 688c b744 b6eb 04c0 61a6 7943 c8c5 d93f
00000040: 10be e2ab ee9f f63f ea7f a518 4524 e0bf
00000050: 5032 e685 a71a f0bf e7e6 1b84 9076 febf
00000060: 5ce8 a3e1 0912 f03f 5ca1 296d 7092 f63f
00000070: 5032 e685 a71a e0bf aee3 0b97 f995 0040
00000080: 957b ad78 e171 e33f 9cfc e412 2270 c3bf
00000090: 04a5 a590 f3ed c93f a3a5 bcc0 b8cd e1bf
000000a0: cb3c 245e a57c 0140 da79 e5f7 626d 07c0
000000b0: 3835 b934 5aa1 f23f c2f7 eeb6 2037 f8bf
000000c0: 4581 6054 221b f0bf 5c7c 4e5b c1b8 e9bf
000000d0: cef2 17b5 2532 01c0 19e5 ac44 6f35 d33f
000000e0: 4425 b444 d29b a9bf 0d4a e941 7a17 f83f
000000f0: 0770 1652 9801 0540 02ac 7f45 ac65 c33f
00000100: 2c1e 8dec 06c2 e1bf ae1b 7241 7dd7 c93f
00000110: 18f2 a131 1829 d03f 2e22 bf60 8b5a f7bf
00000120: fb7a be93 e0f5 dcbf b3c8 38a4 dc4c c3bf
00000130: 23e3 a428 a571 f6bf caf5 c2e3 e652 f73f
00000140: 2e6e 034a 678e e63f e654 df90 2248 fbbf
00000150: 437c 8895 3ac4 fcbf ecfe 20c0 bbdc 0040
00000160: c3a1 7a6d 2f53 f33f 7d18 76b6 91f7 e43f
00000170: 88d0 71fe 1b98 ff3f bd46 4993 d9f8 e93f
00000180: 91e5 7035 e278 c3bf 45a7 10ce edb2 d6bf
00000190: 62b1 299b f110 f13f cb66 ae93 b2b7 e6bf
000001a0: cbc3 3ef2 48f6 02c0 b24a 9d33 eecb d9bf
000001b0: 6ef8 89a0 dc21 d03f 9e93 8bbe 3ab3 f1bf
000001c0: 7ace 1e2a be2d e83f 8665 43be eb52 fc3f
000001d0: 00c3 c203 516a c3bf 1058 f1a4 4ae9 d93f
000001e0: edcf 9dc6 43d6 e13f f4ba 4223 ed79 ffbf
000001f0: 234f 5364 dcd2 a9bf 461c 4367 c7cf c9bf
00000200: 4bd7 4b03 08b9 e1bf 7ff7 46cd 1320 e8bf
00000210: 606d ca95 d302 ed3f 9d25 d76c f3fb e43f
00000220: 486a a88b 9853 f7bf 65c5 198b 5ea6 f5bf
00000230: 6139 a901 efb4 e93f 440f 7249 a975 eebf
00000240: 1027 dbed 7dc2 f8bf 8666 5dcc 5fa2 fcbf
00000250: 92f3 6f48 c524 f73f b940 e52e 8542 eebf
00000260: 4b34 4b56 efff ff3f 37bf 7f01 7531 c3bf
00000270: c8ea 0f58 87c2 dcbf 4e14 863d a72a c3bf
00000280: 5357 c5ee b68f b93f b927 0d4c 6162 d63f
00000290: 11ee 4272 0467 d63f dbeb ac44 6f35 c33f
000002a0: cd7e 7d86 790d e83f e5ba 4a3e b13f c33f
000002b0: e02c f97b 5ab0 d93f 90e6 b054 2d6a f2bf
000002c0: 7ed9 67bc 5a66 d6bf bb96 e825 b504 e03f
000002d0: 6707 2802 a0e3 ffbf 1745 7e6a 54e8 cf3f
000002e0: 35eb 6862 1e99 fcbf 3a0b 7d08 1c14 d33f
000002f0: 8c93 707c a66e b9bf 3098 eae8 656f a93f
00000300: 7b13 0bf7 efcd e7bf 83b8 a660 2570 e93f
00000310: d6a1 efc5 8c3d d6bf 0a2f ecf8 f164 d9bf
00000320: dfc6 6738 dcd0 ef3f 77a7 8618 8bd5 cf3f
00000330: 7ec3 6738 dcd0 cfbf 2639 1746 4a26 fb3f
00000340: 6c04 1c9b 8952 e6bf 09fc 88df 840d ebbf
00000350: 6431 fd7b 0200 ebbf bfce bfbe 74ba dfbf
00000360: 452f dec8 b96d e1bf 1acd f6fe ba74 f53f
00000370: 3a64 9408 cb15 d33f 69a9 b0f1 42c6 f7bf
00000380: f49b 8dcd bba9 dfbf fd26 916c 7925 d6bf
00000390: 8d50 12d2 5c52 c93f ee84 3307 9a18 0340
000003a0: 44ef a613 343e e6bf 9e20 6768 74df e73f
000003b0: 1111 666c 63e7 ef3f d7e6 e894 ec88 c93f
000003c0: 7fce c75d 1f2f eb3f 0adc 9d1b d13c eb3f
000003d0: 1b4f 78cb 65e6 ec3f 8048 9d1b c1a8 0840
000003e0: b83d 0708 7c0b edbf ae1b 7241 7dd7 d93f
000003f0: 028b 3994 08d9 b93f 0000 0000 0000 0000
00000400: 6fb4 e788 2d99 d6bf f67f c4a9 b7d6 c93f
00000410: ba85 6f39 f601 edbf 8628 1bae 04b0 f5bf
00000420: cb47 8784 5482 d63f b587 9f4c 9a9d ee3f
00000430: 93ff a380 583c 01c0 4f44 fb80 440d e03f
00000440: ea34 bcf6 87fe f7bf 7b1b 23ba 27eb efbf
00000450: 52e9 974f 162a d33f 4da7 27f1 18ec cfbf
00000460: 6166 7ca7 2b88 b9bf cecb e894 ec88 a93f
00000470: 6986 db49 eb1f e3bf 5de1 6377 21bf ec3f
00000480: 45db 8c32 2657 d6bf 60c6 afeb ecee cf3f
00000490: b049 d70d f3dc 0240 9c7e bc73 4340 d3bf
000004a0: e59b be6e b3b9 f53f 31af 0be3 1791 e63f
000004b0: f866 fa66 56b5 e1bf 9657 65a2 6d14 e0bf
000004c0: 54da 4461 73ef e43f ee34 6d2a bbbc e13f
000004d0: 5e05 f094 9f5b ebbf b54a 03d8 94bc c9bf
000004e0: 127c 10b4 415b f33f f781 d99e 2769 f33f
000004f0: cf8e 59af 5df1 f0bf c652 f8c4 587c eb3f
00000500: 8a31 2964 61a7 d63f 1437 d2cf f6e6 c93f
00000510: 1ad4 096d 65f3 e93f af48 e7a0 2ced d9bf
00000520: fa16 04fb 36db ee3f 8732 eb93 81ef e9bf
00000530: d165 7d96 7d5b e83f 943c 2ffc 11f8 c9bf
00000540: 50e8 59f2 d6f1 d9bf 028b 3994 08d9 f9bf
00000550: 50e8 59f2 d6f1 f93f 746c ee22 61b8 d63f
00000560: e4fd 72fc b035 e0bf 0576 eec6 0ff1 b93f
00000570: 0ecd 0dfc 873b e03f 82f8 eb83 b62a f53f
00000580: 1643 ccbf 312f fdbf 7f63 b6bd dacf e1bf
00000590: b2c7 4c60 bde7 a9bf df59 aa59 06a6 d6bf
000005a0: 4a35 aeaf 16e3 a93f d67b 7966 50e2 a9bf
000005b0: 1283 8ff9 7326 dd3f edcf 9dc6 43d6 e13f
000005c0: 6fe9 d7f5 17aa e6bf 0c02 b5fb f76e c33f
000005d0: d5b8 4873 9a1e ddbf 4a35 aeaf 16e3 a93f
000005e0: 89d4 89c0 a317 ddbf 6fe9 d7f5 17aa e63f
000005f0: 9d8d 7205 d9ae d63f 5a43 2cb8 b742 e8bf
00000600: c709 7894 cf0e e53f 9374 7385 f0ae 0040
00000610: 1dc5 93d6 540c f1bf 1ab7 0e08 3b13 e5bf
00000620: 1c15 203d 070b e5bf 3a42 382f 9539 f03f
00000630: 8a8b 351a 710f e5bf e4fd 72fc b035 d03f
00000640: 0000 0000 0000 0000 bf33 518c baee a9bf
00000650: 0785 6f55 2b76 ffbf 53b5 27da 339b d63f
00000660: 2f2b d09d 2cd5 a9bf 5a7b 3e4b 255e c3bf
00000670: 5b38 b1d5 1765 e33f 85e8 15c4 2203 f13f
00000680: d35e f1a4 4ae9 c9bf 7c42 b559 f62c e0bf
00000690: f51b 53aa 71de c9bf 44e4 3da8 abdd a9bf
000006a0: f358 5088 3a9d d6bf d02a 6b96 7560 c3bf
000006b0: 9b7f af5a fd5c d3bf c652 f8c4 587c eb3f
000006c0: 7e82 ffb1 e5dc b9bf 4362 da14 96a3 f23f
000006d0: 01ce be0f c732 d0bf 8b5b 3c8d 2177 e33f
000006e0: af3d 2d96 bf33 e0bf 0829 0070 1a95 f2bf
000006f0: caad a6f7 c3e0 d93f e956 441d d67f 04c0
00000700: 65e6 86b5 4dad e9bf d31f 393f c194 fa3f
00000710: 80c6 b98f 51be e13f b438 d09d 2cd5 d93f
00000720: f83f 2cb8 b742 e83f 2659 f232 56e7 f53f
00000730: 84d8 32d5 cb74 d3bf bbd8 16a7 ce31 e0bf
00000740: 5350 aeaf 16e3 d9bf 193e 8a31 d20f edbf
00000750: f67f c4a9 b7d6 b93f 3d02 f403 0889 f6bf
00000760: a116 decf 284f c3bf cb47 8784 5482 d6bf
00000770: a868 fa66 56b5 e13f 6b87 6f39 f601 dd3f
00000780: a977 97a1 9fc9 a93f 0195 e720 d322 e03f
00000790: cb96 c650 b95e c33f 7c45 466e bb1d ed3f
000007a0: a2d9 d8d6 594e e83f 6206 55dc a936 d03f
000007b0: dec4 6af3 f996 f73f 1f60 e262 4082 d3bf
000007c0: f89d 760e 9104 ba3f 7540 908d 114d dd3f
000007d0: 77b0 3d1b d50a aabf 7fab 2e97 660c ba3f
000007e0: a637 8c53 8987 c3bf 0000 0000 0000 0000
000007f0: 54b9 a7ec fec3 d6bf 9da2 d504 50fe d9bf
2.123796545868729 0.10115682020006433 -0.35375931092732854 1.4196816046075869 -0.3040036756532418 -0.6071539078375255 -2.615093743182616 0.40269667233824263
1.4140459741864824 -0.5044274789215681 -1.00650741867425 -1.9039464149959089 1.004403954894335 1.4107517494358808 -0.503253709337125 2.0732299614432668
0.6076514584527667 -0.15185953066427238 0.20257420122951697 -0.5563625111000657 2.1858622889336394 -2.928411423388053 1.1643926677237015 -1.5134589334333985
-1.0066245361304749 -0.803803137143301 -2.149485983651494 0.3001363917024534 -0.05001694763820777 1.5057318281802765 2.6257788098428168 0.1515403117512904
-0.554934942258972 0.201888710933614 0.25250820967610954 -1.4596055773892078 -0.45250715664035085 -0.15078313845294175 -1.4027453982982443 1.4577397248207142
0.7048832364629953 -1.7051110896184638 -1.79790743266473 2.1077799806661144 1.2078089024090424 0.6552208484361156 1.9746360720864988 0.8116271855053224
-0.15212657555984468 -0.35467095492878215 1.0666366635369617 -0.7099240192794353 -2.3702563214687635 -0.40307192841025163 0.2520667617571978 -1.1062571948216156
0.755583841577802 1.7702443535002614 -0.15168202098495698 0.4048639879960101 0.5574053649165741 -1.9672671677942022 -0.05043686604190458 -0.20165340940568138
-0.5538368286495169 -0.7539156922646127 0.9065950322723602 0.6557557225980194 -1.4579091506372084 -1.3531175073261121 0.8033366234247233 -0.9518629488452253
-1.5474833766224414 -1.7896421416284354 1.4464772061903415 -0.9456201473167517 1.999984109005953 -0.14994680951303405 -0.4493730888349714 -0.14973917488183236
0.0998491604744605 0.34975464274304674 0.35003768118232964 0.1500681958512747 0.7516448618661912 0.15038123647305848 0.40138876063129025 -1.1509221370928664
-0.34999721907606574 0.5005746593858115 -1.993072517798703 0.2492776412951023 -1.7873824924597106 0.29810238675070233 -0.09934464014129513 0.04967802494256579
-0.7438888382972516 0.7949396980018409 -0.3475067074746482 -0.39678620632979344 0.9942456342380089 0.24870432565267794 -0.24856140855947823 1.6968481767576775
-0.6975753812295244 -0.8454002729339446 -0.8437511846218908 -0.49575537326675695 -0.5446442530824035 1.3409986457380172 0.2982051452432334 -1.4859036866206117
-0.494734717116841 -0.34603725054022033 0.19782600648307316 2.387012535342925 -0.6950931915120937 0.7460271872632978 0.996995650974471 0.19949109335885026
0.8495022613191877 0.8511739291560627 0.903124711420307 3.0823995740293526 -0.9076519161989642 0.403777421867228 0.10096791857499102 0.0
-0.35309923524511694 0.2018651560729265 -0.9064894792356235 -1.3554732132929828 0.35170472089987176 0.9567386147066289 -2.1544656801269837 0.5016195792360437
-1.4996413839428961 -0.9974554667941072 0.2994437958983741 -0.2493926217569488 -0.0997340473080839 0.04987277333966454 -0.5976463739900285 0.8983313876952185
-0.34906916557831763 0.2494789267362192 2.357885463841022 -0.30079733183263513 1.357837135883295 0.7052115854726023 -0.5533859263698266 -0.5024936839861194
0.6542298221382432 0.554288466324264 -0.8549344929635188 -0.20106754825117937 1.2097794564977034 1.2131725506843603 -1.0589272355654662 0.8589290473051612
0.35396609097804144 0.2023609652282451 0.8109614495903117 -0.4051009723017484 0.9642596151977323 -0.8104865922010313 0.7611682833914363 -0.2028830033654897
-0.40538571993932226 -1.6154866971998563 1.621542879757289 0.35500362788452056 -0.5065541201255965 0.1013345585510806 0.5072669909408505 1.3229279664224411
-1.824022053919355 -0.5566228585549736 -0.05059615898643645 -0.3538833499564173 0.0505606736615883 -0.05055476427946075 0.45547198649551135 0.5574053649165741
-0.7082633782986657 0.15182399549850378 -0.4549928785153388 0.0505606736615883 -0.4545678501375013 0.7082633782986657 0.35442185909251994 -0.758144244873715
0.6580579662116229 2.085419695459288 -1.0655105955050381 -0.6585974843380626 -0.6575962251523921 1.0140582890054604 -0.6581349861047425 0.25327706006279826
0.0 -0.05064948046547312 -1.9663499200181052 0.3532228117390634 -0.050454515709210994 -0.15131059812571374 0.6060904668500017 1.0632655772774637
-0.2024319939980531 -0.5054885627851742 -0.20210095230706285 -0.05051933697445368 -0.3533464747610104 -0.1513812050310066 -0.3025506387330041 0.8589290473051612
-0.10102687450081224 1.16493805070617 -0.2530992177737233 0.608292365885846 -0.5063169415606604 -1.1614021658920723 0.4043435972659749 -2.5624201094132
-0.8024052186439802 1.6613171071676234 0.5544822508947647 0.4036361256738801 0.7581442448736189 1.3689786901573568 -0.3040036756532418 -0.5060799849950607
-0.4044853892930906 -0.908181282766182 0.10093257803646324 -1.4084549097461967 -0.15085325383931994 -0.35170472089987176 0.5533859263698746 0.4532447396178358
0.05036639068178712 0.5042510645550068 0.15132824367645123 0.9098794130133423 0.7595643230659344 0.2533363963776535 1.4743594654540213 -0.304824921194724
0.10163218119725304 0.4578288919883627 -0.05086389501124782 0.10175172034239031 -0.15257374362448423 0.0 -0.35571263419014554 -0.4061470076763188
