pth/EM_model_step401_loss_68.44713487179318.pt (torch, 92965 bytes, 19 tensors)

alpha_r f8 []
0	0x3fde86876c76ddee	0.4769609984609521

beta_r f8 []
0	0x3fc999999999999a	0.2

alpha_u f8 []
0	0x3feb205703f9bd20	0.8476977422377878

beta_u f8 []
0	0x3fab95eafd710928	0.05387815803307411

gamma f8 []
0	0x3fa39c2c0c2ac9ff	0.038300873265502126

theta f8 []
0	0xbf9138218295a2d7	-0.016815684886213624

_lambda f8 []
0	0x4004000000000000	2.5

d f8 []
0	0x4018000000000000	6.0

r f8 [1, 261]
0	0x4000fd890b1ee961	2.123796545868729
1	0x3fb9e569d286d120	0.10115682020006433
2	0xbfd6a3fe17c5a7e1	-0.35375931092732854
3	0x3ff6b7040ee85bb4	1.4196816046075869
4	0xbfd374cbd532d884	-0.3040036756532418
5	0xbfe36dce08399fe9	-0.6071539078375255
6	0xc004ebb644b78c68	-2.615093743182616
7	0x3fd9c5c84379a661	0.40269667233824263
8	0x3ff69feeabe2be10	1.4140459741864824
9	0xbfe0244518a57fea	-0.5044274789215681
10	0xbff01aa785e63250	-1.00650741867425
11	0xbffe7690841be6e7	-1.9039464149959089
12	0x3ff01209e1a3e85c	1.004403954894335
13	0x3ff692706d29a15c	1.4107517494358808
14	0xbfe01aa785e63250	-0.503253709337125
15	0x400095f9970be3ae	2.0732299614432668
16	0x3fe371e178ad7b95	0.6076514584527667
17	0xbfc3702212e4fc9c	-0.15185953066427238
18	0x3fc9edf390a5a504	0.20257420122951697
19	0xbfe1cdb8c0bca5a3	-0.5563625111000657
20	0x40017ca55e243ccb	2.1858622889336394
21	0xc0076d62f7e579da	-2.928411423388053
22	0x3ff2a15a34b93538	1.1643926677237015
23	0xbff83720b6eef7c2	-1.5134589334333985
24	0xbff01b2254608145	-1.0066245361304749
25	0xbfe9b8c15b4e7c5c	-0.803803137143301
26	0xc0013225b517f2ce	-2.149485983651494
27	0x3fd3356f44ace519	0.3001363917024534
28	0xbfa99bd244b42544	-0.05001694763820777
29	0x3ff8177a41e94a0d	1.5057318281802765
30	0x4005019852167007	2.6257788098428168
31	0x3fc365ac457fac02	0.1515403117512904
32	0xbfe1c206ec8d1e2c	-0.554934942258972
33	0x3fc9d77d41721bae	0.201888710933614
34	0x3fd0291831a1f218	0.25250820967610954
35	0xbff75a8b60bf222e	-1.4596055773892078
36	0xbfdcf5e093be7afb	-0.45250715664035085
37	0xbfc34cdca438c8b3	-0.15078313845294175
38	0xbff671a528a4e323	-1.4027453982982443
39	0x3ff752e6e3c2f5ca	1.4577397248207142
40	0x3fe68e674a036e2e	0.7048832364629953
41	0xbffb482290df54e6	-1.7051110896184638
42	0xbffcc43a95887c43	-1.79790743266473
43	0x4000dcbbc020feec	2.1077799806661144
44	0x3ff3532f6d7aa1c3	1.2078089024090424
45	0x3fe4f791b676187d	0.6552208484361156
46	0x3fff981bfe71d088	1.9746360720864988
47	0x3fe9f8d9934946bd	0.8116271855053224
48	0xbfc378e23570e591	-0.15212657555984468
49	0xbfd6b2edce10a745	-0.35467095492878215
50	0x3ff110f19b29b162	1.0666366635369617
51	0xbfe6b7b293ae66cb	-0.7099240192794353
52	0xc002f648f23ec3cb	-2.3702563214687635
53	0xbfd9cbee339d4ab2	-0.40307192841025163
54	0x3fd021dca089f86e	0.2520667617571978
55	0xbff1b33abe8b939e	-1.1062571948216156
56	0x3fe82dbe2a1ece7a	0.755583841577802
57	0x3ffc52ebbe436586	1.7702443535002614
58	0xbfc36a5103c2c300	-0.15168202098495698
59	0x3fd9e94aa4f15810	0.4048639879960101
60	0x3fe1d643c69dcfed	0.5574053649165741
61	0xbfff79ed2342baf4	-1.9672671677942022
62	0xbfa9d2dc64534f23	-0.05043686604190458
63	0xbfc9cfc767431c46	-0.20165340940568138
64	0xbfe1b908034bd74b	-0.5538368286495169
65	0xbfe82013cd46f77f	-0.7539156922646127
66	0x3fed02d395ca6d60	0.9065950322723602
67	0x3fe4fbf36cd7259d	0.6557557225980194
68	0xbff753988ba86a48	-1.4579091506372084
69	0xbff5a65e8b19c565	-1.3531175073261121
70	0x3fe9b4ef01a93961	0.8033366234247233
71	0xbfee75a949720f44	-0.9518629488452253
72	0xbff8c27deddb2710	-1.5474833766224414
73	0xbffca25fcc5d6686	-1.7896421416284354
74	0x3ff724c5486ff392	1.4464772061903415
75	0xbfee42852ee540b9	-0.9456201473167517
76	0x3fffffef564b344b	1.999984109005953
77	0xbfc33175017fbf37	-0.14994680951303405
78	0xbfdcc287580feac8	-0.4493730888349714
79	0xbfc32aa73d86144e	-0.14973917488183236
80	0x3fb98fb6eec55753	0.0998491604744605
81	0x3fd662614c0d27b9	0.34975464274304674
82	0x3fd667047242ee11	0.35003768118232964
83	0x3fc3356f44acebdb	0.1500681958512747
84	0x3fe80d79867d7ecd	0.7516448618661912
85	0x3fc33fb13e4abae5	0.15038123647305848
86	0x3fd9b05a7bf92ce0	0.40138876063129025
87	0xbff26a2d54b0e690	-1.1509221370928664
88	0xbfd6665abc67d97e	-0.34999721907606574
89	0x3fe004b525e896bb	0.5005746593858115
90	0xbfffe3a002280767	-1.993072517798703
91	0x3fcfe8546a7e4517	0.2492776412951023
92	0xbffc991e6268eb35	-1.7873824924597106
93	0x3fd3141c087d0b3a	0.29810238675070233
94	0xbfb96ea67c70938c	-0.09934464014129513
95	0x3fa96f65e8ea9830	0.04967802494256579
96	0xbfe7cdeff70b137b	-0.7438888382972516
97	0x3fe9702560a6b883	0.7949396980018409
98	0xbfd63d8cc5efa1d6	-0.3475067074746482
99	0xbfd964f1f8ec2f0a	-0.39678620632979344
100	0x3fefd0dc3867c6df	0.9942456342380089
101	0x3fcfd58b1886a777	0.24870432565267794
102	0xbfcfd0dc3867c37e	-0.24856140855947823
103	0x3ffb264a46173926	1.6968481767576775
104	0xbfe652899b1c046c	-0.6975753812295244
105	0xbfeb0d84df88fc09	-0.8454002729339446
106	0xbfeb00027bfd3164	-0.8437511846218908
107	0xbfdfba74bebfcebf	-0.49575537326675695
108	0xbfe16db9c8de2f45	-0.5446442530824035
109	0x3ff574bafef6cd1a	1.3409986457380172
110	0x3fd315cb0894643a	0.2982051452432334
111	0xbff7c642f1b0a969	-1.4859036866206117
112	0xbfdfa9bbcd8d9bf4	-0.494734717116841
113	0xbfd625796c9126fd	-0.34603725054022033
114	0x3fc9525cd212508d	0.19782600648307316
115	0x4003189a073384ee	2.387012535342925
116	0xbfe63e3413a6ef44	-0.6950931915120937
117	0x3fe7df746867209e	0.7460271872632978
118	0x3fefe7636c661111	0.996995650974471
119	0x3fc988ec94e8e6d7	0.19949109335885026
120	0x3feb2f1f5dc7ce7f	0.8495022613191877
121	0x3feb3cd11b9ddc0a	0.8511739291560627
122	0x3fece665cb784f1b	0.903124711420307
123	0x4008a8c11b9d4880	3.0823995740293526
124	0xbfed0b7c08073db8	-0.9076519161989642
125	0x3fd9d77d41721bae	0.403777421867228
126	0x3fb9d90894398b02	0.10096791857499102
127	0x0000000000000000	0.0
128	0xbfd6992d88e7b46f	-0.35309923524511694
129	0x3fc9d6b7a9c47ff6	0.2018651560729265
130	0xbfed01f6396f85ba	-0.9064894792356235
131	0xbff5b004ae1b2886	-1.3554732132929828
132	0x3fd68254848747cb	0.35170472089987176
133	0x3fee9d9a4c9f87b5	0.9567386147066289
134	0xc0013c5880a3ff93	-2.1544656801269837
135	0x3fe00d4480fb444f	0.5016195792360437
136	0xbff7fe87f6bc34ea	-1.4996413839428961
137	0xbfefeb27ba231b7b	-0.9974554667941072
138	0x3fd32a164f97e952	0.2994437958983741
139	0xbfcfec18f127a74d	-0.2493926217569488
140	0xbfb9882ba77c6661	-0.0997340473080839
141	0x3fa988ec94e8cbce	0.04987277333966454
142	0xbfe31feb49db8669	-0.5976463739900285
143	0x3fecbf217763e15d	0.8983313876952185
144	0xbfd65726328cdb45	-0.34906916557831763
145	0x3fcfeeecebafc660	0.2494789267362192
146	0x4002dcf30dd749b0	2.357885463841022
147	0xbfd3404373bc7e9c	-0.30079733183263513
148	0x3ff5b9b36ebe9be5	1.357837135883295
149	0x3fe69117e30baf31	0.7052115854726023
150	0xbfe1b55666fa66f8	-0.5533859263698266
151	0xbfe0146da2655796	-0.5024936839861194
152	0x3fe4ef736144da54	0.6542298221382432
153	0x3fe1bcbb2a6d34ee	0.554288466324264
154	0xbfeb5b9f94f0055e	-0.8549344929635188
155	0xbfc9bc94d8034ab5	-0.20106754825117937
156	0x3ff35b41b4107c12	1.2097794564977034
157	0x3ff369279ed981f7	1.2131725506843603
158	0xbff0f15daf598ecf	-1.0589272355654662
159	0x3feb7c58c4f852c6	0.8589290473051612
160	0x3fd6a7616429318a	0.35396609097804144
161	0x3fc9e6f6cfd23714	0.2023609652282451
162	0x3fe9f3656d09d41a	0.8109614495903117
163	0xbfd9ed2ca0e748af	-0.4051009723017484
164	0x3feedb36fb0416fa	0.9642596151977323
165	0xbfe9ef8193eb3287	-0.8104865922010313
166	0x3fe85b7d967d65d1	0.7611682833914363
167	0xbfc9f811fc2f3c94	-0.2028830033654897
168	0xbfd9f1d6f259e850	-0.40538571993932226
169	0xbff9d90894398b02	-1.6154866971998563
170	0x3ff9f1d6f259e850	1.621542879757289
171	0x3fd6b86122ee6c74	0.35500362788452056
172	0xbfe035b0fc72fde4	-0.5065541201255965
173	0x3fb9f10fc6ee7605	0.1013345585510806
174	0x3fe03b87fc0dcd0e	0.5072669909408505
175	0x3ff52ab683ebf882	1.3229279664224411
176	0xbffd2f31bfcc4316	-1.824022053919355
177	0xbfe1cfdabdb6637f	-0.5566228585549736
178	0xbfa9e7bd604cc7b2	-0.05059615898643645
179	0xbfd6a60659aa59df	-0.3538833499564173
180	0x3fa9e316afae354a	0.0505606736615883
181	0xbfa9e25066797bd6	-0.05055476427946075
182	0x3fdd2673f98f8312	0.45547198649551135
183	0x3fe1d643c69dcfed	0.5574053649165741
184	0xbfe6aa17f5d7e96f	-0.7082633782986657
185	0x3fc36ef7fbb5020c	0.15182399549850378
186	0xbfdd1e9a7348b8d5	-0.4549928785153388
187	0x3fa9e316afae354a	0.0505606736615883
188	0xbfdd17a3c089d489	-0.4545678501375013
189	0x3fe6aa17f5d7e96f	0.7082633782986657
190	0x3fd6aed905728d9d	0.35442185909251994
191	0xbfe842b7b82c435a	-0.758144244873715
192	0x3fe50ecf947809c7	0.6580579662116229
193	0x4000aef085737493	2.085419695459288
194	0xbff10c54d693c51d	-1.0655105955050381
195	0xbfe5133b080eb71a	-0.6585974843380626
196	0xbfe50b073d20151c	-0.6575962251523921
197	0x3ff039952f38423a	1.0140582890054604
198	0xbfe50f711a358b8a	-0.6581349861047425
199	0x3fd035b0fc72fde4	0.25327706006279826
200	0x0000000000000000	0.0
201	0xbfa9eeba8c5133bf	-0.05064948046547312
202	0xbfff762b556f8507	-1.9663499200181052
203	0x3fd69b33da27b553	0.3532228117390634
204	0xbfa9d52c9dd02b2f	-0.050454515709210994
205	0xbfc35e254b3e7b5a	-0.15131059812571374
206	0x3fe36517d5b1385b	0.6060904668500017
207	0x3ff10322c415e885	1.0632655772774637
208	0xbfc9e94aa4f15ed3	-0.2024319939980531
209	0xbfe02cf659b5427c	-0.5054885627851742
210	0xbfc9de71aa531bf5	-0.20210095230706285
211	0xbfa9ddaba83de444	-0.05051933697445368
212	0xbfd69d3a885058f3	-0.3533464747610104
213	0xbfc36075966b2ad0	-0.1513812050310066
214	0xbfd35cfd5aaf7f9b	-0.3025506387330041
215	0x3feb7c58c4f852c6	0.8589290473051612
216	0xbfb9dce5b1ff827e	-0.10102687450081224
217	0x3ff2a39614da6243	1.16493805070617
218	0xbfd032c70fbece01	-0.2530992177737233
219	0x3fe377218d3c5b8b	0.608292365885846
220	0xbfe033bf962d3daf	-0.5063169415606604
221	0xbff2951a70002908	-1.1614021658920723
222	0x3fd9e0c3f7a6adca	0.4043435972659749
223	0xc0047fd61d4456e9	-2.5624201094132
224	0xbfe9ad4db586e665	-0.8024052186439802
225	0x3ffa94c13f391fd3	1.6613171071676234
226	0x3fe1be518fb9c680	0.5544822508947647
227	0x3fd9d52c9dd038b4	0.4036361256738801
228	0x3fe842b7b82c3ff8	0.7581442448736189
229	0x3ff5e75632f25926	1.3689786901573568
230	0xbfd374cbd532d884	-0.3040036756532418
231	0xbfe031cea716d8bb	-0.5060799849950607
232	0xbfd9e316afae5053	-0.4044853892930906
233	0xbfed0fd2318a3e19	-0.908181282766182
234	0x3fb9d6b7a9c47ff6	0.10093257803646324
235	0xbff6890803f4023d	-1.4084549097461967
236	0xbfc34f28cfde16a1	-0.15085325383931994
237	0xbfd68254848747cb	-0.35170472089987176
238	0x3fe1b55666fa68a8	0.5533859263698746
239	0x3fdd01f6396f876b	0.4532447396178358
240	0x3fa9c99fa19777a9	0.05036639068178712
241	0x3fe022d320e79501	0.5042510645550068
242	0x3fc35eb950c696cb	0.15132824367645123
243	0x3fed1dbb6e46457c	0.9098794130133423
244	0x3fe84e59d6d8d9a2	0.7595643230659344
245	0x3fd036a9dc550662	0.2533363963776535
246	0x3ff796f9f36ac4de	1.4743594654540213
247	0xbfd3824062e2601f	-0.304824921194724
248	0x3fba04910e769df8	0.10163218119725304
249	0x3fdd4d118d904075	0.4578288919883627
250	0xbfaa0ad51b3db077	-0.05086389501124782
251	0x3fba0c66972eab7f	0.10175172034239031
252	0xbfc38789538c37a6	-0.15257374362448423
253	0x0000000000000000	0.0
254	0xbfd6c3feeca7b954	-0.35571263419014554
255	0xbfd9fe5004d5a29d	-0.4061470076763188

weight f4 [64, 3]
0	0xbc923413	-0.017847097
1	0xbb5d1ca5	-0.0033738997
2	0x38640435	5.4363354e-05
3	0xbd20d859	-0.039268825
4	0xbc8ce6d6	-0.017199915
5	0xba2521ff	-0.00062993163
6	0xbd59cfad	-0.05317657
7	0xbc595a19	-0.01326611
8	0xbc68eacc	-0.014216136
9	0xbd6b7ca4	-0.057491913
10	0x3c1f483f	0.009721815
11	0xbc7835d5	-0.015149553
12	0xbd1dafb5	-0.038497645
13	0xbaaff8d0	-0.0013425592
14	0xb8997db2	-7.319021e-05
15	0xbd557b16	-0.052119337
16	0x3c4e5939	0.0125945145
17	0xbaefe2e6	-0.0018301874
18	0x3f261343	0.6487314
19	0x3d1c692b	0.038186233
20	0x3f66595e	0.89980114
21	0x3e6b912f	0.23004602
22	0xbf1dd503	-0.61653155
23	0xbd6b18f9	-0.057396863
24	0xbad431ce	-0.0016189159
25	0xbbbc212f	-0.0057412605
26	0xbcc99583	-0.024607426
27	0xbd606a28	-0.05478874
28	0xbcd1b71d	-0.02560001
29	0xbb8f952c	-0.0043817963
30	0xbd91004b	-0.07080134
31	0xbceac220	-0.02865702
32	0xbc748ccd	-0.014926148
33	0xbd28cc1b	-0.041210275
34	0xbcb91f36	-0.02259789
35	0xbc815054	-0.015785374
36	0xbd4c4aee	-0.049876146
37	0x3bf3fd08	0.007445935
38	0xba5cd5f5	-0.0008424216
39	0xbaaa6707	-0.0013000675
40	0xba6a7c77	-0.00089449383
41	0xb744ee00	-1.1737924e-05
42	0x3de7d5a0	0.113200426
43	0xbed2d4bd	-0.4117793
44	0xbd0b1fc5	-0.033965845
45	0xbd8cacce	-0.068688974
46	0xba00c074	-0.000491149
47	0xbcbc66d3	-0.02299825
48	0xbd698c7a	-0.057018735
49	0x3cc47356	0.023980778
50	0xbc988a06	-0.018620502
51	0xbd63312e	-0.055466823
52	0xbcdb7122	-0.026787344
53	0xbafe3d89	-0.0019397001
54	0xbd02a50a	-0.031895675
55	0xbb20f611	-0.002456073
56	0xbbbec2b5	-0.0058215507
57	0xbcb68a12	-0.022282634
58	0x3b700eee	0.0036629993
59	0xba589f48	-0.0008263481
60	0xbd793b5a	-0.060847618
61	0xbc909669	-0.017649846
62	0xbd2e06f5	-0.042487103
63	0xbcf2921c	-0.029610686
64	0xbc919a42	-0.017773751
65	0xbca3b798	-0.019985005
66	0xbad19b6b	-0.0015991753
67	0xba264e68	-0.0006344081
68	0xb9141fad	-0.0001412618
69	0xbd6a3c2f	-0.0571863
70	0x3c88deb7	0.016707761
71	0xbc4fb685	-0.012677793
72	0x3d60ffd2	0.05493147
73	0x3c78fd17	0.01519706
74	0x3fcc5547	1.5963525
75	0x3e837840	0.2567768
76	0x3dde5ec7	0.10857921
77	0xbc9a809a	-0.01886015
78	0xbd4f3f32	-0.050597377
79	0x3b8501c6	0.0040590493
80	0xbc397818	-0.0113201365
81	0xbd3c54ab	-0.045979183
82	0x3b22b567	0.0024827363
83	0xbb296c36	-0.0025851852
84	0x3daffb15	0.08592812
85	0x3f2fa41f	0.68609804
86	0xbd4cabb7	-0.049968448
87	0xbc95b2d1	-0.018273743
88	0x3b2619df	0.002534501
89	0x383409a0	4.292431e-05
90	0xbc72c561	-0.014817567
91	0x3ba429d3	0.0050098686
92	0xbcad0188	-0.021118894
93	0xbc4d88d2	-0.012544828
94	0xbb142174	-0.0022602947
95	0x387020a2	5.725085e-05
96	0xbdaab820	-0.083359
97	0xbd04ba07	-0.032403972
98	0xbcbff20c	-0.023430847
99	0xbd2943e6	-0.04132452
100	0xbcb9c8c6	-0.022678744
101	0xba6f7995	-0.00091352436
102	0xbccb6a2f	-0.024830906
103	0xbcad03dc	-0.021120004
104	0xbc957f35	-0.018249134
105	0xbd2cbbff	-0.042171475
106	0x3d08a849	0.033363614
107	0xbc3abd63	-0.011397692
108	0xbcd1262a	-0.025530893
109	0xbc3b0f7b	-0.011417265
110	0xba053431	-0.00050813245
111	0xbd2dccb3	-0.042431545
112	0xba9ebf8d	-0.001211153
113	0xb8656bde	-5.4698314e-05
114	0xbba7ca1f	-0.0051205303
115	0xba33eadd	-0.00068633055
116	0xba617624	-0.0008600673
117	0xbc11b619	-0.008893513
118	0x3a5cb176	0.0008418778
119	0x383a29c4	4.4384753e-05
120	0xbd3f49b6	-0.046701156
121	0xbcc5c446	-0.024141442
122	0xbac30749	-0.001487949
123	0xbb3059e1	-0.002690904
124	0xbaab3086	-0.0013060726
125	0xb88b2c1f	-6.636255e-05
126	0xbd39c926	-0.045357846
127	0xbc97d159	-0.018532442
128	0xbcaf91a4	-0.021431752
129	0xbd7b1f99	-0.06130943
130	0x3c7451ef	0.014912113
131	0xbb784eed	-0.003788884
132	0xbd2cad0e	-0.042157225
133	0x3c44ecd9	0.0120193595
134	0xbb9a0912	-0.0047007883
135	0x3c3c613b	0.011497791
136	0xbd292673	-0.041296434
137	0x3c842569	0.01613112
138	0xbd68c567	-0.056828883
139	0xbb9883d1	-0.0046543856
140	0xbc39b137	-0.011333755
141	0xbd728ecd	-0.059218217
142	0xbccd2942	-0.025044087
143	0xbceaf844	-0.028682835
144	0xbd5b08ce	-0.053475194
145	0xbc13189a	-0.008978033
146	0xbc1bd7c1	-0.009511889
147	0xbd1de2ba	-0.0385463
148	0x3c162e37	0.009166292
149	0xba576b57	-0.0008217594
150	0xbd2816dc	-0.041037425
151	0xbc3d3f7d	-0.011550781
152	0xbc9871df	-0.018608985
153	0xbd39d341	-0.045367483
154	0xbd1cb922	-0.038262494
155	0xbc733778	-0.014844768
156	0xbea65e25	-0.32493702
157	0xbda2446d	-0.079232074
158	0x3e0da45e	0.13832232
159	0xbd6c993c	-0.057763323
160	0x3bc72942	0.0060779164
161	0xbc59d5d7	-0.013295612
162	0xbd3bd854	-0.045860603
163	0x3b14f31b	0.002272791
164	0xbc2dcc5f	-0.010607808
165	0xbbeb4cba	-0.0071807774
166	0xba376c00	-0.0006996989
167	0xba9a137e	-0.0011755077
168	0xbd6e12aa	-0.05812327
169	0xbca03186	-0.019554865
170	0xbcb44f57	-0.022010488
171	0xbd3ba178	-0.045808285
172	0xbcfc99a7	-0.030834986
173	0xbb9140fe	-0.0044327965
174	0xbca088c9	-0.019596474
175	0xbbd1d3b4	-0.006403411
176	0xb9d0b13e	-0.00039804907
177	0xbd1a8905	-0.03772833
178	0x3bb47f77	0.005508359
179	0x38bc8187	8.988665e-05
180	0xbe3803e4	-0.17970234
181	0xbd06e4c9	-0.03293303
182	0xbfdc347b	-1.7203516
183	0xbd895d81	-0.067072876
184	0x3c01ae00	0.00791502
185	0xbc685571	-0.014180527
186	0xbd71ddfa	-0.059049584
187	0xbcae4f24	-0.021277972
188	0xbce76d87	-0.028250469
189	0xbd4858b3	-0.048912715
190	0x3b6c71c3	0.003607855
191	0xbcbea81a	-0.023273516

bias f4 [64]
0	0xbcb38693	-0.021914756
1	0xbd2e144e	-0.042499833
2	0xbd61b72b	-0.055106323
3	0xbd8c2d3b	-0.068445645
4	0xbd2392d0	-0.039934933
5	0xbd68edea	-0.056867518
6	0xbf1e0f47	-0.6174206
7	0xbe3a2332	-0.18177488
8	0xbd1e393f	-0.038628813
9	0xbd75d2cd	-0.06001549
10	0xbd8a1b9b	-0.067435466
11	0xbd948a5d	-0.07252953
12	0xbd5c16c5	-0.053732652
13	0xbae8649c	-0.0017730179
14	0xbdb8e099	-0.090272136
15	0xbd920c60	-0.071312666
16	0xbd901423	-0.07035091
17	0xbd79ba5e	-0.06096875
18	0xbd10dc7a	-0.035366513
19	0xbd091397	-0.033465948
20	0xbdaa85c3	-0.08326294
21	0xbd45aa83	-0.048258316
22	0xbaf281f4	-0.0018501864
23	0xbd841c96	-0.06450765
24	0xbeb431f7	-0.3519437
25	0xbe598396	-0.21241602
26	0xbd61dc6f	-0.055141862
27	0xbd365f99	-0.044524763
28	0xbd760dac	-0.060071632
29	0xbcabae99	-0.020957278
30	0xbd3f3495	-0.046681006
31	0xbc631d76	-0.0138620045
32	0xbda2fc8f	-0.07958328
33	0xbd41adb8	-0.04728481
34	0xbcc76120	-0.024338305
35	0xbd5d9a22	-0.05410207
36	0xbcfb8f32	-0.03070793
37	0xbd3a24ac	-0.04544513
38	0xbc9dff1a	-0.019286681
39	0xbc3cc174	-0.011520732
40	0xbd56472f	-0.05231398
41	0xbb438c18	-0.002983814
42	0xbd3a268a	-0.04544691
43	0xbd8602c7	-0.065434985
44	0xbd394da9	-0.045240078
45	0x3bd77730	0.0065754876
46	0xbd48fb5b	-0.049067836
47	0xbd85c554	-0.06531778
48	0xbd94845c	-0.07251808
49	0xbd3c23b2	-0.04593248
50	0xbd13acdb	-0.03605352
51	0xbd130576	-0.03589388
52	0x3eb02f92	0.34411293
53	0xbd61e021	-0.055145387
54	0xbcec2a17	-0.028828664
55	0xbb04b688	-0.0020250399
56	0xbd54a704	-0.05191709
57	0xbd48a369	-0.048983965
58	0xbc8973f8	-0.016778931
59	0xbd264828	-0.040596157
60	0x3f2a25e2	0.66464055
61	0xbd9469f2	-0.0724677
62	0xbd5a5f35	-0.053313453
63	0xbd10d097	-0.035355177

weight f4 [64, 64]
0	0xb242ac38	-1.1331444e-08
1	0x32a63844	1.935053e-08
2	0xb7c388f1	-2.330958e-05
3	0x32c4b7fd	2.2901071e-08
4	0x34d5552d	3.9736315e-07
5	0x33b9d7e4	8.654004e-08
6	0xbc8fb1ab	-0.017540773
7	0xbc4f3e75	-0.012649168
8	0x3818a2d6	3.6391277e-05
9	0x3344cfb6	4.5823718e-08
10	0x36bbcb1a	5.5966784e-06
11	0xb5478b78	-7.433623e-07
12	0xb3300556	-4.0983046e-08
13	0xb28efe40	-1.6646595e-08
14	0xbc20ea14	-0.009821434
15	0x33ed1b09	1.104109e-07
16	0xb1871472	-3.9313415e-09
17	0x30986658	1.1088543e-09
18	0xb2b0bc5c	-2.0574753e-08
19	0x329470af	1.728071e-08
20	0xb60b1577	-2.0725108e-06
21	0xb2c31d6c	-2.2714367e-08
22	0xb3022209	-3.029894e-08
23	0xb2349b64	-1.0512711e-08
24	0xb648c4b0	-2.991681e-06
25	0xbc2e028a	-0.010620723
26	0x341d4c8d	1.4649613e-07
27	0x3380e12e	6.0014244e-08
28	0xbc36ef5a	-0.011165464
29	0xb27f2870	-1.4852148e-08
30	0xb6801db5	-3.8181556e-06
31	0xb34d1ecc	-4.775829e-08
32	0x32ab5ec7	1.995012e-08
33	0xb341df86	-4.5139608e-08
34	0xb5a61878	-1.2375085e-06
35	0x30da7204	1.5893993e-09
36	0xb32ab401	-3.9744922e-08
37	0xb376d8ec	-5.7473628e-08
38	0xb6419a4c	-2.8849054e-06
39	0x32a7967e	1.9509795e-08
40	0xb1e4f6d0	-6.6637327e-09
41	0xb207a9f9	-7.8966815e-09
42	0x36fc1a7b	7.513268e-06
43	0xb32a6a29	-3.967776e-08
44	0xb31260e2	-3.408139e-08
45	0x32703653	1.39821905e-08
46	0x366a9c20	3.4959594e-06
47	0x327d07d6	1.472832e-08
48	0xb33ddbcc	-4.4204896e-08
49	0xb2f7e276	-2.8857567e-08
50	0x368f7dad	4.2763627e-06
51	0x35dd04a4	1.6467134e-06
52	0xb9d56a48	-0.00040705712
53	0xb6c6897f	-5.9168665e-06
54	0xb5132708	-5.4818565e-07
55	0xb19d5184	-4.5785686e-09
56	0x38880aab	6.4869724e-05
57	0x325879d0	1.2600552e-08
58	0x326bd50b	1.3727241e-08
59	0xb306e4bb	-3.1407335e-08
60	0xbb64bf90	-0.003490422
61	0xb2916c80	-1.6929562e-08
62	0x38af58da	8.3612e-05
63	0x35b5d9f2	1.3548981e-06
64	0x320b11ff	8.094957e-09
65	0x3255b2cc	1.24388855e-08
66	0x32173636	8.801683e-09
67	0xb1f5d0b2	-7.1541644e-09
68	0x3252cf43	1.2270735e-08
69	0xb22c3dd4	-1.0025776e-08
70	0x34813b97	2.407148e-07
71	0xb28c9765	-1.6366991e-08
72	0xb1b0305e	-5.127773e-09
73	0xb32647af	-3.8715083e-08
74	0x32b98a18	2.1599632e-08
75	0xb215f024	-8.727543e-09
76	0xb1f16a9a	-7.0261423e-09
77	0x31895ed0	3.9980037e-09
78	0x32e0807a	2.6135456e-08
79	0xb088ab40	-9.943975e-10
80	0xb05e2d70	-8.08277e-10
81	0x3244623c	1.14310374e-08
82	0x321cdd49	9.1307095e-09
83	0x31382efd	2.6802234e-09
84	0xb0a2d4d0	-1.1847536e-09
85	0x3314ff83	3.4691322e-08
86	0x31c18541	5.6321885e-09
87	0x316b4538	3.4236347e-09
88	0x3380a9be	5.9913404e-08
89	0xb4ef8cbb	-4.4619614e-07
90	0x31c97382	5.8630016e-09
91	0x32317e03	1.0331408e-08
92	0xb88e69ed	-6.790818e-05
93	0x3252c66f	1.2268727e-08
94	0x31ed90f8	6.914089e-09
95	0xb2010bb2	-7.5114475e-09
96	0x32bfcf60	2.232963e-08
97	0x30c38ac1	1.4227554e-09
98	0xb292def0	-1.7098017e-08
99	0xb30c3223	-3.264189e-08
100	0x322db872	1.0111863e-08
101	0xb0e0ed6e	-1.6365627e-09
102	0x32142caf	8.624894e-09
103	0xb179bb10	-3.6340602e-09
104	0xb2b86a03	-2.1468628e-08
105	0xb1ecad48	-6.888204e-09
106	0x329bae34	1.8123593e-08
107	0xb232c5ce	-1.0405939e-08
108	0xb19362ec	-4.289509e-09
109	0xb044e8cc	-7.163521e-10
110	0x3193c59c	4.3007287e-09
111	0x3108cd08	1.9907151e-09
112	0xb1f712b3	-7.190772e-09
113	0x319da559	4.5880992e-09
114	0x321210f2	8.502171e-09
115	0x31d49a6c	6.187568e-09
116	0x3369ed72	5.4465495e-08
117	0xb262129e	-1.3159164e-08
118	0xb232b8bd	-1.0402968e-08
119	0x321fa47e	9.292419e-09
120	0x2fff0d08	4.639349e-10
121	0x3289667b	1.5995502e-08
122	0xb1f79526	-7.2056023e-09
123	0xb24b8d0e	-1.1848227e-08
124	0xb45c5e2a	-2.0523353e-07
125	0xb2390922	-1.0770494e-08
126	0xb23d107f	-1.1004999e-08
127	0x32534731	1.22980035e-08
128	0x33990870	7.1261525e-08
129	0x320a8f5d	8.065254e-09
130	0x37d6715a	2.5563571e-05
131	0x33569b30	4.99669e-08
132	0xb326f3b7	-3.8871544e-08
133	0x31c804d2	5.821314e-09
134	0xbc85ccf0	-0.016333073
135	0xbb9ee285	-0.0048487806
136	0x3373c934	5.676084e-08
137	0xb3019abb	-3.017588e-08
138	0xb41b4695	-1.4461177e-07
139	0xb35fca7a	-5.2105385e-08
140	0xb3821ff2	-6.0594076e-08
141	0xb28dc5c2	-1.650449e-08
142	0xbb58e805	-0.0033097279
143	0x33b30052	8.335395e-08
144	0x34841b15	2.460662e-07
145	0x324a81ab	1.1787431e-08
146	0x3323b1fa	3.8113264e-08
147	0x33695726	5.43288e-08
148	0x332568e9	3.851247e-08
149	0x3140fa5b	2.8081988e-09
150	0xb2521768	-1.2228931e-08
151	0x353286c1	6.650626e-07
152	0xb3e8d956	-1.0842875e-07
153	0xbc7ef5ab	-0.0155615015
154	0xb3c642cb	-9.232243e-08
155	0xb3324659	-4.1507835e-08
156	0xbd2d7ead	-0.042357136
157	0xb22d5340	-1.0088854e-08
158	0xb2f8eba4	-2.8978157e-08
159	0xb2832b3a	-1.5270064e-08
160	0x31c545c6	5.741387e-09
161	0x33264b04	3.8718113e-08
162	0xb9090edd	-0.00013070875
163	0x33e9ea3e	1.08925164e-07
164	0x30771d34	8.9899577e-10
165	0x32a7343c	1.9465112e-08
166	0xb5aa499a	-1.2687408e-06
167	0x325a639c	1.2711919e-08
168	0xb1a13a93	-4.692376e-09
169	0x32b260cc	2.0765945e-08
170	0x38cb8491	9.704487e-05
171	0xb3b0b1f0	-8.228005e-08
172	0x3246a184	1.1561841e-08
173	0xb33521d5	-4.2173117e-08
174	0xb34fe483	-4.8403773e-08
175	0xb2e9cb73	-2.7217288e-08
176	0xb3cece33	-9.63013e-08
177	0xb30bcd67	-3.2550272e-08
178	0x387ecb83	6.0747854e-05
179	0x340ab112	1.291667e-07
180	0xb72c6dd3	-1.0277569e-05
181	0x33471891	4.635564e-08
182	0xb4e045ab	-4.1773941e-07
183	0xb29bca49	-1.8136364e-08
184	0x3554c342	7.926029e-07
185	0x32cc73bf	2.380136e-08
186	0xb15a8256	-3.1797263e-09
187	0xb2ca0280	-2.3517032e-08
188	0xba761102	-0.00093866896
189	0xb4175490	-1.4093735e-07
190	0xb5ccb3bb	-1.5251493e-06
191	0x358c86b4	1.0470017e-06
192	0xb2678174	-1.3475404e-08
193	0x32560da6	1.2459543e-08
194	0x32201224	9.3173504e-09
195	0xb21f5f5c	-9.2767e-09
196	0x32bd566d	2.2041798e-08
197	0xb213fe02	-8.614281e-09
198	0x38bc844a	8.989179e-05
199	0xba9b5d55	-0.0011853377
200	0x358d0b51	1.0508612e-06
201	0x331fd355	3.7212278e-08
202	0x33663994	5.3603415e-08
203	0x352001a8	5.9607055e-07
204	0x31ef2066	6.9594988e-09
205	0xb21ba886	-9.060505e-09
206	0x38ae0ae4	8.298995e-05
207	0xb1e8f52c	-6.7799615e-09
208	0x31bac23e	5.4353952e-09
209	0x31884e17	3.9669987e-09
210	0xb133b888	-2.6152822e-09
211	0xb22bc1b2	-9.997551e-09
212	0xb43ae3b5	-1.7405439e-07
213	0xb2242592	-9.554599e-09
214	0x2f986340	2.771916e-10
215	0xb1bf1d2f	-5.5621494e-09
216	0x341855d4	1.4187327e-07
217	0x3075c71b	8.9413427e-10
218	0xb21999ca	-8.94074e-09
219	0xb1822843	-3.788075e-09
220	0x3636026d	2.7121525e-06
221	0x3010a074	5.261491e-10
222	0xb5f58618	-1.8292949e-06
223	0xb353bc9f	-4.9298816e-08
224	0xb12a7933	-2.480715e-09
225	0x3265887e	1.3360589e-08
226	0x32449b90	1.1444072e-08
227	0xb1529283	-3.0642304e-09
228	0x3123f8f6	2.386114e-09
229	0x31d6adda	6.2479844e-09
230	0x350fc4a0	5.355778e-07
231	0x3099295c	1.114397e-09
232	0x3167afc4	3.3714835e-09
233	0x3289fa2f	1.606267e-08
234	0xb1d0560b	-6.0633787e-09
235	0x316597f9	3.3410272e-09
236	0x32325ecc	1.0382518e-08
237	0x3190c7a3	4.2136477e-09
238	0xb2790b37	-1.44962575e-08
239	0xb128fee7	-2.4592113e-09
240	0x30ae87d8	1.2698775e-09
241	0xb223c146	-9.531794e-09
242	0x316f7cae	3.484995e-09
243	0xb401e697	-1.209795e-07
244	0xb68c87e6	-4.188146e-06
245	0xb3443883	-4.5686203e-08
246	0xb36fd783	-5.584253e-08
247	0x3219b098	8.945925e-09
248	0x315ca612	3.2108614e-09
249	0xb1fc1f8f	-7.337753e-09
250	0xb14e64b8	-3.0034197e-09
251	0xb2392921	-1.0777769e-08
252	0x38be9a37	9.088631e-05
253	0xb1b74f65	-5.335027e-09
254	0xb0b6a4c0	-1.3289068e-09
255	0xb37b573f	-5.851984e-08

bias f4 [64]
0	0xbd362648	-0.0444701
1	0xb99f97cf	-0.0003043995
2	0xbcca68ca	-0.02470817
3	0xbcc776e7	-0.02434869
4	0xbce126af	-0.027484266
5	0x3ea8893c	0.32917202
6	0x3f9b2778	1.212142
7	0xbd2dfa2e	-0.042474918
8	0xbd3181af	-0.043336567
9	0xbc8c6040	-0.01713574
10	0xbd2a4919	-0.041573618
11	0xbd6b6065	-0.057464976
12	0xbb336639	-0.0027374162
13	0xbd0a65da	-0.03378854
14	0xbd014193	-0.031556677
15	0xbca4e24d	-0.02012744
16	0xba85d8a8	-0.0010211663
17	0xbd168a58	-0.03675303
18	0xbdae94b1	-0.085244544
19	0xbd1bce72	-0.03803868
20	0xbd243359	-0.04008803
21	0xbd6a8913	-0.05725963
22	0x3e59086f	0.21194623
23	0x401062f2	2.2560391
24	0xba97eba7	-0.0011590616
25	0x3ee71ea0	0.45140553
26	0xbd943f46	-0.07238631
27	0xbb7c1494	-0.0038464414
28	0xbd1311ee	-0.03590577
29	0xbd2f2361	-0.04275835
30	0x3b86acd9	0.0041099605
31	0xbd3caa3c	-0.046060786
32	0x3ea894b9	0.32925966
33	0xbd368558	-0.04456076
34	0xbcf69677	-0.030101044
35	0xbbda2a7a	-0.0066578956
36	0xbd00d77f	-0.031455513
37	0xbd3eb147	-0.046555784
38	0xbd4262aa	-0.047457375
39	0xbd016812	-0.03159339
40	0xbd3c67aa	-0.0459973
41	0xba1e90dd	-0.0006048808
42	0xbd3d0772	-0.04614968
43	0xbc959dd5	-0.018263737
44	0xbd5c6bf2	-0.053813882
45	0xbc8cb438	-0.017175779
46	0x40255528	2.5833225
47	0xbcf6ef1b	-0.030143311
48	0xbca8205a	-0.020523239
49	0xbd19c6ce	-0.03754311
50	0xbc8d83ee	-0.017274823
51	0xbccdfde8	-0.025145486
52	0xbd584c07	-0.05280688
53	0x3f308820	0.6895771
54	0xbd2bb6a7	-0.041922238
55	0xbcfe8fb5	-0.031074384
56	0xbd2ebe6a	-0.04266206
57	0xbd350d44	-0.044202104
58	0xbd3c5185	-0.04597618
59	0xbce227d2	-0.027606878
60	0xbc36876c	-0.0111406855
61	0xbd3076f4	-0.043082193
62	0xbd369e79	-0.044584725
63	0xbd25b0f0	-0.040451944

weight f4 [64, 64]
0	0xb483f18e	-2.4576406e-07
1	0xb2289a47	-9.813966e-09
2	0x32785eb5	1.4457034e-08
3	0x32e72f32	2.6913401e-08
4	0xb70722fa	-8.054771e-06
5	0xb9828280	-0.00024892762
6	0xbcd908d4	-0.026493467
7	0xb1d17edb	-6.0971224e-09
8	0xb0e090cb	-1.6339298e-09
9	0x3332ff7d	4.167622e-08
10	0x32b5cc02	2.1163945e-08
11	0x32606f11	1.306377e-08
12	0xb1f9ebf0	-7.2736768e-09
13	0x33b0dca2	8.2357715e-08
14	0xb632922c	-2.660915e-06
15	0xb71735dd	-9.012842e-06
16	0x316fef40	3.4915075e-09
17	0x32bf39e4	2.2261652e-08
18	0x345028e3	1.9386384e-07
19	0x34dfdd03	4.1697794e-07
20	0xb442d8f3	-1.8146584e-07
21	0x3415812e	1.3923702e-07
22	0x3829e88e	4.0509323e-05
23	0xbd09b604	-0.03362085
24	0x3269b7f2	1.3604209e-08
25	0xbb256394	-0.0025236355
26	0xb1fc0f55	-7.3359083e-09
27	0xb0466a08	-7.218266e-10
28	0x330a21b4	3.216128e-08
29	0x33295686	3.942707e-08
30	0x325261c7	1.2245841e-08
31	0x36775f62	3.6861388e-06
32	0xb9be9e5c	-0.0003635761
33	0xb4cc0ca2	-3.8007153e-07
34	0x322bdb93	1.0003435e-08
35	0x323cba1e	1.0985358e-08
36	0xb484bdc2	-2.4724983e-07
37	0x3309fa9e	3.2125733e-08
38	0x354f4aaf	7.722219e-07
39	0xb32c05a0	-4.0051987e-08
40	0x31fa3d67	7.2829383e-09
41	0x324e590d	1.2011026e-08
42	0x3193df9c	4.3036845e-09
43	0x33970e50	7.034089e-08
44	0x338fbd40	6.693381e-08
45	0xb2514290	-1.2180536e-08
46	0xbd154c69	-0.036449824
47	0xb2c6766f	-2.3104091e-08
48	0xb27e3a83	-1.479805e-08
49	0x32612401	1.310491e-08
50	0xb2b5c95c	-2.1162741e-08
51	0x32186910	8.871453e-09
52	0xb5b1b837	-1.3241141e-06
53	0xbc2c9dd8	-0.01053568
54	0x35ceb2b9	1.5400211e-06
55	0x31dac35c	6.366845e-09
56	0xb59543e5	-1.1121125e-06
57	0x34262349	1.5472791e-07
58	0x34b98bd2	3.4560668e-07
59	0x33ebfeb2	1.0989369e-07
60	0x323855e5	1.072974e-08
61	0xb5b7a4bc	-1.3682507e-06
62	0x32e6e51c	2.6879711e-08
63	0xb25d1edb	-1.2870909e-08
64	0xb217eff2	-8.843914e-09
65	0x322256ac	9.449348e-09
66	0xb2c941ac	-2.3429344e-08
67	0xb20ce7d2	-8.201782e-09
68	0x320f225d	8.331509e-09
69	0xba525639	-0.00080237124
70	0xbd00471f	-0.031317826
71	0xb1a18d56	-4.7017847e-09
72	0xb46bf684	-2.1975762e-07
73	0xb1ddc35b	-6.454156e-09
74	0xb1ffb13f	-7.4416273e-09
75	0xb173d770	-3.5483616e-09
76	0x321cc8bc	9.126037e-09
77	0x3177da13	3.6067191e-09
78	0x31814df0	3.7632546e-09
79	0xb18c7455	-4.0877617e-09
80	0x326ba06d	1.3715277e-08
81	0xb19629b2	-4.3703148e-09
82	0xb5505fe8	-7.76256e-07
83	0x321c96cf	9.114685e-09
84	0x32ab75e3	1.9960629e-08
85	0x3214ec9f	8.668535e-09
86	0x3900f8e3	0.00012299749
87	0xbd19c967	-0.037545588
88	0x31ff4228	7.428998e-09
89	0xbc09fe3b	-0.00842243
90	0x30bf666f	1.3926192e-09
91	0xb264c10e	-1.3315242e-08
92	0x3298ae03	1.777426e-08
93	0xb1809dd1	-3.743232e-09
94	0x38b70843	8.727659e-05
95	0x308568e6	9.706838e-10
96	0xba2f9e28	-0.00066992873
97	0x321bee1f	9.07633e-09
98	0x31fa13a6	7.2781914e-09
99	0xb10fbcdd	-2.0916595e-09
100	0x3156138d	3.1152212e-09
101	0x32b33fb6	2.0867315e-08
102	0xb0eedfc0	-1.7380373e-09
103	0x31c8cb01	5.843845e-09
104	0x324f1993	1.2054801e-08
105	0xb107fd50	-1.9789077e-09
106	0xb5a5acd0	-1.2343753e-06
107	0x32fa3fce	2.9132845e-08
108	0x32a65bb6	1.9366649e-08
109	0x31f73197	7.194284e-09
110	0xbd24e62f	-0.040258583
111	0xb0a1549c	-1.1738339e-09
112	0x31b5d2fa	5.2917786e-09
113	0xb13fecdc	-2.7928797e-09
114	0xb24f5c50	-1.2069975e-08
115	0xb21c31b8	-9.0917e-09
116	0x30fc5408	1.8359296e-09
117	0xbc97b135	-0.018517116
118	0xb227b91d	-9.762769e-09
119	0xb19931f2	-4.458564e-09
120	0xb25cb8e3	-1.2847724e-08
121	0xb1948a2a	-4.3230743e-09
122	0xb22c084a	-1.0013602e-08
123	0x324d1cb6	1.1939099e-08
124	0x322a3f4f	9.909697e-09
125	0x3244b4d5	1.1449818e-08
126	0xb22cbf46	-1.0055208e-08
127	0xb4a8bbf2	-3.1429187e-07
128	0xb589a006	-1.0253868e-06
129	0xb0552fdc	-7.755696e-10
130	0x3376d82a	5.747294e-08
131	0x340bc69c	1.3017637e-07
132	0xb7237fde	-9.7453285e-06
133	0xb8a755a3	-7.9791316e-05
134	0xbce0b831	-0.02743158
135	0xb1dbd4ec	-6.3979453e-09
136	0xb1aa7b59	-4.961674e-09
137	0xb1b84a9c	-5.363587e-09
138	0x3182b635	3.8042125e-09
139	0xb16c52fb	-3.4389689e-09
140	0xb1d42fe2	-6.1754557e-09
141	0x32ed47a7	2.7623015e-08
142	0xb4da12dc	-4.0619386e-07
143	0xb711a63c	-8.681378e-06
144	0xb28c1193	-1.6306137e-08
145	0x3399f7cf	7.169694e-08
146	0x3459bb2d	2.0277794e-07
147	0x3551d994	7.8175185e-07
148	0xb3429035	-4.53003e-08
149	0xb4996745	-2.857361e-07
150	0x37d5a948	2.5470406e-05
151	0xbd1f7a70	-0.038935125
152	0x30a2499a	1.180797e-09
153	0xbae03961	-0.0017106944
154	0x322654ab	9.681723e-09
155	0xb1b26374	-5.1917883e-09
156	0xb21338b4	-8.569419e-09
157	0x32691582	1.3567275e-08
158	0x31a446aa	4.7810618e-09
159	0x365bc8b8	3.2750377e-06
160	0xb9249d1f	-0.00015698791
161	0xb4181b30	-1.4165994e-07
162	0x32a3cb59	1.906817e-08
163	0xb13d0b7c	-2.7509648e-09
164	0x3511a3af	5.42549e-07
165	0xb1e89116	-6.768583e-09
166	0x3512579a	5.4516715e-07
167	0xb3855eac	-6.210516e-08
168	0x308bee75	1.0181355e-09
169	0x3185d09a	3.8945247e-09
170	0xb25cebf8	-1.28593385e-08
171	0xb2fcfd18	-2.9451755e-08
172	0xb376cdfb	-5.7463676e-08
173	0x32bab386	2.1734888e-08
174	0xbd357df6	-0.04430958
175	0x32b6f73a	2.1300014e-08
176	0xb2e71162	-2.6899844e-08
177	0xb31d2456	-3.658746e-08
178	0x33ba4baf	8.675067e-08
179	0x326617fe	1.3393217e-08
180	0xb5d63b8e	-1.5961575e-06
181	0xbc26f446	-0.010190075
182	0x34939c44	2.7494582e-07
183	0x325c7c8e	1.2834006e-08
184	0xb54e3be3	-7.6828127e-07
185	0xb597f6d7	-1.1322217e-06
186	0xb533cdea	-6.698234e-07
187	0xb240115a	-1.1179816e-08
188	0xb21d73c4	-9.164925e-09
189	0xb5b0eacd	-1.3181358e-06
190	0x32760579	1.4320329e-08
191	0x321d4731	9.15479e-09
192	0xb53aedef	-6.963664e-07
193	0x321d12bf	9.142865e-09
194	0x33503acb	4.8482246e-08
195	0xb25b46f9	-1.2763615e-08
196	0xb5264a31	-6.194778e-07
197	0x37b9f386	2.2167118e-05
198	0xbd03c64d	-0.032171536
199	0x31c28cb7	5.6621405e-09
200	0x2fed7204	4.3191062e-10
201	0x3346c11d	4.6276103e-08
202	0xb1899bca	-4.004936e-09
203	0x3175c6d7	3.576522e-09
204	0xb1c2b58b	-5.666782e-09
205	0x33577069	5.0160825e-08
206	0x3675588d	3.6559388e-06
207	0x361f2597	2.3714726e-06
208	0x30e638b2	1.6750816e-09
209	0xb294cadc	-1.7321717e-08
210	0xb396ed9d	-7.028141e-08
211	0x3481144e	2.4042896e-07
212	0x3457d2c5	2.0100113e-07
213	0x34084d35	1.2694075e-07
214	0x374b6402	1.2123028e-05
215	0xbd31b6d7	-0.04338726
216	0x3162fe32	3.3031822e-09
217	0xbad53b0d	-0.0016268209
218	0xb24999cf	-1.1734712e-08
219	0x31203d7c	2.3318014e-09
220	0xb2858f9b	-1.5548542e-08
221	0xb2a3e722	-1.9080804e-08
222	0x31e54efc	6.6737567e-09
223	0xb57d86ff	-9.444629e-07
224	0xb7e98f6f	-2.7842556e-05
225	0x3413e08d	1.3772133e-07
226	0x32c968b7	2.3447098e-08
227	0x31ead390	6.834348e-09
228	0x35383773	6.862603e-07
229	0xb3074a51	-3.1499727e-08
230	0xb48e5387	-2.6510335e-07
231	0x328a130d	1.6073978e-08
232	0xb080b89a	-9.365693e-10
233	0x321a9c28	8.999486e-09
234	0xb1a90c20	-4.919926e-09
235	0x32ffb442	2.9767879e-08
236	0x32cc096d	2.3753012e-08
237	0x3284fcc7	1.5481772e-08
238	0xbd467f34	-0.048461154
239	0xb32e4dfa	-4.058345e-08
240	0xb364d023	-5.3274686e-08
241	0x32dfec8a	2.6068182e-08
242	0x3306063a	3.120497e-08
243	0x3276fd7e	1.4376722e-08
244	0x3321890e	3.7610384e-08
245	0xbc2ae38b	-0.010430227
246	0xb5e1f9ae	-1.6836473e-06
247	0x323f5509	1.1136998e-08
248	0x3521102a	6.0000696e-07
249	0xb5739013	-9.073421e-07
250	0xb59a57ad	-1.1499411e-06
251	0x3317e43b	3.5365e-08
252	0xb21ce40a	-9.132245e-09
253	0x34ef0971	4.452409e-07
254	0x3195cbe0	4.3596486e-09
255	0xb20e52fa	-8.2843545e-09

bias f4 [64]
0	0xbcfe5b57	-0.031049414
1	0xbce802ed	-0.028321708
2	0xbcf4da8f	-0.029889373
3	0xbd134c76	-0.03596159
4	0x3c629833	0.013830232
5	0x3f625981	0.8841782
6	0xb935c5df	-0.00017335218
7	0xbcc7aad4	-0.02437345
8	0xbd09509b	-0.033524137
9	0xbcc7c16c	-0.024384223
10	0xb83a5e99	-4.4433957e-05
11	0x3866ad68	5.499777e-05
12	0xbd19e3ac	-0.03757064
13	0x386c348e	5.631573e-05
14	0xbd13f168	-0.036118895
15	0xbc05f05f	-0.008174985
16	0xbccc60ee	-0.024948563
17	0xbcd1b723	-0.025600022
18	0xbce8a264	-0.028397746
19	0x3da79b9b	0.08183976
20	0xb6a781e7	-4.9921105e-06
21	0xbc21445a	-0.009842956
22	0xbcb899d1	-0.022534283
23	0xbc0d803f	-0.008636533
24	0xbbdeaeaa	-0.006795724
25	0xbd0ac98c	-0.033883616
26	0xbaa8922d	-0.0012860947
27	0xbcc3131b	-0.023812821
28	0xbc372885	-0.011179094
29	0xb86ee5e3	-5.695772e-05
30	0xbbdee799	-0.006802511
31	0xbba90de4	-0.0051591266
32	0xbcd01008	-0.02539827
33	0xbc6cc29e	-0.014450697
34	0xbb26af86	-0.002543421
35	0xbb111571	-0.0022138024
36	0xba264364	-0.00063424394
37	0x3ee2e140	0.44312477
38	0x379dfa51	1.8832421e-05
39	0x38bd0c3a	9.0145e-05
40	0xbd054d0b	-0.032544177
41	0xb9552c3b	-0.0002032974
42	0x37c21063	2.3134233e-05
43	0xbc3a1fe8	-0.011360146
44	0xbc832f6f	-0.016013829
45	0xbbd878ae	-0.006606183
46	0xbb975a2b	-0.004618903
47	0xbcbd3412	-0.023096118
48	0x38287f2f	4.017277e-05
49	0xb759b311	-1.29759e-05
50	0xbb164f48	-0.002293544
51	0x3f2dc9ec	0.67886233
52	0xbb2de3ad	-0.002653341
53	0xbd2226f2	-0.039587922
54	0xbc6a8c48	-0.014315672
55	0x3811e3c1	3.4782806e-05
56	0xba62ed73	-0.00086565985
57	0xbc7adc00	-0.015311241
58	0xbbf5e61a	-0.007504237
59	0x37bda403	2.260693e-05
60	0x3da288cd	0.07936249
61	0xbc080414	-0.008301754
62	0x38aea68d	8.327989e-05
63	0xbc37e250	-0.011223391

weight f4 [1, 64]
0	0x3be0142d	0.0068383426
1	0x3bbec20c	0.005821472
2	0x3bcc587f	0.0062361355
3	0x3aeed533	0.0018221497
4	0xbed2fb00	-0.41207123
5	0xc009a425	-2.1506436
6	0xbc678025	-0.014129673
7	0x3c0de764	0.008661125
8	0x3aa2454c	0.0012380271
9	0xbc152a68	-0.009104349
10	0xbb83b69e	-0.0040195724
11	0x35b75774	1.3660015e-06
12	0x3cf29bf1	0.029615374
13	0x35069dc0	5.0148446e-07
14	0x3c3e77ce	0.011625243
15	0x3d04a3f9	0.03238294
16	0x3bf98c2f	0.007615588
17	0x3b93877a	0.004502234
18	0x3c049a64	0.00809345
19	0xbf1aba78	-0.6044078
20	0xb99e61bc	-0.00030208926
21	0xbab5f506	-0.0013882227
22	0x3c0a646a	0.008446792
23	0x3c4e2b5e	0.012583582
24	0xbbc6007a	-0.0060425373
25	0x3b6ff860	0.003661655
26	0xba8c2801	-0.0010693074
27	0x3c14c95e	0.009081213
28	0xbd1663e0	-0.036716342
29	0xb64eddff	-3.082561e-06
30	0xb73cfc3f	-1.1264404e-05
31	0x353b43e2	6.976171e-07
32	0x3a77341a	0.0009430066
33	0xba067274	-0.0005128749
34	0x33f5315c	1.141768e-07
35	0x3aefb32e	0.0018287653
36	0xba021923	-0.0004962852
37	0xbfbd2ad1	-1.4778692
38	0x33aead4e	8.13403e-08
39	0x34d43216	3.952452e-07
40	0x3a174fc5	0.00057720795
41	0x350e2da5	5.2965544e-07
42	0x392a4748	0.00016239018
43	0xbc05017e	-0.008118032
44	0xbc24cda3	-0.010058793
45	0xba97021e	-0.0011521017
46	0x334ab9e9	4.7200874e-08
47	0xbbe4940f	-0.006975658
48	0xbb483882	-0.003055126
49	0xbc658461	-0.014008612
50	0xbbfeb258	-0.007772725
51	0xbfebb190	-1.8413563
52	0x37601cbf	1.3358133e-05
53	0x3ccfe4ee	0.025377717
54	0x353cacff	7.02872e-07
55	0xbb5c3dc6	-0.0033606156
56	0xb96956fc	-0.00022253016
57	0xbc00045f	-0.007813542
58	0xbbfea32b	-0.007770916
59	0x3569c6a3	8.708832e-07
60	0xbefe2619	-0.4963844
61	0x3b058314	0.0020372318
62	0x328ad0f1	1.616033e-08
63	0xbcbf754d	-0.023371363

weight f4 [1, 64]
0	0xbd0b892e	-0.03406637
1	0xbb75a637	-0.0037483105
2	0xbd1cedb7	-0.03831264
3	0xbd13db00	-0.036097527
4	0xbcee1f9e	-0.02906781
5	0xbe598d54	-0.21245319
6	0x3ba023ba	0.0048870714
7	0xbceb058e	-0.028689172
8	0xbd0689c6	-0.032846235
9	0x3cc80bac	0.024419628
10	0xbc2227be	-0.009897171
11	0xb7daf8e2	-2.610352e-05
12	0xbcfbecd6	-0.03075258
13	0xbc6a8f48	-0.0143163875
14	0xbd2171b6	-0.039415084
15	0xbc71c1f4	-0.014755715
16	0xbd2aa46f	-0.041660722
17	0xbd1ae7c7	-0.037818696
18	0xbd1b6079	-0.0379338
19	0x3f2b85cd	0.6700104
20	0xbb9d6151	-0.004802861
21	0x3d2a0575	0.04150911
22	0xbcf8f256	-0.030388992
23	0xbc3cee63	-0.011531445
24	0x3bbb396f	0.0057136337
25	0xbd0d8b76	-0.03455683
26	0xbc66850b	-0.014069806
27	0xbce637b4	-0.028102733
28	0x3c9ff004	0.019523628
29	0xbc892b68	-0.01674433
30	0xbb372b67	-0.0027949454
31	0xbbd068eb	-0.0063601634
32	0xbd1d5703	-0.03841306
33	0xbd20aec9	-0.039229188
34	0xbbebf451	-0.0072007556
35	0x3c14b485	0.009076242
36	0x3d22dd5a	0.03976188
37	0xbc931b3a	-0.017957319
38	0x3a1299e9	0.00055923924
39	0x376dbd1d	1.4170332e-05
40	0xbd085cdc	-0.033291683
41	0x3a68de8d	0.00088832603
42	0xbd03c922	-0.032174237
43	0x3d1e6ac8	0.038676053
44	0x3cc96565	0.024584481
45	0x3d3246aa	0.04352442
46	0xbb75a992	-0.0037485105
47	0x3cb6f2c3	0.022332555
48	0xbc1ccf14	-0.009570856
49	0x3bbf7a63	0.005843447
50	0xbc4d1b7f	-0.012518763
51	0xbdcb2aa3	-0.09920242
52	0x39851f3a	0.00025391002
53	0xbbb90915	-0.0056468346
54	0xbbfafe20	-0.0076596886
55	0xbc20028b	-0.009766231
56	0xbc59fa65	-0.013304328
57	0x3d243acd	0.04009514
58	0x3c63e330	0.013909146
59	0x3a532007	0.00080537837
60	0x3ca26db6	0.019827705
61	0xbcecc879	-0.028904187
62	0xb8886869	-6.504433e-05
63	0xbc47ffe9	-0.01220701

weight f4 [1, 64]
0	0x3dcebbce	0.10094415
1	0x3dabe28c	0.0839282
2	0x3d9ce55c	0.07660934
3	0xbc856a20	-0.016285956
4	0xbdb3cc54	-0.08779207
5	0x3db90b9e	0.09035419
6	0xbcc9ac40	-0.024618268
7	0x3d7ff0d4	0.06248553
8	0x3d72a76c	0.059241697
9	0x3beff480	0.007322848
10	0xbd991254	-0.07474199
11	0xbdbdab60	-0.09261203
12	0x3d896268	0.06708223
13	0xbdd51514	-0.10404411
14	0x3dae4382	0.0850897
15	0x3de627d8	0.11238068
16	0xbd32560c	-0.043539092
17	0xbd4c404c	-0.049866006
18	0xbc303200	-0.010754108
19	0xbd506014	-0.050872877
20	0x3c7c2800	0.015390396
21	0xbd91e4aa	-0.07123692
22	0x3d7ea9c4	0.06217362
23	0xbd2d08b0	-0.042244613
24	0xbdf0acea	-0.11751731
25	0x3dae9eaa	0.085263565
26	0x3d72bd38	0.059262484
27	0x3d414d80	0.04719305
28	0xbd5d08c4	-0.053963438
29	0xbd76393c	-0.060113177
30	0xbdc54f06	-0.09634213
31	0xbd807f0a	-0.06274231
32	0xbd1e107c	-0.03858994
33	0xbde51b06	-0.11186795
34	0xbd06860c	-0.03284268
35	0xbd1e2eec	-0.038618967
36	0xbd2d32b4	-0.042284682
37	0x3c34ea50	0.011042193
38	0xbda5ab7c	-0.08089349
39	0x3dec2472	0.11530389
40	0x3dbb766e	0.09153448
41	0x3bef3340	0.0072998106
42	0xbd7533f0	-0.059863985
43	0x3d9a4d88	0.07534319
44	0xbd0de428	-0.034641415
45	0xbdab8172	-0.08374299
46	0x3b7ce1c0	0.0038586706
47	0xbd0ac000	-0.03387451
48	0xbd829082	-0.06375219
49	0xbd5ec348	-0.054385453
50	0xbd5f8820	-0.05457318
51	0x3cf5dfb8	0.030013904
52	0xbc862b78	-0.01637815
53	0xbd9f6060	-0.07782054
54	0x3dd3de54	0.1034514
55	0xbd45a42c	-0.04825227
56	0x3d90d6b4	0.07072201
57	0xbcd2f620	-0.025752127
58	0x3dd0fe14	0.102047116
59	0xbdf5bb68	-0.119986355
60	0x3d2b52a8	0.041826874
61	0x3d893182	0.06698896
62	0xbd8bf0e4	-0.068330556
63	0x3cb790c0	0.02240789

weight f4 [1, 64]
0	0x3ddd113a	0.10794301
1	0xbdcd9524	-0.10038212
2	0xbdc2de5a	-0.095150664
3	0x3d501190	0.050798
4	0xbd505d6c	-0.050870344
5	0xbddbee12	-0.10738768
6	0xbc6378d0	-0.013883784
7	0xbda31b8a	-0.07964237
8	0x3d206a54	0.039163902
9	0x3cbb0050	0.022827297
10	0xbdfffa88	-0.12498957
11	0xbd05e1cc	-0.03268604
12	0x3d4c6c14	0.04990776
13	0xbcaee7e8	-0.021350816
14	0xbd355590	-0.044271052
15	0x3db0387a	0.08604522
16	0xbd5df11c	-0.054185018
17	0x3cc94c90	0.02457264
18	0xbb4ea940	-0.0031533986
19	0x3d7de884	0.061989322
20	0xbdedcd0a	-0.11611374
21	0x3d4290e4	0.04750146
22	0x3ddcdd52	0.10784401
23	0x3db48246	0.0881391
24	0x3df9bdb0	0.12194383
25	0x3d7de18c	0.061982676
26	0xbde80fac	-0.11331114
27	0xbdcb0d30	-0.09914625
28	0x3d7fed18	0.06248197
29	0x3cbf5150	0.023354203
30	0x3d1741a0	0.03692782
31	0x3d970f6c	0.07375988
32	0x3da0e4b2	0.0785612
33	0xbdc44630	-0.095837
34	0xbc9a96c8	-0.018870726
35	0x3d211d20	0.039334416
36	0xbdc3e3dc	-0.09564945
37	0xbd128888	-0.035774738
38	0xbd35c3dc	-0.04437624
39	0xbdb5ab70	-0.0887059
40	0x3dd8aa48	0.105793536
41	0xbd93b986	-0.0721312
42	0xbca18798	-0.019717976
43	0x3d9e253c	0.07721946
44	0xbdfc7036	-0.1232609
45	0x3dad7a0e	0.08470546
46	0x3d9fe944	0.07808164
47	0x3cef0648	0.0291778
48	0xbdefd03e	-0.11709641
49	0x3ddceb26	0.107870385
50	0x3dd93dea	0.10607512
51	0x3d0f05c0	0.034917593
52	0x3dbfa114	0.09356895
53	0x3deb3594	0.114848286
54	0x3dd3320e	0.103122815
55	0xbddf53b8	-0.1090464
56	0xbce066b8	-0.02739273
57	0xbceb27c8	-0.028705493
58	0x3d7217a8	0.05910459
59	0xbd95d552	-0.07316078
60	0x3dbc930c	0.092077345
61	0xbdc975ca	-0.098369196
62	0xbdaa8982	-0.08327009
63	0x3d2f8e40	0.04286027
