pth/EM_model_step101_loss_82.5178645587735.pt (torch, 73414 bytes, 19 tensors)

alpha_r f8 []
000000 52 4a 24 6f c5 fb da 3f
       0.4216168961876622

beta_r f8 []
000000 9a 99 99 99 99 99 c9 3f
       0.2

alpha_u f8 []
000000 58 99 bf 5c 95 ab e9 3f
       0.8021952449314922

beta_u f8 []
000000 c8 55 73 d0 50 68 c2 3f
       0.14380846193550512

gamma f8 []
000000 50 85 e2 a5 7c de 74 3f
       0.0050949925481814234

theta f8 []
000000 1e 21 ac 92 33 6c 74 bf
       -0.0049860014503411414

_lambda f8 []
000000 00 00 00 00 00 00 04 40
       2.5

d f8 []
000000 00 00 00 00 00 00 18 40
       6.0

r f8 [1, 261]
000000 61 e9 1e 0b 89 fd 00 40 20 d1 86 d2 69 e5 b9 3f
       2.123796545868729 0.10115682020006433
000010 e1 a7 c5 17 fe a3 d6 bf b4 5b e8 0e 04 b7 f6 3f
       -0.35375931092732854 1.4196816046075869
000020 84 d8 32 d5 cb 74 d3 bf e9 9f 39 08 ce 6d e3 bf
       -0.3040036756532418 -0.6071539078375255
000030 68 8c b7 44 b6 eb 04 c0 61 a6 79 43 c8 c5 d9 3f
       -2.615093743182616 0.40269667233824263
000040 10 be e2 ab ee 9f f6 3f ea 7f a5 18 45 24 e0 bf
       1.4140459741864824 -0.5044274789215681
000050 50 32 e6 85 a7 1a f0 bf e7 e6 1b 84 90 76 fe bf
       -1.00650741867425 -1.9039464149959089
000060 5c e8 a3 e1 09 12 f0 3f 5c a1 29 6d 70 92 f6 3f
       1.004403954894335 1.4107517494358808
000070 50 32 e6 85 a7 1a e0 bf ae e3 0b 97 f9 95 00 40
       -0.503253709337125 2.0732299614432668
000080 95 7b ad 78 e1 71 e3 3f 9c fc e4 12 22 70 c3 bf
       0.6076514584527667 -0.15185953066427238
000090 04 a5 a5 90 f3 ed c9 3f a3 a5 bc c0 b8 cd e1 bf
       0.20257420122951697 -0.5563625111000657
0000a0 cb 3c 24 5e a5 7c 01 40 da 79 e5 f7 62 6d 07 c0
       2.1858622889336394 -2.928411423388053
0000b0 38 35 b9 34 5a a1 f2 3f c2 f7 ee b6 20 37 f8 bf
       1.1643926677237015 -1.5134589334333985
0000c0 45 81 60 54 22 1b f0 bf 5c 7c 4e 5b c1 b8 e9 bf
       -1.0066245361304749 -0.803803137143301
0000d0 ce f2 17 b5 25 32 01 c0 19 e5 ac 44 6f 35 d3 3f
       -2.149485983651494 0.3001363917024534
0000e0 44 25 b4 44 d2 9b a9 bf 0d 4a e9 41 7a 17 f8 3f
       -0.05001694763820777 1.5057318281802765
0000f0 07 70 16 52 98 01 05 40 02 ac 7f 45 ac 65 c3 3f
       2.6257788098428168 0.1515403117512904
000100 2c 1e 8d ec 06 c2 e1 bf ae 1b 72 41 7d d7 c9 3f
       -0.554934942258972 0.201888710933614
000110 18 f2 a1 31 18 29 d0 3f 2e 22 bf 60 8b 5a f7 bf
       0.25250820967610954 -1.4596055773892078
000120 fb 7a be 93 e0 f5 dc bf b3 c8 38 a4 dc 4c c3 bf
       -0.45250715664035085 -0.15078313845294175
000130 23 e3 a4 28 a5 71 f6 bf ca f5 c2 e3 e6 52 f7 3f
       -1.4027453982982443 1.4577397248207142
000140 2e 6e 03 4a 67 8e e6 3f e6 54 df 90 22 48 fb bf
       0.7048832364629953 -1.7051110896184638
000150 43 7c 88 95 3a c4 fc bf ec fe 20 c0 bb dc 00 40
       -1.79790743266473 2.1077799806661144
000160 c3 a1 7a 6d 2f 53 f3 3f 7d 18 76 b6 91 f7 e4 3f
       1.2078089024090424 0.6552208484361156
000170 88 d0 71 fe 1b 98 ff 3f bd 46 49 93 d9 f8 e9 3f
       1.9746360720864988 0.8116271855053224
000180 91 e5 70 35 e2 78 c3 bf 45 a7 10 ce ed b2 d6 bf
       -0.15212657555984468 -0.35467095492878215
000190 62 b1 29 9b f1 10 f1 3f cb 66 ae 93 b2 b7 e6 bf
       1.0666366635369617 -0.7099240192794353
0001a0 cb c3 3e f2 48 f6 02 c0 b2 4a 9d 33 ee cb d9 bf
       -2.3702563214687635 -0.40307192841025163
0001b0 6e f8 89 a0 dc 21 d0 3f 9e 93 8b be 3a b3 f1 bf
       0.2520667617571978 -1.1062571948216156
0001c0 7a ce 1e 2a be 2d e8 3f 86 65 43 be eb 52 fc 3f
       0.755583841577802 1.7702443535002614
0001d0 00 c3 c2 03 51 6a c3 bf 10 58 f1 a4 4a e9 d9 3f
       -0.15168202098495698 0.4048639879960101
0001e0 ed cf 9d c6 43 d6 e1 3f f4 ba 42 23 ed 79 ff bf
       0.5574053649165741 -1.9672671677942022
0001f0 23 4f 53 64 dc d2 a9 bf 46 1c 43 67 c7 cf c9 bf
       -0.05043686604190458 -0.20165340940568138
000200 4b d7 4b 03 08 b9 e1 bf 7f f7 46 cd 13 20 e8 bf
       -0.5538368286495169 -0.7539156922646127
000210 60 6d ca 95 d3 02 ed 3f 9d 25 d7 6c f3 fb e4 3f
       0.9065950322723602 0.6557557225980194
000220 48 6a a8 8b 98 53 f7 bf 65 c5 19 8b 5e a6 f5 bf
       -1.4579091506372084 -1.3531175073261121
000230 61 39 a9 01 ef b4 e9 3f 44 0f 72 49 a9 75 ee bf
       0.8033366234247233 -0.9518629488452253
000240 10 27 db ed 7d c2 f8 bf 86 66 5d cc 5f a2 fc bf
       -1.5474833766224414 -1.7896421416284354
000250 92 f3 6f 48 c5 24 f7 3f b9 40 e5 2e 85 42 ee bf
       1.4464772061903415 -0.9456201473167517
000260 4b 34 4b 56 ef ff ff 3f 37 bf 7f 01 75 31 c3 bf
       1.999984109005953 -0.14994680951303405
000270 c8 ea 0f 58 87 c2 dc bf 4e 14 86 3d a7 2a c3 bf
       -0.4493730888349714 -0.14973917488183236
000280 53 57 c5 ee b6 8f b9 3f b9 27 0d 4c 61 62 d6 3f
       0.0998491604744605 0.34975464274304674
000290 11 ee 42 72 04 67 d6 3f db eb ac 44 6f 35 c3 3f
       0.35003768118232964 0.1500681958512747
0002a0 cd 7e 7d 86 79 0d e8 3f e5 ba 4a 3e b1 3f c3 3f
       0.7516448618661912 0.15038123647305848
0002b0 e0 2c f9 7b 5a b0 d9 3f 90 e6 b0 54 2d 6a f2 bf
       0.40138876063129025 -1.1509221370928664
0002c0 7e d9 67 bc 5a 66 d6 bf bb 96 e8 25 b5 04 e0 3f
       -0.34999721907606574 0.5005746593858115
0002d0 67 07 28 02 a0 e3 ff bf 17 45 7e 6a 54 e8 cf 3f
       -1.993072517798703 0.2492776412951023
0002e0 35 eb 68 62 1e 99 fc bf 3a 0b 7d 08 1c 14 d3 3f
       -1.7873824924597106 0.29810238675070233
0002f0 8c 93 70 7c a6 6e b9 bf 30 98 ea e8 65 6f a9 3f
       -0.09934464014129513 0.04967802494256579
000300 7b 13 0b f7 ef cd e7 bf 83 b8 a6 60 25 70 e9 3f
       -0.7438888382972516 0.7949396980018409
000310 d6 a1 ef c5 8c 3d d6 bf 0a 2f ec f8 f1 64 d9 bf
       -0.3475067074746482 -0.39678620632979344
000320 df c6 67 38 dc d0 ef 3f 77 a7 86 18 8b d5 cf 3f
       0.9942456342380089 0.24870432565267794
000330 7e c3 67 38 dc d0 cf bf 26 39 17 46 4a 26 fb 3f
       -0.24856140855947823 1.6968481767576775
000340 6c 04 1c 9b 89 52 e6 bf 09 fc 88 df 84 0d eb bf
       -0.6975753812295244 -0.8454002729339446
000350 64 31 fd 7b 02 00 eb bf bf ce bf be 74 ba df bf
       -0.8437511846218908 -0.49575537326675695
000360 45 2f de c8 b9 6d e1 bf 1a cd f6 fe ba 74 f5 3f
       -0.5446442530824035 1.3409986457380172
000370 3a 64 94 08 cb 15 d3 3f 69 a9 b0 f1 42 c6 f7 bf
       0.2982051452432334 -1.4859036866206117
000380 f4 9b 8d cd bb a9 df bf fd 26 91 6c 79 25 d6 bf
       -0.494734717116841 -0.34603725054022033
000390 8d 50 12 d2 5c 52 c9 3f ee 84 33 07 9a 18 03 40
       0.19782600648307316 2.387012535342925
0003a0 44 ef a6 13 34 3e e6 bf 9e 20 67 68 74 df e7 3f
       -0.6950931915120937 0.7460271872632978
0003b0 11 11 66 6c 63 e7 ef 3f d7 e6 e8 94 ec 88 c9 3f
       0.996995650974471 0.19949109335885026
0003c0 7f ce c7 5d 1f 2f eb 3f 0a dc 9d 1b d1 3c eb 3f
       0.8495022613191877 0.8511739291560627
0003d0 1b 4f 78 cb 65 e6 ec 3f 80 48 9d 1b c1 a8 08 40
       0.903124711420307 3.0823995740293526
0003e0 b8 3d 07 08 7c 0b ed bf ae 1b 72 41 7d d7 d9 3f
       -0.9076519161989642 0.403777421867228
0003f0 02 8b 39 94 08 d9 b9 3f 00 00 00 00 00 00 00 00
       0.10096791857499102 0.0
000400 6f b4 e7 88 2d 99 d6 bf f6 7f c4 a9 b7 d6 c9 3f
       -0.35309923524511694 0.2018651560729265
000410 ba 85 6f 39 f6 01 ed bf 86 28 1b ae 04 b0 f5 bf
       -0.9064894792356235 -1.3554732132929828
000420 cb 47 87 84 54 82 d6 3f b5 87 9f 4c 9a 9d ee 3f
       0.35170472089987176 0.9567386147066289
000430 93 ff a3 80 58 3c 01 c0 4f 44 fb 80 44 0d e0 3f
       -2.1544656801269837 0.5016195792360437
000440 ea 34 bc f6 87 fe f7 bf 7b 1b 23 ba 27 eb ef bf
       -1.4996413839428961 -0.9974554667941072
000450 52 e9 97 4f 16 2a d3 3f 4d a7 27 f1 18 ec cf bf
       0.2994437958983741 -0.2493926217569488
000460 61 66 7c a7 2b 88 b9 bf ce cb e8 94 ec 88 a9 3f
       -0.0997340473080839 0.04987277333966454
000470 69 86 db 49 eb 1f e3 bf 5d e1 63 77 21 bf ec 3f
       -0.5976463739900285 0.8983313876952185
000480 45 db 8c 32 26 57 d6 bf 60 c6 af eb ec ee cf 3f
       -0.34906916557831763 0.2494789267362192
000490 b0 49 d7 0d f3 dc 02 40 9c 7e bc 73 43 40 d3 bf
       2.357885463841022 -0.30079733183263513
0004a0 e5 9b be 6e b3 b9 f5 3f 31 af 0b e3 17 91 e6 3f
       1.357837135883295 0.7052115854726023
0004b0 f8 66 fa 66 56 b5 e1 bf 96 57 65 a2 6d 14 e0 bf
       -0.5533859263698266 -0.5024936839861194
0004c0 54 da 44 61 73 ef e4 3f ee 34 6d 2a bb bc e1 3f
       0.6542298221382432 0.554288466324264
0004d0 5e 05 f0 94 9f 5b eb bf b5 4a 03 d8 94 bc c9 bf
       -0.8549344929635188 -0.20106754825117937
0004e0 12 7c 10 b4 41 5b f3 3f f7 81 d9 9e 27 69 f3 3f
       1.2097794564977034 1.2131725506843603
0004f0 cf 8e 59 af 5d f1 f0 bf c6 52 f8 c4 58 7c eb 3f
       -1.0589272355654662 0.8589290473051612
000500 8a 31 29 64 61 a7 d6 3f 14 37 d2 cf f6 e6 c9 3f
       0.35396609097804144 0.2023609652282451
000510 1a d4 09 6d 65 f3 e9 3f af 48 e7 a0 2c ed d9 bf
       0.8109614495903117 -0.4051009723017484
000520 fa 16 04 fb 36 db ee 3f 87 32 eb 93 81 ef e9 bf
       0.9642596151977323 -0.8104865922010313
000530 d1 65 7d 96 7d 5b e8 3f 94 3c 2f fc 11 f8 c9 bf
       0.7611682833914363 -0.2028830033654897
000540 50 e8 59 f2 d6 f1 d9 bf 02 8b 39 94 08 d9 f9 bf
       -0.40538571993932226 -1.6154866971998563
000550 50 e8 59 f2 d6 f1 f9 3f 74 6c ee 22 61 b8 d6 3f
       1.621542879757289 0.35500362788452056
000560 e4 fd 72 fc b0 35 e0 bf 05 76 ee c6 0f f1 b9 3f
       -0.5065541201255965 0.1013345585510806
000570 0e cd 0d fc 87 3b e0 3f 82 f8 eb 83 b6 2a f5 3f
       0.5072669909408505 1.3229279664224411
000580 16 43 cc bf 31 2f fd bf 7f 63 b6 bd da cf e1 bf
       -1.824022053919355 -0.5566228585549736
000590 b2 c7 4c 60 bd e7 a9 bf df 59 aa 59 06 a6 d6 bf
       -0.05059615898643645 -0.3538833499564173
0005a0 4a 35 ae af 16 e3 a9 3f d6 7b 79 66 50 e2 a9 bf
       0.0505606736615883 -0.05055476427946075
0005b0 12 83 8f f9 73 26 dd 3f ed cf 9d c6 43 d6 e1 3f
       0.45547198649551135 0.5574053649165741
0005c0 6f e9 d7 f5 17 aa e6 bf 0c 02 b5 fb f7 6e c3 3f
       -0.7082633782986657 0.15182399549850378
0005d0 d5 b8 48 73 9a 1e dd bf 4a 35 ae af 16 e3 a9 3f
       -0.4549928785153388 0.0505606736615883
0005e0 89 d4 89 c0 a3 17 dd bf 6f e9 d7 f5 17 aa e6 3f
       -0.4545678501375013 0.7082633782986657
0005f0 9d 8d 72 05 d9 ae d6 3f 5a 43 2c b8 b7 42 e8 bf
       0.35442185909251994 -0.758144244873715
000600 c7 09 78 94 cf 0e e5 3f 93 74 73 85 f0 ae 00 40
       0.6580579662116229 2.085419695459288
000610 1d c5 93 d6 54 0c f1 bf 1a b7 0e 08 3b 13 e5 bf
       -1.0655105955050381 -0.6585974843380626
000620 1c 15 20 3d 07 0b e5 bf 3a 42 38 2f 95 39 f0 3f
       -0.6575962251523921 1.0140582890054604
000630 8a 8b 35 1a 71 0f e5 bf e4 fd 72 fc b0 35 d0 3f
       -0.6581349861047425 0.25327706006279826
000640 00 00 00 00 00 00 00 00 bf 33 51 8c ba ee a9 bf
       0.0 -0.05064948046547312
000650 07 85 6f 55 2b 76 ff bf 53 b5 27 da 33 9b d6 3f
       -1.9663499200181052 0.3532228117390634
000660 2f 2b d0 9d 2c d5 a9 bf 5a 7b 3e 4b 25 5e c3 bf
       -0.050454515709210994 -0.15131059812571374
000670 5b 38 b1 d5 17 65 e3 3f 85 e8 15 c4 22 03 f1 3f
       0.6060904668500017 1.0632655772774637
000680 d3 5e f1 a4 4a e9 c9 bf 7c 42 b5 59 f6 2c e0 bf
       -0.2024319939980531 -0.5054885627851742
000690 f5 1b 53 aa 71 de c9 bf 44 e4 3d a8 ab dd a9 bf
       -0.20210095230706285 -0.05051933697445368
0006a0 f3 58 50 88 3a 9d d6 bf d0 2a 6b 96 75 60 c3 bf
       -0.3533464747610104 -0.1513812050310066
0006b0 9b 7f af 5a fd 5c d3 bf c6 52 f8 c4 58 7c eb 3f
       -0.3025506387330041 0.8589290473051612
0006c0 7e 82 ff b1 e5 dc b9 bf 43 62 da 14 96 a3 f2 3f
       -0.10102687450081224 1.16493805070617
0006d0 01 ce be 0f c7 32 d0 bf 8b 5b 3c 8d 21 77 e3 3f
       -0.2530992177737233 0.608292365885846
0006e0 af 3d 2d 96 bf 33 e0 bf 08 29 00 70 1a 95 f2 bf
       -0.5063169415606604 -1.1614021658920723
0006f0 ca ad a6 f7 c3 e0 d9 3f e9 56 44 1d d6 7f 04 c0
       0.4043435972659749 -2.5624201094132
000700 65 e6 86 b5 4d ad e9 bf d3 1f 39 3f c1 94 fa 3f
       -0.8024052186439802 1.6613171071676234
000710 80 c6 b9 8f 51 be e1 3f b4 38 d0 9d 2c d5 d9 3f
       0.5544822508947647 0.4036361256738801
000720 f8 3f 2c b8 b7 42 e8 3f 26 59 f2 32 56 e7 f5 3f
       0.7581442448736189 1.3689786901573568
000730 84 d8 32 d5 cb 74 d3 bf bb d8 16 a7 ce 31 e0 bf
       -0.3040036756532418 -0.5060799849950607
000740 53 50 ae af 16 e3 d9 bf 19 3e 8a 31 d2 0f ed bf
       -0.4044853892930906 -0.908181282766182
000750 f6 7f c4 a9 b7 d6 b9 3f 3d 02 f4 03 08 89 f6 bf
       0.10093257803646324 -1.4084549097461967
000760 a1 16 de cf 28 4f c3 bf cb 47 87 84 54 82 d6 bf
       -0.15085325383931994 -0.35170472089987176
000770 a8 68 fa 66 56 b5 e1 3f 6b 87 6f 39 f6 01 dd 3f
       0.5533859263698746 0.4532447396178358
000780 a9 77 97 a1 9f c9 a9 3f 01 95 e7 20 d3 22 e0 3f
       0.05036639068178712 0.5042510645550068
000790 cb 96 c6 50 b9 5e c3 3f 7c 45 46 6e bb 1d ed 3f
       0.15132824367645123 0.9098794130133423
0007a0 a2 d9 d8 d6 59 4e e8 3f 62 06 55 dc a9 36 d0 3f
       0.7595643230659344 0.2533363963776535
0007b0 de c4 6a f3 f9 96 f7 3f 1f 60 e2 62 40 82 d3 bf
       1.4743594654540213 -0.304824921194724
0007c0 f8 9d 76 0e 91 04 ba 3f 75 40 90 8d 11 4d dd 3f
       0.10163218119725304 0.4578288919883627
0007d0 77 b0 3d 1b d5 0a aa bf 7f ab 2e 97 66 0c ba 3f
       -0.05086389501124782 0.10175172034239031
0007e0 a6 37 8c 53 89 87 c3 bf 00 00 00 00 00 00 00 00
       -0.15257374362448423 0.0
0007f0 54 b9 a7 ec fe c3 d6 bf 9d a2 d5 04 50 fe d9 bf
       -0.35571263419014554 -0.4061470076763188

weight f4 [64, 3]
000000 a1 be 16 bd be 0d a2 3b c4 eb 88 ba 61 4a 2e bd
       -0.03680289 0.004945486 -0.001044624 -0.042551402
000010 1d 2c 88 bc 9e ff f1 bb 59 80 1f bd 56 76 d2 bb
       -0.016622597 -0.0073852083 -0.03894076 -0.006422798
000020 8b e8 57 b9 76 26 51 bd aa fc b9 3b c2 9a b4 bb
       -0.00020590627 -0.05106207 0.005675872 -0.0055116126
000030 e5 56 a9 bc db 46 f0 3b 4f 7f 20 bb 30 65 19 bd
       -0.020671317 0.0073326654 -0.0024489944 -0.037450016
000040 a1 8b b1 3b 12 db 2e bb b5 01 08 3f 11 31 32 be
       0.0054182564 -0.002668087 0.53127605 -0.1740153
000050 b0 a6 ce 3d 99 10 a4 3e 45 52 51 bf 8a 9a d4 3c
       0.10090387 0.32043913 -0.8176616 0.025952596
000060 1c 35 1d bd f8 79 38 bb f0 24 44 bb 96 bd 49 bd
       -0.038380727 -0.002814887 -0.0029929243 -0.04925307
000070 a9 d0 1e bd 74 0e 6d bc 2b 47 fa bc db b0 40 3b
       -0.038773213 -0.014468778 -0.030551514 0.002940229
000080 4d d2 0e ba 52 2c 56 bd cf 22 df bc 52 dc 87 bc
       -0.00054482074 -0.05228836 -0.027238278 -0.01658455
000090 f9 42 9f bb cd 7a 45 ba 0e a2 ba b5 ad 04 06 bd
       -0.0048602787 -0.00075332524 -1.3905244e-06 -0.032719303
0000a0 73 d6 a3 3b 8c 4c 89 bb 69 5e 20 bc 64 25 dc 39
       0.0049999296 -0.0041900333 -0.009788134 0.00041989528
0000b0 88 6f 82 b5 f5 62 9f bc 2f 60 52 3d 69 5a 8e bc
       -9.718215e-07 -0.019456366 0.05136126 -0.017377095
0000c0 44 6b 71 bd 70 ee 99 bc 86 b9 3d bb 45 f8 8a bb
       -0.058940187 -0.018790454 -0.0028949692 -0.004241022
0000d0 2d 2e aa ba 4e f9 37 b7 f8 93 42 bd 73 60 49 3b
       -0.0012983732 -1.0965696e-05 -0.047504395 0.0030727654
0000e0 1f 9d 48 bb 9e 16 7a bd 64 dc ce bc b2 f3 9d bc
       -0.003061123 -0.061056726 -0.025251575 -0.019281242
0000f0 93 ed 02 bd e8 bb ef bb 8a d7 21 ba ad 98 ef bc
       -0.03196485 -0.0073161013 -0.00061737804 -0.029247606
000100 7c ca f3 bb 14 70 4a ba 84 f1 d7 bc 55 f4 ce ba
       -0.0074399095 -0.00077223894 -0.02636028 -0.0015789369
000110 84 9b 2c bb 84 63 f2 b9 c7 0b 93 37 22 6b e3 b4
       -0.0026337812 -0.00046231982 1.752925e-05 -4.2359994e-07
000120 fe cc 25 bd c0 e3 9a bc cf 4d 85 bc 2a 8f f1 be
       -0.0404787 -0.018907428 -0.016272454 -0.47179538
000130 ce 78 bf 3d 78 88 16 be e7 1d f5 bc b1 4a b0 bc
       0.093492135 -0.14700496 -0.029921485 -0.02151999
000140 da 98 d5 3a eb 82 c7 bc 24 f6 5c 3c df ec 96 ba
       0.0016296164 -0.024354419 0.013486419 -0.0011514685
000150 7b 97 be 3e 3e 8b 4c 3f 4a 43 b6 bc fc f7 6b bd
       0.37224945 0.79899967 -0.022248883 -0.057609543
000160 0f 04 30 bc 47 9a 38 bb 44 e0 2a bd b9 94 38 bc
       -0.010743155 -0.0028168128 -0.041717783 -0.011265927
000170 69 17 fe ba 3a 9d 05 bc 86 11 8a 3b 25 f9 f9 b9
       -0.0019385639 -0.0081551615 0.0042135147 -0.00047678608
000180 a3 75 60 bd bf f3 ce 3c 55 e7 94 bc 0f 2a 45 bd
       -0.054799687 0.025262712 -0.018176714 -0.048135813
000190 33 90 2c 3c 65 a2 0c bc 35 ef db bc f8 b8 09 bb
       0.010532427 -0.00858364 -0.026847461 -0.002101479
0001a0 bf 92 79 b9 03 61 2b bd c4 77 95 bc a9 21 82 bc
       -0.00023801158 -0.041840564 -0.018245585 -0.015885191
0001b0 48 62 1e b9 2d 13 e2 37 c8 4f 55 b6 ba f4 2b bd
       -0.00015104667 2.6950229e-05 -3.1785912e-06 -0.041981436
0001c0 1d 04 8c bc 96 cc ba bb 84 ad 0f bd df 06 1e 3b
       -0.017091805 -0.005700658 -0.035077587 0.0024112982
0001d0 9c 17 89 b9 f2 25 39 bc aa 7a 9c ba a7 bf a5 35
       -0.00026148267 -0.011300551 -0.0011938412 1.2349236e-06
0001e0 36 b6 2f bd 59 87 0f 3c d4 93 30 bb 8f e0 c5 bc
       -0.04289838 0.008760297 -0.0026943581 -0.02415493
0001f0 30 d6 3e 3c 44 ef c8 b9 9b 37 0d bd 8f 1d 5d bb
       0.011647746 -0.0003832524 -0.034476858 -0.0033739542
000200 20 c6 7c bb 5b 58 f6 b9 47 fa cc b8 18 43 a5 b9
       -0.003857024 -0.00046986606 -9.774096e-05 -0.0003152124
000210 26 58 ae bc 73 b9 1d bc 5d 63 1c bc ba 57 29 bd
       -0.021282267 -0.009626734 -0.009545174 -0.04134343
000220 0f be 9c bc 7d be 68 bc bc f7 11 bd fb 0f b9 bc
       -0.019133596 -0.014205572 -0.03563665 -0.022590628
000230 59 4e 88 bb b2 ea d9 bc fe 6f 94 bb 5e ae 00 ba
       -0.0041597304 -0.02660117 -0.004529952 -0.0004908795
000240 b9 0d 28 bd 41 78 b2 bc 34 bf 1e bc 5c 6d 4e bd
       -0.041028712 -0.021785857 -0.009689141 -0.050397262
000250 f1 ed e0 bb ca 36 21 bc c0 1b 56 bd 86 72 a4 bc
       -0.0068643023 -0.009839723 -0.05227256 -0.02007414
000260 57 ff 02 bb 8f 67 0d bd d2 d7 ff bb 6b 7e cb ba
       -0.001998862 -0.03452259 -0.00780771 -0.0015525346
000270 12 5a 61 bd 4f c8 86 38 b8 dd 7d bc db c9 87 bd
       -0.05501754 6.426928e-05 -0.015494756 -0.06630298
000280 2c 22 11 3c 17 22 93 bc 7f 98 63 bd 0a e3 e5 bb
       0.008858245 -0.017960591 -0.055565353 -0.0070155906
000290 96 a1 e1 bb 6b c3 08 bd f3 14 cf ba 05 95 42 bb
       -0.0068857176 -0.03338949 -0.001579909 -0.0029690873
0002a0 bd 1b a3 bc 27 de a2 38 f2 d4 dc b8 95 49 33 bd
       -0.019910688 7.766141e-05 -0.000105300816 -0.043771345
0002b0 0b cf 87 3c c4 0f 01 bc 64 a4 07 bc 76 9f fc b9
       0.016578218 -0.007877294 -0.00827894 -0.00048183993
0002c0 b5 32 73 34 9d 78 50 bd a8 69 82 bc c6 5b 7b ba
       2.2649586e-07 -0.050896276 -0.015919521 -0.00095885654
0002d0 b0 d0 d5 be b0 2c 04 be 30 05 9e be 8c 68 9a bc
       -0.41760778 -0.12907672 -0.30863333 -0.01884868
0002e0 6e e6 a4 3a a2 d8 2d 35 e3 03 16 bd f0 9a 07 3c
       0.001258088 6.4762764e-07 -0.0366248 0.008276686
0002f0 2d 5a e9 ba 00 d7 0a bd 2c 2e d6 3b 98 b2 46 ba
       -0.0017803364 -0.033896446 0.006536266 -0.0007579713

bias f4 [64]
000000 e7 cc 1f bd ff 89 2b bd 02 9c 0e bd e5 bf 31 bd
       -0.03901377 -0.04187965 -0.03481675 -0.043395896
000010 64 19 15 bd b9 ac 06 bd 61 e4 e4 be 10 0c 8d be
       -0.036401168 -0.032879565 -0.4470549 -0.27548265
000020 09 f2 21 bd 8c eb 51 bd 32 b6 f8 bc ed 7d 6b bd
       -0.039537463 -0.051250026 -0.030360315 -0.05749314
000030 7e 0b b2 bb 9a 73 0d bd 16 7e 37 bc d7 6d 0b bd
       -0.005433499 -0.034534074 -0.011199495 -0.0340403
000040 9c 9d 6f bd a8 11 ad bb 02 7a 49 bd 94 b7 7e bd
       -0.058499917 -0.005281646 -0.04918862 -0.062186792
000050 e0 05 09 bd 15 3c fc bc 8b 3a a0 bc f7 72 03 ba
       -0.03345287 -0.030790368 -0.019559165 -0.00050143845
000060 32 bb 3b bd 14 dc 1c 3f 5d 4f fa bc 32 d4 dd bc
       -0.04583282 0.6127331 -0.030555421 -0.027078722
000070 82 5b a5 be e1 68 5c bd 87 e8 37 bd 0b 82 2e bc
       -0.32296377 -0.053810958 -0.04489949 -0.010651122
000080 1c e3 36 bd 5d fe 4b bd fe be 00 bd 31 78 40 bd
       -0.044650182 -0.049803127 -0.031432144 -0.046989623
000090 93 36 69 b9 41 fb 2e bd d8 db 04 bd 36 93 40 bc
       -0.00022240942 -0.042720083 -0.03243622 -0.011753848
0000a0 84 b5 2d bd 8f dc dc bc 81 e8 0d bd 07 2a bb b9
       -0.042409435 -0.02696064 -0.03464556 -0.00035698732
0000b0 3a 34 e1 bc 43 4d 3d bd aa 41 13 bd ec 9f d4 bc
       -0.027490724 -0.04621626 -0.035951294 -0.025955163
0000c0 91 83 3c bd ce 70 86 bd ee 3d 55 bd 64 c5 0c bd
       -0.04602391 -0.065644845 -0.052061014 -0.034367934
0000d0 b0 ce 6f bd 08 2a 83 bd d1 e3 5b bd b7 a6 1a bd
       -0.058546722 -0.06404501 -0.05368406 -0.037756648
0000e0 41 54 a2 bc a0 aa 26 bd fa 81 1f bc 4b e8 4b bd
       -0.019815566 -0.040690064 -0.009735579 -0.04978208
0000f0 4d 3a 81 3f 20 72 ac bc 67 ed 21 bd cb 61 19 bd
       1.0095917 -0.021050513 -0.039533045 -0.03744678

weight f4 [64, 64]
000000 ee 58 d8 2a 45 fa 21 b1 18 1f be 29 e7 7a a5 a8
       3.8431015e-13 -2.3570845e-09 8.443089e-14 -1.837198e-14
000010 ea 56 a1 29 5c 05 ac 2a 45 25 38 b3 e6 f2 4f ba
       7.1649135e-14 3.0557056e-13 -4.2874735e-08 -0.0007932618
000020 5b f8 1e aa d2 73 a6 ad cc d7 e1 a9 08 26 5f af
       -1.4119385e-13 -1.892345e-11 -1.0029442e-13 -2.0295243e-10
000030 78 fb fb 26 c0 64 78 ac 47 62 cf 29 d4 28 2e a8
       1.7484784e-15 -3.5298847e-12 9.209695e-14 -9.6677935e-15
000040 c4 80 d1 aa f4 8f 76 28 a0 02 1b 27 59 d6 e7 2e
       -3.7215207e-13 1.3686958e-14 2.1511994e-15 1.05427396e-10
000050 c4 db ca 28 e5 cf f0 29 20 6b 2b ac 1d 30 89 a9
       2.2521813e-14 1.0694205e-13 -2.4360028e-12 -6.0923685e-14
000060 d6 e4 08 b1 f8 12 95 b8 06 54 0d 29 1d a2 8b 29
       -1.9920683e-09 -7.108407e-05 3.1381168e-14 6.200962e-14
000070 9c 8d 64 bc a0 c7 3b aa bd 44 2d 2a 52 d9 9c 29
       -0.013949778 -1.6678195e-13 1.5389335e-13 6.965491e-14
000080 58 bd b4 29 93 1a 34 a8 2a 7c 2e 29 5a bb 7f b0
       8.026452e-14 -9.99777e-15 3.8743456e-14 -9.30347e-10
000090 8e 54 6a 29 39 77 3f 2e 90 c9 ae 2c 40 cd 4b 26
       5.2031777e-14 4.3534263e-11 4.9677554e-12 7.070794e-16
0000a0 c8 47 09 a9 24 9d c4 a9 48 95 53 aa 4a 8a 56 29
       -3.048237e-14 -8.731408e-14 -1.8792357e-13 4.7637492e-14
0000b0 8a 6b de 2e e9 a0 99 af bb ad 5c af 8f 56 5a 29
       1.0114494e-10 -2.7944871e-10 -2.0070605e-10 4.84808e-14
0000c0 d5 64 75 2f 0e 0c eb 29 43 f4 28 aa b0 dd 78 a9
       2.2318443e-10 1.04381876e-13 -1.5006143e-13 -5.5259345e-14
0000d0 c6 f7 27 2a af bb 05 a8 3a d8 8d 29 cf 3d 98 2c
       1.4918543e-13 -7.4236805e-15 6.299167e-14 4.326962e-12
0000e0 35 f2 c9 a8 d3 1e 83 a7 64 71 c6 a8 9b 4a 46 a8
       -2.2420523e-14 -3.6393224e-15 -2.2031591e-14 -1.10073854e-14
0000f0 6d a7 3e bb cc 41 c5 a9 78 48 01 a9 0e d1 8e a9
       -0.0029091493 -8.7599714e-14 -2.870661e-14 -6.342332e-14
000100 80 49 71 2b e7 e9 58 b1 38 f2 0d a9 2c b3 26 a9
       8.57224e-13 -3.1565095e-09 -3.151838e-14 -3.701481e-14
000110 bb 9d bf a9 90 96 d5 28 ce fa ec b3 b1 4d 3c b6
       -8.509466e-14 2.3713047e-14 -1.10352275e-07 -2.8059405e-06
000120 be 22 a4 28 14 65 bf 2e b4 76 b2 29 58 e1 b5 2e
       1.8222725e-14 8.7036295e-11 7.9253796e-14 8.270956e-11
000130 9b b3 05 aa 23 0a ba 2a 88 7d 52 a9 30 26 77 27
       -1.1875086e-13 3.304727e-13 -4.6738248e-14 3.4298837e-15
000140 71 4a e5 a8 12 6d 73 a9 28 be d8 29 11 9c cd ad
       -2.5456391e-14 -5.4051442e-14 9.625314e-14 -2.337511e-11
000150 df 5e 35 a9 fe 5e d9 a9 31 32 a3 2c 0c 8c c6 a8
       -4.027236e-14 -9.6532144e-14 4.638311e-12 -2.2043152e-14
000160 22 71 5c af 23 ea b5 b7 48 12 7c 29 66 7f 8a a9
       -2.0049076e-10 -2.168591e-05 5.5971097e-14 -6.150531e-14
000170 ff 96 40 bc 03 91 f4 2a aa ed e0 a9 7c a1 a1 28
       -0.01175475 4.344373e-13 -9.9888264e-14 1.7944623e-14
000180 d9 4b f2 a8 67 0e 2b ab 42 d9 38 ab eb f4 62 b1
       -2.6900291e-14 -6.077139e-13 -6.567144e-13 -3.3026548e-09
000190 60 55 98 a9 31 fb c8 2e 4c 98 96 ac 30 68 52 a9
       -6.764966e-14 9.1395676e-11 -4.2801648e-12 -4.6719735e-14
0001a0 b6 bb c5 28 02 0b 49 a9 3a 35 bb 2a 53 4f b0 a9
       2.19528e-14 -4.4640513e-14 3.3254806e-13 -7.8297307e-14
0001b0 74 d0 62 2e 2f 7d 5e 2f 1c d1 18 af f3 39 4b 29
       5.1571594e-11 2.0235257e-10 -1.389861e-10 4.5125318e-14
0001c0 f5 34 46 2f 38 ab b5 a9 b8 25 b9 29 f5 f7 b7 2a
       1.8026809e-10 -8.0677164e-14 8.2221935e-14 3.2679385e-13
0001d0 f5 1e ba 29 15 be 4a a9 07 c4 61 a8 65 e4 91 2b
       8.2654295e-14 -4.501788e-14 -1.2532516e-14 1.0366262e-12
0001e0 54 d5 65 a9 94 91 5f a8 c0 88 61 25 83 f5 c7 a8
       -5.1033247e-14 -1.2410554e-14 1.9561972e-16 -2.2199912e-14
0001f0 7e 47 16 bb 94 6e ee 29 43 54 1c aa 57 b1 9f 2a
       -0.0022930796 1.05885054e-13 -1.3884818e-13 2.8367128e-13
000200 3c 5d 2b a9 2f 02 3f aa ea bb 48 a9 3a 28 2f 29
       -3.8050495e-14 -1.6964965e-13 -4.457191e-14 3.8892697e-14
000210 71 df 4e b1 9b 4e 40 a9 f7 63 0f 2e e7 25 d8 33
       -3.0103957e-09 -4.2700744e-14 3.2603222e-11 1.0065178e-07
000220 b6 c8 e6 28 12 c5 88 2b 1a 4d aa 28 e1 08 88 2b
       2.5622174e-14 9.718079e-13 1.8907229e-14 9.665846e-13
000230 08 f0 21 28 f0 bb c8 a8 79 c1 03 29 38 d6 94 29
       8.989344e-15 -2.2285965e-14 2.9255654e-14 6.609681e-14
000240 e7 20 61 a9 c2 cd c5 a8 5e de 8e aa a2 10 1e ab
       -4.9988574e-14 -2.1960627e-14 -2.5378565e-13 -5.615596e-13
000250 6e 36 09 28 00 bf cc 25 e8 46 15 29 d9 22 9e 27
       7.61683e-15 3.5517786e-16 3.3146148e-14 4.389159e-15
000260 47 04 71 2a 94 a6 7a 35 0e a3 ad a9 94 be d6 a7
       2.1406584e-13 9.337466e-07 -7.711029e-14 -5.9603557e-15
000270 53 3c 63 bc e9 5d 69 28 dd cd 18 a9 bd 14 c4 aa
       -0.013869363 1.2954462e-14 -3.3929338e-14 -3.4830984e-13
000280 20 19 95 2b 78 4a 09 29 dc af d3 28 c6 c5 2c 2b
       1.059406e-12 3.0484702e-14 2.3501973e-14 6.138114e-13
000290 38 f8 a1 26 2e ce b9 a8 22 3d 71 28 72 a5 bd 27
       1.1238899e-15 -2.0628542e-14 1.33914435e-14 5.2637414e-15
0002a0 1c d4 7a 29 4e 3d 1c 29 75 b7 4c a9 e8 84 43 29
       5.5695127e-14 3.4692132e-14 -4.5456223e-14 4.3413976e-14
0002b0 d8 05 0c 2b fe e4 8c 2a f8 e3 47 29 95 d3 0a 29
       4.97461e-13 2.502789e-13 4.4384608e-14 3.0825674e-14
0002c0 ea 86 26 2b 5c 18 69 2c d0 a4 3c 29 77 8e d7 a8
       5.916228e-13 3.3124814e-12 4.1887338e-14 -2.393158e-14
0002d0 da b9 56 28 66 86 c2 a8 06 d6 2f 29 64 09 12 a9
       1.19196865e-14 -2.1596613e-14 3.904344e-14 -3.2426657e-14
0002e0 d4 0f 19 a9 2c 25 f3 2a 14 b6 cc a9 d8 89 23 a9
       -3.3986553e-14 4.3191264e-13 -9.0910054e-14 -3.631283e-14
0002f0 ae 1d 2d 36 1d fd cd 28 be ec 5b 29 3a f3 88 a8
       2.5796285e-06 2.2869342e-14 4.883311e-14 -1.5204516e-14
000300 56 48 cd a8 eb 25 f7 2a 42 ee 07 29 3e f9 3a 2a
       -2.2790943e-14 4.3902325e-13 3.0182677e-14 1.6606592e-13
000310 44 ca 6c a9 c0 98 85 a8 1e dd 4d 33 96 b9 fb ba
       -5.2577964e-14 -1.4832211e-14 4.7931387e-08 -0.0019205089
000320 12 6b 97 aa ed d6 9d 2a 0b c4 9e 29 62 46 99 ab
       -2.6897283e-13 2.8037937e-13 7.0506175e-14 -1.0890839e-12
000330 76 3a 33 a8 28 6b 96 aa c8 d4 4a ab 55 18 e1 29
       -9.949173e-15 -2.6719707e-13 -7.206011e-13 9.996228e-14
000340 8d 76 91 28 db e4 7e 28 f0 6c ed a8 ee b9 f6 aa
       1.6149647e-14 1.41494575e-14 -2.635953e-14 -4.3827393e-13
000350 f0 29 b0 26 11 23 26 29 80 65 c8 a6 c4 3e 42 29
       1.222382e-15 3.688982e-14 -1.3905299e-15 4.3131094e-14
000360 9e 95 77 2b 03 8f 29 b0 7f 13 d2 28 9e ea 81 28
       8.7959663e-13 -6.1685074e-10 2.3323139e-14 1.4423626e-14
000370 44 1d aa b1 01 46 09 29 d2 d6 ec a8 59 37 85 2b
       -4.9509783e-09 3.048083e-14 -2.6294427e-14 9.46558e-13
000380 fd 13 38 a9 fe 61 e7 28 9e 28 38 a8 cb 16 4b ac
       -4.0873544e-14 2.568865e-14 -1.0222859e-14 -2.8860688e-12
000390 09 08 fb 28 86 0b 72 aa ef cf 4b 29 d7 d9 d6 a8
       2.7870083e-14 -2.1497916e-13 4.525541e-14 -2.3853246e-14
0003a0 d5 ba db 2a ac 6f a4 2a 8c f1 90 29 ac 9f 1c 28
       3.9031856e-13 2.920974e-13 6.436786e-14 8.694363e-15
0003b0 c7 d3 8c 2b e8 95 5b 2c 7e 60 af 2a 27 2c f5 28
       1.0006378e-12 3.1204987e-12 3.11532e-13 2.7219612e-14
0003c0 84 24 d3 2b b2 e0 95 27 4c ba 0d a9 eb 9b c3 a8
       1.5002587e-12 4.1599423e-15 -3.1469876e-14 -2.1716968e-14
0003d0 6c 7d fb 29 52 67 0a 2a 56 9f 58 a9 12 c1 cc a8
       1.11683964e-13 1.2292709e-13 -4.8099837e-14 -2.273228e-14
0003e0 c4 44 ce 29 ac 1c 28 2a a3 d0 58 a9 86 e0 09 aa
       9.1601667e-14 1.4931345e-13 -4.8142598e-14 -1.2245942e-13
0003f0 37 eb f3 b9 ba 70 2a 2b 61 25 14 29 d6 c6 e2 a8
       -0.0004652382 6.055257e-13 3.2895023e-14 -2.5177272e-14

bias f4 [64]
000000 bb e9 83 bc d7 55 88 bc a7 9c 89 bb 1f 8e 6e bb
       -0.016102662 -0.016642494 -0.0041995826 -0.0036400629
000010 dd 16 4e b9 d2 81 a7 3d af a2 05 3f b7 3a 83 bc
       -0.00019654208 0.08179058 0.5220136 -0.016019208
000020 9c 67 84 bc 64 34 18 bc f5 cb 37 bd 4c 27 93 bb
       -0.016162686 -0.009289835 -0.044872243 -0.0044907685
000030 31 84 82 bc a8 f0 5d bc 64 bf bf bc f2 55 a5 bb
       -0.015932174 -0.013546146 -0.023406692 -0.005045646
000040 5f 08 cf bc 1b 56 80 bc 05 ff 9d bc 2d a5 5e bc
       -0.025272546 -0.015666058 -0.019286642 -0.013589186
000050 b7 44 29 bc 57 5b 6a bc d9 e3 bd b6 00 7f e6 3f
       -0.010331324 -0.014304004 -5.659164e-06 1.8007507
000060 18 f8 00 bd 82 34 7b 3e 3e 32 75 bc 33 e9 99 b9
       -0.0314866 0.24531749 -0.014965592 -0.0002935618
000070 c7 3b 9d bc 7d 82 a0 bc 0d 05 c6 b5 d8 75 9b bc
       -0.019193543 -0.019593472 -1.475362e-06 -0.01897709
000080 9a d6 48 3e 94 77 d4 b7 be 81 1e bb 03 83 86 bc
       0.19613114 -2.5328052e-05 -0.002418622 -0.016419893
000090 f5 ea 3f bc 35 96 3e bb 38 73 15 bc d2 3d 8e bc
       -0.011713733 -0.002908123 -0.009121709 -0.017363463
0000a0 e2 74 93 bc 17 68 65 bc 8c 21 d1 bc e5 88 e2 bc
       -0.01800007 -0.014001868 -0.025528692 -0.027653167
0000b0 2e 4b 3f bc 08 fc a0 bc 17 5a 13 40 ab 6a 31 b6
       -0.011675639 -0.019651428 2.3023736 -2.6437144e-06
0000c0 16 d0 44 ba 68 ce 33 bc 59 0e be b8 6a cb bc bc
       -0.0007507814 -0.010974504 -9.0625785e-05 -0.023046214
0000d0 db ea 0e bd 11 15 a5 b8 98 af 89 bc e9 27 e7 b9
       -0.034891944 -7.871737e-05 -0.016807362 -0.0004408949
0000e0 28 9a 69 bc 4f 19 4d bc a7 ec be bb 51 20 50 bc
       -0.014257945 -0.012518241 -0.005826551 -0.012703017
0000f0 bb ea ce bc 38 94 87 bc bd 50 80 ba 3f 07 30 bc
       -0.025258413 -0.016550168 -0.0009789687 -0.010743915

weight f4 [64, 64]
000000 ba a6 18 aa 81 45 37 29 88 87 fd a8 ce 9e 0c a9
       -1.3558157e-13 4.0694448e-14 -2.814742e-14 -3.1223986e-14
000010 34 1d 2b 29 e8 00 16 af 34 70 71 ba 9c be a4 a8
       3.7994957e-14 -1.3642742e-10 -0.000921014 -1.8290321e-14
000020 14 d7 22 29 31 2a 4c 28 19 e9 22 29 33 6d e5 a8
       3.6157777e-14 1.1333424e-14 3.6173406e-14 -2.5471465e-14
000030 6a ba 81 29 14 77 28 a8 77 f6 92 28 2c da 12 29
       5.7610885e-14 -9.351694e-15 1.6316143e-14 3.2607746e-14
000040 c3 b6 07 2c 3b 2f 5c 28 1b 8c 76 29 6e 3a b5 29
       1.9286107e-12 1.2222695e-14 5.4744495e-14 8.0481506e-14
000050 4b b0 e8 28 33 6c 6f 29 e4 e9 f8 a8 57 c0 c7 bc
       2.5833629e-14 5.316251e-14 -2.7634965e-14 -0.024383707
000060 00 5d c1 a5 1c ef 58 b3 9e 61 67 29 41 0c 1e a9
       -3.3543182e-16 -5.0508888e-08 5.1376973e-14 -3.5093676e-14
000070 93 73 6b aa a8 f2 46 a9 f2 cf 47 2a 31 7a ea 29
       -2.0912291e-13 -4.4175303e-14 1.7746896e-13 1.04128843e-13
000080 31 c7 71 b3 d7 d5 fc a8 a6 7f 99 a8 2e 2b 88 a9
       -5.629335e-08 -2.8070358e-14 -1.7041771e-14 -6.047104e-14
000090 b6 0c 93 a8 9c e4 c3 27 d0 c8 a8 2c b9 a8 8a a9
       -1.6325791e-14 5.437123e-15 4.797142e-12 -6.1577e-14
0000a0 95 d9 34 a8 19 30 fe a8 60 02 bf a9 a4 6f 95 27
       -1.0039188e-14 -2.8220524e-14 -8.482516e-14 4.147685e-15
0000b0 4c 27 15 27 35 bc e7 2a 77 0f 1c bd da c7 3c 29
       2.0699207e-15 4.1164438e-13 -0.038100686 4.191773e-14
0000c0 68 bd 4e 28 91 5e d8 28 ff 26 ab 27 cf 07 22 28
       1.1476368e-14 2.4021829e-14 4.7504314e-15 8.9945e-15
0000d0 1a ac 71 2a 81 d6 02 a9 82 9d e4 28 13 09 fd a8
       2.146481e-13 -2.905185e-14 2.5381393e-14 -2.8092578e-14
0000e0 7a 3f 5c 29 95 2a 7d 29 ef 31 f4 a9 16 98 5e 2a
       4.890487e-14 5.621422e-14 -1.0844439e-13 1.9770326e-13
0000f0 c1 62 fc a8 26 74 9b a9 5c 3f 95 28 96 76 f7 a8
       -2.8020448e-14 -6.903531e-14 1.65698e-14 -2.7473937e-14
000100 3f 05 00 ae ed 3d f0 29 37 af 6a 29 0b eb ce a8
       -2.910849e-11 1.06688834e-13 5.2110412e-14 -2.2972528e-14
000110 69 7a 6f 29 a6 7e 20 b1 21 81 11 ba ec da 84 a8
       5.3174834e-14 -2.3355056e-09 -0.0005550553 -1.4749886e-14
000120 f2 7d bb 2b 60 f5 7c 2a 2e 3d 64 a9 8f ef 0e a9
       1.3322106e-12 2.2467228e-13 -5.0679235e-14 -3.1738118e-14
000130 eb f2 8c aa 54 e9 89 a8 62 e2 e5 a7 15 0d 10 2a
       -2.5037554e-13 -1.5311245e-14 -6.3805713e-15 1.2794308e-13
000140 40 e7 1c a9 a2 96 30 2b 6f 59 d7 ad 1a f4 2c ad
       -3.4839536e-14 6.2736806e-13 -2.4482387e-11 -9.8312695e-12
000150 5e b9 65 a9 8e 18 e9 2a 00 b0 15 a9 4c 30 83 bc
       -5.1008995e-14 4.1406153e-13 -3.3237302e-14 -0.01601424
000160 76 91 78 29 17 a6 6b b4 ff fb fe ab f2 1a 84 29
       5.519323e-14 -2.1946504e-07 -1.8117728e-12 5.866652e-14
000170 89 b5 04 ae 6a c7 ac 2b 89 8b c3 29 64 a8 a2 2b
       -3.017456e-11 1.2276684e-12 8.683945e-14 1.155753e-12
000180 84 76 61 b4 00 24 a8 28 64 fa 90 a9 77 df 52 ac
       -2.0997874e-07 1.866736e-14 -6.4383205e-14 -2.9966843e-12
000190 9f ca d8 29 20 0c 50 29 c3 c6 83 2a e0 8f 93 2a
       9.627476e-14 4.6195795e-14 2.3408193e-13 2.621228e-13
0001a0 56 1c 39 ac 56 31 5a ac 52 c6 b5 2b 65 65 00 aa
       -2.630581e-12 -3.100705e-12 1.2915868e-12 -1.1403862e-13
0001b0 0c de 2d 28 ba c1 e8 ad 5f 7d ce bc b1 3d e3 28
       9.651578e-15 -2.6461378e-11 -0.025206266 2.5228817e-14
0001c0 58 cd 26 aa 30 ab b7 a8 2c bd 8e 28 b8 de ae 2b
       -1.4815005e-13 -2.0391322e-14 1.5847207e-14 1.242526e-12
0001d0 3a ff 96 28 8a 08 f2 28 09 8d 70 ac dc d3 a6 a8
       1.6764032e-14 2.68711e-14 -3.4184342e-12 -1.8521582e-14
0001e0 ed 77 5d 2b f7 e7 ad aa 6c 21 0e 29 10 c5 5d a8
       7.8681403e-13 -3.089193e-13 3.1559323e-14 -1.23106955e-14
0001f0 aa b5 a1 28 a0 ee 10 ac 0b 78 f5 28 9d db 41 2a
       1.7953375e-14 -2.0596094e-12 2.7252524e-14 1.7218037e-13
000200 d2 ad f5 a8 bb 3b 07 29 6a 0d 4b a9 67 0e ff 28
       -2.7275847e-14 3.002783e-14 -4.508669e-14 2.8316933e-14
000210 98 2c 9a a9 63 e3 a7 ad 48 61 67 34 af b6 85 29
       -6.8467096e-14 -1.9086682e-11 2.1548942e-07 5.938077e-14
000220 10 ae 20 a7 ea 91 83 27 44 6d 79 28 61 7c fd a9
       -2.229882e-15 3.6518004e-15 1.384597e-14 -1.1257033e-13
000230 db 1c d3 a8 d7 82 1b 29 19 79 5e aa fe 2f 98 a8
       -2.343822e-14 3.45304e-14 -1.9759575e-13 -1.6896203e-14
000240 a1 40 04 29 64 12 09 29 68 38 4c 2a 43 e2 d5 a9
       2.9365944e-14 3.0436062e-14 1.813841e-13 -9.49835e-14
000250 53 c3 01 a9 f0 39 09 29 ce 84 f5 28 d4 bb ba bb
       -2.881317e-14 3.0470364e-14 2.7258059e-14 -0.0056986604
000260 bd 94 ad 29 3c 7f b9 2f 7d 26 37 a9 bd cb 1f 28
       7.708545e-14 3.374171e-10 -4.0667546e-14 8.870452e-15
000270 a7 1d 27 aa 1e ef 07 a9 0c 0d 09 29 ad 69 96 aa
       -1.4842867e-13 -3.0183423e-14 3.0431427e-14 -2.671868e-13
000280 8a 3f af 2f 4c 86 ba 28 e2 56 35 28 08 cb cf a8
       3.1877462e-10 2.070839e-14 1.0066358e-14 -2.3069667e-14
000290 97 2c fd a8 45 a5 45 a9 6d a4 d7 a8 54 ed eb 28
       -2.810798e-14 -4.3886136e-14 -2.3941103e-14 2.6193166e-14
0002a0 50 bf 7b a9 b2 d1 3c 28 28 a6 aa a6 63 05 e4 28
       -5.5899133e-14 1.0481567e-14 -1.1841156e-15 2.5315421e-14
0002b0 b2 07 01 29 12 38 b7 29 de cf 6c bc 5b 6c 2b a9
       2.865043e-14 8.136559e-14 -0.014453856 -3.806361e-14
0002c0 16 96 dc a8 46 05 b8 a9 9a de c6 a7 1e 23 ba 27
       -2.4489996e-14 -8.172156e-14 -5.5197385e-15 5.1663445e-15
0002d0 c8 d8 b3 28 18 a7 8e a9 54 ab 1c 29 6c 07 fa a9
       1.9967006e-14 -6.335053e-14 3.4787562e-14 -1.1103518e-13
0002e0 f6 2f b1 a9 99 96 3f 2a 1a 7f 2d a9 c2 2b fe a8
       -7.868699e-14 1.7016457e-13 -3.852396e-14 -2.8218642e-14
0002f0 0a 5d 20 a9 79 2c 13 a9 a2 22 6e 29 83 c7 95 a9
       -3.5607835e-14 -3.267913e-14 5.2876655e-14 -6.651539e-14
000300 24 c9 b2 ac 8f f5 94 2a 23 80 00 a8 ea f7 fa 28
       -5.0813954e-12 2.6460472e-13 -7.133213e-15 2.7863091e-14
000310 1c 5a f3 a8 7a 49 ac b1 3e 7e 2f bb 64 1e 69 29
       -2.7017498e-14 -5.014212e-09 -0.0026778127 5.1762753e-14
000320 86 8d 45 aa 72 af 4b 29 68 f0 f3 28 a8 c7 14 29
       -1.7546216e-13 4.522723e-14 2.7082679e-14 3.3035776e-14
000330 f4 47 b8 a8 7c 08 f2 ac 0e 7f 39 29 e1 fa 02 2a
       -2.0459308e-14 -6.8789956e-12 4.1188454e-14 1.163336e-13
000340 32 c6 e6 2c ce a7 ec 2a 88 f8 02 2b 64 f8 fc ab
       6.5589973e-12 4.203846e-13 4.6530184e-13 -1.7974619e-12
000350 b7 c9 da aa ee 2b 00 2b 39 c7 9b a8 e4 70 55 bc
       -3.8864547e-13 4.55357e-13 -1.7294856e-14 -0.0130274035
000360 58 ba 8f 2a 41 ab 23 b6 41 b5 c7 2a 52 e3 94 a8
       2.5531205e-13 -2.4388576e-06 3.547527e-13 -1.6529885e-14
000370 7d 60 98 2a 6a 17 a3 a9 2a ee 90 2a e2 2e ba 2c
       2.7067576e-13 -7.242716e-14 2.5744798e-13 5.291643e-12
000380 9b 8f 07 b6 eb 1b 2c 29 d6 4a cf a8 22 f9 fb 2a
       -2.0200157e-06 3.8215887e-14 -2.3014072e-14 4.4759427e-13
000390 ec b8 a9 2a c2 1f 3a 28 37 81 05 2f 2c 88 a3 aa
       3.0148746e-13 1.03319605e-14 1.2142186e-10 -2.9049105e-13
0003a0 c9 fd 10 ac 77 03 b3 ab ae cd 62 2a 52 e0 a6 a8
       -2.060451e-12 -1.2719677e-12 2.0144192e-13 -1.8526986e-14
0003b0 ba b0 e6 29 87 55 6c ac a7 ed be bc 20 eb 9c 28
       1.0244709e-13 -3.3585094e-12 -0.02330668 1.7421448e-14
0003c0 e8 b0 b5 29 82 47 3d aa 9a bb 02 a9 47 ee 8d aa
       8.068703e-14 -1.6811381e-13 -2.9028517e-14 -2.521197e-13
0003d0 e1 7e c4 ac 02 03 16 29 c9 cb b3 aa 7a 30 22 28
       -5.5847414e-12 3.33093e-14 -3.1938192e-13 9.003318e-15
0003e0 53 90 4d 29 29 1a 1c 2a 5e 3c cc 2b 4b 7e ad 2a
       4.5644325e-14 1.386466e-13 1.4511827e-12 3.0818607e-13
0003f0 1f bc 53 29 fc 1d cf 2a e0 3f 0c 29 4f b7 c6 a8
       4.701458e-14 3.6791392e-13 3.1141647e-14 -2.2061913e-14

bias f4 [64]
000000 29 4d 38 bc 7f 34 d8 bb 8c e2 37 ba 86 e1 15 bc
       -0.011248865 -0.006598055 -0.0007014654 -0.009148007
000010 f2 eb c3 b9 77 a8 5b 3f 61 10 e5 b9 1c 97 31 bc
       -0.0003736909 0.8580393 -0.00043690487 -0.01083925
000020 a1 8e 16 ba aa 80 ab 31 23 9e 37 bc 89 d8 21 bc
       -0.0005743299 4.9913824e-09 -0.011207136 -0.009878286
000030 5e eb 4d bc 02 3d ad b9 68 cf e5 b8 cf ed 95 ba
       -0.012568323 -0.00033042586 -0.00010958203 -0.001143867
000040 de 3d 14 bc a1 2b d0 b3 fb 4a 43 b9 41 6d d1 3d
       -0.009047953 -9.693691e-08 -0.00018624582 0.10225917
000050 49 0e 20 ba c3 3a 03 bc 8d 01 68 ba 91 e8 08 bc
       -0.0006105644 -0.008009615 -0.0008850329 -0.008356229
000060 cc c3 15 bc 22 5a 27 bc 19 dd f4 b9 21 08 c3 bb
       -0.00914092 -0.01021436 -0.00046704037 -0.005951897
000070 7b 02 02 bc 94 9b 64 b8 66 82 2b bb 62 91 27 b1
       -0.007935162 -5.450433e-05 -0.0026170253 -2.438434e-09
000080 a8 9b 23 bc 09 96 99 ba 42 3e 6a ba c8 20 fb b9
       -0.009985842 -0.0011717688 -0.0008935669 -0.00047898875
000090 c2 67 7c 31 0c ac bf 3e 39 aa 8e ba 08 0c 32 bb
       3.6729806e-09 0.3743595 -0.001088447 -0.0027167816
0000a0 25 76 8f bc 5b 66 b0 bb b2 fd 7d ba b1 31 22 ba
       -0.01751239 -0.0053832955 -0.00096889876 -0.0006187214
0000b0 58 53 bb b9 25 76 f6 b9 82 fe 11 bc 7b d6 01 bc
       -0.00035729515 -0.000470088 -0.008910777 -0.007924671
0000c0 29 72 7b ba 5c 87 b6 bb 49 ab e2 b9 42 14 1f 3f
       -0.00095919013 -0.0055703353 -0.00043233696 0.62140286
0000d0 dd b4 74 ba cb 6c 1b b4 69 1f 3d bc 8e b8 67 b9
       -0.0009334812 -1.4475079e-07 -0.011543133 -0.00022098629
0000e0 6c 23 29 ba d5 58 25 bc e5 02 00 bc 26 08 17 35
       -0.00064521166 -0.01009198 -0.00781319 5.626374e-07
0000f0 fb 09 24 ba 9e a6 28 bc 88 1f 43 ba 31 a4 86 b7
       -0.0006257591 -0.010293631 -0.0007443358 -1.6050502e-05

weight f4 [1, 64]
000000 8e 5b be 37 73 5b a9 bb a2 16 55 30 54 18 1f 3b
       2.2692398e-05 -0.0051683723 7.752111e-10 0.0024275975
000010 69 49 7b ac 3f c6 24 c0 90 00 50 31 21 d3 09 b4
       -3.5709996e-12 -2.5746 3.0268303e-09 -1.2835928e-07
000020 fb 74 e5 33 37 7a 90 ac 19 00 81 3b bd 09 bf bb
       1.0684922e-07 -4.1062947e-12 0.003936779 -0.0058300183
000030 5c 6f a8 3b 5a b7 21 ae 46 96 36 34 4d d2 c0 33
       0.005140228 -3.677001e-11 1.700474e-07 8.97895e-08
000040 40 d2 16 3b 7a 2f 34 30 b9 52 dd 31 94 d4 16 bf
       0.0023013502 6.5551087e-10 6.441351e-09 -0.5891812
000050 56 59 83 af 59 6f 8c bb 03 9b 40 34 2c d3 3c b8
       -2.3892238e-10 -0.0042857346 1.7937786e-07 -4.5019362e-05
000060 fd e5 c7 bb 3c 67 b5 bb 91 76 b0 2e a9 85 ed b3
       -0.006100415 -0.005535988 8.024615e-11 -1.1060485e-07
000070 fe fd 9d bb d2 25 b0 2e c0 30 0b bd 5f f5 15 29
       -0.004821538 8.0102716e-11 -0.03398204 3.329747e-14
000080 73 8b 84 3b d2 67 0d 2c f9 93 3e 34 8c 49 e8 30
       0.004044944 2.0094937e-12 1.7748961e-07 1.6901125e-09
000090 fc fb 28 29 3c 4a be bf f6 64 1e a8 a8 0b 3b ac
       3.7522055e-14 -1.4866405 -8.792654e-15 -2.6580769e-12
0000a0 c2 5f 9e 30 80 a2 2c b8 18 f7 41 34 39 86 c3 b1
       1.1523229e-09 -4.1159336e-05 1.8064418e-07 -5.6905063e-09
0000b0 3b ef fb 30 ea ca 32 34 c4 a9 c3 bb e0 c6 b7 bb
       1.8330647e-09 1.6651362e-07 -0.0059711654 -0.0056084245
0000c0 bf fb e2 32 66 a4 ce 2f ec 99 e9 32 48 d2 07 c0
       2.6424344e-08 3.7587994e-10 2.7194766e-08 -2.1222095
0000d0 86 9b 3a 34 02 cc 06 33 25 94 7c 3b cd 80 34 31
       1.7379179e-07 3.138485e-08 0.003854045 2.6266662e-09
0000e0 9b 24 f3 31 1d a9 b6 bb 68 fc b1 bb 36 2a 97 2e
       7.0763924e-09 -0.005574359 -0.0054317005 6.874183e-11
0000f0 19 cc af b0 46 fa d0 3a 93 e6 3a 34 3e 65 7f b8
       -1.2790934e-09 0.0015943728 1.7406482e-07 -6.0891027e-05

weight f4 [1, 64]
000000 41 d0 e8 3c 3b 40 01 bd 54 2f 40 3b 78 cc be 3c
       0.028419616 -0.031555396 0.0029325085 0.023290858
000010 1d ee e1 38 0e c7 53 be e7 42 83 3b 94 a0 9b 3c
       0.00010773188 -0.20681402 0.004005778 0.018997468
000020 db ce 0f 3c 40 c1 09 ba 74 b7 18 3d 91 73 e0 bc
       0.0087773455 -0.0005254932 0.03728433 -0.027398856
000030 a0 f5 0d 3d df 69 57 3a 1a be 29 3c fd 4a 32 3c
       0.034658074 0.0008217375 0.010360265 0.010882136
000040 96 b6 bb 3c 1d 19 a9 bb 9d b1 d9 bb 59 c2 1d 3f
       0.022914212 -0.0051604644 -0.0066434876 0.61624676
000050 9d af f1 3a 10 5b 0f bd dc 25 21 3c 1f 6b 95 bc
       0.0018439178 -0.034998953 0.009835687 -0.018239556
000060 30 42 f9 bc 28 ed fa bc 48 9c 82 3a d6 ad cc bb
       -0.030427068 -0.030630663 0.0009964788 -0.006246309
000070 18 da 0f bd 2c 86 d8 3a 97 08 cc bb 08 00 ba 2d
       -0.0351201 0.0016519479 -0.00622661 2.1145766e-11
000080 a1 3b 17 3d a3 66 54 b3 59 6d 20 3c 36 9e a5 bb
       0.0369221 -4.9453444e-08 0.0097916955 -0.0050542606
000090 52 34 c0 ad d2 e9 dd ba 25 73 2b b3 d2 b9 87 b6
       -2.1851108e-11 -0.0016930646 -3.9918763e-08 -4.044946e-06
0000a0 62 4e ac 3c f4 67 a2 bc 9e 6c 22 3c 72 ac c9 3b
       0.02103347 -0.01982496 0.009913592 0.0061545903
0000b0 dc c5 5d 3b 4b aa 20 3c 52 67 fa bc ed 8b ee bc
       0.0033839857 0.009806226 -0.030566845 -0.029119456
0000c0 c8 3c ed 3b a1 fb 05 bb e9 3c 42 3c d5 aa b8 bd
       0.0072399117 -0.0020444172 0.011855342 -0.090169586
0000d0 ba ca 1b 3c 7a b3 12 3c 6f 68 e6 3c f9 7d 76 3b
       0.009508783 0.008953923 0.02812597 0.0037611707
0000e0 6e 79 e4 3b 5c ec ec bc 66 e4 eb bc bc 36 0c bb
       0.0069724834 -0.028921299 -0.028795432 -0.002139493
0000f0 b6 c8 a4 3b d0 ba a5 3c 06 76 20 3c 1d fe 9f bc
       0.0050288094 0.02023068 0.009793764 -0.01953035

weight f4 [1, 64]
000000 ce bb ce 3d 8c e2 ab 3d 5c e5 9c 3d 20 6a 85 bc
       0.10094415 0.0839282 0.07660934 -0.016285956
000010 54 cc b3 bd 9e 0b b9 3d 40 ac c9 bc d4 f0 7f 3d
       -0.08779207 0.09035419 -0.024618268 0.06248553
000020 6c a7 72 3d 80 f4 ef 3b 54 12 99 bd 60 ab bd bd
       0.059241697 0.007322848 -0.07474199 -0.09261203
000030 68 62 89 3d 14 15 d5 bd 82 43 ae 3d d8 27 e6 3d
       0.06708223 -0.10404411 0.0850897 0.11238068
000040 0c 56 32 bd 4c 40 4c bd 00 32 30 bc 14 60 50 bd
       -0.043539092 -0.049866006 -0.010754108 -0.050872877
000050 00 28 7c 3c aa e4 91 bd c4 a9 7e 3d b0 08 2d bd
       0.015390396 -0.07123692 0.06217362 -0.042244613
000060 ea ac f0 bd aa 9e ae 3d 38 bd 72 3d 80 4d 41 3d
       -0.11751731 0.085263565 0.059262484 0.04719305
000070 c4 08 5d bd 3c 39 76 bd 06 4f c5 bd 0a 7f 80 bd
       -0.053963438 -0.060113177 -0.09634213 -0.06274231
000080 7c 10 1e bd 06 1b e5 bd 0c 86 06 bd ec 2e 1e bd
       -0.03858994 -0.11186795 -0.03284268 -0.038618967
000090 b4 32 2d bd 50 ea 34 3c 7c ab a5 bd 72 24 ec 3d
       -0.042284682 0.011042193 -0.08089349 0.11530389
0000a0 6e 76 bb 3d 40 33 ef 3b f0 33 75 bd 88 4d 9a 3d
       0.09153448 0.0072998106 -0.059863985 0.07534319
0000b0 28 e4 0d bd 72 81 ab bd c0 e1 7c 3b 00 c0 0a bd
       -0.034641415 -0.08374299 0.0038586706 -0.03387451
0000c0 82 90 82 bd 48 c3 5e bd 20 88 5f bd b8 df f5 3c
       -0.06375219 -0.054385453 -0.05457318 0.030013904
0000d0 78 2b 86 bc 60 60 9f bd 54 de d3 3d 2c a4 45 bd
       -0.01637815 -0.07782054 0.1034514 -0.04825227
0000e0 b4 d6 90 3d 20 f6 d2 bc 14 fe d0 3d 68 bb f5 bd
       0.07072201 -0.025752127 0.102047116 -0.119986355
0000f0 a8 52 2b 3d 82 31 89 3d e4 f0 8b bd c0 90 b7 3c
       0.041826874 0.06698896 -0.068330556 0.02240789

weight f4 [1, 64]
000000 3a 11 dd 3d 24 95 cd bd 5a de c2 bd 90 11 50 3d
       0.10794301 -0.10038212 -0.095150664 0.050798
000010 6c 5d 50 bd 12 ee db bd d0 78 63 bc 8a 1b a3 bd
       -0.050870344 -0.10738768 -0.013883784 -0.07964237
000020 54 6a 20 3d 50 00 bb 3c 88 fa ff bd cc e1 05 bd
       0.039163902 0.022827297 -0.12498957 -0.03268604
000030 14 6c 4c 3d e8 e7 ae bc 90 55 35 bd 7a 38 b0 3d
       0.04990776 -0.021350816 -0.044271052 0.08604522
000040 1c f1 5d bd 90 4c c9 3c 40 a9 4e bb 84 e8 7d 3d
       -0.054185018 0.02457264 -0.0031533986 0.061989322
000050 0a cd ed bd e4 90 42 3d 52 dd dc 3d 46 82 b4 3d
       -0.11611374 0.04750146 0.10784401 0.0881391
000060 b0 bd f9 3d 8c e1 7d 3d ac 0f e8 bd 30 0d cb bd
       0.12194383 0.061982676 -0.11331114 -0.09914625
000070 18 ed 7f 3d 50 51 bf 3c a0 41 17 3d 6c 0f 97 3d
       0.06248197 0.023354203 0.03692782 0.07375988
000080 b2 e4 a0 3d 30 46 c4 bd c8 96 9a bc 20 1d 21 3d
       0.0785612 -0.095837 -0.018870726 0.039334416
000090 dc e3 c3 bd 88 88 12 bd dc c3 35 bd 70 ab b5 bd
       -0.09564945 -0.035774738 -0.04437624 -0.0887059
0000a0 48 aa d8 3d 86 b9 93 bd 98 87 a1 bc 3c 25 9e 3d
       0.105793536 -0.0721312 -0.019717976 0.07721946
0000b0 36 70 fc bd 0e 7a ad 3d 44 e9 9f 3d 48 06 ef 3c
       -0.1232609 0.08470546 0.07808164 0.0291778
0000c0 3e d0 ef bd 26 eb dc 3d ea 3d d9 3d c0 05 0f 3d
       -0.11709641 0.107870385 0.10607512 0.034917593
0000d0 14 a1 bf 3d 94 35 eb 3d 0e 32 d3 3d b8 53 df bd
       0.09356895 0.114848286 0.103122815 -0.1090464
0000e0 b8 66 e0 bc c8 27 eb bc a8 17 72 3d 52 d5 95 bd
       -0.02739273 -0.028705493 0.05910459 -0.07316078
0000f0 0c 93 bc 3d ca 75 c9 bd 82 89 aa bd 40 8e 2f 3d
       0.092077345 -0.098369196 -0.08327009 0.04286027
