pth/EM_model_step1_loss_-602.2451116812377.pt (torch, 69766 bytes, 19 tensors)

alpha_r f8 []
0	0x3fc99b3d07b9d9c6	0.20004999997372702

beta_r f8 []
0	0x3fc999999999999a	0.2

alpha_u f8 []
0	0x3ff000346dc53611	1.0000499999908963

beta_u f8 []
0	0x3fdae075f6ee4297	0.4199499999458935

gamma f8 []
0	0x3fb99652bd3d3c53	0.09995000000093172

theta f8 []
0	0x3f946dc5dd98ca72	0.01995000042934198

_lambda f8 []
0	0x4004000000000000	2.5

d f8 []
0	0x4018000000000000	6.0

r f8 [1, 300]
0	0x3ff9fd23cc9e3d8c	1.6243017189879962
1	0xc00a2a278b16ab62	-3.270583235387151
2	0x401127a5337d1ab1	4.2887161297900755
3	0xc00078347f15cf86	-2.058693878987415
4	0xc001ecad17dd051a	-2.240564524109357
5	0x4004af9a61682c98	2.585743676177639
6	0xbf85970231cab340	-0.010541932243847918
7	0x40158afeb0185f04	5.385737182128427
8	0xbff4484d4c35f7c1	-1.2676518418297607
9	0x3fec72df4a629c06	0.8890224888644986
10	0x3ff2206583131a24	1.1329093093969584
11	0xbfe640f01b2c9262	-0.6954269915336904
12	0x4008b517b95f46b6	3.088424156398868
13	0x40059e4b6b22da1b	2.7022922868739108
14	0xc002a89b4dc7f770	-2.3323274685525845
15	0xbff5fab13e90db7d	-1.3737041896799547
16	0xbff4e446f7b1e2a4	-1.3057317424374242
17	0xbfe5ea2507a4e396	-0.684832110338095
18	0x3ff9b78769dca2d4	1.6073068747738732
19	0xbfe059c6b799fee4	-0.5109590135543525
20	0x3fefe6a68dce9581	0.9969055909793242
21	0x3ffc6d62e6f8517e	1.7767056486382837
22	0x3fecddc71725255a	0.9020724727680929
23	0xbfedb0ba02ece5c6	-0.9278230721603726
24	0xc0007c988edd01de	-2.060837856406791
25	0xc0048138bc82435c	-2.5630964972737456
26	0x4005cf2a8cae3c73	2.7261553755448005
27	0x3fec8050ae3ac52b	0.8906634715005216
28	0x4000f56351497974	2.119818339400064
29	0x3ff1100166cc3d7b	1.0664075866260123
30	0x3ffa62943b4bafbf	1.6490671459423394
31	0x4001b7e0a62d9b3a	2.2147839529674487
32	0x3fcd42e7128bdd6a	0.22860420613845217
33	0x3fb31ecc9ce2c7a4	0.07468870954724466
34	0xbffa65c74bbbb652	-1.649848266442309
35	0xc003bd13cb76a386	-2.467322911794727
36	0x3fe9154fcb9c6043	0.7838515259527487
37	0x3ff82c3ae9f50390	1.5107983721684128
38	0xbfef4abb3a8aa676	-0.9778724807158159
39	0x400ca8eeb3fb621c	3.5824865399447514
40	0x40046954a4e1c9d4	2.551430977001681
41	0xbfe7fbb7ac4f19d4	-0.7494772305879516
42	0x4003ca79acedc717	2.4738648901046747
43	0xbfd2ec6ca8a1773c	-0.2956802031311445
44	0xbfed541a99b7a3ac	-0.9165165903369732
45	0x3fd6ccd36dbae530	0.35625158038927207
46	0x3ff7fe6dd06fbbf7	1.4996164457368175
47	0x3ffbf68ba8f14146	1.7476917838394725
48	0xbff90b2c036e73f0	-1.5652275213280937
49	0x3fb0e8a2033faaf8	0.06604969577135111
50	0x3ff0bcb793c81a42	1.0460735104294518
51	0x3feaabc81d3cb1b1	0.8334694453274577
52	0x3ff2e2655c8fce20	1.1802724471753052
53	0x3fb2b9d70c3f19e8	0.07314819382654714
54	0xc00a60f2d1f14f7b	-3.2973381425635444
55	0xbff2d242a3ca7fc4	-1.176333083923951
56	0xbfdda2c89c5ee7a8	-0.463060524659904
57	0xbff1c880481d134a	-1.1114504639565035
58	0xc001f876bc146b8d	-2.246320218442128
59	0x3fd7ee3167135472	0.3739131456944228
60	0xbfe734bc3b06713f	-0.7251874115786804
61	0x40098122e14aca0e	3.1880548096608043
62	0x400dc67822e78852	3.7219088293941605
63	0xc0046457472a92c0	-2.5489945945613215
64	0xbfd040bdd227ebe8	-0.25395150683442447
65	0xbfe4bd1774df1b72	-0.6480824740072946
66	0x3ff84aba281eba9d	1.5182439391316287
67	0xbfe0d0899b7bb098	-0.5254562413006338
68	0xbf9f1c19b5e5dfa0	-0.030380632140321162
69	0x3fd653334bc3ed5b	0.34882814787825617
70	0x3ff6aa5ec79b5757	1.4165942952290231
71	0xbfeec03009b58e28	-0.9609604062683887
72	0x3fb7aff4bd32d3d8	0.0925286256704817
73	0xbff4d8e05331ae06	-1.3029483079689057
74	0x40189167e6da543c	6.141997916293857
75	0x400a3a43de42e9b2	3.278449760834712
76	0x400aa1b24534a900	3.328953304929314
77	0x4006306615282a07	2.7736322071916706
78	0x400757e604db66cf	2.917919195123296
79	0xbfff0fa2ab241c82	-1.9413172421643883
80	0x3ff8ddc26dbf36c8	1.554140499781555
81	0x3fe28f992e568d30	0.5800290970841271
82	0xbfd0b29aa23917bf	-0.260901125355641
83	0x3ff235e0e2884448	1.1381539200704243
84	0x3fe5474375d8cf96	0.6649491597840889
85	0xbfd83711755e6ebf	-0.37836109601787976
86	0x3fe19d5f5b3bfa32	0.5504605085296304
87	0x3fe6d2de84823846	0.7132408702907547
88	0x3fcd1a3699020c28	0.22736246558278705
89	0xbfe869530a666ef4	-0.7628569796683835
90	0xbfc7ea4134b23534	-0.18683638642361589
91	0x3fb1a6f9c5cf8c78	0.06895409659732532
92	0x40049bdf11b34abe	2.57610906437307
93	0x3fe424df7c0031cb	0.629501096905693
94	0xc00dc08f6cdd292d	-3.7190235619538243
95	0xc0062e3bbe2554c3	-2.7725748877661274
96	0xbfd94f74c31b98c0	-0.39547461560722397
97	0x3ff833b3f689f160	1.512622798006383
98	0x3ffcb4a8d5a4d5a1	1.7941063256706473
99	0xbff1b90b648f0670	-1.1076768806528001
100	0xbfe477c6310487c6	-0.6396208722473993
101	0x3f9d494f565f81e0	0.02859996761969963
102	0x3ff43c2459db65f5	1.2646831045188922
103	0x3fd52dd914bdd965	0.3309233381800339
104	0x3ff5a4fdbe4f967e	1.3527810510653633
105	0xbff20b9acbdcc543	-1.1278331721662915
106	0x401292a9483885b8	4.64322388501153
107	0x3fc28ef791ff2064	0.14498800877322815
108	0xbffa6d9d19db1617	-1.6517611513130583
109	0x3ff0fb92d435d585	1.0614193238701273
110	0x3ff1e6ed8fd9f8dc	1.1188789004514126
111	0x3fe1b0e794fa6aa0	0.5528448018770469
112	0xbfaafba663572c30	-0.05270118677761848
113	0x3ff4ba603fc1903f	1.2955019464943829
114	0x3ff4e148189ac73f	1.3050003968350692
115	0x3fed21b5b5650954	0.9103649657120436
116	0xbfee43114f95a476	-0.9456869654069482
117	0x3fd5a7de9bc925e9	0.3383709451050821
118	0xbfd715d23082c595	-0.36070685136208996
119	0x3fe69c9b1dba7893	0.7066169338829859
120	0xc000d9f7d7ea693e	-2.106429755059394
121	0x40036bfdca7b4200	2.4277301615586566
122	0x3fd2844565673230	0.28932318594596307
123	0x3ff27b2ba59182fb	1.1550709216609778
124	0xbffa9b72bfea7dd6	-1.6629512306898184
125	0x3ff6a35c9d3a2457	1.414883245628763
126	0xbfe0afa927d6ed68	-0.5214429643741996
127	0x3fd6713e9c4e0140	0.35066190017825605
128	0x4003d4d4666278c0	2.47892074573528
129	0xbfc5079f2760ea60	-0.1642950956609921
130	0x3fdd095dcb52079c	0.4536966786910115
131	0xbfc8574167bc28f0	-0.19016282620606928
132	0x3fda992f48036411	0.4155996516470291
133	0x40010b6465b50c90	2.130562586391143
134	0x400115fdba0bdf7c	2.135737851607642
135	0xbfd6343e31182630	-0.3469386557995646
136	0xc00872be938bfee4	-3.0560275580499923
137	0xbfd6ca9bc038c11c	-0.35611623546266613
138	0x3f992ef6feb74aa0	0.02459321908629397
139	0x40033d177fc22707	2.4048299771428705
140	0xbfaa0b0f8046e100	-0.050865635308072754
141	0xbfd17d22c02b8f26	-0.27326267973534113
142	0x4012eb2e079a377a	4.729667776858941
143	0xbff9f8c03ba8a2a9	-1.6232302027148455
144	0xbffc71755b593f57	-1.7776998108201576
145	0xbfd085650541e838	-0.2581417609541208
146	0x3ff7c92bde51c721	1.486614101825076
147	0x3fce0d5f54d5d504	0.23478309290263877
148	0x3fe681bb0f112cb2	0.7033362669257228
149	0x3ff056a751d569d8	1.0211556622149285
150	0xbfbf2b527ead45b8	-0.12175479500481046
151	0x4012ddabd95f5f49	4.716475864835794
152	0x4007e8dd6d5ce85c	2.9887035888651052
153	0x3fe2897846f2a36e	0.5792809854220715
154	0x40145d0c2a8044f0	5.090866722182213
155	0xc0003a22fd77827a	-2.028387050828596
156	0xc016e81555ac1802	-5.726643885258456
157	0xc01421bda5026e08	-5.032949999116234
158	0xc007fa3bd90ac622	-2.997184463158889
159	0x40144acb4ca3d192	5.073041150568672
160	0x400453b95365b3f6	2.540880824605206
161	0x3ff734701e99cc52	1.4503022380202037
162	0x3ffbf49bcc7f2cda	1.7472188938289066
163	0xc002307e46935db1	-2.2736783517572907
164	0xbfd098cee194c2ac	-0.2593266680660615
165	0xbffd1fafd1469fb2	-1.8202360319937552
166	0x401436d8d84e54c7	5.053561572819667
167	0x4002a01e47ec6a75	2.3281827563308135
168	0x3ffaa4b6b2c3b974	1.6652132971754243
169	0x3fecf88b57326bd2	0.9053398802819805
170	0x3fcb4a7f3fef9796	0.2132109701334996
171	0x3fd44c2e10efb282	0.31714965490281355
172	0x400d398a9a5a649a	3.653096395381522
173	0x3ff9d74b6d61da5a	1.6150621674293206
174	0xbfe4cee11802262a	-0.6502538174547159
175	0x3ff619c0caa6a170	1.3812873760271849
176	0x3ffa83fa5060864e	1.6572211398819436
177	0xbfa559b9c7d43b40	-0.041700177806083705
178	0x3ffd595fda0e2e2f	1.8343199270046957
179	0xbfecf7db9a66f02e	-0.9052560821214735
180	0x400482e7d9b4edd7	2.563918782075898
181	0x3ffddf976a1ed724	1.8670877595263358
182	0x3fec00022ce7ec00	0.8750010373181567
183	0x3ffa31f9087bb878	1.637200387132479
184	0x3febe13d52969732	0.8712450612117435
185	0x3fe1f07b9bdf1b90	0.560605816303779
186	0xbfa735c384dcf870	-0.04533205983033006
187	0x4000e9744c7bf6e4	2.113991353543371
188	0xc0030a19b52af3fc	-2.379931846021007
189	0xbfa148e5c9d01dd0	-0.033759289632196876
190	0x3fc2bf62926670a4	0.1464656081051362
191	0xc00be0d5881fe7a6	-3.4847822794663044
192	0xc011ecc45b2ca006	-4.481217789267253
193	0x4001c803ed82fa86	2.222663741645479
194	0x3ffe961677549a3e	1.911642519125635
195	0xbfb5e446b44f70b0	-0.08551446821315056
196	0x40058fb5b730975b	2.6951708137229793
197	0x3ff37163c8db173e	1.2151830526285745
198	0x3ff4fe1988e1ea42	1.3120360705348877
199	0x3fbab1bafe952944	0.10427445140263553
200	0x4007db90014dfe9c	2.9822082616736463
201	0x4001ad4e8ae9a0c2	2.2096224644229503
202	0xbff961108e433028	-1.5861974293830006
203	0x3ffd5a74f144d4d6	1.8345841812672936
204	0x3ff2ef26a303c4bd	1.183386456276181
205	0x3ff159fecd444f99	1.0844715135799332
206	0x4007e7181ac5c3ae	2.987838944587984
207	0x3ff5720b76c8a1ce	1.3403429641713163
208	0x3fc0c26b82ad2b60	0.13093322640119265
209	0x3fc2770c1447414e	0.14425803175118762
210	0x3ffb95646df2dc38	1.7239727301473646
211	0x3ffab6d1e2ca5a74	1.669633756542365
212	0x3fd6edd472ce4ceb	0.35826598369130974
213	0xc006cb0cccad5c26	-2.8491455068974743
214	0x400b665ebb0eeb5f	3.424985371964268
215	0xbfd4d52a33a232b4	-0.3255105499490967
216	0x3fe8d678ddc28b2e	0.7761806803940539
217	0xbff3585e6a7bac6c	-1.2090744170662004
218	0xbff32d662e69ce1f	-1.198583775808295
219	0xbfe855e71622bad1	-0.7604861671769304
220	0x3ff03c34c497c317	1.0146987609297804
221	0xbfeb79ed97b86a88	-0.8586338008202157
222	0x3ff1d4464292e34f	1.1143248177088088
223	0x3f92b4dfbc61ab30	0.01826810443200627
224	0x3fd2d1b984149d8e	0.2940505781029622
225	0xc004f46d415f8294	-2.6193490130684243
226	0x4008ad6ca3c36564	3.0846798700337548
227	0xbfeafa69af1e5d2c	-0.8430679722104393
228	0xbff1937da493de8a	-1.0985084942639411
229	0xbfd4d18b3f72fb44	-0.3252895469303676
230	0x3ff7725e3b259507	1.4654218969747619
231	0x3ffe1b270e9ea219	1.8816290446358208
232	0xc00eec08bfe0169a	-3.865251063371784
233	0xbfd55767326683b0	-0.3334596626464714
234	0xbfdc9eeaf10d8d2c	-0.44719956913305015
235	0xbfff08a4d9a3c26c	-1.9396103383588992
236	0x40008a2441e0820c	2.0674519678725627
237	0x3ffab374416516d4	1.6688120417106136
238	0x3ff3f3144894bd10	1.24684551574666
239	0xbfdae661b791fa6c	-0.42031138350276964
240	0xbff7c3b9919cf468	-1.48528439407462
241	0x4002778c8d4c0da2	2.308373550303899
242	0x3ff4c67b014ecbe0	1.2984571505628466
243	0x3fd74192ddf9b658	0.3633773009995358
244	0x4004d2fdbaeffe1b	2.6030230144967965
245	0x3fea294a9e84780c	0.817540464023979
246	0x3ffe40748abd9a3b	1.8907361430698433
247	0x3fdf09dea9571008	0.48497740304105763
248	0x3ff97351918b509d	1.5906539616890207
249	0x3fdb9f07ce988484	0.43158145118111
250	0xbfe220a00eb12a88	-0.5664825713113979
251	0x3ff735d4d1461924	1.4506424116858136
252	0x4017cc655c0a2f15	5.94960540592344
253	0x3fcdbff165e93c70	0.23242013431670072
254	0xbfebf8b8467e0022	-0.8741113068390443
255	0x3fe9ed3ada09129a	0.8102087267403306

weight f4 [64, 3]
0	0x8004c8c6	-4.39366e-40
1	0x00003d1f	2.1926e-41
2	0x00050a76	4.6293e-40
3	0x3d9f3d46	0.07775359
4	0xb95ecbd0	-0.00021247496
5	0xc04b91b6	-3.1807685
6	0xbb6bd899	-0.0035987257
7	0xbd1f177f	-0.038840767
8	0x3c284f7c	0.010272857
9	0xbdcf4748	-0.10121018
10	0x3d903376	0.070410654
11	0xbd7e6236	-0.06210538
12	0xb55bdf06	-8.19084e-07
13	0x2808fa7e	7.603833e-15
14	0x0005a7df	5.19398e-40
15	0xbbecf78f	-0.0072316597
16	0xbc1bb919	-0.00950458
17	0xb99b5cd4	-0.00029633066
18	0x3ee6de3d	0.4509143
19	0x3c771c4f	0.015082433
20	0x3f9cdacd	1.2254273
21	0xb7f95854	-2.9724244e-05
22	0xbe6a72f9	-0.22895421
23	0x3d469535	0.04848214
24	0xb6edc241	-7.0857645e-06
25	0xac45cadf	-2.8108e-12
26	0x0016d64d	2.097258e-39
27	0xb9478d49	-0.00019030752
28	0x35114a91	5.412522e-07
29	0x0000b885	6.6193e-41
30	0xbba62d63	-0.0050713285
31	0x3ba155b8	0.0049235485
32	0xba7ada9a	-0.00095693173
33	0xb7781c97	-1.47886085e-05
34	0xa6831fac	-9.098536e-16
35	0x00043807	3.87441e-40
36	0xb05c2438	-8.0087004e-10
37	0x9a136a9d	-3.048501e-23
38	0x8000ef8a	-8.593e-41
39	0xbb4cc4ba	-0.0031245188
40	0xbc2132ad	-0.009838742
41	0x3a786717	0.0009475811
42	0xbd9ae351	-0.075628884
43	0xbe36a71f	-0.17837189
44	0x3cd90f82	0.026496653
45	0xafb0b05d	-3.2139527e-10
46	0x114c136b	1.6098746e-28
47	0x000464c5	4.03491e-40
48	0x9957b0a2	-1.115091e-23
49	0x000a52aa	9.48009e-40
50	0x800348ba	-3.01596e-40
51	0x3a8ee601	0.0010902287
52	0xbd21fe24	-0.039549008
53	0x3c954fb5	0.018226484
54	0xbcf5ccb0	-0.03000483
55	0xbcb22b13	-0.021749055
56	0xbc1e1d3f	-0.0096505275
57	0xb11ec839	-2.310584e-09
58	0xa207be33	-1.8396602e-18
59	0x8000142a	-7.234e-42
60	0xb516f453	-5.6234893e-07
61	0x1f1dd460	3.3421716e-20
62	0x000c1bfc	1.112065e-39
63	0xb8a6755c	-7.937357e-05
64	0xb7812ab6	-1.5397887e-05
65	0xb3d207e4	-9.780322e-08
66	0xbb1fa065	-0.0024357077
67	0xba10325e	-0.00055006694
68	0xb34ef8e8	-4.818949e-08
69	0xb955e570	-0.00020398735
70	0xb8c3a61f	-9.329267e-05
71	0xb9bffceb	-0.00036618797
72	0x3dae1de5	0.08501796
73	0xba024f3f	-0.0004970915
74	0x4051223a	3.267714
75	0x3dcc6ed6	0.09982078
76	0x3b702297	0.003664171
77	0x3e31414f	0.1731007
78	0xb61ee4c9	-2.3677005e-06
79	0x1da5dfca	4.390653e-21
80	0x8006ce49	-6.25014e-40
81	0xba0ed10a	-0.00054480194
82	0x3b27f475	0.0025627885
83	0x3a49abbd	0.00076931325
84	0xbe35b37a	-0.17744246
85	0x3e8cb2e6	0.2748024
86	0x3d8105e0	0.06299949
87	0x3b4e8e9b	0.0031518105
88	0xbcce1c74	-0.025160052
89	0x3c204b56	0.0097835865
90	0x3d8b80ba	0.06811662
91	0xbbb09b89	-0.005389635
92	0xbdc8130c	-0.09769258
93	0xb2a4cfa5	-1.9186539e-08
94	0xa0b39e4e	-3.0428537e-19
95	0x801254f1	-1.68351e-39
96	0xb92d2c20	-0.00016515004
97	0xb54bc0ed	-7.5904137e-07
98	0x800c59a1	-1.134179e-39
99	0xb962469c	-0.00021579344
100	0xb8163aa9	-3.581742e-05
101	0xb3b97728	-8.636408e-08
102	0x3b6504df	0.003494553
103	0x3b8b961d	0.0042598383
104	0xbc9e3b0c	-0.019315265
105	0x3c35939a	0.011082554
106	0x3d8fe242	0.07025577
107	0xbc62acf1	-0.013835178
108	0xb14728ca	-2.8981497e-09
109	0x15b3782f	7.248714e-26
110	0x800f3a87	-1.398528e-39
111	0x91808f0f	-2.0283006e-28
112	0x001ee560	2.837349e-39
113	0x8007408b	-6.66002e-40
114	0x8b6c366b	-4.5492886e-32
115	0x00135f48	1.779055e-39
116	0x00176fc5	2.152312e-39
117	0x3c5dc1a6	0.013534939
118	0x3b92116e	0.004457644
119	0x3a04c1c1	0.0005064272
120	0xba64b37e	-0.0008724256
121	0xb88dfa80	-6.770063e-05
122	0xb0576963	-7.836631e-10
123	0xb59cd4b9	-1.1684816e-06
124	0x17ccdc8b	1.3238864e-24
125	0x80204dc4	-2.966633e-39
126	0xb8d2ec13	-0.000100575526
127	0xb409c373	-1.2830223e-07
128	0x0004e300	4.48774e-40
129	0xa086b8e5	-2.2822836e-19
130	0x9d49215e	-2.6619379e-21
131	0x9e95b9a4	-1.5852768e-20
132	0xbb163c82	-0.002292425
133	0x382d4377	4.1309246e-05
134	0x09b9f04e	4.476311e-33
135	0xba53ea2f	-0.00080839073
136	0xb6c46684	-5.8531896e-06
137	0x80295a51	-3.797655e-39
138	0xbbb388ec	-0.005478969
139	0xbc12a054	-0.008949358
140	0xbb598c93	-0.003319536
141	0xb00d09f7	-5.130966e-10
142	0x99e2a4b6	-2.3434379e-23
143	0x000a3068	9.3572e-40
144	0xb7eb6aaf	-2.8063861e-05
145	0xafedd9ad	-4.3264717e-10
146	0x001a95c3	2.441447e-39
147	0xbc07e289	-0.008293756
148	0x3bd66716	0.0065430505
149	0xbb18beef	-0.0023307165
150	0xb7c7cb98	-2.3817454e-05
151	0xaf336868	-1.6317048e-10
152	0x0003f1ef	3.62296e-40
153	0xb650d99a	-3.1121076e-06
154	0xa1f47a99	-1.6566534e-18
155	0x00058822	5.08013e-40
156	0x80085cd7	-7.67989e-40
157	0x00012dc4	1.08253e-40
158	0x80064763	-5.76622e-40
159	0xbba1bdf3	-0.004935974
160	0xbcc795e4	-0.024363466
161	0x3c0069ff	0.007837771
162	0xbba45c65	-0.005015897
163	0xbbd17403	-0.0063920035
164	0xbaa04eb8	-0.0012230491
165	0xb8bdf356	-9.057547e-05
166	0xb5771f7b	-9.206048e-07
167	0x00072c27	6.58687e-40
168	0x3c55d421	0.013051064
169	0x3e0065b9	0.12538804
170	0xbd817f66	-0.063231274
171	0xbb0bc439	-0.0021326675
172	0xbb920739	-0.0044564274
173	0xbb1a6678	-0.0023559611
174	0xb946a6b8	-0.00018944859
175	0xb6092dd9	-2.0441278e-06
176	0x802a1747	-3.865441e-39
177	0xb9be5877	-0.00036305535
178	0xb541eedb	-7.2245683e-07
179	0x8001ddfc	-1.71468e-40
180	0x3e1bf5a5	0.15230425
181	0x3bc143ab	0.005897959
182	0xc05322b2	-3.2989926
183	0xb7756a1a	-1.4627842e-05
184	0xad3f4c48	-1.0874031e-11
185	0x0013019a	1.745449e-39
186	0xbd0994c7	-0.03358915
187	0xbcc58bd8	-0.024114534
188	0xbc302801	-0.010751725
189	0xa1369a2e	-6.1868054e-19
190	0x0027f290	3.6686e-39
191	0x00001681	8.073e-42

bias f4 [64]
0	0x800429e8	-3.82375e-40
1	0x3c5eb317	0.013592503
2	0xbc8403f1	-0.01611516
3	0xbdb3e506	-0.08783917
4	0x800d0c9c	-1.198385e-39
5	0xbab994dd	-0.0014158745
6	0xbf156241	-0.5835305
7	0xbd3ce76d	-0.046119142
8	0x8002d00c	-2.58304e-40
9	0xa5f81f04	-4.304216e-16
10	0xbbe31ade	-0.006930693
11	0x0004cbdd	4.40474e-40
12	0x800202fb	-1.8474e-40
13	0xbbddf663	-0.0067737564
14	0x3c8e74cf	0.017389683
15	0x00023cd9	2.05499e-40
16	0x000e56e7	1.316872e-39
17	0xbb9014e5	-0.004397022
18	0xbc8f2a9a	-0.017476369
19	0x00059d18	5.15532e-40
20	0x801283ea	-1.700361e-39
21	0xb48e00d0	-2.6450152e-07
22	0xbb992464	-0.0046735276
23	0xbbe297e4	-0.0069150794
24	0xbe07a360	-0.13245916
25	0xbe071cfe	-0.13194653
26	0x00013bce	1.1329e-40
27	0xbb82438f	-0.003975339
28	0x3de6d4d0	0.112710595
29	0xbc55e6d8	-0.013055526
30	0xbf61494d	-0.88002473
31	0x00202a34	2.953876e-39
32	0xa990e1e8	-6.434073e-14
33	0xb50a976b	-5.162935e-07
34	0xbc57dcb6	-0.01317518
35	0xbc83b7d2	-0.016078863
36	0x801c791d	-2.614841e-39
37	0x001d6951	2.70101e-39
38	0x800f704b	-1.417816e-39
39	0xbc8ef118	-0.017448947
40	0xb59e7fc0	-1.1809097e-06
41	0x000d7d7a	1.238874e-39
42	0xa00c7745	-1.1897924e-19
43	0x9e890267	-1.4506433e-20
44	0x308ded7e	1.03266e-09
45	0xac8d544b	-4.0168194e-12
46	0xbca3be6e	-0.019988265
47	0x000c36a7	1.121632e-39
48	0x800bf748	-1.098898e-39
49	0xbc080c1f	-0.008303671
50	0x8ff2e0ca	-2.3949628e-29
51	0x000d613f	1.228747e-39
52	0x8016b470	-2.08511e-39
53	0xbc836528	-0.016039446
54	0x3b365e5a	0.0027827234
55	0xa8c747f1	-2.2124638e-14
56	0xbe519fa0	-0.20471048
57	0xbcb1e19a	-0.02171402
58	0xa4cf729e	-8.996611e-17
59	0xa611a4f1	-5.053052e-16
60	0x3f34705e	0.7048396
61	0x8009c649	-8.97651e-40
62	0xbc93ddff	-0.018050192
63	0x800f56e8	-1.408709e-39

weight f4 [64, 64]
0	0x0202524c	9.57451e-38
1	0x3866fe79	5.507327e-05
2	0x3295a291	1.741981e-08
3	0x31dddf90	6.4573626e-09
4	0x800e11a2	-1.292022e-39
5	0x318b7582	4.0587915e-09
6	0xbb37c854	-0.002804299
7	0xb9e4477b	-0.00043540806
8	0x001dee99	2.748822e-39
9	0x80f80870	-2.277823e-38
10	0x30cbbe39	1.4824258e-09
11	0x800aee38	-1.003812e-39
12	0x000478a7	4.10624e-40
13	0xb20d9aa6	-8.242443e-09
14	0xb4a162a8	-3.006037e-07
15	0x8204b923	-9.75096e-38
16	0x01467188	3.644831e-38
17	0xb14e928e	-3.0060252e-09
18	0x2f798930	2.2695157e-10
19	0x0006f832	6.40049e-40
20	0x00009fbc	5.7302e-41
21	0xa9a265fe	-7.211938e-14
22	0x801225c7	-1.666591e-39
23	0x81733780	-4.467187e-38
24	0xbb3fec55	-0.0029285152
25	0xba959264	-0.0011411426
26	0x00240d55	3.31086e-39
27	0xaece19bc	-9.372367e-11
28	0xba26c4c7	-0.00063617196
29	0x32763728	1.4331626e-08
30	0x38415935	4.6097866e-05
31	0x0008b2ec	7.98869e-40
32	0x0010db43	1.548024e-39
33	0x0ac554f4	1.9002366e-32
34	0x32f08f94	2.8004969e-08
35	0xb95f6bf8	-0.00021307159
36	0x801203d8	-1.654418e-39
37	0x02159ca2	1.0991743e-37
38	0x0282292a	1.912541e-37
39	0xb375c6bc	-5.7224256e-08
40	0x819c4c20	-5.7414584e-38
41	0x011f48ac	2.9255827e-38
42	0x001126a6	1.575068e-39
43	0x01d047e0	7.651027e-38
44	0x0206459c	9.864742e-38
45	0x001ef8ba	2.844291e-39
46	0xb09261fa	-1.0650745e-09
47	0x81b97a7c	-6.8134024e-38
48	0x821cd34d	-1.152171e-37
49	0xafb0bf1c	-3.2150005e-10
50	0x810c3cf8	-2.5757682e-38
51	0x80030efc	-2.80882e-40
52	0x02268208	1.2233071e-37
53	0xb2661cb6	-1.339429e-08
54	0x30b8832e	1.3425046e-09
55	0x0192c628	5.391627e-38
56	0xb9718069	-0.00023031388
57	0xaf435d1e	-1.7768229e-10
58	0x80101385	-1.47637e-39
59	0x80170748	-2.114828e-39
60	0xbb685dc8	-0.0035456289
61	0x80a766a8	-1.5373354e-38
62	0xafa6ecca	-3.0363473e-10
63	0x800dd0a4	-1.268708e-39
64	0x000689f0	6.00496e-40
65	0x3e85c1a8	0.2612431
66	0xba8e7580	-0.0010868758
67	0xbd3ec59d	-0.046575177
68	0x800341d9	-2.99128e-40
69	0x39bd7b5a	0.00036140793
70	0x3f09a97d	0.53774244
71	0xbbc3951a	-0.005968702
72	0x80097f35	-8.72153e-40
73	0x28307c05	9.796855e-15
74	0x3a335938	0.0006841603
75	0x80099cb5	-8.82735e-40
76	0x000972f9	8.67764e-40
77	0x3a5be143	0.00083877536
78	0x3ce6a3a0	0.028154194
79	0x8026ff10	-3.581248e-39
80	0x80130168	-1.745379e-39
81	0x3ba398e7	0.0049925926
82	0xbc09b474	-0.00840484
83	0x00122e1a	1.669577e-39
84	0x8010d94b	-1.547318e-39
85	0xb544e4d7	-7.3348696e-07
86	0x3b312f41	0.0027036222
87	0x39533582	0.00020142461
88	0x3ed427f9	0.41436747
89	0x3e1148a0	0.1418786
90	0x8003ac66	-3.37351e-40
91	0xba4d13d2	-0.0007823083
92	0x3d1bccde	0.038037173
93	0x3a2241d4	0.0006189619
94	0x3e6e2b15	0.23258622
95	0x0026b579	3.554849e-39
96	0x1b1e9ecb	1.3120762e-22
97	0x34596e9a	2.0249936e-07
98	0x3ae070b4	0.0017123432
99	0x3c55986d	0.013036829
100	0x0009c2aa	8.96352e-40
101	0x801e625d	-2.790351e-39
102	0x00058bbc	5.09305e-40
103	0x3ba5ade4	0.00505613
104	0x3255c423	1.2442828e-08
105	0x800c934a	-1.154863e-39
106	0x31772a02	3.596711e-09
107	0x1d2b2d0c	2.265495e-21
108	0x359874c3	1.1358865e-06
109	0x354ac9da	7.5544597e-07
110	0xbb692b7a	-0.0035578893
111	0x000a5da6	9.5195e-40
112	0x80067494	-5.92833e-40
113	0xbb167e88	-0.0022963602
114	0xaaaacf3f	-3.0341872e-13
115	0x80066048	-5.85552e-40
116	0x0006ee79	6.36561e-40
117	0x3bd12405	0.0063824677
118	0xbae45857	-0.0017421347
119	0x2318592d	8.25882e-18
120	0x3d6ba5f6	0.05753132
121	0x3be83cc7	0.0070873233
122	0x88bb32eb	-1.1266624e-33
123	0x34b3dc52	3.3501652e-07
124	0x3e6868e5	0.22696264
125	0x00089b5f	7.9042e-40
126	0xbc1a3c0d	-0.009413731
127	0x8000181f	-8.653e-42
128	0x01d55bf0	7.8375767e-38
129	0x0d7ff752	7.8875643e-31
130	0x0d1c8d5b	4.824136e-31
131	0x8b96a0a4	-5.8019603e-32
132	0x8011c306	-1.631165e-39
133	0x0a8eb63d	1.3742653e-32
134	0x0d93243c	9.068298e-31
135	0x0df261c9	1.4937942e-30
136	0x8018f123	-2.290555e-39
137	0x82783b7b	-1.8237232e-37
138	0x0b377ba8	3.5337547e-32
139	0x8021609f	-3.065232e-39
140	0x00004c73	2.7425e-41
141	0x0b1e0ecc	3.0440825e-32
142	0x0d21f806	4.9910503e-31
143	0x001b60cb	2.514281e-39
144	0x0013aef3	1.807634e-39
145	0x0d2f3bc7	5.3997993e-31
146	0x8bc5124e	-7.590918e-32
147	0x80232fa9	-3.23134e-39
148	0x81f7d260	-9.1035344e-38
149	0x83499872	-5.924359e-37
150	0x0007d20f	7.18203e-40
151	0x8010ceb7	-1.543523e-39
152	0x0db031ce	1.08588275e-30
153	0x0d8cc259	8.674954e-31
154	0x800665d6	-5.87545e-40
155	0x0c0e3bdc	1.0957295e-31
156	0x0d8efb11	8.811868e-31
157	0x0c576780	1.6594143e-31
158	0x0d8722f8	8.328436e-31
159	0x00021be7	1.9368e-40
160	0x000993ff	8.7961e-40
161	0x81a14694	-5.9243334e-38
162	0x0c999aa8	2.3666463e-31
163	0x0d1a1533	4.748043e-31
164	0x002275e7	3.164702e-39
165	0x0016a3df	2.079167e-39
166	0x8006d42d	-6.27127e-40
167	0x0cfff79c	3.9437995e-31
168	0x8012c128	-1.72233e-39
169	0x0014b50b	1.901656e-39
170	0x82526950	-1.5458587e-37
171	0x000b3f2a	1.03285e-39
172	0x00b0f1e0	1.6249816e-38
173	0x0005ae6c	5.21748e-40
174	0x0b7f11dd	4.9124652e-32
175	0x020f29f7	1.0518024e-37
176	0x00108f26	1.52072e-39
177	0x0a8b5776	1.3418112e-32
178	0x0016ad05	2.082449e-39
179	0x00181ee8	2.215139e-39
180	0x801fda48	-2.925205e-39
181	0x0bc5993c	7.61122e-32
182	0x0a90f8ca	1.396028e-32
183	0x80185af9	-2.236687e-39
184	0x0c49b670	1.5539377e-31
185	0x8a3aca38	-8.993607e-33
186	0x8020500d	-2.967453e-39
187	0x8002ce2d	-2.57633e-40
188	0x0d83fea2	8.134799e-31
189	0x80049867	-4.22014e-40
190	0x8bdceb7a	-8.5095223e-32
191	0x8020b38b	-3.003144e-39
192	0x8004cd77	-4.41049e-40
193	0x3f2cd9c2	0.6751977
194	0x3cb2131e	0.021737631
195	0x3c14f7e9	0.0090923095
196	0x0d2e41aa	5.369693e-31
197	0x3bbb800b	0.005722051
198	0xbe23a375	-0.15980323
199	0x3cc4570c	0.023967288
200	0x8010c9e7	-1.541797e-39
201	0x1b2dacc4	1.4366048e-22
202	0xb985eafa	-0.00025542808
203	0x000f30c3	1.395025e-39
204	0x8001c259	-1.61554e-40
205	0xbb5db446	-0.0033829375
206	0x3c8bbebf	0.017058728
207	0x80103989	-1.490008e-39
208	0x00087ddb	7.79832e-40
209	0x3c4256d0	0.011861518
210	0x3beaf8c0	0.0071707666
211	0x000d8511	1.241597e-39
212	0x002711e6	3.588005e-39
213	0xb199959a	-4.469894e-09
214	0x3b96d4fa	0.0046030255
215	0x3aeb6fcb	0.0017962394
216	0xbf3a48a3	-0.72767085
217	0x3d501bda	0.05080781
218	0x000714e1	6.50338e-40
219	0xbb33a8d0	-0.0027413853
220	0x3c082332	0.0083091725
221	0x3bd6ea2f	0.0065586786
222	0xbae561fc	-0.0017500515
223	0x0008e54d	8.16942e-40
224	0x17b23dce	1.1518582e-24
225	0x328f1ec3	1.666138e-08
226	0x3b332fb8	0.0027341675
227	0xbc8e4375	-0.01736615
228	0x00124a2d	1.679648e-39
229	0x000eeffc	1.371787e-39
230	0x00075243	6.72358e-40
231	0xbd11d3de	-0.035602443
232	0x30b3110f	1.3028812e-09
233	0x0013ad57	1.807057e-39
234	0x33e89b98	1.0831644e-07
235	0x1d19243a	2.026811e-21
236	0xb2747d5d	-1.4231174e-08
237	0x3784952a	1.5805086e-05
238	0x3bc96bda	0.00614689
239	0x9772e3d6	-7.8481987e-25
240	0x000f585b	1.409228e-39
241	0x3a8185e8	0.0009881826
242	0x8ef2e427	-5.987731e-30
243	0x8006f5c2	-6.39174e-40
244	0x0003d558	3.5204e-40
245	0x3c0dd8ba	0.008657629
246	0x3ba0c32a	0.004906078
247	0x0014e391	1.918345e-39
248	0xbb818c50	-0.003953494
249	0x3c2a242e	0.0103846025
250	0x0728b6e7	1.2692665e-34
251	0xa8d40e48	-2.3542922e-14
252	0x3eff9e25	0.49925342
253	0x800a5a8d	-9.50838e-40
254	0x3bfcaa64	0.007710742
255	0x0011ff64	1.65282e-39

bias f4 [64]
0	0xbb9fa378	-0.004871782
1	0xbe47a4bc	-0.19496435
2	0x0d565797	6.6049274e-31
3	0xbeab9fc4	-0.3352033
4	0xb88ab9da	-6.61497e-05
5	0x3ea66a3e	0.3250293
6	0x3fa724e2	1.3058131
7	0xbe551a79	-0.2081088
8	0x3d092a0f	0.033487376
9	0xbc391345	-0.011296098
10	0x9f55cff9	-4.5276535e-20
11	0xad1913af	-8.701414e-12
12	0xb958822d	-0.0002064786
13	0xb98d12bd	-0.00026907577
14	0x38d5457f	0.00010169576
15	0x0c813216	1.9905741e-31
16	0x9788834f	-8.821941e-25
17	0xb48c14b5	-2.6092098e-07
18	0xba95fd0c	-0.0011443212
19	0xbe21fa32	-0.15818098
20	0xbcd6b454	-0.026209034
21	0x9f8f411f	-6.067059e-20
22	0x3eab9541	0.3351231
23	0x4014d27d	2.3253472
24	0x9184d70c	-2.095846e-28
25	0x3e6d7282	0.23188213
26	0x184de6cb	2.661215e-24
27	0xbec05aa3	-0.3756915
28	0x800eb922	-1.35211e-39
29	0xbe9892c9	-0.29799488
30	0xbc3dbd7f	-0.011580824
31	0xb861a004	-5.3793206e-05
32	0x3e8aa63f	0.2707996
33	0xbd2e51bb	-0.042558413
34	0xa83ecbb6	-1.05912915e-14
35	0xb57dac5b	-9.4500655e-07
36	0xb705bd02	-7.971425e-06
37	0x3e31e563	0.1737266
38	0xbd1a6ca2	-0.037701257
39	0xa7fe32bf	-7.055418e-15
40	0xbddcc97b	-0.10780617
41	0x00125f0b	1.687134e-39
42	0x3e372bd2	0.1788781
43	0x850de92e	-6.6726165e-36
44	0x3c152ac4	0.009104434
45	0x962d8af8	-1.401868e-25
46	0x40287b07	2.632509
47	0xb25b2c1e	-1.2757509e-08
48	0xb106f65b	-1.9639603e-09
49	0x8021a49b	-3.08962e-39
50	0xbc08b97d	-0.008345005
51	0xbcd28f7a	-0.02570318
52	0x01b8d690	6.789881e-38
53	0x3f48557d	0.78255445
54	0xbf90e617	-1.1320218
55	0x80106aff	-1.507751e-39
56	0x80028e49	-2.34713e-40
57	0xb189720d	-4.000191e-09
58	0xbcc2634b	-0.023728987
59	0xbc2f0f9b	-0.010684873
60	0x0023f1b9	3.300956e-39
61	0xb79f13ed	-1.8963556e-05
62	0xbbbee6eb	-0.0058258674
63	0x3d97d877	0.07414334

weight f4 [64, 64]
0	0x0011cf93	1.635667e-39
1	0xad8f400f	-1.6285666e-11
2	0x800cfdbc	-1.193049e-39
3	0x8007fbe2	-7.33207e-40
4	0x000f42c9	1.40149e-39
5	0x81109287	-2.655375e-38
6	0x80075cbe	-6.76118e-40
7	0xa9857555	-5.9267404e-14
8	0x80066963	-5.88819e-40
9	0x001f74ee	2.888847e-39
10	0x000b1416	1.017396e-39
11	0x000ccbd0	1.17514e-39
12	0x80001fc7	-1.14e-41
13	0x01c87501	7.363629e-38
14	0x00165b2b	2.053086e-39
15	0x8017bb19	-2.179334e-39
16	0x0012d678	1.729976e-39
17	0x8188e1d4	-5.028256e-38
18	0x00139595	1.798534e-39
19	0x810ced17	-2.5884043e-38
20	0x800a2db3	-9.34749e-40
21	0x80173ab9	-2.133282e-39
22	0x00084eaa	7.62903e-40
23	0x800a3c78	-9.40047e-40
24	0x0001d846	1.6942e-40
25	0x0169b1aa	4.292281e-38
26	0x012585d8	3.0401742e-38
27	0x963b310c	-1.5121216e-25
28	0x001d9cf2	2.719531e-39
29	0x00184895	2.23009e-39
30	0x01dc964a	8.103089e-38
31	0x80037c9f	-3.20212e-40
32	0x8015f5cc	-2.016721e-39
33	0x0005485c	4.85135e-40
34	0x801f516d	-2.87611e-39
35	0x80001cbc	-1.0308e-41
36	0x80225a6c	-3.154844e-39
37	0x0021104b	3.036416e-39
38	0x002cdd41	4.120133e-39
39	0x8000ebdb	-8.4609e-41
40	0x0003a6a6	3.35289e-40
41	0x80016e1f	-1.3134e-40
42	0x9613589b	-1.1902524e-25
43	0x80b823a0	-1.6910511e-38
44	0x8007837f	-6.9002e-40
45	0x00118b1b	1.611105e-39
46	0x0020a26a	2.996999e-39
47	0x8021efde	-3.11662e-39
48	0x000ee361	1.367265e-39
49	0x8163315c	-4.172873e-38
50	0x001d0f2a	2.668669e-39
51	0x800babdc	-1.071842e-39
52	0x800ef313	-1.372896e-39
53	0x0016c228	2.090031e-39
54	0x00148cbe	1.887199e-39
55	0x0003f2ef	3.62655e-40
56	0x80025562	-2.143e-40
57	0x002cb25b	4.104744e-39
58	0x802667a6	-3.526931e-39
59	0x000c2d72	1.118329e-39
60	0x0007ac53	7.04667e-40
61	0x801ab336	-2.452012e-39
62	0x000ed24b	1.361136e-39
63	0x80099b11	-8.82147e-40
64	0x01d3c01c	7.778482e-38
65	0xb65cac07	-3.2882688e-06
66	0x01a56e7f	6.076998e-38
67	0x8016b6b2	-2.08592e-39
68	0x80d6e058	-1.9733276e-38
69	0x80e418d6	-2.0947403e-38
70	0x800a5711	-9.49589e-40
71	0xb4bfca7a	-3.5723843e-07
72	0x0002b836	2.49753e-40
73	0x01aa2166	6.249606e-38
74	0x816e4d10	-4.3768986e-38
75	0x818b4842	-5.116422e-38
76	0x81e0fffe	-8.2651935e-38
77	0x0086fac8	1.239592e-38
78	0x8251b10f	-1.5405708e-37
79	0x01934e0c	5.4111264e-38
80	0x029c6400	2.2979537e-37
81	0x010af4cd	2.5522233e-38
82	0x02bf2b44	2.808976e-37
83	0x0010d94a	1.547317e-39
84	0x0012a22b	1.711214e-39
85	0x8015c324	-1.998549e-39
86	0x001c80c5	2.617588e-39
87	0x000af305	1.005534e-39
88	0x80744500	-1.067767e-38
89	0x0008c40d	8.05014e-40
90	0x011fbaec	2.9337798e-38
91	0xaee3b10e	-1.0354216e-10
92	0x000a21a8	9.30429e-40
93	0x8001858d	-1.39744e-40
94	0x8004b71d	-4.3303e-40
95	0x00396778	5.271741e-39
96	0x8102ce3a	-2.402519e-38
97	0x00051774	4.67591e-40
98	0x81bd0320	-6.943212e-38
99	0x818b621c	-5.1201316e-38
100	0x01e161ee	8.279247e-38
101	0x8004d5a8	-4.43987e-40
102	0x8010adda	-1.531734e-39
103	0x01107f5c	2.654e-38
104	0x8085ed20	-1.2299185e-38
105	0x8003dfdf	-3.55816e-40
106	0xae3afb94	-4.251495e-11
107	0x81fff18e	-9.401882e-38
108	0x81b53cf6	-6.6576374e-38
109	0x01cc6b5a	7.5091807e-38
110	0x002386b1	3.26256e-39
111	0x00078ae8	6.92679e-40
112	0x80cc6ef0	-1.8774238e-38
113	0x8279ae8f	-1.8343727e-37
114	0x800e8a52	-1.335317e-39
115	0x0003b488	3.40269e-40
116	0x015e32dc	4.081145e-38
117	0x8000c623	-7.1078e-41
118	0x80001e35	-1.0836e-41
119	0x8251ba53	-1.5408367e-37
120	0x0072d850	1.0546845e-38
121	0x8027b1ba	-3.64534e-39
122	0x00256df3	3.437356e-39
123	0x800c4100	-1.125344e-39
124	0x00a79258	1.5389026e-38
125	0x00269519	3.543235e-39
126	0x81bc04b4	-6.906704e-38
127	0x001339ac	1.765563e-39
128	0x80089d12	-7.9103e-40
129	0xb71fc32c	-9.5225805e-06
130	0x00091daa	8.37161e-40
131	0x800140f3	-1.15135e-40
132	0x0016de2a	2.100078e-39
133	0x80088d2f	-7.85331e-40
134	0x000964f5	8.62736e-40
135	0xb5fad278	-1.8687706e-06
136	0x800d4dc5	-1.22176e-39
137	0x00016511	1.28091e-40
138	0x0114151c	2.7198452e-38
139	0x80036d87	-3.14797e-40
140	0x008f3bc8	1.3153921e-38
141	0x819fbe64	-5.868057e-38
142	0x8244b492	-1.4451627e-37
143	0x001556db	1.959703e-39
144	0x80017169	-1.3252e-40
145	0x01ba1288	6.83522e-38
146	0x80220ecd	-3.127716e-39
147	0x800aff4e	-1.009941e-39
148	0x800357b3	-3.06967e-40
149	0x001faa9a	2.9081e-39
150	0x00023ebb	2.06174e-40
151	0xa57861bf	-2.1543689e-16
152	0x80122aff	-1.668463e-39
153	0x0000b0d7	6.3438e-41
154	0x80c20c38	-1.782047e-38
155	0xb1737d62	-3.5432426e-09
156	0x8197b929	-5.573433e-38
157	0x0003327d	2.93618e-40
158	0x8026289b	-3.504315e-39
159	0x82264713	-1.2216151e-37
160	0x8028ee2f	-3.758864e-39
161	0x000bb707	1.075848e-39
162	0x0182705c	4.7915686e-38
163	0x01aa6724	6.2596137e-38
164	0x806a9180	-9.786758e-39
165	0x94a120b4	-1.6269745e-26
166	0x0015a3e8	1.987344e-39
167	0x803c67e0	-5.547393e-39
168	0x80891323	-1.2588328e-38
169	0x001bcb72	2.552541e-39
170	0xb216174e	-8.736448e-09
171	0x02571540	1.5801804e-37
172	0x801a7de2	-2.432881e-39
173	0x820ac7cf	-1.0195981e-37
174	0xa6ca9164	-1.4055974e-15
175	0x026d6878	1.7441991e-37
176	0x000f0947	1.38086e-39
177	0x81062354	-2.463726e-38
178	0x00137eaf	1.79032e-39
179	0x801c23c8	-2.58423e-39
180	0x0125854c	3.040135e-38
181	0x000106ab	9.4228e-41
182	0x0057e741	8.072646e-39
183	0x8008cac9	-8.0743e-40
184	0x80129c7a	-1.709172e-39
185	0x80261cb8	-3.500051e-39
186	0x80045604	-3.98199e-40
187	0x001679b2	2.064037e-39
188	0x8022e489	-3.20439e-39
189	0x8115435c	-2.7415306e-38
190	0x80056007	-4.93626e-40
191	0x000bee64	1.095709e-39
192	0x00213888	3.050851e-39
193	0xb49fb0ad	-2.9744606e-07
194	0x8022f1c8	-3.209142e-39
195	0x242af3cc	3.7069378e-17
196	0x172e4690	5.6311495e-25
197	0xa4386258	-3.998194e-17
198	0xb4c47959	-3.6596137e-07
199	0xaffb5928	-4.5719983e-10
200	0x24db7e71	9.519031e-17
201	0x22c49902	5.328791e-18
202	0x022f2ae0	1.2869274e-37
203	0x8003f31c	-3.62718e-40
204	0x13dfc22d	5.6484586e-27
205	0x01f5a6c4	9.0238083e-38
206	0x800a0338	-9.1951e-40
207	0x0204280a	9.709319e-38
208	0x81c54388	-7.2463274e-38
209	0x8121089c	-2.9577207e-38
210	0x9f76e63a	-5.2282965e-20
211	0xa492a600	-6.359862e-17
212	0x2514558c	1.2865938e-16
213	0x01642e80	4.1910348e-38
214	0xa75cd864	-3.0648439e-15
215	0xb92bfd01	-0.00016402082
216	0x029fef54	2.3500318e-37
217	0xa4a6acb7	-7.2283615e-17
218	0x0246243b	1.455714e-37
219	0xa4b390fe	-7.78745e-17
220	0x001e0200	2.755782e-39
221	0xa49bfc9b	-6.7648465e-17
222	0xa38dd178	-1.5375964e-17
223	0x1842030c	2.507545e-24
224	0x229a6bf3	4.185608e-18
225	0xa4aa8fa2	-7.396907e-17
226	0x81012300	-2.371867e-38
227	0x9f06df67	-2.8560398e-20
228	0x02562860	1.5733824e-37
229	0x2434769c	3.9131744e-17
230	0xa3e64a3a	-2.4968086e-17
231	0x822c9aba	-1.2680969e-37
232	0xa3ed51f5	-2.5730302e-17
233	0x00c757c0	1.8306743e-38
234	0xb2c1cc7d	-2.2561148e-08
235	0x0206cd83	9.903744e-38
236	0x97143465	-4.788751e-25
237	0x023de46c	1.3951081e-37
238	0xb892f5ac	-7.0075825e-05
239	0x80b9ee00	-1.7074945e-38
240	0x01cbde6c	7.488958e-38
241	0x822bafda	-1.2613563e-37
242	0x0004f3b9	4.54773e-40
243	0x238c9ce9	1.5245284e-17
244	0x01f77640	9.090315e-38
245	0x2683fd0a	9.158537e-16
246	0x23ba6192	2.0207483e-17
247	0x813b3c20	-3.4389613e-38
248	0x800e7374	-1.327114e-39
249	0x819bd780	-5.7247235e-38
250	0xa20f2118	-1.9397634e-18
251	0xa44529ee	-4.275308e-17
252	0x801ed310	-2.83078e-39
253	0x818189b6	-4.758472e-38
254	0x805f4a70	-8.751075e-39
255	0x23e3033a	2.4612756e-17

bias f4 [64]
0	0x800637da	-5.71049e-40
1	0x00264fcd	3.518376e-39
2	0x0006b91d	6.17419e-40
3	0xb5af73fa	-1.307227e-06
4	0x3de11b46	0.1099153
5	0x3f665376	0.899711
6	0xbe9278fa	-0.28607923
7	0xbb14a779	-0.002268283
8	0x3c9326f5	0.017962912
9	0x0009aea1	8.89165e-40
10	0xb42f02be	-1.6299143e-07
11	0xb2d1f9fc	-2.4444482e-08
12	0xab3caba2	-6.7029206e-13
13	0xbbcf02a8	-0.0063174553
14	0x0019603b	2.330408e-39
15	0x36a8f992	5.035844e-06
16	0x3d099367	0.03358784
17	0xbb043e58	-0.0020178761
18	0x000870f7	7.75208e-40
19	0x3dda5a0b	0.106617056
20	0xb5469837	-7.398225e-07
21	0x9c2b2f64	-5.6640405e-22
22	0x0004cdd3	4.41178e-40
23	0xbb4a745f	-0.0030892116
24	0x3aa7d7e6	0.0012805432
25	0xa73523ec	-2.513827e-15
26	0xae9ce956	-7.1355075e-11
27	0xb3acc199	-8.044589e-08
28	0x3be150e5	0.0068760985
29	0xb2839950	-1.5320126e-08
30	0xbbc646b7	-0.0060509103
31	0x000e433d	1.309817e-39
32	0x3d9a63d3	0.07538571
33	0x3216e73e	8.7837275e-09
34	0x3af4028d	0.0018616483
35	0xbc87bcfe	-0.01656961
36	0x8009a6b3	-8.8632e-40
37	0x3ed63425	0.41836658
38	0xb8eaf435	-0.000112034766
39	0xa4214257	-3.4967502e-17
40	0x324ab9b1	1.1800169e-08
41	0xb68ea9bd	-4.25169e-06
42	0x0012e1f0	1.73409e-39
43	0xbc1aa3c5	-0.00943846
44	0x3ce42f95	0.02785472
45	0xb4a7db2a	-3.1265637e-07
46	0xbbce57e4	-0.0062970985
47	0xba6e98d0	-0.00091017503
48	0x0ede94eb	5.4870628e-30
49	0x3b05fa79	0.0020443483
50	0x3d07c1a9	0.033143673
51	0x3f28d71e	0.6595324
52	0x000d9ae5	1.249427e-39
53	0xbb040ba0	-0.002014853
54	0x35a1d9c1	1.205881e-06
55	0xae95f201	-6.818724e-11
56	0xbc5a4b5f	-0.013323634
57	0xb8ca3c1f	-9.643309e-05
58	0xbb36f104	-0.0027914653
59	0xbb17cf22	-0.0023164232
60	0xbe973b7b	-0.29537567
61	0xb082bb1d	-9.511926e-10
62	0x8006ee06	-6.364e-40
63	0xbb7fc832	-0.0039029238

weight f4 [1, 64]
0	0xac114fe4	-2.0650088e-12
1	0x001891b2	2.256318e-39
2	0xad8c61df	-1.595962e-11
3	0xb97529fe	-0.00023380664
4	0xbeea0824	-0.45709336
5	0xbff88feb	-1.941892
6	0x3fc0f384	1.5074315
7	0x3c02ab28	0.007975377
8	0x3ea4f714	0.32219756
9	0x33cb2e40	9.461337e-08
10	0xb6547b54	-3.1662248e-06
11	0x3a72fdcd	0.00092693866
12	0x3a03273a	0.00050030986
13	0x3c68be57	0.014205537
14	0xa740b990	-2.6745946e-15
15	0x378f891b	1.7110773e-05
16	0x3ed38a98	0.41316676
17	0xba3ec172	-0.00072767504
18	0x308bfb6e	1.0185042e-09
19	0xbeb8c030	-0.36084127
20	0x34f6d9f2	4.5979647e-07
21	0x1aa5a918	6.8515586e-23
22	0xb00c15d6	-5.0962734e-10
23	0x3b400df5	0.0029305194
24	0x3b4c06e4	0.0031132037
25	0xb71e07f4	-9.419386e-06
26	0xb01649a0	-5.467431e-10
27	0x3a830daf	0.0009998585
28	0x3f1d88b5	0.61536723
29	0xb888cc66	-6.5230575e-05
30	0x3c7db718	0.0154855475
31	0x002e4093	4.247598e-39
32	0x3e7d5431	0.24739148
33	0xb2e16664	-2.624001e-08
34	0x3ab9d026	0.0014176413
35	0x39c4f0e4	0.0003756351
36	0x319884df	4.438888e-09
37	0xbfa5b5e5	-1.2946135
38	0x3b13a468	0.0022528414
39	0xb924eed8	-0.00015729235
40	0xb1061f0e	-1.951722e-09
41	0x39ba48f5	0.00035531042
42	0xaaac3568	-3.0590396e-13
43	0x3d84a15b	0.064760886
44	0x3f21cff6	0.6320795
45	0xb8db417e	-0.000104549326
46	0x3cb2b1a2	0.021813218
47	0x3ac3adc1	0.0014929102
48	0x0b10c0bd	2.787839e-32
49	0x3bea3f67	0.0071486714
50	0x3ee14a63	0.44002065
51	0xbfd24ea5	-1.643025
52	0xa7d40224	-5.884414e-15
53	0x3bc2a1ba	0.0059396895
54	0xb72b3093	-1.0203704e-05
55	0x388967c4	6.551997e-05
56	0x3bbe04d4	0.0057989154
57	0xb9aeb34b	-0.0003332145
58	0x3c170b7b	0.009219046
59	0xb97cd6e6	-0.00024112649
60	0xc0376de2	-2.8660817
61	0xb95d908b	-0.00021130049
62	0x1e8e5da0	1.5073557e-20
63	0x3be6154c	0.0070215818

weight f4 [1, 64]
0	0x242e6758	3.781777e-17
1	0x001a0d4f	2.392497e-39
2	0xb9fadbca	-0.0004784747
3	0xbab064a9	-0.0013457733
4	0xbe0f750f	-0.14009498
5	0xbe6f03b5	-0.23341258
6	0x3d44b038	0.048019618
7	0xbc799ea4	-0.015235577
8	0xbcfda533	-0.030962562
9	0x3094642d	1.0796889e-09
10	0xb770fbdf	-1.4363758e-05
11	0x3a5dc51a	0.00084598514
12	0xbb726d45	-0.00369914
13	0x3bf362c5	0.0074275457
14	0x31f94257	7.2543958e-09
15	0xb72937ae	-1.0086149e-05
16	0xbdddf906	-0.10838513
17	0x3a04f2ee	0.00050716
18	0xb58de632	-1.0572314e-06
19	0x3f5249b7	0.8214373
20	0xb70464e2	-7.891302e-06
21	0x9b8cc125	-2.3285874e-22
22	0x3727b08f	9.995084e-06
23	0xbc62e2f0	-0.013848051
24	0x3cac6141	0.021042468
25	0x38fd2d66	0.00012072436
26	0x2eae57f1	7.9282254e-11
27	0x3b32d20f	0.002728585
28	0x3e37a3ad	0.17933531
29	0x3a6cd0da	0.0009033807
30	0xbce4250e	-0.0278497
31	0xad15af36	-8.508574e-12
32	0xbe8f1ddc	-0.27952468
33	0x321c5f47	9.102059e-09
34	0xbcf79ee2	-0.030227128
35	0x3cb313ee	0.02186009
36	0xb59b51f6	-1.1572254e-06
37	0xbd1960b1	-0.037445728
38	0x3aa5944b	0.0012632696
39	0xb9cb289d	-0.00038749436
40	0xb441539c	-1.8004943e-07
41	0xb87799f1	-5.9032758e-05
42	0x32eccd02	2.7567243e-08
43	0xbcb27e99	-0.021788882
44	0xbcc2bed8	-0.023772642
45	0xba8b620b	-0.0010634077
46	0xbd103d81	-0.035214905
47	0xbc024159	-0.00795015
48	0x179807c2	9.824728e-25
49	0xbd198756	-0.037482582
50	0xbdd26ce4	-0.102746755
51	0xbdf684b4	-0.1203703
52	0x31046618	1.9266562e-09
53	0xbcb6a2e7	-0.022294475
54	0xb799dd21	-1.8341992e-05
55	0xb9916c1c	-0.00027737103
56	0x3c874094	0.016510285
57	0xb585782e	-9.944249e-07
58	0xbd08b817	-0.033378687
59	0x3a83b4f0	0.001004843
60	0xbe82a508	-0.25516534
61	0x3964d293	0.0002182222
62	0x2df5b4f6	2.7933638e-11
63	0xbb37d67f	-0.0028051434

weight f4 [1, 64]
0	0x3dcebbce	0.10094415
1	0x3dabe28c	0.0839282
2	0x3d9ce55c	0.07660934
3	0xbc856a20	-0.016285956
4	0xbdb3cc54	-0.08779207
5	0x3db90b9e	0.09035419
6	0xbcc9ac40	-0.024618268
7	0x3d7ff0d4	0.06248553
8	0x3d72a76c	0.059241697
9	0x3beff480	0.007322848
10	0xbd991254	-0.07474199
11	0xbdbdab60	-0.09261203
12	0x3d896268	0.06708223
13	0xbdd51514	-0.10404411
14	0x3dae4382	0.0850897
15	0x3de627d8	0.11238068
16	0xbd32560c	-0.043539092
17	0xbd4c404c	-0.049866006
18	0xbc303200	-0.010754108
19	0xbd506014	-0.050872877
20	0x3c7c2800	0.015390396
21	0xbd91e4aa	-0.07123692
22	0x3d7ea9c4	0.06217362
23	0xbd2d08b0	-0.042244613
24	0xbdf0acea	-0.11751731
25	0x3dae9eaa	0.085263565
26	0x3d72bd38	0.059262484
27	0x3d414d80	0.04719305
28	0xbd5d08c4	-0.053963438
29	0xbd76393c	-0.060113177
30	0xbdc54f06	-0.09634213
31	0xbd807f0a	-0.06274231
32	0xbd1e107c	-0.03858994
33	0xbde51b06	-0.11186795
34	0xbd06860c	-0.03284268
35	0xbd1e2eec	-0.038618967
36	0xbd2d32b4	-0.042284682
37	0x3c34ea50	0.011042193
38	0xbda5ab7c	-0.08089349
39	0x3dec2472	0.11530389
40	0x3dbb766e	0.09153448
41	0x3bef3340	0.0072998106
42	0xbd7533f0	-0.059863985
43	0x3d9a4d88	0.07534319
44	0xbd0de428	-0.034641415
45	0xbdab8172	-0.08374299
46	0x3b7ce1c0	0.0038586706
47	0xbd0ac000	-0.03387451
48	0xbd829082	-0.06375219
49	0xbd5ec348	-0.054385453
50	0xbd5f8820	-0.05457318
51	0x3cf5dfb8	0.030013904
52	0xbc862b78	-0.01637815
53	0xbd9f6060	-0.07782054
54	0x3dd3de54	0.1034514
55	0xbd45a42c	-0.04825227
56	0x3d90d6b4	0.07072201
57	0xbcd2f620	-0.025752127
58	0x3dd0fe14	0.102047116
59	0xbdf5bb68	-0.119986355
60	0x3d2b52a8	0.041826874
61	0x3d893182	0.06698896
62	0xbd8bf0e4	-0.068330556
63	0x3cb790c0	0.02240789

weight f4 [1, 64]
0	0x3ddd113a	0.10794301
1	0xbdcd9524	-0.10038212
2	0xbdc2de5a	-0.095150664
3	0x3d501190	0.050798
4	0xbd505d6c	-0.050870344
5	0xbddbee12	-0.10738768
6	0xbc6378d0	-0.013883784
7	0xbda31b8a	-0.07964237
8	0x3d206a54	0.039163902
9	0x3cbb0050	0.022827297
10	0xbdfffa88	-0.12498957
11	0xbd05e1cc	-0.03268604
12	0x3d4c6c14	0.04990776
13	0xbcaee7e8	-0.021350816
14	0xbd355590	-0.044271052
15	0x3db0387a	0.08604522
16	0xbd5df11c	-0.054185018
17	0x3cc94c90	0.02457264
18	0xbb4ea940	-0.0031533986
19	0x3d7de884	0.061989322
20	0xbdedcd0a	-0.11611374
21	0x3d4290e4	0.04750146
22	0x3ddcdd52	0.10784401
23	0x3db48246	0.0881391
24	0x3df9bdb0	0.12194383
25	0x3d7de18c	0.061982676
26	0xbde80fac	-0.11331114
27	0xbdcb0d30	-0.09914625
28	0x3d7fed18	0.06248197
29	0x3cbf5150	0.023354203
30	0x3d1741a0	0.03692782
31	0x3d970f6c	0.07375988
32	0x3da0e4b2	0.0785612
33	0xbdc44630	-0.095837
34	0xbc9a96c8	-0.018870726
35	0x3d211d20	0.039334416
36	0xbdc3e3dc	-0.09564945
37	0xbd128888	-0.035774738
38	0xbd35c3dc	-0.04437624
39	0xbdb5ab70	-0.0887059
40	0x3dd8aa48	0.105793536
41	0xbd93b986	-0.0721312
42	0xbca18798	-0.019717976
43	0x3d9e253c	0.07721946
44	0xbdfc7036	-0.1232609
45	0x3dad7a0e	0.08470546
46	0x3d9fe944	0.07808164
47	0x3cef0648	0.0291778
48	0xbdefd03e	-0.11709641
49	0x3ddceb26	0.107870385
50	0x3dd93dea	0.10607512
51	0x3d0f05c0	0.034917593
52	0x3dbfa114	0.09356895
53	0x3deb3594	0.114848286
54	0x3dd3320e	0.103122815
55	0xbddf53b8	-0.1090464
56	0xbce066b8	-0.02739273
57	0xbceb27c8	-0.028705493
58	0x3d7217a8	0.05910459
59	0xbd95d552	-0.07316078
60	0x3dbc930c	0.092077345
61	0xbdc975ca	-0.098369196
62	0xbdaa8982	-0.08327009
63	0x3d2f8e40	0.04286027
