pth/EM_model_step1_loss_60.62514379458675.pt (torch, 5506 bytes, 9 tensors)

alpha_r f8 []
000000 b5 eb 2d e7 52 5c ef bf
       -0.9800200000021194

beta_r f8 []
000000 9a 99 99 99 99 99 c9 3f
       0.2

alpha_u f8 []
000000 00 00 00 00 00 00 f0 3f
       1.0

beta_u f8 []
000000 9a 99 99 99 99 99 d9 3f
       0.4

gamma f8 []
000000 9a 99 99 99 99 99 b9 3f
       0.1

theta f8 []
000000 7b 14 ae 47 e1 7a 94 3f
       0.02

_lambda f8 []
000000 00 00 00 00 00 00 04 40
       2.5

d f8 []
000000 00 00 00 00 00 00 18 40
       6.0

r f8 [1, 200]
000000 b0 97 08 78 bf 31 f2 3f 7c 59 74 8a c7 f7 bd bf
       1.1371454895793072 -0.11706206445919592
000010 0d 84 b7 95 65 be d3 3f ac bc 2f 24 6e 69 10 c0
       0.30849589939867955 -4.102959218419681
000020 c3 2a d8 f3 30 89 e3 3f 6b 03 72 28 6a ce 17 40
       0.6104969751916872 5.9515768355930545
000030 29 b3 9b 0b fd 12 06 40 cc 64 62 35 9c b5 d8 bf
       2.75927170819195 -0.38608460629764063
000040 24 40 1c 50 24 56 c9 bf 90 66 4c 4b f7 23 da bf
       -0.19794134055746426 -0.40844518998492507
000050 9f 4d a0 12 cb 87 e9 3f 12 26 3f 26 d7 6b 0f 40
       0.7978263248245873 3.927656458665987
000060 d8 59 98 b5 c6 37 06 40 06 e0 80 f2 34 72 e6 bf
       2.777234476768381 -0.7014412628550424
000070 9a dd 0e f9 c1 45 0e 40 18 fb 9a 4e c0 19 fa 3f
       3.7840613801633483 1.6312869139216613
000080 58 ff d2 08 7c b3 cd bf fb 20 e1 cd 52 0e e0 3f
       -0.2320399325453717 0.5017484685022561
000090 2c 86 34 59 dd 75 fe 3f 26 83 bc 0d d0 93 05 c0
       1.9037755474640887 -2.6971741746096027
0000a0 80 b7 77 2d d0 53 0e 40 ae 03 86 41 8f 1a ed bf
       3.790924411025969 -0.9094921378856407
0000b0 16 da 2c ef f4 69 02 40 80 ce fb b4 2b 33 82 3f
       2.301736706310531 0.008886662922555688
0000c0 fa 5b 4d 32 37 58 04 40 36 1b 87 55 fc 6f 00 40
       2.543074028955286 2.05468050783693
0000d0 22 e2 39 7e 0f 48 e9 bf a6 d3 1f 34 a2 2f f4 3f
       -0.7900464501718185 1.2616292987924935
0000e0 82 da 26 0a e2 a6 c7 bf f6 60 11 85 e3 d8 cb 3f
       -0.18478036399547554 0.217556419348291
0000f0 ba f9 e0 bb c1 9e d1 bf 80 55 da 11 8f 53 8c bf
       -0.27531474444904414 -0.013831250889135616
000100 fc d0 cb ac f6 3b f7 bf 3b 0f c0 3d 16 11 ec 3f
       -1.4521395444726855 0.8770858007487513
000110 08 6a 03 5a 04 32 f4 3f ca 0b ad 37 2c 4a 09 c0
       1.2622111812730754 -3.1612171506580795
000120 cc 01 ef 87 18 b5 e6 bf 08 6e 05 46 c4 0e f5 3f
       -0.709606423850397 1.3161051497653506
000130 ee 59 16 96 c9 84 f3 3f fe d5 9a f6 5e 35 e6 bf
       1.2199188101563965 -0.6940150085926573
000140 04 9c 9d 92 59 f2 f6 3f e9 26 3d 20 fb 49 f4 bf
       1.4341674544500629 -1.2680617579775861
000150 23 dd 02 98 70 97 f7 3f c4 ab 40 ff e4 c6 d6 bf
       1.4744726121842369 -0.35588955809606326
000160 3c 5d bb c3 31 ba f2 bf ad 85 68 63 62 db 04 40
       -1.17045761544962 2.6071212545654903
000170 2c 55 d5 17 9b fe f1 3f 21 17 9e 2d 16 d8 d3 bf
       1.1246596270551192 -0.3100638814433854
000180 8c f4 d6 fe 21 66 d2 3f 7e 85 82 9c 8c aa 0b 40
       0.287483691088547 3.458276007397841
000190 38 a3 4f b2 02 ad f5 3f c2 18 f3 9c fc 18 f3 bf
       1.3547388997341852 -1.1936002856105437
0001a0 18 65 b1 c9 1a 01 d8 bf 15 00 60 1e ab 90 f7 3f
       -0.375067421880503 1.472819441463803
0001b0 e7 ba 47 4e 59 f2 d2 3f 3f 73 1e be 31 2d d5 3f
       0.2960417999701534 0.33088344160369226
0001c0 a7 ff ae 86 b8 2b fc bf 67 07 1c 68 43 45 f2 bf
       -1.7606740246846841 -1.1419099871422647
0001d0 12 88 61 c0 fe 40 05 40 d0 8f 49 45 03 25 ee bf
       2.65673589990275 -0.9420181611317222
0001e0 80 f5 c0 15 98 18 d1 bf d8 c7 37 9e 22 27 b7 3f
       -0.2671261036337782 0.09044090616933376
0001f0 99 2f 6f 08 d1 19 fb 3f 7a 77 24 c6 1f 02 e5 bf
       1.6938028649774195 -0.656509291645974
000200 00 82 3f 20 ec 4a 01 40 ee 7a 7d d1 4e e5 ca 3f
       2.1615831870442435 0.21012292126666615
000210 64 e9 c0 c2 12 e1 ef bf 7c 9a 92 2d 11 63 04 40
       -0.9962247661381238 2.5483726082196068
000220 9c e9 1a 00 93 b9 c1 bf eb 5d 32 99 2f 97 f8 bf
       -0.13847577576764258 -1.5369106277702211
000230 8c 28 e6 25 47 b7 cb 3f 98 b1 34 2f 87 e0 bf 3f
       0.2165306983045564 0.1245197763680096
000240 59 83 8b 36 a2 1d e2 bf e0 8c 59 a2 fa 91 00 40
       -0.5661173882800582 2.0712788280085164
000250 f0 e6 c2 45 f4 58 e2 bf 9c 36 00 87 85 a9 cc bf
       -0.5733586657072163 -0.22392338840329706
000260 b2 53 ca 54 6d e4 f3 bf 21 b2 ff 1d 7d f1 e9 3f
       -1.2432683288691178 0.8107286058344166
000270 6e d2 e4 d0 09 4c f3 3f f2 86 bf 3e d5 ea e9 3f
       1.206064048759028 0.8099161363172398
000280 ff 08 79 0c 23 8d cc 3f 87 c2 b2 63 eb ee f1 bf
       0.22305715664885636 -1.1208299536193935
000290 86 ff 62 87 75 76 00 40 c0 a5 a8 bb 27 98 93 3f
       2.0578413559996447 0.019135113552840144
0002a0 80 d5 e8 c5 ee 84 a8 3f db c6 eb 5d 68 08 ea 3f
       0.04788919607055231 0.8135263285059539
0002b0 92 6c 78 36 50 ec f7 3f db 6d 94 1b 1f 89 f2 bf
       1.49519368436339 -1.1584769322715747
0002c0 2d 17 dd 08 02 79 e5 3f 1b 6b 63 d8 f6 ad fc 3f
       0.6710214779966229 1.7924717381162683
0002d0 fc 29 26 a8 4b fc bc bf 6b dc 58 0c 53 59 ea 3f
       -0.11322472434236625 0.8234038582949216
0002e0 1e 04 67 c7 34 d7 e7 bf 1d dd 87 a5 46 5d e2 bf
       -0.7450202841356519 -0.5738862259885625
0002f0 c6 14 e1 66 6c 25 f5 3f a6 68 0c 82 03 e7 d5 3f
       1.321636583206144 0.3422249574665649
000300 3e 8d eb 87 a3 ad f7 3f 38 78 de 1e da 87 03 c0
       1.4798922833804933 -2.4413340007440887
000310 92 dc c8 a8 e2 df fe 3f 36 8e 0a 71 f7 90 01 c0
       1.929659518542199 -2.195784457335118
000320 30 57 14 e2 f5 07 ec bf f7 e2 dc 9f 83 18 e4 3f
       -0.8759717383970607 0.6279924509354647
000330 04 60 8b 05 d0 08 f2 3f 38 0c d7 d9 c2 1d f2 bf
       1.127151509912438 -1.132265902459734
000340 c6 ac a4 a0 24 b7 f3 3f f8 4b 51 08 d0 3c a1 3f
       1.2322126650931735 0.0336670885232237
000350 9f b4 72 1a 16 ef 16 40 09 08 85 29 12 ae 0b 40
       5.733482754946777 3.459995579120918
000360 7b 8b 9f 4d d0 77 0d 40 47 a3 ec bc ce 9a ea 3f
       3.683502775603697 0.8313974084786445
000370 4c ea 90 c1 4a a6 ff 3f ae 4d 85 84 c5 8f 00 40
       1.9780986367392357 2.0702009537869435
000380 c0 e9 92 77 ac 4b 17 40 b0 53 33 87 87 38 0d 40
       5.823900097219337 3.65260224938762
000390 71 51 cd 87 1c 55 e6 3f 00 68 fa cf 8a 31 cc bf
       0.6978895809539108 -0.2202619090574558
0003a0 06 00 47 6c 9e 1e e7 bf 39 b7 a5 12 30 62 ea 3f
       -0.7224876513282659 0.8244858135419469
0003b0 45 2b 7b 32 06 db f1 3f 29 2a 9d dd 66 fa f6 3f
       1.1159727069777585 1.4361332566064766
0003c0 45 b2 92 62 4e 54 f6 bf df cc 45 25 b5 5a f0 3f
       -1.395582566309842 1.0221454101527383
0003d0 2a fc f4 5c 75 2e c3 3f 45 a5 cf 9f 98 97 f0 3f
       0.14985529936709102 1.0370107882138921
0003e0 49 5a 1c c1 64 bf ea bf 3c e0 72 36 b2 f8 f5 3f
       -0.835863473100127 1.373216831865661
0003f0 e2 68 3a 16 cf 2b 07 c0 35 1a 29 fa 9d e5 d3 3f
       -2.8963910805297113 0.31088971547834215
000400 60 bb 41 83 d2 67 f8 3f 3a 07 0b 96 40 dd cc 3f
       1.525347244951 0.22550208402940958
000410 1c 93 2b 69 4d df 05 40 0e 20 5d 18 7f f7 de 3f
       2.7340343681738783 0.48385598544382524
000420 b6 35 27 e8 ec 4e f7 3f 6c a2 9a 46 da 10 03 c0
       1.456768900726599 -2.38322882804305
000430 66 40 ec 02 bf a5 f3 3f a3 15 7f bc 89 0f 05 40
       1.2279653658079268 2.632586929920494
000440 c4 91 07 29 b4 85 e3 bf 69 e5 bd e7 85 00 ee 3f
       -0.6100712586745023 0.9375638509947467
000450 8e 87 aa 6a 58 3d 03 c0 40 41 22 2b c3 e7 09 40
       -2.4049537976542927 3.2381652231053124
000460 bf 10 5c 15 f4 25 06 40 64 16 90 aa 51 c8 00 40
       2.768531958458055 2.0978120160314564
000470 9f 7a 50 27 e7 44 e4 3f 72 88 7a 69 d0 c5 ff 3f
       0.6334110038622675 1.9857944603213835
000480 57 9b d6 ff 8c a7 e7 3f ee 03 34 f6 1d 76 db bf
       0.7392029759256314 -0.42908429187087804
000490 e0 7c ef c9 b4 81 97 3f ba db 67 d0 2c 7a f9 3f
       0.02295572741047358 1.5923278942916412
0004a0 e0 ca 11 a0 b2 82 fb 3f 1d 73 b7 fe cb 35 e4 bf
       1.7194086315836827 -0.6315669989522551
0004b0 d0 1f 56 05 0e e9 ec 3f ed 65 70 b2 a0 3b e3 3f
       0.9034490684725771 0.6010287747514532
0004c0 ba a1 15 dd 39 5e d2 3f f6 20 ec c2 16 e3 c3 bf
       0.2870011004474936 -0.15536770360655056
0004d0 f0 e6 08 7f d5 2c a0 3f 30 a2 bd 4d 6c 26 e4 3f
       0.03159205604283766 0.6296903150915281
0004e0 10 18 a7 8e 29 f4 f2 3f 30 c7 65 ba 33 ca b6 bf
       1.1846099445697327 -0.08902285862657489
0004f0 64 e3 77 3e b1 84 e7 3f 0e 3a 41 63 38 94 01 40
       0.734947797783303 2.1973731760292656
000500 ec 99 c0 16 6e b2 0d 40 c9 43 54 72 62 58 07 40
       3.712124040367817 2.9181565219846317
000510 c3 fc dc c8 3b 64 fd bf 00 d0 d0 13 dd d1 01 40
       -1.8369710775585169 2.2274724529361265
000520 f8 e1 8d 06 f3 dd 05 40 54 7a 55 5b cd a7 00 40
       2.733373690800587 2.0819346557102936
000530 ad 26 1c 32 6b 23 16 40 ac 40 64 bb 7f ae c1 3f
       5.53458860680409 0.13813778543454214
000540 b4 1f b0 75 61 a6 c1 3f fe 64 c7 75 3d 05 d6 bf
       0.13789003607257444 -0.3440698290047094
000550 21 ce 7b 7e 45 24 d4 bf a2 bc 0e 30 f2 c9 d0 3f
       -0.31471383430400307 0.2623258084594885
000560 f4 28 c9 d6 4f 0c fc 3f 95 f8 74 ba b6 27 ee 3f
       1.7530058279103828 0.9423478738533669
000570 e4 e7 0d 43 55 4a ee bf f3 d9 be 03 76 84 03 40
       -0.9465738591818504 2.4396782200449194
000580 ce df ce d5 dc 46 f8 3f 20 ca 68 c3 ab f3 06 40
       1.5173004485968593 2.8689799562792047
000590 0a f7 db 84 b0 25 fe 3f 1d 09 8c 0c 5e c6 04 40
       1.8842015447439189 2.596859071754024
0005a0 36 4c e0 1f 55 3d fe 3f 1d 89 b3 c9 49 b0 f0 bf
       1.8899737591898549 -1.0430391196210345
0005b0 8d ff 19 98 fc c3 f7 bf a4 08 0e f5 29 a9 ed 3f
       -1.485348314425184 0.9268998895861569
0005c0 03 8e 7e 3b 39 0a f9 3f dd 28 d4 34 b0 f1 fe 3f
       1.5649959873197765 1.9340059341071119
0005d0 7c 27 30 e8 7d b7 e4 3f f4 3c 3c e4 a6 07 f8 3f
       0.6473989043163182 1.5018681445542912
0005e0 8e 15 15 5a 86 6c ed 3f fe 8b e7 d1 07 5b e7 3f
       0.9194976577206704 0.7298621272751686
0005f0 85 81 b6 4b f5 db e0 3f 1a ee 37 9d c9 56 e1 3f
       0.5268503645675514 0.5418441839860322
000600 1e 77 fc 5b 1a 2a e9 bf 2d fd 1b 48 0b 30 03 40
       -0.7863895222287487 2.39845901809135
000610 b2 0e e6 7d 60 43 d2 bf 7a cc 73 b9 d2 5f cd 3f
       -0.28536236090460954 0.2294867902306555
000620 20 36 37 1d 80 0f f8 3f 1d ee 44 00 53 54 13 40
       1.5037842885243506 4.8323478738853085
000630 b4 ca ac e9 b1 88 d8 bf fe b1 90 aa a8 6e 05 40
       -0.3833431989652738 2.679032642880201
