pth/EM_model_step1_loss_-781.9552189371047.pt (torch, 84998 bytes, 19 tensors)

alpha_r f8 []
00000000: a2fa fdfb 8c0b c73f
0.1800400000028804

beta_r f8 []
00000000: 9a99 9999 9999 c93f
0.2

alpha_u f8 []
00000000: ede4 98d8 7c5c ef3f
0.9800400000014214

beta_u f8 []
00000000: 5740 cb4a 9352 d83f
0.3800400000009225

gamma f8 []
00000000: bce9 615e 807d b43f
0.08004000000247563

theta f8 []
00000000: 0042 a3a4 b5f8 043f
4.00000031547422e-05

_lambda f8 []
00000000: 0000 0000 0000 0440
2.5

d f8 []
00000000: 0000 0000 0000 1840
6.0

r f8 [1, 505]
00000000: fdc4 ff71 5550 a3bf a0fb 76d9 eb39 00c0
00000010: 864a 171c 9c94 efbf 2db4 5551 09a6 f43f
00000020: 7c87 f60b aac2 ff3f ccc7 cedc 74d7 edbf
00000030: 13a6 8b1c 93bd ecbf 7125 68b4 1450 d2bf
00000040: fb17 0909 5ba4 e4bf 6e88 21a6 636b f0bf
00000050: f752 90c1 9fd5 f73f 9c8d de29 eb03 c63f
00000060: eccf c3bb 4ccd e03f ac12 f8fc 741c fb3f
00000070: 39f0 4c89 0b80 e3bf a603 4783 b13d d23f
00000080: 49f4 940d 1fc5 f7bf c1f0 330e 14f6 f7bf
00000090: e227 94da c0ed f03f 20d6 ce2b 2911 f7bf
000000a0: ccfc 7dd5 c103 f73f 56b9 799d 16a3 f93f
000000b0: 6641 02df 1384 ddbf f585 3f0a b145 f23f
000000c0: 7fb8 418d 8646 d8bf 4624 5803 d429 debf
000000d0: fcae e239 4df4 f23f f045 8626 4069 6abf
000000e0: 1ebd bd33 ac1f f13f 75aa e2cd 42f0 dc3f
000000f0: 55bc 742f 18b1 c63f 157b bf23 dcdb a1bf
00000100: f8c6 3c02 6a2b bebf cfb1 7e05 46c1 e53f
00000110: d5cd c65b bf3b a1bf becc 237c bd97 d33f
00000120: e720 125a bbc0 b5bf 09e7 3e60 18f7 c4bf
00000130: ef23 054a dbfe d4bf c22a 3905 dabf e53f
00000140: db45 9e40 c51d e0bf 5c14 998c b92a dfbf
00000150: 3668 6e6d 29fd c03f 5c21 c05d 652a f9bf
00000160: 07e5 c724 5203 dc3f 7b11 c410 561d febf
00000170: 2c92 1304 fa3c cbbf c372 4316 ab5f f63f
00000180: 8532 42a3 3a92 e5bf 66e2 f772 5f07 f83f
00000190: 6601 8e1b 6394 d7bf 3222 69bb 4d96 f53f
000001a0: 8928 d255 6b4d e1bf 46b8 71e0 a2ef ef3f
000001b0: af9a f490 fb86 c8bf e10d c0cf 05cd e5bf
000001c0: 3f7a c2d1 62d9 f9bf 6ffe 4f0a 7ce2 d0bf
000001d0: f76f 4248 42d2 d03f 3f12 18b7 dbb9 f53f
000001e0: d523 f869 c93b efbf 2dc0 7be3 7829 dcbf
000001f0: cc76 c309 5911 d93f 4f3b 3358 b577 e73f
00000200: 3e52 9b26 6a49 cdbf 8aa8 5a7f 150d d33f
00000210: 0eeb be61 1ba8 df3f 619f c533 b079 e23f
00000220: 67d7 0739 a344 e0bf 9a34 3500 3226 c73f
00000230: 3261 ce28 f647 e23f 017a a559 2b1d b6bf
00000240: 4996 d97c 3e15 f4bf 5cb1 81fb 9865 f03f
00000250: b190 bde0 d407 c5bf 1dad 5fd6 cc10 e23f
00000260: 1e90 8ab5 7ebe d03f 12b5 c458 9aff cf3f
00000270: 4c2d 2849 4b69 ddbf 428f cdfb bdaa d33f
00000280: cd6a f440 4890 dabf 7e41 bf0a d6fb f1bf
00000290: 87d6 eb37 c364 f33f 4048 79bd 9be2 d43f
000002a0: 0454 c813 5f04 f5bf 9376 d6b7 f9a4 dfbf
000002b0: 000f 7f21 29cd da3f 1df1 b554 f1e4 f73f
000002c0: 1469 6716 a612 e2bf 9759 4cc9 c2f2 d4bf
000002d0: 71b1 2293 3e53 a1bf 918b 9375 7123 f33f
000002e0: 8f4c c744 43d4 b53f 0f42 ea71 7da5 d53f
000002f0: a937 cb08 f646 b2bf 7585 dc41 246f babf
00000300: 02c3 41e9 819a d03f 173a cbac d3ba cfbf
00000310: 2771 e54f 6841 f2bf e025 56d4 a244 f03f
00000320: 389c c7d9 49fe c1bf eff1 e25d c66f e6bf
00000330: fb04 cf0e 9f40 cd3f 9cfd c62e f6a6 bcbf
00000340: c931 5535 ad18 ce3f 6f1d e3b0 e29e eebf
00000350: 3b0a f2fa 3866 c4bf 9d8a 8953 aafd e6bf
00000360: 9a49 4003 0ac5 a73f 526b 91c7 9561 f53f
00000370: ded6 aca8 e2b1 c83f a3cd 0f57 28d6 e8bf
00000380: 8264 9727 276a e0bf dff5 c32c 5a34 e43f
00000390: 2ec3 b008 5b1e cc3f 2a7c b977 0895 f13f
000003a0: fb72 02dd 23d5 e2bf 2abc 0f9e 86a4 e53f
000003b0: 6394 f707 7110 b23f b59f 1bc2 831c eabf
000003c0: fc84 cdb9 3a1e d5bf cac2 e956 eeea a2bf
000003d0: fb9e a9d7 cf92 02c0 8125 5a10 61e1 d23f
000003e0: ffa5 6bb4 30a1 e83f 95b3 b970 2c80 a1bf
000003f0: d033 0802 086d dbbf 2299 8124 e997 e53f
00000400: bdbe 6f09 1291 fdbf 8cd9 332c e610 d03f
00000410: 4301 b69a 20e8 f53f 3328 28b6 caa5 f33f
00000420: 8069 7db8 50a0 df3f 9cb8 a6ab 47e1 b4bf
00000430: 65c9 6f92 b775 ec3f a49c 263a c06c bf3f
00000440: 3a61 5e0d 96e8 b53f 44fe 3725 1b44 debf
00000450: 5b67 419b 1ff5 d0bf 667e b5b2 cb27 e4bf
00000460: 7df1 6a05 ec00 f3bf a58e a2b0 c381 e4bf
00000470: 2220 4c46 cefd f53f d292 3f45 27fd e93f
00000480: be9a 0f3e f1c7 693f 8a2f 8f0c d921 d0bf
00000490: b03b 62dc 5494 d3bf 6371 4b84 3df4 cfbf
000004a0: f1f3 b553 c51e d63f e2ab 009e d387 ebbf
000004b0: bdf5 27c7 d26a d4bf beb3 83ab 9bbd f63f
000004c0: c96a d0ca ebf7 f0bf 9edd cc87 e2fc ba3f
000004d0: 889a e207 d21c c2bf c129 7611 4ac8 db3f
000004e0: e227 c0ab 6f81 e23f deca b899 73a5 d2bf
000004f0: 0ff5 4f8d 1350 edbf 06cf 7330 44bb 02c0
00000500: 02b0 c287 8546 0cc0 db24 48d6 9d7e 11c0
00000510: b340 0f82 1402 f8bf f7fb 6a07 7553 1140
00000520: c040 1a76 f491 0540 347c ab1d 1c4b b13f
00000530: 30fa e385 6acc edbf 4972 1bb3 9b41 0ac0
00000540: 1b1f 928a 4c3d 0040 2c0a 6eef 608b c03f
00000550: eb80 542e aa37 fbbf eed8 3f94 6b44 0640
00000560: c673 a17c c7ac f8bf 9212 f6c0 eabd e23f
00000570: 92be 72db dedd df3f ba18 975f 5f0b ddbf
00000580: f09d 8625 28c8 f63f 8887 418f a5e9 ee3f
00000590: 7ed4 9949 3f30 d2bf f22f 7686 9aa7 fcbf
000005a0: 544a 0b23 3a1f e03f efb2 606e 07df f5bf
000005b0: 60a9 6298 4c19 cdbf a421 5193 36e2 d7bf
000005c0: 1942 77c7 ac76 aabf e5f1 59ad efc8 06c0
000005d0: 9fe6 c54b ff82 c13f 875b b0b9 24ef 0040
000005e0: 4575 72c4 6409 cc3f 94e7 d710 a96a f93f
000005f0: 77d7 259b 943c 0040 ecdc f2c1 c17b d9bf
00000600: 7130 1128 d288 ec3f 668f d0d6 6250 ef3f
00000610: a64a 6e0a 1299 b43f 518a 34b6 fa1d c23f
00000620: fc57 a262 ad3c e8bf bbc9 7876 4cbf e0bf
00000630: c580 f253 f25e fa3f b3ae 7257 c83a e03f
00000640: 4e35 dd71 59bd 9e3f 4805 8b79 552f c4bf
00000650: a96b f729 98af e4bf 5463 f736 a485 fd3f
00000660: fddd a37f 8f95 f33f 2b83 e6cf 742c cbbf
00000670: b625 12d1 9923 d2bf 3943 29b5 9405 f53f
00000680: 09cd 6e1e f78d a9bf 201e bdc6 6814 e1bf
00000690: 0e6f 4db3 ed14 f53f 8120 b93f e65f d33f
000006a0: 739f 9f85 c02d d9bf 58f8 5358 d614 c0bf
000006b0: ca40 3a62 84bf a3bf a8af 139c ac70 f1bf
000006c0: deb2 063a d474 c53f 9f42 dd96 ffec d6bf
000006d0: 8bc8 0e52 f5d6 f8bf 26c9 7cb0 08e6 f3bf
000006e0: 7eb4 3d11 e575 fa3f ce65 9820 3e06 c3bf
000006f0: 1d33 f67a 3db2 fc3f 7b47 dd3c bae7 bfbf
00000700: c5b9 8503 470f db3f c2c1 e450 228a c1bf
00000710: 36d6 23f3 675b c13f 9fe0 dd32 7c59 8dbf
00000720: d1cf fe4c 0ddd b03f 55b2 e9bb e47a e0bf
00000730: 57a5 fbf8 95f6 f23f 3c99 0295 d085 f3bf
00000740: 1220 0829 1e85 f9bf a4f4 f84e b438 0240
00000750: 3aaf 12eb c3d1 e8bf 438f 9ac1 a40b e7bf
00000760: bf7e 6d96 1d7b ebbf 2736 dc90 81fa cf3f
00000770: 5da0 8f8e 0f3e 01c0 6abf 7d7b 03e3 e03f
00000780: 401c 3921 65da f23f 3bde 0e8a 6bc5 f93f
00000790: 9f9f 718f 4ab4 fabf 95fb 5a81 4699 ffbf
000007a0: 2667 6bc3 f49e eb3f 7bde 1d57 dd4e ef3f
000007b0: 471c 8131 4c0c f63f ba7e 4684 ddb4 c6bf
000007c0: 7e2d 2df7 aef1 cebf 549f 69b1 7bdf f23f
000007d0: 1dcb 7682 cfa0 e9bf d659 9e37 f3b5 f0bf
000007e0: 5e14 f446 ea2b fbbf f81d 0de1 f994 cc3f
000007f0: f1f3 65c8 4649 f7bf 7a15 6b34 350a 05c0
-0.037722273031144817 -2.028281878417559 -0.986890845170209 1.2905362298145164 1.9850254504494549 -0.9325508415843102 -0.8981414372948983 -0.28613774888852733
-0.645062940261368 -1.026218079518482 1.489654308422528 0.17199458641435406 0.5250610034258876 1.6944475061037947 -0.609380500950926 0.2850154668813566
-1.485625317625152 -1.4975777201462253 1.0580452478629856 -1.4416896544693216 1.4384172763382592 1.6023164893518547 -0.4611863782711424 1.1420145416562921
-0.3793045405826731 -0.47130298925964487 1.1846439610625898 -0.003224015516203542 1.0702325841082891 0.45216436487195405 0.17727949444949567 -0.03488052307488069
-0.11784994654297154 0.6798429591486242 -0.03365896220511969 0.30613648531943827 -0.08497210453981872 -0.16379074763772675 -0.3280552122928943 0.6796693899171589
-0.5036340963435423 -0.4869827149416943 0.1327258858044062 -1.5728505766038188 0.43770269004706147 -1.8821621565740247 -0.21279835890813226 1.3983565206209938
-0.6741002262729842 1.501800011725345 -0.36843183222665343 1.349195224831544 -0.5407005954923686 0.9980024703670629 -0.19161934450058513 -0.6812771852132152
-1.6155727571237006 -0.2638235188205504 0.2628331857356438 1.3578755523787007 -0.9760481900894954 -0.440031263496169 0.3916838260027873 0.7333628389986674
-0.22880293736547402 0.2976735824291913 0.4946354345844818 0.5773545275851398 -0.5083786119346144 0.18085312853000773 0.5712843701358337 -0.0863825887549652
-1.2551865460349225 1.0248040985562374 -0.16430150006920521 0.5645507990824715 0.2616268895019419 0.2499878819884676 -0.4595516409323934 0.3072962721837379
-0.41505628913152465 -1.1239834232147525 1.2121002373145602 0.3263310766534495 -1.313567235255733 -0.49444430306343995 0.4187720133888746 1.4933942135822413
-0.5647764623238651 -0.32731694849044274 -0.033838229618910705 1.1961531250787838 0.08527012280619516 0.3382257091953144 -0.07139528002446006 -0.10325838668770422
0.25943038729660384 -0.24788900315475423 -1.1409686203906604 1.0167568487544187 -0.14057276853347545 -0.7011443933220657 0.2285345861728628 -0.1119226326181803
0.23512806991710836 -0.9568952040507791 -0.1593695855445548 -0.7184650069796877 0.046425164124360666 1.336324481547042 0.19292863117305264 -0.77614228252644
-0.512958123518857 0.6313906549764247 0.2196763794359184 1.098885028528239 -0.588518077525435 0.6763337218416201 0.07056337780484649 -0.8159807959718736
-0.32997005600743967 -0.036948631391060596 -2.321685490478442 0.2950060519875351 0.769676544555466 -0.034181011925148365 -0.4285297412723681 0.6747937882435375
-1.8479175919164128 0.2510314399400151 1.3691717189213513 1.22797652392411 0.49415987030592845 -0.0815624994345136 0.8893697605219982 0.1227531568498415
0.0855802328718526 -0.47290686258927317 -0.2649611488501386 -0.6298578730019926 -1.1877250873213534 -0.6408403825666552 1.3744642969122727 0.8121525146967434
0.003147097756016264 -0.2520659086846925 -0.3059284355339811 -0.2496411224336824 0.3456281011092975 -0.8603303991306996 -0.319019979942677 1.421291036585202
-1.0605276033808642 0.1054212171119304 -0.1415045298101243 0.43409969048721214 0.5783003191474985 -0.2913483620824716 -0.9160249481207375 -2.3414386544553762
-3.5344343763626975 -4.37364897551853 -1.5005078392460234 4.331501117615509 2.6962670542489775 0.06755233501779473 -0.9312031378793275 -3.282035254740809
2.0299311471789117 0.12925349894438065 -1.7010900316018318 2.7834083158478427 -1.5421824329744012 0.5856832283758016 0.49791690283289214 -0.4538191255090954
1.4238664117673316 0.9660213277786491 -0.2841947764166618 -1.790918851128478 0.5038119015174041 -1.3669504462843027 -0.22733457031911097 -0.3731819571153443
-0.051686667775019575 -2.8481133978914266 0.13681021880966157 2.1167692667908713 0.21903667060989043 1.588540139955943 2.029580318538986 -0.39817851963330386
0.8917017729340967 0.9785627551650407 0.08046067003878452 0.14153989693393723 -0.7574068952987996 -0.5233518899824995 1.6481803206625483 0.507175608441193
0.030019185614311987 -0.15769451555937963 -0.6464348621042194 1.845127310478536 1.2240138040486948 -0.21229419852627393 -0.28342290322379016 1.3138625218018218
-0.04991123434538209 -0.5337413674942049 1.317609501266762 0.30272823546375355 -0.39341748284504446 -0.12563590348139786 -0.0385705346972159 -1.0900083634141797
0.1676278384524243 -0.35821523411599715 -1.5524800496464504 -1.2436606306114952 1.6537829087713187 -0.1486280116230731 1.7935156634513938 -0.12462963090845662
0.42280745834332506 -0.13702801656610403 0.13560199138707824 -0.014330835630730397 0.06587298517007346 -0.5150016470120798 1.1852016187570678 -1.2201696224888812
-1.5949994662096327 2.277687661144755 -0.7756061164159072 -0.7201713353465283 -0.858778756908542 0.24983233998538987 -2.155303109892016 0.527711621469263
1.1783191011216019 1.6106982605832758 -1.6690164187693666 -1.97492075471357 0.8631538216388648 0.9783770276544169 1.378002351166076 -0.17739457091101035
-0.24175059384502257 1.1795613222293087 -0.8008801982999533 -1.0444214031791623 -1.698221470987185 0.2232963894732476 -1.455389769368818 -2.6299842925242816

weight f4 [64, 3]
00000000: fdc3 2cbd 707e 103c 4e9a 03bd ace4 1234
00000010: 264f 1d31 cf23 1bc0 a614 6ebd 14aa 053c
00000020: bb21 cebb f2f9 00be 529b 553d 9c1a 56bd
00000030: 99f4 49bd c4e9 d1bb e015 1abd 3675 77bd
00000040: 6e2d edbb 0e7e a538 9770 ef3e 8024 a93c
00000050: ab04 9b3f 1584 9e3b 1002 90be 4abf c53c
00000060: 4d73 70bd 28b8 6fbc 79cb 55bc 0753 6abd
00000070: 609a 663c 5404 6a38 1480 01bd f603 283c
00000080: 9aa0 fbbb ea40 0e3d ad95 2d3d fe7e 37bc
00000090: 31fe 83bd 22d2 70bc 93a6 85bc 74a3 88bd
000000a0: 5180 59bc 39c2 84bc 64ba 98bd c5d1 63be
000000b0: ac03 903b 75ef adbd 86f8 dd3b b061 55bd
000000c0: de13 27bd bb65 c73a a269 b938 b087 20bd
000000d0: 4afc 86bb a1fb 67bc 3436 94bd 3e76 4cbb
000000e0: 5130 39bc 4d0c 79bd ddc8 2ebc 76d6 efbc
000000f0: 9985 52bd b792 c43a 74ec 21bd 161e 94bd
00000100: fd21 3dbc 4ed5 12bd a164 7bbd 3c90 61bd
00000110: 7b3a 01bd 3a61 8abd 52f0 093c a0bc 77bc
00000120: 36c8 933d ede9 edbb 402f 4e40 434d dd3d
00000130: 67de cfbc 648e 243e d2dd 4cbd 14e1 5bbc
00000140: 27dc 14bd 0ab0 0ebd 6ce4 9abd 6be9 22bc
00000150: ce32 16be dcb8 a53e c8f0 6a3d 7ff0 79bd
00000160: d39b 033c 8760 30bd 8667 01b4 e375 2332
00000170: d543 1cb5 ec23 65bd 557f 0abb 79b2 24bd
00000180: 33fa 53bd 82da 78bb 08b3 abb5 2186 9fbd
00000190: 099a de3c bd43 cebc fb3d 3cbd 1dd7 323b
000001a0: 1bdc 09bd 79ed 86bd fd8f c83b afec 9dbc
000001b0: 3b74 80bd 7bfa 8cbb 89b8 0abd 18aa cbbc
000001c0: 2754 a23a e016 34bd 5290 0abd 452e 20bb
000001d0: a43a e5bc 81b3 69bc 89c3 abbb 1f43 8db7
000001e0: 03d3 84bd 6315 2cbc 8270 01bd 5254 4cbd
000001f0: 4caa 8bbb 9869 1bbd 13f4 91bd 97b4 963c
00000200: a398 68bb f3eb 643c 47e3 95bd 4b66 d63b
00000210: 6143 39bd 7638 19bc 07a3 79bc 1fe1 7ebd
00000220: e298 553b ae04 9ebc 430e 55bd 2ca4 2d3a
00000230: f224 d8bc 3753 84bd ad20 88bc a4b2 6ebc
00000240: 5163 3cbd 0fba dbbc c06a 13bd a556 ccbc
00000250: 3603 9839 6d06 9737 e680 28bd e3b5 3ebb
00000260: a82a e9bc edd1 53bd 4d0b 1a3c 7111 06bd
00000270: 2c33 20bd 3732 caba 37de 27bd c2fb 88bd
00000280: c662 1fbc aa94 94bc a713 66bd f87d cdbb
00000290: 2f8d 04bd 129d b0bd 8db4 aa3c 59fa 43bc
000002a0: 770f 83bd 40e9 a33c 6a18 39bc b6e7 50bd
000002b0: f297 43bb 0d61 9bbc aa1b 92bd b114 873c
000002c0: cc6e 57bc 6526 6fbd 3988 db3b 1c70 a8bc
000002d0: f29d 0e3e 370f c538 5558 51c0 a658 6fbd
000002e0: 5586 ed3b fd60 6dbb d72f 7cbd 68f1 1f3d
000002f0: 67d4 adbb b898 81bd 500b 29bc 3a71 92bc
-0.042179096 0.008819208 -0.03212958 1.36805e-07 2.2891498e-09 -2.4240606 -0.05812516 0.008158226
-0.006290642 -0.12595347 0.052150078 -0.05227147 -0.049305532 -0.006406041 -0.037618518 -0.060414515
-0.0072380817 7.8912926e-05 0.46765587 0.020647287 1.21108 0.0048375227 -0.28126574 0.024139065
-0.05870371 -0.014631309 -0.013049 -0.057208087 0.014074892 5.579398e-05 -0.031616285 0.010254851
-0.0076790573 0.034729876 0.04237907 -0.011199711 -0.064449675 -0.014698537 -0.01631478 -0.06671801
-0.013275222 -0.016205894 -0.07457426 -0.2224799 0.004394969 -0.084929384 0.006774011 -0.052095115
-0.04079043 0.0015212813 8.841163e-05 -0.0391919 -0.0041194307 -0.014159114 -0.07236901 -0.0031198408
-0.011303023 -0.060802747 -0.010668007 -0.029277068 -0.05139694 0.0014997338 -0.03953214 -0.07232301
-0.011543748 -0.035847954 -0.061375264 -0.055069193 -0.031549912 -0.06756826 0.008419113 -0.015120655
0.072159216 -0.007260552 3.221634 0.10805752 -0.025374604 0.16069943 -0.05001623 -0.013420362
-0.036342766 -0.034835853 -0.07563099 -0.0099433465 -0.14667818 0.323676 0.057358533 -0.06102037
0.008032757 -0.043060806 -1.2051723e-07 9.514653e-09 -5.821324e-07 -0.05594246 -0.0021133025 -0.040209267
-0.05175228 -0.0037972038 -1.2792598e-06 -0.07789255 0.027173059 -0.025178785 -0.045957547 0.0027288862
-0.033657175 -0.06588263 0.0061206804 -0.019277899 -0.06272169 -0.0043023205 -0.033867393 -0.02486138
0.0012384698 -0.043967128 -0.03382904 -0.0024441641 -0.027982064 -0.0142639885 -0.0052418155 -1.6839766e-05
-0.0648556 -0.010503146 -0.031601436 -0.0498851 -0.0042622443 -0.0379425 -0.071266316 0.018396659
-0.003549137 0.01397227 -0.0731874 0.006542956 -0.045230273 -0.00935184 -0.015236623 -0.06222641
0.0032592346 -0.01928934 -0.052015554 0.000662389 -0.026384804 -0.064611845 -0.016617144 -0.014568958
-0.045993153 -0.026822118 -0.035990477 -0.02494366 0.00028994092 1.8003595e-05 -0.041138552 -0.0029100112
-0.028462723 -0.051713873 0.009402108 -0.032731477 -0.0391113 -0.0015426342 -0.040983405 -0.06688644
-0.009728139 -0.018137295 -0.056171086 -0.00627112 -0.032361206 -0.08623709 0.020838046 -0.011961543
-0.06399434 0.020008683 -0.011297325 -0.051002227 -0.0029845205 -0.018967176 -0.07134183 0.016489359
-0.013148975 -0.058386225 0.0066995886 -0.02056127 0.13927439 9.396526e-05 -3.2710164 -0.05843415
0.0072486796 -0.003622114 -0.06156906 0.039048582 -0.0053048613 -0.06327957 -0.0103176385 -0.017876256

bias f4 [64]
00000000: c782 85bd 90bb c6b2 deff 63bd 6725 e2bd
00000010: 8fce 5ebd 55a2 0bbd 522b 17bf 7b16 86bd
00000020: afe7 43bd 980a 18bd ca18 bdbc 382d 16bc
00000030: 5009 56bd d04f 55bd d89d c4b9 4cd8 b1bd
00000040: 7548 c4bc e5ff 38bd 116e 61bd adcc 79bd
00000050: 1cad 6abd 5582 4fbd 380e 1bbd 9a42 5ebd
00000060: 125a 14be 2b19 0dbe be7d 56bd 6788 85bc
00000070: baca e73d 04d1 a8bd d7d9 73be 61eb 6abd
00000080: e31e a5bc 6ef1 98bd 2805 88bd 2ed1 94bd
00000090: b5f7 86bd e3c2 6ebd d7e4 57bd 08e5 1ebd
000000a0: c9b1 2ebd 8f40 60bd cd8b 45bd 9dee acb9
000000b0: 2588 44bd 7eef 5dbd 6dd1 78bd a43a 4bbd
000000c0: 0917 46bd 9f20 11bc c482 4abd 2a3c 61bd
000000d0: 0dbd 95bd c66c 41bd 6ad0 46bd 34ab 14bd
000000e0: 8201 3bbe a8f4 33bd 5167 1ebd 15c3 63bd
000000f0: b7e6 333f f606 2abd 3a79 22bd 1c51 17bd
-0.065190844 -2.3135527e-08 -0.055663936 -0.1104229 -0.05439621 -0.03409036 -0.59050477 -0.065472566
-0.047828373 -0.037119478 -0.02308311 -0.009166054 -0.052254975 -0.05207807 -0.00037501636 -0.086838335
-0.023960331 -0.045165915 -0.055036608 -0.06098621 -0.057293996 -0.050661404 -0.037855357 -0.054262735
-0.14487484 -0.13779132 -0.05236601 -0.016300393 0.11317964 -0.082429916 -0.23813568 -0.05735338
-0.02015633 -0.07467924 -0.066416085 -0.0726646 -0.06590215 -0.058291327 -0.052708473 -0.03879264
-0.042650018 -0.054749068 -0.048229028 -0.00032984177 -0.0479814 -0.054183476 -0.0607466 -0.04961647
-0.04836181 -0.008857875 -0.049441114 -0.054989018 -0.07311449 -0.047222875 -0.048538603 -0.036296085
-0.18262294 -0.043934494 -0.03867275 -0.055605967 0.7027392 -0.041510545 -0.039666392 -0.036942586

weight f4 [64, 64]
00000000: d3e3 1432 2845 2eb2 4e22 4134 4d3b 8eb2
00000010: 67d1 8eb2 8df0 e131 2dee abbc 19e9 5738
00000020: 298d 4233 c4d0 7c34 bc94 0632 54a4 de31
00000030: b39e a531 79fe 2332 6735 25b7 c842 2532
00000040: 656a 18b2 f887 55b3 307c 3133 ba2b bfb1
00000050: d753 f731 e9b3 1635 33cf deb4 290d 2cb5
00000060: 8b3d c6bc 4e0f 0f38 cf58 08b3 cf27 b0b4
00000070: 8e40 aeb9 6772 65b3 b8f1 beb2 66b3 9832
00000080: ba55 ae34 abbe 4334 587c 3ab2 09c9 8236
00000090: f4f0 2032 f24a 36b0 276b 2432 4a30 a931
000000a0: ac26 8233 8a30 fab2 c4bd 1734 0f39 5c32
000000b0: b071 ca33 8d9d 0435 a10e 5a33 3d5a 03b2
000000c0: a560 0932 f018 6c32 a6b0 e133 0eea 64b1
000000d0: cefa 9230 616b 3db4 2ab1 6a34 f554 3534
000000e0: 9ad5 aeb3 c66e 0f32 5066 e434 6f45 c634
000000f0: c744 78bc 044d 89b1 98bf 2c33 ea8e f830
00000100: 57bc 4fbc 73a6 c337 a36f 9b3c 2941 d4bc
00000110: 1e00 32bb 0c1d 733a ddd7 0a3f 38ce dbbb
00000120: 37a7 5e3c 5860 f43c 1353 07bb 3aa1 893c
00000130: 1102 1fbc 723b 033c c2a4 b33c 259e 503c
00000140: 43b5 4138 d6e8 9dbc ee90 3b3b 1e09 0cbc
00000150: cfe8 8cbb 7ed5 10bd 1b78 cfbc 4bb7 d23c
00000160: 8c7c c83e b8e7 043e 244a e0ba c31e 9abc
00000170: 76e0 493c b939 3bbd 571a 8838 6f43 cbba
00000180: 9bbb f13c c2cf 403c 9fec f9bc 66da 013d
00000190: f70d 25bc 144b 8abc 63a9 f1bb 3ef8 b6ba
000001a0: 4ca4 27bd 5368 65bb fcf7 f33c fd56 123d
000001b0: 718a c73c 476c f33c 4b29 dc3b 8454 17bc
000001c0: 87ed 88bb 5b9c 98b8 031d 473c 942b 423b
000001d0: 0870 cbbb 8bfb 22bd 252b c93c 4bb1 583c
000001e0: 2936 893d 45d7 59bd e004 c03c f39b e13c
000001f0: 9dc0 623e 8012 8d3c 143a aabc a4f5 debb
00000200: 6c40 a633 9154 40b2 34ef 15b0 06d6 9b32
00000210: e999 2432 650f bfb1 6130 87bc c976 3eb9
00000220: 806e ebb0 18de 06b1 ed94 fe31 d4f9 0ebb
00000230: c4d3 0eb1 fa8c 2ab2 c3f3 4338 4b25 4ab2
00000240: 9401 f0af 90ed 8c32 1b70 07b1 b715 0433
00000250: cc72 45b1 10d1 8132 d61d 6533 de6d eeb1
00000260: 2549 23bd 8aa6 cb37 ca9c 9fb2 9533 d5b3
00000270: 4f8f ffbb 770c 23b3 b50f 32b2 491c 85b1
00000280: 2c0e b1b1 68ca 7432 8455 e1b2 29b0 0132
00000290: 7066 9433 af50 d838 09a0 b833 4b2c c331
000002a0: 960f a5b1 4bdb c432 f00b 94af 6970 87b3
000002b0: 956f d9b1 9d09 bd31 56a1 31b2 3eb8 e932
000002c0: 1e97 f331 c0da c831 7199 cc31 b7c3 a1b2
000002d0: 0e05 ccb5 fd33 f7b2 f8dc 90b2 7ea2 82b2
000002e0: bfba 0733 6b34 11b2 ee5d 8631 0e77 db32
000002f0: edbd 92bc ccde d531 b0e9 0e30 9cb6 8fb1
00000300: 82a4 5331 1081 c43d f5e6 0133 3ea2 79b2
00000310: 12e9 14b2 661f c2b1 a0b9 bf35 27eb 87b3
00000320: 527c d232 5621 0131 99ac 6631 b9a2 98b2
00000330: 0edf 76b2 f0d0 1c32 71c4 8232 d46f d232
00000340: b65d 85b2 2a8b 5032 4a70 8132 e8c8 8731
00000350: bddd be31 db8c beb1 be28 8831 0c22 4132
00000360: a27b 03be acfb 06b3 4796 0332 7c0a e8b0
00000370: 77a7 2032 03d4 47b2 ab9c d3b1 b65d 85b2
00000380: ff94 5531 5be3 0e32 c3a2 af30 0ae4 d4b2
00000390: 192a 84b2 b9a2 98b2 4796 0332 758e 82b2
000003a0: 19cc 3431 87d9 0cb1 3dd5 2231 7663 00b2
000003b0: c1d6 3e32 0417 4b31 52c4 b731 84f3 0e32
000003c0: b9a2 98b2 c731 a131 e4e4 1fb2 4796 03b2
000003d0: 16a2 53b1 b2d8 4132 3224 a230 c650 0e32
000003e0: b4eb 5031 df1a 2132 b90c 20b2 8813 4db2
000003f0: 269f 983c 62dc 7b32 9f81 9ab2 192a 84b2
8.666535e-09 -1.0143857e-08 1.7987006e-07 -1.6557943e-08 -1.66262e-08 6.5757093e-09 -0.020987595 5.1477084e-05
4.529753e-08 2.3545277e-07 7.833645e-09 6.4797323e-09 4.820174e-09 9.545709e-09 -9.8472e-06 9.619448e-09
-8.871756e-09 -4.971659e-08 4.1323972e-08 -5.5638028e-09 7.1981776e-09 5.614116e-07 -4.150148e-07 -6.4094144e-07
-0.024199268 3.410811e-05 -3.174574e-08 -3.281152e-07 -0.00033235963 -5.3422266e-08 -2.2228832e-08 1.777671e-08
3.24724e-07 1.8230155e-07 -1.0854897e-08 3.8977055e-06 9.368012e-09 -6.631772e-10 9.57042e-09 4.924037e-09
6.060631e-08 -2.9125903e-08 1.4132007e-07 1.2818659e-08 9.4270376e-08 4.94031e-07 5.0770385e-08 -7.645721e-09
7.996424e-09 1.3742678e-08 1.0509511e-07 -3.3311411e-09 1.0694181e-09 -1.7641061e-07 2.18574e-07 1.6887846e-07
-8.14136e-08 8.3488825e-09 4.2542752e-07 3.6930894e-07 -0.015153117 -3.9959804e-09 4.0221124e-08 1.8084994e-09
-0.012679181 2.332332e-05 0.018974131 -0.025909977 -0.0027160714 0.00092740427 0.5423563 -0.006707933
0.013589672 0.029831097 -0.0020648881 0.016800512 -0.0097050825 0.008009778 0.021929149 0.012733017
4.61836e-05 -0.019276064 0.002862032 -0.008547096 -0.004300214 -0.035359852 -0.025325825 0.025722167
0.39157522 0.12979019 -0.0017111939 -0.018813496 0.012321582 -0.045709345 6.4898915e-05 -0.0015507768
0.029508403 0.011768283 -0.030508338 0.03170242 -0.01007413 -0.016881503 -0.007374929 -0.001395948
-0.04092817 -0.003500481 0.029781334 0.03572749 0.024358006 0.029714717 0.0067187897 -0.009236459
-0.004178706 -7.277048e-05 0.012152913 0.0029628025 -0.0062084235 -0.03979067 0.024556706 0.013225864
0.06699783 -0.053183813 0.023439825 0.027540183 0.22143789 0.017220736 -0.020779647 -0.006804185
7.7416956e-08 -1.1195099e-08 -5.454581e-10 1.8141701e-08 9.5810515e-09 -5.5605818e-09 -0.016502561 -0.00018164063
-1.7129906e-09 -1.9625812e-09 7.409304e-09 -0.002181639 -2.0784094e-09 -9.927357e-09 4.6718644e-05 -1.1766427e-08
-4.3656867e-10 1.6406176e-08 -1.970881e-09 3.0753394e-08 -2.8732527e-09 1.5112647e-08 5.3345353e-08 -6.939202e-09
-0.039864678 2.4277037e-05 -1.8581336e-08 -9.927968e-08 -0.007799066 -3.796273e-08 -1.0364535e-08 -3.874025e-09
-5.152989e-09 1.4248691e-08 -2.6232335e-08 7.548842e-09 6.91042e-08 0.00010314711 8.597278e-08 5.6802825e-09
-4.803904e-09 2.2917126e-08 -2.6929525e-10 -6.306875e-08 -6.3282166e-09 5.501717e-09 -1.03394395e-08 2.7208554e-08
7.089411e-09 5.845635e-09 5.9546257e-09 -1.8831868e-08 -1.5200656e-06 -2.8778226e-08 -1.6864291e-08 -1.5207885e-08
3.160198e-08 -8.452029e-09 3.910592e-09 2.5549095e-08 -0.01791283 6.224445e-09 5.199139e-10 -4.182608e-09
3.0798053e-09 0.09594929 3.0245207e-08 -1.4530597e-08 -8.667728e-09 -5.6497127e-09 1.4284633e-06 -6.329201e-08
2.4503752e-08 1.879092e-09 3.3567515e-09 -1.7769127e-08 -1.4369801e-08 9.127902e-09 1.5223323e-08 2.4498071e-08
-1.5525853e-08 1.2138836e-08 1.506864e-08 3.9518575e-09 5.5549365e-09 -5.545741e-09 3.962753e-09 1.124182e-08
-0.12840131 -3.14282e-08 7.659373e-09 -1.6883202e-09 9.351303e-09 -1.163153e-08 -6.1587193e-09 -1.5525853e-08
3.1080274e-09 8.3171825e-09 1.2779185e-09 -2.4783748e-08 -1.5385966e-08 -1.7769127e-08 7.659373e-09 -1.5198774e-08
2.6309463e-09 -2.0496331e-09 2.3695315e-09 -7.473195e-09 1.1108285e-08 2.955347e-09 5.34832e-09 8.320857e-09
-1.7769127e-08 4.6913757e-09 -9.307062e-09 -7.659373e-09 -3.0796676e-09 1.1283349e-08 1.1797339e-09 8.283854e-09
3.0401965e-09 9.377543e-09 -9.3161185e-09 -1.1937011e-08 0.018630575 1.4660232e-08 -1.7986904e-08 -1.5385966e-08

bias f4 [64]
00000000: edc5 02bd f29a 55be b1b9 4dbd 4701 e539
00000010: 9064 41bd 47e9 a53e 40a4 a63f d402 64be
00000020: 6ef1 8733 1127 d4bc cba8 b4b8 d5fd d9bc
00000030: a47f 0ebd ec51 b0bc 7dfd 13bd addc 30bc
00000040: a42a 83bc 6342 d3bc 2260 f0bc d3ff cfbb
00000050: 86b5 4dbd a279 b7bc 5ac7 ab3e c219 1540
00000060: 3433 89ba 38aa 7b3e ea6a 31bd 839d 95be
00000070: 2def 9ebc e439 3bbd 0d17 19bd 15e3 0dbd
00000080: 1967 883e 9313 25bd 7710 f0bb a2bd ebbc
00000090: 3dce ebbc a642 c83d ce86 b3bb e7a7 e7bc
000000a0: 00cc 41bb bb6d 6eba df9e 003e ce48 3bbc
000000b0: 188d e9bc 274a 02bd 8bb3 2840 a53e 19bd
000000c0: b558 5bbc d280 63bc f34f 00bd c145 6abc
000000d0: e304 ddbc 1146 483f 94ec e5be 7978 ccbc
000000e0: a195 14bd 5b2d 72bb 98f2 13bd de2e 66bc
000000f0: ae43 ddbc 99d7 dabc fbc7 ddbc 550b 9b3d
-0.031927038 -0.20859888 -0.050225917 0.00043679235 -0.047215044 0.3240454 1.3018875 -0.22266704
6.330343e-08 -0.025897535 -8.614509e-05 -0.026610294 -0.034789696 -0.021523438 -0.036130417 -0.010794801
-0.016011544 -0.025788492 -0.029342715 -0.0063476353 -0.050221942 -0.022396866 0.3355053 2.3296971
-0.001046753 0.24576652 -0.04331485 -0.29221734 -0.019401157 -0.045709506 -0.0373755 -0.03464039
0.26641157 -0.04030187 -0.0073261815 -0.028776947 -0.028784866 0.09778337 -0.0054787165 -0.028278304
-0.0029571056 -0.00090953306 0.12560605 -0.011430932 -0.028509662 -0.031809 2.6359584 -0.037413258
-0.013387849 -0.013885694 -0.031326246 -0.014298857 -0.02697987 0.7823191 -0.44907057 -0.02495979
-0.03627551 -0.0036953303 -0.036120027 -0.01404926 -0.027009811 -0.026714133 -0.027072897 0.07570521

weight f4 [64, 64]
00000000: 384f 2bb2 6fbe 21ba 4517 6c31 ec98 01b2
00000010: affc 5733 6771 3337 ed9f 6cbc afaa 4538
00000020: 3880 2bb2 905d 1d32 8eef e032 c699 4e32
00000030: b00a 0932 5b0f 8734 bb47 dcb1 8924 3bb4
00000040: 158e 89b2 3692 0d34 006b 0cb4 9d00 95b2
00000050: 8102 0eb3 4287 ae31 538a 78b9 9b95 dcbc
00000060: 3052 2232 89f7 bab6 7ae2 2d32 2cc0 1233
00000070: fd62 6e31 f14b 8932 afbc 5833 7a41 04b2
00000080: e654 b9b6 9007 1733 a813 27b3 15ca 0b34
00000090: 41c5 bdb3 33fa d7b1 40a8 50ae b291 7c33
000000a0: d666 c930 cc1e 8233 f514 fdba 86ce d732
000000b0: 6a75 2832 5d5f 2db3 00c5 d0bc 145a 02b0
000000c0: b093 8fb1 0c59 07b2 06d7 25b4 add2 6232
000000d0: 6b95 5c32 0ab8 b5bb c650 0e32 8e7e ba31
000000e0: 63c8 a3b1 7004 b2b0 c3ab 1034 5a97 e934
000000f0: 7c6b a1b0 6fce 3bb2 7507 3c32 2139 f5b4
00000100: acf6 86b1 e321 c4bb 1cfe 3cb1 1a02 70b2
00000110: 1ce6 0db3 68b3 5ab9 7847 dbbc 0a46 47ba
00000120: 9287 db30 6ce6 8a32 d44e 15b2 3ed3 81b2
00000130: 2ead c1b2 80dc c635 394b 8fb2 c518 0a33
00000140: e6a6 53b2 8e3b a733 deed ce34 527c d2b2
00000150: 2ffb 1f34 9914 2134 75d2 8bbb b7a5 1abd
00000160: d552 96b1 c545 7d38 4df5 cc31 fa29 6932
00000170: fe5c ebb0 0edf 76b2 de8f 6233 8f2e 9cb2
00000180: 0400 7e38 c9db b835 93ce 9d33 458c b134
00000190: 8599 61b5 f950 87b2 d46f d232 354b eab4
000001a0: 5bab 4eb2 df36 2632 189b 14bc 5663 1532
000001b0: a4e1 7732 8cf5 0832 cccc 15bd a4af 8fb2
000001c0: 4fc8 1d34 1df6 9631 92f2 a634 f22a 79b2
000001d0: 7908 16b2 16f7 82bc 351e 0080 3775 8932
000001e0: 1424 6db2 a18b 0e32 9027 0336 2cc8 6236
000001f0: 11d0 cc31 d09a 9bb0 4d7a 26b2 9405 0436
00000200: 1016 6e31 73ea 8ebc 0dc1 0332 28d4 73b2
00000210: fcd9 7b33 d2ed 47bb e5be a5bc e3a6 15bc
00000220: e8c8 87b1 0edf 7632 6854 1c32 4862 5d32
00000230: c57b ba32 80d3 00b7 6d4b 8833 5952 8ab5
00000240: 044b b433 6da1 8d36 5d99 0ab5 62dc 7b32
00000250: a5cd 7c34 4847 cf34 c9a3 1cbc be7e e0bc
00000260: 5c45 19b2 ea34 9eba b1aa 0ab3 511f 9d36
00000270: c875 3cb1 188d db30 911e 7534 8ac4 3133
00000280: 2b01 95ba edd2 3ab7 a888 8b33 daa9 6d36
00000290: d99f c335 cd95 6932 4223 c7b2 e519 8a36
000002a0: f635 2fb2 6d43 1934 1253 8dbc 9e8e 2d34
000002b0: d653 3133 e87d 6e33 48dc debc c936 d5b1
000002c0: fa97 c334 09b6 acb2 4335 3cb5 2c1e 0633
000002d0: 74f6 3434 eb3b 85bc edfc 4eb2 aef5 cd31
000002e0: 00d2 812e 86c2 05b1 131f 2bb7 516e d8b6
000002f0: f718 17b2 9fd6 e7b2 4bcb e1b2 474b ab34
00000300: 181f 69b3 0f51 c0bc b4a3 a532 3819 06b2
00000310: 7072 be33 46f9 94bb 0cbe 87bc 2908 86bc
00000320: da98 2231 167e 5db2 b91e cbb2 f07b d232
00000330: 9d18 2534 6378 3038 354e 14b4 ea58 a236
00000340: 2cfb e634 227a 04b7 7419 6936 e022 e5b1
00000350: 1dde d436 186c 4ab5 ea39 35bc 645b 6bbc
00000360: 5760 8732 e699 20bb 0d43 44b3 b1d6 cdb6
00000370: 32fa f433 460f 51b1 586b 4f35 bf6c 3f34
00000380: 2a0a 13bb 0000 8f38 187a e333 1c0d a1b6
00000390: ce3e 93b6 f2e8 2cb2 9ed8 f332 088b 1eb7
000003a0: 1c17 18b1 fa08 a235 6ce8 9fbc 7d5c 0835
000003b0: 9bdd 9f33 3c80 3234 6054 70bc e27e 85b1
000003c0: b706 31b5 7e9e feb2 df3f 7d36 c7a0 25b3
000003d0: 813b cc34 d623 7cbc 0605 8b31 f844 a9b1
000003e0: b7d4 11b3 7bf2 dab2 78cb 8338 f36d 8a38
000003f0: 07c8 2ab3 d67c aab1 0c0b abb2 e28f 80b9
-9.971522e-09 -0.00061700394 3.4355747e-09 -7.543559e-09 5.0288403e-08 1.0695635e-05 -0.014442426 4.712742e-05
-9.982664e-09 9.159876e-09 2.6185969e-08 1.2025742e-08 7.97688e-09 2.5156882e-07 -6.4109975e-09 -1.7429024e-07
-1.601351e-08 1.318484e-07 -1.3077442e-07 -1.7346162e-08 -3.306423e-08 5.0794435e-09 -0.00023702653 -0.026926806
9.448328e-09 -5.572049e-06 1.012142e-08 3.4168053e-08 3.4689827e-09 1.5983433e-08 5.0463026e-08 -7.698299e-09
-5.523313e-06 3.5164305e-08 -3.8900595e-08 1.3018901e-07 -8.8368786e-08 -6.285768e-09 -4.744316e-11 5.880583e-08
1.4653903e-09 6.059199e-08 -0.0019308614 2.512321e-08 9.805584e-09 -4.0366434e-08 -0.025484562 -4.7421733e-10
-4.178638e-09 -7.878281e-09 -1.5445048e-07 1.32028335e-08 1.2839659e-08 -0.005545621 8.283854e-09 5.4277e-09
-4.7667057e-09 -1.2952466e-09 1.3473532e-07 4.3509755e-07 -1.1744841e-09 -1.093177e-08 1.0944736e-08 -4.5676373e-07
-3.9279566e-09 -0.005985485 -2.7502045e-09 -1.39703165e-08 -3.3038404e-08 -0.00020856934 -0.026767477 -0.0007601684
1.5972879e-09 1.6170098e-08 -8.690865e-09 -1.5113638e-08 -2.254691e-08 1.4816324e-06 -1.6681598e-08 3.2153157e-08
-1.2319765e-08 7.7873764e-08 3.854356e-07 -2.4503752e-08 1.4899409e-07 1.5001787e-07 -0.004267032 -0.037755694
-4.3749915e-09 6.038488e-05 5.965069e-09 1.3571929e-08 -1.712493e-09 -1.4369801e-08 5.2750572e-08 -1.8181963e-08
6.0558334e-05 1.3773034e-06 7.348458e-08 3.307088e-07 -8.404243e-07 -1.575289e-08 2.4498071e-08 -4.3640617e-07
-1.202974e-08 9.674948e-09 -0.00907018 8.695528e-09 1.4428597e-08 7.972073e-09 -0.036572263 -1.6727263e-08
1.4694636e-07 4.3935544e-09 3.1096403e-07 -1.4503472e-08 -8.733076e-09 -0.01598696 -1.0836e-41 1.6002202e-08
-1.3803419e-08 8.297236e-09 1.954355e-06 3.379314e-06 5.960836e-09 -1.1321735e-09 -9.69028e-09 1.967278e-06
3.46461e-09 -0.017445778 7.669098e-09 -1.41927e-08 5.8638747e-08 -0.0030506742 -0.020232627 -0.009134027
-3.9518575e-09 1.4369801e-08 9.099587e-09 1.288624e-08 2.1709534e-08 -7.678638e-06 6.3467134e-08 -1.0305768e-06
8.3955484e-08 4.22092e-06 -5.163218e-07 1.4660232e-08 2.3544142e-07 3.8608619e-07 -0.009560534 -0.027404185
-8.921543e-09 -0.0012070213 -3.228587e-08 4.6826103e-06 -2.7424552e-09 1.5974448e-09 2.2828523e-07 4.1389775e-08
-0.0011368146 -1.1135574e-05 6.4975495e-08 3.5414619e-06 1.4575154e-06 1.3596446e-08 -2.3182682e-08 4.115735e-06
-1.019861e-08 1.4273765e-07 -0.017251525 1.6163764e-07 4.1287272e-08 5.5528204e-08 -0.027204648 -6.2053442e-09
3.6432158e-07 -2.0106215e-08 -7.0112964e-07 3.1226747e-08 1.6853465e-07 -0.016263923 -1.2048287e-08 5.994216e-09
5.903544e-11 -1.946462e-09 -1.0199629e-05 -6.450144e-06 -8.795033e-09 -2.6989538e-08 -2.6285894e-08 3.1906004e-07
-5.427782e-08 -0.023476152 1.9282972e-08 -7.805561e-09 8.8683805e-08 -0.0045463173 -0.016570114 -0.016361313
2.3660989e-09 -1.2892562e-08 -2.3646281e-08 2.4503578e-08 1.5375777e-07 4.207379e-05 -1.3812026e-07 4.838327e-06
4.302359e-07 -7.896249e-06 3.4734521e-06 -6.668742e-09 6.3439497e-06 -7.540816e-07 -0.011061171 -0.014365051
1.5759879e-08 -0.0024505793 -4.569579e-08 -6.1344695e-06 1.1407646e-07 -3.0422185e-09 7.7269715e-07 1.7827823e-07
-0.0022436478 6.818771e-05 1.059272e-07 -4.7997e-06 -4.388253e-06 -1.0064683e-08 2.838743e-08 -9.449905e-06
-2.2132047e-09 1.2072553e-06 -0.019520007 5.0798536e-07 7.444324e-08 1.6624193e-07 -0.014668554 -3.8852344e-09
-6.594741e-07 -2.9641566e-08 3.7737116e-06 -3.8563282e-08 3.8041256e-07 -0.015389403 4.0460035e-09 -4.926388e-09
-3.3953906e-08 -2.5488808e-08 6.284466e-05 6.6008324e-05 -3.9763133e-08 -4.9618434e-09 -1.9912044e-08 -0.00024521264

bias f4 [64]
00000000: dc40 48bc 9d56 c7bc ad97 bbbc 70b8 9ebc
00000010: e145 e23d 359e 673f ab51 1b39 475c 59bc
00000020: 61da 143c ea27 2dbc 28dd d4bc aad3 b2bc
00000030: 81e9 04bd 73d3 6038 c6a5 0fbc 77dc 04bd
00000040: 74d6 a33c 4d03 67bb fdae e9bc 615b e13d
00000050: 7709 e9bc 860d 91bc 7bc0 72bb 757b 06bc
00000060: d60c d4b8 5ee3 0bbc 5aa4 afbc ee91 98bc
00000070: 8b24 8bbb 4fc3 75bb 805d 1cbd a368 c1bb
00000080: 95db 6abb 2202 c7bc 08ca d83b 38a4 62bc
00000090: f256 bfbc b31a da3e a865 8cbc 6831 bbbc
000000a0: 5120 c2bc 0946 eabc 056c 00bc 268e 93bc
000000b0: 6171 873c fa21 9dbc 2dbc e53b da3d e037
000000c0: dd95 cb3a 41f5 9ebb 4a6a b03c f873 2a3f
000000d0: e213 e1bc 3e5e 3b37 5b32 e7bc b2ec d7bc
000000e0: 9991 50b6 ee32 bebc 159c 21bd f33a 23bb
000000f0: 66ab e3bb 1bb5 78bb 57a4 ebbb 1029 d4bc
-0.012222495 -0.024333293 -0.022899473 -0.019375056 0.110484846 0.9047578 0.00014812376 -0.01326663
0.009085269 -0.010568598 -0.025984362 -0.021829445 -0.03244925 5.360269e-05 -0.008767551 -0.032436814
0.01999972 -0.003524977 -0.028525824 0.11003757 -0.028446896 -0.017706644 -0.0037040997 -0.008208145
-0.000101113386 -0.008538095 -0.021440674 -0.018624272 -0.0042462996 -0.0037500446 -0.038175106 -0.0059023662
-0.0035836447 -0.02429301 0.006615881 -0.013833098 -0.023356888 0.42598495 -0.017138317 -0.022850707
-0.02369705 -0.028597848 -0.007838254 -0.018012118 0.016533555 -0.01918124 0.0070109577 2.6731683e-05
0.0015532334 -0.004851014 0.021535058 0.66583204 -0.027475301 1.1168011e-05 -0.028222254 -0.026357982
-3.1079164e-06 -0.023217645 -0.039455492 -0.0024906963 -0.0069479225 -0.0037949744 -0.0071912217 -0.025898486

weight f4 [1, 64]
00000000: 1c13 cdbc d3c9 c433 1671 61bd beec e0bc
00000010: c2cb edbe 3036 fabf 98fd 4a3f 1d09 1dbd
00000020: aa72 933e c0d3 9dbb 80f3 4fbd c0c2 e83c
00000030: 2679 5ebd 6cbb f836 d2fa 2c3d ef9d 59bd
00000040: 6e42 d03e 6e89 0c3d 0a33 cabb 2b64 c8be
00000050: e23b 47bd 23d0 293c 9c22 c5b0 3051 213c
00000060: 36c3 d036 d4c6 37b2 ac11 42bd 300e e93c
00000070: 34a5 153f 2276 d83c 3275 273d ca59 1cb3
00000080: 2391 8438 67e4 4abd e05d dabc 0b5d 07bd
00000090: 6142 5ebd 0952 a7bf db54 003d ad27 3abd
000000a0: d9bd 56bd f4f9 3ebd cfdc 1abd aba1 a13c
000000b0: 63ac 1b3f cfce e4bc d35e 3fbc 669f bc3c
000000c0: 017b c8bc 4f89 37bb cd7b de3e e4f2 d3bf
000000d0: 2315 0d3d 6cf1 2cb6 2ea1 24bd 5ae6 76bd
000000e0: 9bac 1cb6 7717 b7bc 96e0 1f3d 0f98 283d
000000f0: ce3d 07c0 c0ed e039 e2d6 1fba f75a 18bd
-0.025033526 9.163673e-08 -0.055039488 -0.027456637 -0.46444517 -1.9547787 0.79293203 -0.03833877
0.2879842 -0.0048165023 -0.05076933 0.028413177 -0.054314755 7.4127947e-06 0.04223139 -0.053129133
0.40675682 0.03431075 -0.006170635 -0.39138922 -0.048641093 0.010364565 -1.4343473e-09 0.009846017
6.2216086e-06 -1.069721e-08 -0.047380134 0.028449148 0.58455205 0.026423518 0.04088325 -3.6403243e-08
6.321284e-05 -0.049534228 -0.026656091 -0.033047717 -0.054262523 -1.307191 0.031330924 -0.045447994
-0.052427147 -0.046625093 -0.037808236 0.01973041 0.60809916 -0.027930645 -0.011680323 0.023025226
-0.024472715 -0.0028005426 0.43453828 -1.6558499 0.034443986 -2.5770523e-06 -0.040192775 -0.060278274
-2.334628e-06 -0.022350056 0.03903254 0.04116064 -2.1131473 0.00042901747 -0.00060973887 -0.037196126

weight f4 [1, 64]
00000000: 6ad6 0fbd c684 51b5 9d2f 34bd ceec debc
00000010: fbc8 07be a2ef 6bbe f047 78b3 ddd5 31bd
00000020: 6230 dcbc e9e3 413a a7e3 3bbd a261 153d
00000030: 2467 34bd 05bf 1f3b 6d1b 4c3d 3fc3 3bbd
00000040: 952e b4bd 73bb 0a3d de7e 033d e1c7 4f3f
00000050: 77a6 3ebd 3a70 9c3c c2e5 8231 7532 ce3c
00000060: 2615 91b6 ca20 9eb2 25bf 2bbd 6bfe 1a3d
00000070: 2ec4 2c3e c0d3 ff3c c86f 303c cee0 e33a
00000080: 721c d037 9260 2cbd 7084 5abb 23de 2ebd
00000090: 19f7 4cbd e9f2 0cbd fc25 1c3d ee09 27bd
000000a0: aa76 3ebd 77a8 01bd c655 5cbd dac6 65bd
000000b0: ee51 b7bc 0d6c cbbc 62de fbba d998 2a3d
000000c0: 1a93 8ebb 3c3d de3b 4c8b adbd f86b f0bd
000000d0: 77be 223d 3686 b138 c4c3 26bd 4a3b 31bd
000000e0: 7494 8938 89f3 f7bc ee1b e53b 5f2f 1a3d
000000f0: f4fd 60b8 f19c ee3b 7d02 153c 6ae2 0bbd
-0.03511659 -7.805178e-07 -0.04399072 -0.027212527 -0.13260262 -0.23040631 -5.7807426e-08 -0.043416847
-0.02687854 0.0007396327 -0.045871403 0.036470063 -0.044043675 0.002437533 0.049830843 -0.045840498
-0.08797947 0.03387017 0.03210341 0.81164366 -0.046545472 0.019096483 3.8096184e-09 0.025170544
-4.3237987e-06 -1.8408532e-08 -0.041930337 0.037840288 0.16871712 0.0312289 0.010768838 0.0017385723
2.4808778e-05 -0.042084284 -0.00333431 -0.042692315 -0.05004034 -0.034411345 0.038122162 -0.040780954
-0.046499886 -0.0316548 -0.053792737 -0.056097843 -0.022377934 -0.024831796 -0.0019216056 0.041649673
-0.004351032 0.006782202 -0.084738344 -0.117393434 0.039732423 8.4650164e-05 -0.04071404 -0.043269433
6.5603206e-05 -0.030267494 0.006991855 0.037642833 -5.3642274e-05 0.0072818925 0.0090948315 -0.034151472

weight f4 [1, 64]
00000000: cebb ce3d 8ce2 ab3d 5ce5 9c3d 206a 85bc
00000010: 54cc b3bd 9e0b b93d 40ac c9bc d4f0 7f3d
00000020: 6ca7 723d 80f4 ef3b 5412 99bd 60ab bdbd
00000030: 6862 893d 1415 d5bd 8243 ae3d d827 e63d
00000040: 0c56 32bd 4c40 4cbd 0032 30bc 1460 50bd
00000050: 0028 7c3c aae4 91bd c4a9 7e3d b008 2dbd
00000060: eaac f0bd aa9e ae3d 38bd 723d 804d 413d
00000070: c408 5dbd 3c39 76bd 064f c5bd 0a7f 80bd
00000080: 7c10 1ebd 061b e5bd 0c86 06bd ec2e 1ebd
00000090: b432 2dbd 50ea 343c 7cab a5bd 7224 ec3d
000000a0: 6e76 bb3d 4033 ef3b f033 75bd 884d 9a3d
000000b0: 28e4 0dbd 7281 abbd c0e1 7c3b 00c0 0abd
000000c0: 8290 82bd 48c3 5ebd 2088 5fbd b8df f53c
000000d0: 782b 86bc 6060 9fbd 54de d33d 2ca4 45bd
000000e0: b4d6 903d 20f6 d2bc 14fe d03d 68bb f5bd
000000f0: a852 2b3d 8231 893d e4f0 8bbd c090 b73c
0.10094415 0.0839282 0.07660934 -0.016285956 -0.08779207 0.09035419 -0.024618268 0.06248553
0.059241697 0.007322848 -0.07474199 -0.09261203 0.06708223 -0.10404411 0.0850897 0.11238068
-0.043539092 -0.049866006 -0.010754108 -0.050872877 0.015390396 -0.07123692 0.06217362 -0.042244613
-0.11751731 0.085263565 0.059262484 0.04719305 -0.053963438 -0.060113177 -0.09634213 -0.06274231
-0.03858994 -0.11186795 -0.03284268 -0.038618967 -0.042284682 0.011042193 -0.08089349 0.11530389
0.09153448 0.0072998106 -0.059863985 0.07534319 -0.034641415 -0.08374299 0.0038586706 -0.03387451
-0.06375219 -0.054385453 -0.05457318 0.030013904 -0.01637815 -0.07782054 0.1034514 -0.04825227
0.07072201 -0.025752127 0.102047116 -0.119986355 0.041826874 0.06698896 -0.068330556 0.02240789

weight f4 [1, 64]
00000000: 3a11 dd3d 2495 cdbd 5ade c2bd 9011 503d
00000010: 6c5d 50bd 12ee dbbd d078 63bc 8a1b a3bd
00000020: 546a 203d 5000 bb3c 88fa ffbd cce1 05bd
00000030: 146c 4c3d e8e7 aebc 9055 35bd 7a38 b03d
00000040: 1cf1 5dbd 904c c93c 40a9 4ebb 84e8 7d3d
00000050: 0acd edbd e490 423d 52dd dc3d 4682 b43d
00000060: b0bd f93d 8ce1 7d3d ac0f e8bd 300d cbbd
00000070: 18ed 7f3d 5051 bf3c a041 173d 6c0f 973d
00000080: b2e4 a03d 3046 c4bd c896 9abc 201d 213d
00000090: dce3 c3bd 8888 12bd dcc3 35bd 70ab b5bd
000000a0: 48aa d83d 86b9 93bd 9887 a1bc 3c25 9e3d
000000b0: 3670 fcbd 0e7a ad3d 44e9 9f3d 4806 ef3c
000000c0: 3ed0 efbd 26eb dc3d ea3d d93d c005 0f3d
000000d0: 14a1 bf3d 9435 eb3d 0e32 d33d b853 dfbd
000000e0: b866 e0bc c827 ebbc a817 723d 52d5 95bd
000000f0: 0c93 bc3d ca75 c9bd 8289 aabd 408e 2f3d
0.10794301 -0.10038212 -0.095150664 0.050798 -0.050870344 -0.10738768 -0.013883784 -0.07964237
0.039163902 0.022827297 -0.12498957 -0.03268604 0.04990776 -0.021350816 -0.044271052 0.08604522
-0.054185018 0.02457264 -0.0031533986 0.061989322 -0.11611374 0.04750146 0.10784401 0.0881391
0.12194383 0.061982676 -0.11331114 -0.09914625 0.06248197 0.023354203 0.03692782 0.07375988
0.0785612 -0.095837 -0.018870726 0.039334416 -0.09564945 -0.035774738 -0.04437624 -0.0887059
0.105793536 -0.0721312 -0.019717976 0.07721946 -0.1232609 0.08470546 0.07808164 0.0291778
-0.11709641 0.107870385 0.10607512 0.034917593 0.09356895 0.114848286 0.103122815 -0.1090464
-0.02739273 -0.028705493 0.05910459 -0.07316078 0.092077345 -0.098369196 -0.08327009 0.04286027
