pth/EM_model_step1_loss_-786.6533757573442.pt (torch, 84934 bytes, 19 tensors)

alpha_r f8 []
000000 55 fa fc fb 8c 0b c7 3f
       0.18004000000105927

beta_r f8 []
000000 9a 99 99 99 99 99 c9 3f
       0.2

alpha_u f8 []
000000 33 dc 98 d8 7c 5c ef 3f
       0.9800400000011734

beta_u f8 []
000000 9a 99 99 99 99 99 d9 3f
       0.4

gamma f8 []
000000 8e 48 61 5e 80 7d b4 3f
       0.080040000001903

theta f8 []
000000 00 32 bc 9a b5 f8 04 3f
       4.0000002028948295e-05

_lambda f8 []
000000 00 00 00 00 00 00 04 40
       2.5

d f8 []
000000 00 00 00 00 00 00 18 40
       6.0

r f8 [1, 505]
000000 fd c4 ff 71 55 50 a3 bf a0 fb 76 d9 eb 39 00 c0
       -0.037722273031144817 -2.028281878417559
000010 86 4a 17 1c 9c 94 ef bf 2d b4 55 51 09 a6 f4 3f
       -0.986890845170209 1.2905362298145164
000020 7c 87 f6 0b aa c2 ff 3f cc c7 ce dc 74 d7 ed bf
       1.9850254504494549 -0.9325508415843102
000030 13 a6 8b 1c 93 bd ec bf 71 25 68 b4 14 50 d2 bf
       -0.8981414372948983 -0.28613774888852733
000040 fb 17 09 09 5b a4 e4 bf 6e 88 21 a6 63 6b f0 bf
       -0.645062940261368 -1.026218079518482
000050 f7 52 90 c1 9f d5 f7 3f 9c 8d de 29 eb 03 c6 3f
       1.489654308422528 0.17199458641435406
000060 ec cf c3 bb 4c cd e0 3f ac 12 f8 fc 74 1c fb 3f
       0.5250610034258876 1.6944475061037947
000070 39 f0 4c 89 0b 80 e3 bf a6 03 47 83 b1 3d d2 3f
       -0.609380500950926 0.2850154668813566
000080 49 f4 94 0d 1f c5 f7 bf c1 f0 33 0e 14 f6 f7 bf
       -1.485625317625152 -1.4975777201462253
000090 e2 27 94 da c0 ed f0 3f 20 d6 ce 2b 29 11 f7 bf
       1.0580452478629856 -1.4416896544693216
0000a0 cc fc 7d d5 c1 03 f7 3f 56 b9 79 9d 16 a3 f9 3f
       1.4384172763382592 1.6023164893518547
0000b0 66 41 02 df 13 84 dd bf f5 85 3f 0a b1 45 f2 3f
       -0.4611863782711424 1.1420145416562921
0000c0 7f b8 41 8d 86 46 d8 bf 46 24 58 03 d4 29 de bf
       -0.3793045405826731 -0.47130298925964487
0000d0 fc ae e2 39 4d f4 f2 3f f0 45 86 26 40 69 6a bf
       1.1846439610625898 -0.003224015516203542
0000e0 1e bd bd 33 ac 1f f1 3f 75 aa e2 cd 42 f0 dc 3f
       1.0702325841082891 0.45216436487195405
0000f0 55 bc 74 2f 18 b1 c6 3f 15 7b bf 23 dc db a1 bf
       0.17727949444949567 -0.03488052307488069
000100 f8 c6 3c 02 6a 2b be bf cf b1 7e 05 46 c1 e5 3f
       -0.11784994654297154 0.6798429591486242
000110 d5 cd c6 5b bf 3b a1 bf be cc 23 7c bd 97 d3 3f
       -0.03365896220511969 0.30613648531943827
000120 e7 20 12 5a bb c0 b5 bf 09 e7 3e 60 18 f7 c4 bf
       -0.08497210453981872 -0.16379074763772675
000130 ef 23 05 4a db fe d4 bf c2 2a 39 05 da bf e5 3f
       -0.3280552122928943 0.6796693899171589
000140 db 45 9e 40 c5 1d e0 bf 5c 14 99 8c b9 2a df bf
       -0.5036340963435423 -0.4869827149416943
000150 36 68 6e 6d 29 fd c0 3f 5c 21 c0 5d 65 2a f9 bf
       0.1327258858044062 -1.5728505766038188
000160 07 e5 c7 24 52 03 dc 3f 7b 11 c4 10 56 1d fe bf
       0.43770269004706147 -1.8821621565740247
000170 2c 92 13 04 fa 3c cb bf c3 72 43 16 ab 5f f6 3f
       -0.21279835890813226 1.3983565206209938
000180 85 32 42 a3 3a 92 e5 bf 66 e2 f7 72 5f 07 f8 3f
       -0.6741002262729842 1.501800011725345
000190 66 01 8e 1b 63 94 d7 bf 32 22 69 bb 4d 96 f5 3f
       -0.36843183222665343 1.349195224831544
0001a0 89 28 d2 55 6b 4d e1 bf 46 b8 71 e0 a2 ef ef 3f
       -0.5407005954923686 0.9980024703670629
0001b0 af 9a f4 90 fb 86 c8 bf e1 0d c0 cf 05 cd e5 bf
       -0.19161934450058513 -0.6812771852132152
0001c0 3f 7a c2 d1 62 d9 f9 bf 6f fe 4f 0a 7c e2 d0 bf
       -1.6155727571237006 -0.2638235188205504
0001d0 f7 6f 42 48 42 d2 d0 3f 3f 12 18 b7 db b9 f5 3f
       0.2628331857356438 1.3578755523787007
0001e0 d5 23 f8 69 c9 3b ef bf 2d c0 7b e3 78 29 dc bf
       -0.9760481900894954 -0.440031263496169
0001f0 cc 76 c3 09 59 11 d9 3f 4f 3b 33 58 b5 77 e7 3f
       0.3916838260027873 0.7333628389986674
000200 3e 52 9b 26 6a 49 cd bf 8a a8 5a 7f 15 0d d3 3f
       -0.22880293736547402 0.2976735824291913
000210 0e eb be 61 1b a8 df 3f 61 9f c5 33 b0 79 e2 3f
       0.4946354345844818 0.5773545275851398
000220 67 d7 07 39 a3 44 e0 bf 9a 34 35 00 32 26 c7 3f
       -0.5083786119346144 0.18085312853000773
000230 32 61 ce 28 f6 47 e2 3f 01 7a a5 59 2b 1d b6 bf
       0.5712843701358337 -0.0863825887549652
000240 49 96 d9 7c 3e 15 f4 bf 5c b1 81 fb 98 65 f0 3f
       -1.2551865460349225 1.0248040985562374
000250 b1 90 bd e0 d4 07 c5 bf 1d ad 5f d6 cc 10 e2 3f
       -0.16430150006920521 0.5645507990824715
000260 1e 90 8a b5 7e be d0 3f 12 b5 c4 58 9a ff cf 3f
       0.2616268895019419 0.2499878819884676
000270 4c 2d 28 49 4b 69 dd bf 42 8f cd fb bd aa d3 3f
       -0.4595516409323934 0.3072962721837379
000280 cd 6a f4 40 48 90 da bf 7e 41 bf 0a d6 fb f1 bf
       -0.41505628913152465 -1.1239834232147525
000290 87 d6 eb 37 c3 64 f3 3f 40 48 79 bd 9b e2 d4 3f
       1.2121002373145602 0.3263310766534495
0002a0 04 54 c8 13 5f 04 f5 bf 93 76 d6 b7 f9 a4 df bf
       -1.313567235255733 -0.49444430306343995
0002b0 00 0f 7f 21 29 cd da 3f 1d f1 b5 54 f1 e4 f7 3f
       0.4187720133888746 1.4933942135822413
0002c0 14 69 67 16 a6 12 e2 bf 97 59 4c c9 c2 f2 d4 bf
       -0.5647764623238651 -0.32731694849044274
0002d0 71 b1 22 93 3e 53 a1 bf 91 8b 93 75 71 23 f3 3f
       -0.033838229618910705 1.1961531250787838
0002e0 8f 4c c7 44 43 d4 b5 3f 0f 42 ea 71 7d a5 d5 3f
       0.08527012280619516 0.3382257091953144
0002f0 a9 37 cb 08 f6 46 b2 bf 75 85 dc 41 24 6f ba bf
       -0.07139528002446006 -0.10325838668770422
000300 02 c3 41 e9 81 9a d0 3f 17 3a cb ac d3 ba cf bf
       0.25943038729660384 -0.24788900315475423
000310 27 71 e5 4f 68 41 f2 bf e0 25 56 d4 a2 44 f0 3f
       -1.1409686203906604 1.0167568487544187
000320 38 9c c7 d9 49 fe c1 bf ef f1 e2 5d c6 6f e6 bf
       -0.14057276853347545 -0.7011443933220657
000330 fb 04 cf 0e 9f 40 cd 3f 9c fd c6 2e f6 a6 bc bf
       0.2285345861728628 -0.1119226326181803
000340 c9 31 55 35 ad 18 ce 3f 6f 1d e3 b0 e2 9e ee bf
       0.23512806991710836 -0.9568952040507791
000350 3b 0a f2 fa 38 66 c4 bf 9d 8a 89 53 aa fd e6 bf
       -0.1593695855445548 -0.7184650069796877
000360 9a 49 40 03 0a c5 a7 3f 52 6b 91 c7 95 61 f5 3f
       0.046425164124360666 1.336324481547042
000370 de d6 ac a8 e2 b1 c8 3f a3 cd 0f 57 28 d6 e8 bf
       0.19292863117305264 -0.77614228252644
000380 82 64 97 27 27 6a e0 bf df f5 c3 2c 5a 34 e4 3f
       -0.512958123518857 0.6313906549764247
000390 2e c3 b0 08 5b 1e cc 3f 2a 7c b9 77 08 95 f1 3f
       0.2196763794359184 1.098885028528239
0003a0 fb 72 02 dd 23 d5 e2 bf 2a bc 0f 9e 86 a4 e5 3f
       -0.588518077525435 0.6763337218416201
0003b0 63 94 f7 07 71 10 b2 3f b5 9f 1b c2 83 1c ea bf
       0.07056337780484649 -0.8159807959718736
0003c0 fc 84 cd b9 3a 1e d5 bf ca c2 e9 56 ee ea a2 bf
       -0.32997005600743967 -0.036948631391060596
0003d0 fb 9e a9 d7 cf 92 02 c0 81 25 5a 10 61 e1 d2 3f
       -2.321685490478442 0.2950060519875351
0003e0 ff a5 6b b4 30 a1 e8 3f 95 b3 b9 70 2c 80 a1 bf
       0.769676544555466 -0.034181011925148365
0003f0 d0 33 08 02 08 6d db bf 22 99 81 24 e9 97 e5 3f
       -0.4285297412723681 0.6747937882435375
000400 bd be 6f 09 12 91 fd bf 8c d9 33 2c e6 10 d0 3f
       -1.8479175919164128 0.2510314399400151
000410 43 01 b6 9a 20 e8 f5 3f 33 28 28 b6 ca a5 f3 3f
       1.3691717189213513 1.22797652392411
000420 80 69 7d b8 50 a0 df 3f 9c b8 a6 ab 47 e1 b4 bf
       0.49415987030592845 -0.0815624994345136
000430 65 c9 6f 92 b7 75 ec 3f a4 9c 26 3a c0 6c bf 3f
       0.8893697605219982 0.1227531568498415
000440 3a 61 5e 0d 96 e8 b5 3f 44 fe 37 25 1b 44 de bf
       0.0855802328718526 -0.47290686258927317
000450 5b 67 41 9b 1f f5 d0 bf 66 7e b5 b2 cb 27 e4 bf
       -0.2649611488501386 -0.6298578730019926
000460 7d f1 6a 05 ec 00 f3 bf a5 8e a2 b0 c3 81 e4 bf
       -1.1877250873213534 -0.6408403825666552
000470 22 20 4c 46 ce fd f5 3f d2 92 3f 45 27 fd e9 3f
       1.3744642969122727 0.8121525146967434
000480 be 9a 0f 3e f1 c7 69 3f 8a 2f 8f 0c d9 21 d0 bf
       0.003147097756016264 -0.2520659086846925
000490 b0 3b 62 dc 54 94 d3 bf 63 71 4b 84 3d f4 cf bf
       -0.3059284355339811 -0.2496411224336824
0004a0 f1 f3 b5 53 c5 1e d6 3f e2 ab 00 9e d3 87 eb bf
       0.3456281011092975 -0.8603303991306996
0004b0 bd f5 27 c7 d2 6a d4 bf be b3 83 ab 9b bd f6 3f
       -0.319019979942677 1.421291036585202
0004c0 c9 6a d0 ca eb f7 f0 bf 9e dd cc 87 e2 fc ba 3f
       -1.0605276033808642 0.1054212171119304
0004d0 88 9a e2 07 d2 1c c2 bf c1 29 76 11 4a c8 db 3f
       -0.1415045298101243 0.43409969048721214
0004e0 e2 27 c0 ab 6f 81 e2 3f de ca b8 99 73 a5 d2 bf
       0.5783003191474985 -0.2913483620824716
0004f0 0f f5 4f 8d 13 50 ed bf 06 cf 73 30 44 bb 02 c0
       -0.9160249481207375 -2.3414386544553762
000500 02 b0 c2 87 85 46 0c c0 db 24 48 d6 9d 7e 11 c0
       -3.5344343763626975 -4.37364897551853
000510 b3 40 0f 82 14 02 f8 bf f7 fb 6a 07 75 53 11 40
       -1.5005078392460234 4.331501117615509
000520 c0 40 1a 76 f4 91 05 40 34 7c ab 1d 1c 4b b1 3f
       2.6962670542489775 0.06755233501779473
000530 30 fa e3 85 6a cc ed bf 49 72 1b b3 9b 41 0a c0
       -0.9312031378793275 -3.282035254740809
000540 1b 1f 92 8a 4c 3d 00 40 2c 0a 6e ef 60 8b c0 3f
       2.0299311471789117 0.12925349894438065
000550 eb 80 54 2e aa 37 fb bf ee d8 3f 94 6b 44 06 40
       -1.7010900316018318 2.7834083158478427
000560 c6 73 a1 7c c7 ac f8 bf 92 12 f6 c0 ea bd e2 3f
       -1.5421824329744012 0.5856832283758016
000570 92 be 72 db de dd df 3f ba 18 97 5f 5f 0b dd bf
       0.49791690283289214 -0.4538191255090954
000580 f0 9d 86 25 28 c8 f6 3f 88 87 41 8f a5 e9 ee 3f
       1.4238664117673316 0.9660213277786491
000590 7e d4 99 49 3f 30 d2 bf f2 2f 76 86 9a a7 fc bf
       -0.2841947764166618 -1.790918851128478
0005a0 54 4a 0b 23 3a 1f e0 3f ef b2 60 6e 07 df f5 bf
       0.5038119015174041 -1.3669504462843027
0005b0 60 a9 62 98 4c 19 cd bf a4 21 51 93 36 e2 d7 bf
       -0.22733457031911097 -0.3731819571153443
0005c0 19 42 77 c7 ac 76 aa bf e5 f1 59 ad ef c8 06 c0
       -0.051686667775019575 -2.8481133978914266
0005d0 9f e6 c5 4b ff 82 c1 3f 87 5b b0 b9 24 ef 00 40
       0.13681021880966157 2.1167692667908713
0005e0 45 75 72 c4 64 09 cc 3f 94 e7 d7 10 a9 6a f9 3f
       0.21903667060989043 1.588540139955943
0005f0 77 d7 25 9b 94 3c 00 40 ec dc f2 c1 c1 7b d9 bf
       2.029580318538986 -0.39817851963330386
000600 71 30 11 28 d2 88 ec 3f 66 8f d0 d6 62 50 ef 3f
       0.8917017729340967 0.9785627551650407
000610 a6 4a 6e 0a 12 99 b4 3f 51 8a 34 b6 fa 1d c2 3f
       0.08046067003878452 0.14153989693393723
000620 fc 57 a2 62 ad 3c e8 bf bb c9 78 76 4c bf e0 bf
       -0.7574068952987996 -0.5233518899824995
000630 c5 80 f2 53 f2 5e fa 3f b3 ae 72 57 c8 3a e0 3f
       1.6481803206625483 0.507175608441193
000640 4e 35 dd 71 59 bd 9e 3f 48 05 8b 79 55 2f c4 bf
       0.030019185614311987 -0.15769451555937963
000650 a9 6b f7 29 98 af e4 bf 54 63 f7 36 a4 85 fd 3f
       -0.6464348621042194 1.845127310478536
000660 fd dd a3 7f 8f 95 f3 3f 2b 83 e6 cf 74 2c cb bf
       1.2240138040486948 -0.21229419852627393
000670 b6 25 12 d1 99 23 d2 bf 39 43 29 b5 94 05 f5 3f
       -0.28342290322379016 1.3138625218018218
000680 09 cd 6e 1e f7 8d a9 bf 20 1e bd c6 68 14 e1 bf
       -0.04991123434538209 -0.5337413674942049
000690 0e 6f 4d b3 ed 14 f5 3f 81 20 b9 3f e6 5f d3 3f
       1.317609501266762 0.30272823546375355
0006a0 73 9f 9f 85 c0 2d d9 bf 58 f8 53 58 d6 14 c0 bf
       -0.39341748284504446 -0.12563590348139786
0006b0 ca 40 3a 62 84 bf a3 bf a8 af 13 9c ac 70 f1 bf
       -0.0385705346972159 -1.0900083634141797
0006c0 de b2 06 3a d4 74 c5 3f 9f 42 dd 96 ff ec d6 bf
       0.1676278384524243 -0.35821523411599715
0006d0 8b c8 0e 52 f5 d6 f8 bf 26 c9 7c b0 08 e6 f3 bf
       -1.5524800496464504 -1.2436606306114952
0006e0 7e b4 3d 11 e5 75 fa 3f ce 65 98 20 3e 06 c3 bf
       1.6537829087713187 -0.1486280116230731
0006f0 1d 33 f6 7a 3d b2 fc 3f 7b 47 dd 3c ba e7 bf bf
       1.7935156634513938 -0.12462963090845662
000700 c5 b9 85 03 47 0f db 3f c2 c1 e4 50 22 8a c1 bf
       0.42280745834332506 -0.13702801656610403
000710 36 d6 23 f3 67 5b c1 3f 9f e0 dd 32 7c 59 8d bf
       0.13560199138707824 -0.014330835630730397
000720 d1 cf fe 4c 0d dd b0 3f 55 b2 e9 bb e4 7a e0 bf
       0.06587298517007346 -0.5150016470120798
000730 57 a5 fb f8 95 f6 f2 3f 3c 99 02 95 d0 85 f3 bf
       1.1852016187570678 -1.2201696224888812
000740 12 20 08 29 1e 85 f9 bf a4 f4 f8 4e b4 38 02 40
       -1.5949994662096327 2.277687661144755
000750 3a af 12 eb c3 d1 e8 bf 43 8f 9a c1 a4 0b e7 bf
       -0.7756061164159072 -0.7201713353465283
000760 bf 7e 6d 96 1d 7b eb bf 27 36 dc 90 81 fa cf 3f
       -0.858778756908542 0.24983233998538987
000770 5d a0 8f 8e 0f 3e 01 c0 6a bf 7d 7b 03 e3 e0 3f
       -2.155303109892016 0.527711621469263
000780 40 1c 39 21 65 da f2 3f 3b de 0e 8a 6b c5 f9 3f
       1.1783191011216019 1.6106982605832758
000790 9f 9f 71 8f 4a b4 fa bf 95 fb 5a 81 46 99 ff bf
       -1.6690164187693666 -1.97492075471357
0007a0 26 67 6b c3 f4 9e eb 3f 7b de 1d 57 dd 4e ef 3f
       0.8631538216388648 0.9783770276544169
0007b0 47 1c 81 31 4c 0c f6 3f ba 7e 46 84 dd b4 c6 bf
       1.378002351166076 -0.17739457091101035
0007c0 7e 2d 2d f7 ae f1 ce bf 54 9f 69 b1 7b df f2 3f
       -0.24175059384502257 1.1795613222293087
0007d0 1d cb 76 82 cf a0 e9 bf d6 59 9e 37 f3 b5 f0 bf
       -0.8008801982999533 -1.0444214031791623
0007e0 5e 14 f4 46 ea 2b fb bf f8 1d 0d e1 f9 94 cc 3f
       -1.698221470987185 0.2232963894732476
0007f0 f1 f3 65 c8 46 49 f7 bf 7a 15 6b 34 35 0a 05 c0
       -1.455389769368818 -2.6299842925242816

weight f4 [64, 3]
000000 3b 54 49 bd 73 47 ac bb 52 2d aa b9 2e f0 4d 21
       -0.049152594 -0.005257541 -0.00032458693 6.9774577e-19
000010 67 2e b6 a2 ac df f2 be bd a2 e1 bc e3 6e 19 bb
       -4.938033e-18 -0.47436273 -0.02754342 -0.002341204
000020 a6 a1 39 bc 8f ea 68 bd d5 1d 48 3d 1b 2b 8c b7
       -0.011330044 -0.056864318 0.048856575 -1.6709373e-05
000030 8c 79 95 bd ee 45 86 bc 6d 90 df b7 42 c9 3e bd
       -0.07298574 -0.016390767 -2.6650925e-05 -0.046578653
000040 a1 5c 7b 3d 0d e6 c2 3a 22 1c f8 3e 4a 3a 99 3c
       0.061367635 0.0014869586 0.48458964 0.018704552
000050 3d 0c 97 3f fb 92 a2 3a bc 66 af be 41 35 1b 3d
       1.180061 0.0012403423 -0.34258068 0.037892584
000060 a8 b4 83 bd 80 b4 9d bc e2 48 48 bc 7e 55 3c bd
       -0.06430942 -0.019251108 -0.012224408 -0.04597997
000070 93 3a e3 bb 94 fa 0b b8 c3 e7 b7 bc 60 79 4d bb
       -0.006934473 -3.337355e-05 -0.02244938 -0.0031352863
000080 e1 cf e2 bb 09 f2 94 bd 5a 2b 93 bc 0c e1 68 bc
       -0.0069217538 -0.07272727 -0.017965008 -0.014213812
000090 35 22 c9 bd 2e 2c f6 bc 10 e7 93 bc 08 29 0b bd
       -0.098209776 -0.030050363 -0.018054515 -0.033974677
0000a0 83 c0 f8 bb 71 35 53 bc c3 0a b5 bd 1f f9 4b be
       -0.0075913086 -0.012891159 -0.08839943 -0.19919251
0000b0 87 8a 9f 3c 14 cf 43 bd 14 10 9d 3b 26 3a 1d bb
       0.019475235 -0.047804907 0.0047931764 -0.0023990958
0000c0 d3 ca a5 bd 0a e1 7e bc 00 e1 87 bc 7c 88 9e bb
       -0.08095326 -0.015556583 -0.01658678 -0.0048380475
0000d0 dd c8 05 ba 9c bd 96 b2 fa 3f 10 bd 77 e7 b6 bb
       -0.00051034783 -1.7548523e-08 -0.035217263 -0.005581792
0000e0 c1 13 99 b8 d5 aa bb bb 07 02 9f 3a 9b 61 45 b8
       -7.299288e-05 -0.005727152 0.0012131342 -4.7059362e-05
0000f0 f7 ff 65 bd cd e0 16 39 75 d0 80 bb e0 fc ae bc
       -0.05615231 0.0001438886 -0.0039311 -0.021360815
000100 50 b4 00 bc d8 d4 0c bb 0c 6f 28 bd 86 2e 0d 3b
       -0.00785549 -0.002148917 -0.041121528 0.0021542623
000110 60 08 41 ba 71 8f 4f bd b5 16 6d bc 5f 8f 3d bc
       -0.00073636137 -0.050673906 -0.014470746 -0.011569827
000120 41 90 a2 3d 09 bf fe bb 28 49 45 40 37 5e e3 3d
       0.079376705 -0.007774238 3.08259 0.111019544
000130 5e bf 2e 3d ae 0c 1b 3e 94 2a 57 bd 62 ed e5 bc
       0.04266297 0.15141556 -0.05253084 -0.028067295
000140 c4 cb 04 bd 69 16 7a bd 83 96 52 3b ab b5 86 bb
       -0.03242089 -0.06105653 0.003213317 -0.004111012
000150 e3 a5 39 be f4 e3 ba 3e eb 9a 48 3d e8 a9 01 bc
       -0.18129687 0.3650204 0.048975866 -0.007914044
000160 91 e3 f4 39 42 11 46 33 42 7b 63 bd 1e 2b 85 3b
       0.00046708857 4.6116163e-08 -0.05553747 0.004063978
000170 4d 25 b4 b9 cc a2 7b bd 2b 49 a7 3a 6c 5b 94 bb
       -0.00034360067 -0.061434552 0.0012762895 -0.0045275
000180 89 49 43 bd 9b 3e ae 39 ad a7 6d b8 91 34 92 bd
       -0.04767755 0.0003323451 -5.6661363e-05 -0.071389325
000190 04 45 1a bd ec ad da bc 35 db 76 bd c2 bc bc bb
       -0.037663475 -0.02669426 -0.060267646 -0.0057598064
0001a0 af 38 e2 bb 85 b4 20 bd e0 38 0d bc 02 9b 89 b8
       -0.00690373 -0.039234657 -0.008619517 -6.5615415e-05
0001b0 8f 92 e7 bb a3 94 e1 3a b8 c8 3c b8 17 05 49 bd
       -0.0070670317 0.0017210435 -4.5009627e-05 -0.04907712
0001c0 4c 76 b4 bc e4 72 45 bc 44 76 2d bc 83 83 a4 3a
       -0.022029065 -0.012051318 -0.010587279 0.00125514
0001d0 8c 0d 30 ba 87 db 50 bc 9a 1d ce bc e6 e8 95 bc
       -0.0006715886 -0.012747652 -0.0251606 -0.018299531
0001e0 4c 0a 22 bc f5 60 34 3c 2b 61 2b 3b 09 94 9b bd
       -0.00989015 0.0110094445 0.0026150446 -0.07596595
0001f0 c8 39 2f 3c 52 3b e7 ba c6 1a ea bc cc 2a 3a bb
       0.0106949285 -0.001764158 -0.02857722 -0.0028406857
000200 b4 d7 92 b5 9e 13 72 bd fd 72 cd 3b c0 38 f3 bb
       -1.0940626e-06 -0.05910074 0.006269811 -0.0074225366
000210 04 a8 e6 bc 6f 86 e8 3c b4 55 cb 3c 83 bf 26 bd
       -0.028156288 0.028384415 0.02482114 -0.040709984
000220 a4 3f c3 3a 3d d5 89 bc 1b b1 bb bc e0 ad 87 3a
       0.0014896286 -0.016825313 -0.022911599 0.0010351501
000230 ab e8 c4 b8 2f 9d 3e bd 1a fc 8e bb 0a 1e 12 bc
       -9.389346e-05 -0.04653662 -0.004363549 -0.008918295
000240 03 47 47 bd 2b 30 ab 3b 21 75 0b b8 42 ed 0b bd
       -0.048651706 0.005224248 -3.3249267e-05 -0.034161814
000250 f5 d0 4c 3c 95 28 48 ba 1f 49 3e bd 5b a0 d4 ba
       0.012500991 -0.0007635442 -0.046456452 -0.0016222106
000260 eb 20 c9 ba 65 6e 06 b9 83 e2 5b b8 3a a5 27 b7
       -0.0015344893 -0.00012820361 -5.2424624e-05 -9.9924455e-06
000270 52 bd 2a bd 8d 6e eb bc e5 84 3e bc 9f 22 75 bd
       -0.041684456 -0.028739238 -0.011628364 -0.05984747
000280 32 f1 07 3c ad 70 ad bb 03 b1 d4 ba 4c 3b 1b ba
       0.008297252 -0.005292973 -0.001622707 -0.00059216167
000290 1e 34 27 b8 5b 16 f4 bc 46 1e 53 bc e7 13 c1 ba
       -3.986444e-05 -0.029795816 -0.012885636 -0.0014730663
0002a0 03 83 a5 bc 3f aa 0f bb 89 1f b1 b1 2a 07 02 bd
       -0.020204073 -0.0021921543 -5.154963e-09 -0.031745113
0002b0 17 86 dc 3a 90 a1 19 b7 72 57 6f bd 3c 6c 5c bc
       0.001682463 -9.157127e-06 -0.058433004 -0.013453539
0002c0 50 94 bc bb 4d cf 41 bd 6e c3 9b ba 37 69 8a bc
       -0.005754985 -0.047316838 -0.0011883804 -0.016895873
0002d0 e6 d5 e2 3d f9 79 0e 39 c2 d1 4a c0 5d 97 a0 bb
       0.11075954 0.00013587614 -3.1690526 -0.0049008564
0002e0 18 de fc b9 18 34 1b b7 10 e3 41 bc e0 69 06 3c
       -0.00048230658 -9.250849e-06 -0.011833921 0.0082039535
0002f0 e9 6d ff 3b 7e 46 80 bd e3 97 15 bc 58 cd e3 b7
       0.0077950847 -0.06263445 -0.009130451 -2.715613e-05

bias f4 [64]
000000 40 95 15 bd e5 59 8a a2 e9 ea e7 bc 80 34 ab bc
       -0.03651929 -3.7500154e-18 -0.028310256 -0.020899057
000010 d9 aa 09 bd 20 01 f6 bc 21 2e 1c bf c8 86 51 bd
       -0.0336102 -0.030029833 -0.6100789 -0.051153928
000020 9c f0 1b bd fb b5 c9 bc a3 bd a0 bc 8a c0 3e bd
       -0.03807126 -0.024622908 -0.019621676 -0.04657034
000030 51 c2 9d bd 47 d7 69 bc 6b 36 ff 3c 29 b2 f2 bc
       -0.077030785 -0.0142725175 0.031153878 -0.029625969
000040 24 a1 72 bd a7 65 77 ba 68 63 a0 bc bf c0 35 ba
       -0.059235707 -0.00094374496 -0.01957865 -0.00069333235
000050 d1 60 2f bd f3 95 2b bc f7 77 da bc 6d e3 11 bd
       -0.04281694 -0.010472762 -0.026668532 -0.03561728
000060 85 cb 24 be 25 72 09 be 82 bc 8f bd d5 53 38 bd
       -0.16093262 -0.13422449 -0.07018377 -0.045001823
000070 b2 0f cd 3d a7 97 ea ba 11 23 f5 bc d7 7e 36 bd
       0.10012759 -0.0017897979 -0.029923948 -0.044554558
000080 bd 89 df bc a6 4a 65 bd 43 33 03 bd 2f b0 a7 bc
       -0.027287358 -0.055979393 -0.03203131 -0.020469753
000090 3c 7e 37 bb cd d1 74 bd 3b e2 c9 bb 24 3a 32 bd
       -0.0027998826 -0.059770394 -0.006161002 -0.04351248
0000a0 d1 78 a2 bb 35 7e 29 bd f6 6d fb bb e7 99 2b bd
       -0.00495825 -0.041380126 -0.0076730205 -0.04189482
0000b0 75 e1 11 bc 50 e7 c4 bc a6 0b 00 bc 47 05 05 bd
       -0.008903851 -0.02403608 -0.007815277 -0.032475736
0000c0 8b 12 d3 bc 10 54 9e bc e9 5a 05 bd 7a 48 db b7
       -0.025765678 -0.019327193 -0.0325574 -2.6140584e-05
0000d0 f6 08 39 bd d9 16 4b bd d8 5c bf b8 8e de 94 bb
       -0.04517456 -0.049582336 -9.124883e-05 -0.004543132
0000e0 26 8f 26 bc 74 dd a0 bc 8c e3 0e bd 76 12 d4 bc
       -0.010165965 -0.019636847 -0.034884974 -0.02588771
0000f0 a1 e4 32 3f 3a b9 08 bb 2a 88 d5 3b a2 04 0b bd
       0.6988011 -0.0020862357 0.006516476 -0.033939965

weight f4 [64, 64]
000000 c9 6d 95 22 3f 4a d5 a2 f4 49 f1 a2 c5 53 97 22
       4.050277e-18 -5.7812377e-18 -6.540148e-18 4.1017326e-18
000010 2b 38 ca a1 9c 93 d2 a2 ca fa 27 bc 93 4d 0d 2e
       -1.370292e-18 -5.70769e-18 -0.010252664 3.2128588e-11
000020 6f 82 da a1 5d 2e 16 a2 07 72 b9 22 5d 19 e1 ab
       -1.480678e-18 -2.0353335e-18 5.026508e-18 -1.5994251e-12
000030 71 7e b8 a2 00 77 5a 9e 98 31 2d 24 d8 0c 14 21
       -5.0007175e-18 -1.15654325e-20 3.7555403e-17 5.016135e-19
000040 d8 70 ce 21 98 9b c8 22 31 c7 f1 a2 7c 71 dd 22
       1.3988972e-18 5.437485e-18 -6.5534083e-18 6.0022326e-18
000050 d7 66 c3 22 d5 ef 0b 23 e3 5b fe 22 2b b9 9b 22
       5.296374e-18 7.5859915e-18 6.8944127e-18 4.220889e-18
000060 bd 00 ec ba f8 76 4a b6 fe d5 c0 22 60 41 09 22
       -0.0018005591 -3.0169595e-06 5.2268277e-18 1.8601571e-18
000070 06 03 ec b3 bd 2b ff 21 5d 13 36 22 40 be f6 a2
       -1.0990156e-07 1.729105e-18 2.467585e-18 -6.687987e-18
000080 84 75 10 a2 51 5e 98 a2 50 fa 23 a2 4f cd e0 22
       -1.9577851e-18 -4.1299544e-18 -2.2223134e-18 6.09327e-18
000090 f7 6e c2 a2 c7 f7 c6 28 fd b2 e1 a2 a9 bf dd a2
       -5.2701294e-18 2.2089872e-14 -6.1175883e-18 -6.01051e-18
0000a0 04 10 cd 21 6c b8 12 21 ff c5 11 22 b9 0d ad 22
       1.389558e-18 4.9710804e-19 1.9755983e-18 4.6906273e-18
0000b0 56 7f 5e a2 cc 53 6d 22 d4 d3 d7 a2 10 fd fa 21
       -3.0154021e-18 3.2163851e-18 -5.850015e-18 1.7007644e-18
0000c0 89 42 c7 21 20 f6 cb a2 01 d9 03 a3 6c ca b4 22
       1.3502376e-18 -5.5283855e-18 -7.147477e-18 4.900342e-18
0000d0 7c b9 fd a0 16 a6 04 22 40 70 df 22 38 ae d2 21
       -4.298261e-19 1.797726e-18 6.056312e-18 1.4276269e-18
0000e0 93 aa b7 21 58 b0 02 a1 08 58 40 22 e7 c4 e9 a2
       1.2445713e-18 -4.42791e-19 2.6067455e-18 -6.3363255e-18
0000f0 9d 24 7b ba 38 1c 2e 22 46 80 b5 22 32 bd 10 a3
       -0.0009580346 2.3596336e-18 4.9195963e-18 -7.846319e-18
000100 49 40 25 3a 8d 74 61 a2 63 ce 87 bb 3e ce ac bb
       0.000630383 -3.0554888e-18 -0.0041444763 -0.0052736094
000110 d3 98 f8 37 d5 38 3f bc 1f d2 04 3f 9c bc 29 bd
       2.9635068e-05 -0.011671265 0.5188312 -0.041439638
000120 c8 39 69 3b 89 69 e9 b8 fa 2e 1a b9 ed 55 11 bb
       0.0035587419 -0.00011129963 -0.00014704085 -0.002217646
000130 3e e3 b6 3c 64 6e 21 3b bd 51 a5 bc d8 1b d6 b9
       0.022325154 0.0024632448 -0.020180577 -0.00040838006
000140 4e db c9 3b 5e 31 9a 33 7f 55 46 35 c0 64 98 b9
       0.0061601764 7.180164e-08 7.388516e-07 -0.00029066764
000150 a0 ec f7 3a 49 6e e5 b9 24 71 cd 34 c6 1e f5 3b
       0.0018915124 -0.00043760453 3.8266546e-07 0.007480475
000160 c7 6a bb 3e ab 8c 9c 3d a6 58 a1 3b 4e 2d a4 3a
       0.36604902 0.07644018 0.004923898 0.0012525709
000170 1f f6 72 3b a8 9d 25 34 d2 ad 8a 38 f6 74 31 3b
       0.003707297 1.5424177e-07 6.612729e-05 0.002707777
000180 05 09 30 37 26 65 40 bc 88 03 b7 3a 1c e5 cb b8
       1.04925175e-05 -0.011742866 0.0013962844 -9.722469e-05
000190 2e c9 d6 b9 52 70 4d 3a a6 b7 1f b8 4b 8c 98 bc
       -0.0004096715 0.00078368664 -3.807959e-05 -0.018621584
0001a0 c2 3d 99 bc 86 7b 44 3b 9a c1 49 b7 64 c2 4e bb
       -0.018706206 0.0029980852 -1.202561e-05 -0.0031548971
0001b0 74 82 a8 bb 69 4a 6d 3c 10 04 8b 38 38 69 a8 bb
       -0.0051425043 0.014483073 6.628793e-05 -0.005139496
0001c0 a5 7f 6d b8 13 a4 06 b9 8a 7c 52 3b 52 66 fa b4
       -5.662408e-05 -0.00012840358 0.0032117688 -4.6640577e-07
0001d0 bf 54 b4 bc 51 7c ee 3a b0 56 62 b6 ba 4b 92 bc
       -0.022013066 0.0018195008 -3.3727083e-06 -0.017858375
0001e0 ca 8e 81 39 ca 95 47 b3 e5 bb 59 ba 2b a4 76 3c
       0.00024711184 -4.646953e-08 -0.00083058915 0.015053789
0001f0 6b 83 5e 3e 2d 46 6d b2 3e 6b 4a 3b e4 d5 c1 37
       0.2172982 -1.3811172e-08 0.0030886675 2.3106993e-05
000200 a9 da cb 22 4f f4 3b a2 ca 72 85 21 f2 55 a7 a1
       5.5254776e-18 -2.5472562e-18 9.042815e-19 -1.133911e-18
000210 96 d5 93 a7 c1 19 17 32 aa 7a e8 bc e2 b9 c4 bb
       -4.1032266e-15 8.795213e-09 -0.028378803 -0.0060036043
000220 9f 57 42 a7 4e 43 ed 22 e1 cd 31 ac 75 a3 98 a2
       -2.6970408e-15 6.431024e-18 -2.5267499e-12 -4.137275e-18
000230 de fa c8 a7 41 e1 ae 2b c9 7f ad b9 31 b1 97 a2
       -5.578314e-15 1.2425964e-12 -0.0003309234 -4.111624e-18
000240 cb e4 01 a4 34 50 ce a4 6f 4a b3 22 3c 98 8d a2
       -2.816621e-17 -8.947413e-17 4.8596857e-18 -3.837931e-18
000250 9b 6c 28 a7 84 55 bc a2 ee 51 01 a3 29 6f 00 22
       -2.3373559e-15 -5.1048045e-18 -7.010453e-18 1.7406082e-18
000260 7a 87 2d bd fd 6d b4 b9 fa 33 04 a1 63 5d 7f 25
       -0.04236553 -0.00034414223 -4.479213e-19 2.2149365e-16
000270 51 18 52 bb 20 bc 46 a3 f0 6d cf 25 99 fe 13 a4
       -0.003205795 -1.07734385e-17 3.5983273e-16 -3.2091196e-17
000280 07 8c 3c 25 a3 9a ca 22 56 56 6a 23 cf 99 18 a3
       1.6353844e-16 5.4915938e-18 1.2703448e-17 -8.272507e-18
000290 24 81 fb 20 d2 95 65 ac f0 c7 08 a3 96 9e 02 32
       4.2606512e-19 -3.2626024e-12 -7.414913e-18 7.603054e-09
0002a0 54 e6 85 b9 8e a9 df 21 14 8f d3 a4 de fa 06 23
       -0.00025539345 1.5155949e-18 -9.174905e-17 7.317278e-18
0002b0 e6 c7 84 2c d4 60 5f 22 29 7f 42 22 15 6d 82 2f
       3.773859e-12 3.0273396e-18 2.635922e-18 2.372437e-10
0002c0 f8 1d 7e 26 0b 7d 27 a4 5c 51 47 22 0a 55 cb 22
       8.816457e-16 -3.6318268e-17 2.70126e-18 5.51133e-18
0002d0 b3 32 c8 2d c2 b6 cc a1 d8 86 60 22 47 1a 5a ae
       2.2759883e-11 -1.3871953e-18 3.0429047e-18 -4.95908e-11
0002e0 31 50 08 23 0b 52 87 a3 38 40 be 21 94 6b 61 a1
       7.389556e-18 -1.4671476e-17 1.2891899e-18 -7.6375344e-19
0002f0 75 99 71 bc c7 1d 64 22 58 be cc 25 52 93 71 a4
       -0.01474606 3.0915526e-18 3.551734e-16 -5.238333e-17
000300 f1 e1 82 a5 b3 29 b7 a2 c2 8a 95 24 3f 84 68 28
       -2.270451e-16 -4.96464e-18 6.4853514e-17 1.2907263e-14
000310 c0 68 2a 23 82 6e 5a 23 30 27 dd bc 69 4c cf ba
       9.2379e-18 1.1841205e-17 -0.026996225 -0.0015815619
000320 25 fb 13 a4 aa c3 9e a1 42 ca 32 2f 59 c1 9e b3
       -3.208827e-17 -1.0758288e-18 1.6260862e-10 -7.392618e-08
000330 03 09 0e 23 90 aa 80 ad ea af 88 b6 b1 48 1e 2b
       7.699744e-18 -1.462766e-11 -4.073595e-06 5.6233756e-13
000340 db d0 0e a6 26 93 5a 22 0b a3 62 24 fd 39 49 23
       -4.95492e-16 2.9622409e-18 4.914404e-17 1.0908511e-17
000350 cd 75 e8 24 6e ea ce 23 2b a8 c1 a3 4a a5 c3 a5
       1.00813524e-16 2.243385e-17 -2.0996324e-17 -3.3939112e-16
000360 a1 4c e8 bc 85 26 9c bb 13 2f 08 a3 39 45 bd a5
       -0.028356852 -0.004765334 -7.382543e-18 -3.283318e-16
000370 e1 90 39 bc bc 20 30 22 35 d7 68 27 ff 70 2c 26
       -0.011326046 2.3869777e-18 3.2313132e-15 5.9827626e-16
000380 04 a1 0b 24 2c 69 b2 2d c3 58 22 a6 3f 3d 47 a2
       3.0277206e-17 2.0282963e-11 -5.6325335e-16 -2.7001952e-18
000390 f8 23 cc a2 57 c8 1b 25 22 0f 99 a3 9a 69 4c 22
       -5.5332394e-18 1.3511985e-16 -1.6594702e-17 2.770306e-18
0003a0 1a a4 60 22 73 98 7d a3 7b 44 67 22 3c 19 8e ad
       3.0444535e-18 -1.374744e-17 3.134259e-18 -1.6154737e-11
0003b0 7f 01 28 a4 77 a5 74 aa cc ab b0 a3 15 42 bd 22
       -3.643046e-17 -2.172896e-13 -1.9154717e-17 5.129852e-18
0003c0 b4 b9 ab 24 11 67 2d 22 f2 1b 35 a3 6b aa 14 a4
       7.447402e-17 2.3500435e-18 -9.817947e-18 -3.2236734e-17
0003d0 e6 51 0d a3 49 00 4b 28 8e 1d fd 23 a6 ad d8 a2
       -7.660968e-18 1.12688255e-14 2.7442832e-17 -5.8730775e-18
0003e0 97 d9 90 a8 bb 4b 88 23 4a 89 2d 22 ce 46 bb a8
       -1.6081576e-14 1.4777223e-17 2.3518552e-18 -2.0791877e-14
0003f0 71 0f 60 bc ea 91 01 a2 79 f7 59 25 2f ff 86 23
       -0.0136755565 -1.7560006e-18 1.8905597e-16 1.4636384e-17

bias f4 [64]
000000 00 db a2 bb 3a 0f 65 be 12 ba 75 bd 04 aa 1f bd
       -0.0049699545 -0.2236909 -0.059991904 -0.0389805
000010 39 8e 41 ba 24 bd ab 3e c4 90 a5 3f cd a8 5c be
       -0.00073835585 0.3354274 1.2934804 -0.21548767
000020 90 d4 d3 bc dd 87 20 bd 51 39 14 bc 10 63 ba bb
       -0.025858194 -0.03919207 -0.009046868 -0.0056880787
000030 81 93 2b bb 64 2f c4 bb c7 26 23 bd 62 d9 20 bc
       -0.0026180448 -0.0059870947 -0.039831903 -0.009817453
000040 52 bf c4 bc c6 e9 4d b9 ed 0c 0c bd c0 39 26 bd
       -0.02401701 -0.00019637411 -0.034192014 -0.04058242
000050 5d 3e 56 ba bb 19 10 bd 8d ca a2 3e 4f f8 13 40
       -0.0008172745 -0.03518079 0.3179516 2.3120306
000060 3d 79 d0 bc ec 7d 84 3e cc 4b 43 bd 67 a8 86 be
       -0.025448436 0.2587732 -0.047679707 -0.26300356
000070 7c a7 e9 bc eb 6c 55 bc 0b 0d 43 b7 a5 5e 47 bb
       -0.028522246 -0.013026456 -1.16259425e-05 -0.0030421403
000080 c6 84 8f 3e 72 8b 1d bc f2 0c 18 bd 9d 7b 8d ba
       0.28030986 -0.009615766 -0.03712172 -0.0010794286
000090 ba bc be bc b6 e5 0f bc 69 0b d0 bc 10 06 28 ba
       -0.023283351 -0.008782795 -0.025396066 -0.0006409595
0000a0 74 40 21 bd 2b df b5 bc db 44 50 3d 79 c1 85 ba
       -0.039368108 -0.022201141 0.050846916 -0.0010204754
0000b0 23 03 3a bc 6f b2 3f bd d1 f8 27 40 0b 84 08 bd
       -0.011353287 -0.046801027 2.6245615 -0.03332905
0000c0 7c 19 86 bc 17 3d 1f bc 71 15 7d b9 7b 4b 12 b8
       -0.016369574 -0.009719155 -0.00024135948 -3.487941e-05
0000d0 37 01 ca bc 48 92 4b 3f 02 bc 16 be 7c ae dc bc
       -0.024658782 0.7952008 -0.14720157 -0.02693867
0000e0 e1 c7 b5 bc f0 cd 07 bd f9 74 ad b5 11 78 d6 bc
       -0.022190036 -0.03315538 -1.2923548e-06 -0.026180299
0000f0 76 91 9b bc 3e ac 68 bb 7c 7b 55 bb 77 84 8f 3d
       -0.01899026 -0.0035503055 -0.0032574823 0.070076875

weight f4 [64, 64]
000000 b1 5f aa a2 94 33 7e 31 ee b5 45 23 28 a1 9d 22
       -4.617991e-18 3.6991183e-09 1.07179165e-17 4.2725566e-18
000010 5f e6 2a 23 ef 09 27 2a c8 46 89 b8 82 74 98 ae
       9.2645014e-18 1.4836026e-13 -6.545853e-05 -6.932856e-11
000020 d0 f4 b0 a2 3c 69 a4 23 26 7c 09 a3 e5 67 77 22
       -4.79641e-18 1.7825484e-17 -7.453074e-18 3.3529743e-18
000030 d8 8e 2e 23 f6 6a ee 22 00 0a 66 24 b2 01 54 22
       9.462807e-18 6.462328e-18 4.988177e-17 2.8732255e-18
000040 50 f8 e2 a0 e0 bb f9 21 e9 10 02 a3 9a ad ad 23
       -3.8450209e-19 1.6922626e-18 -7.050895e-18 1.883022e-17
000050 5a 3f 0d a3 1b 92 63 22 e4 2e ed 2d ac 29 5f bb
       -7.6570405e-18 3.0841584e-18 2.6964604e-11 -0.0034051938
000060 72 4d 2a 23 fb de 2d a7 2c 58 d0 22 2a 51 1f 28
       9.232118e-18 -2.412945e-15 5.647187e-18 8.843873e-15
000070 41 35 24 24 3a 60 b7 21 6c 51 a7 a2 a5 32 25 24
       3.560694e-17 1.2426033e-18 -4.535165e-18 3.582157e-17
000080 1e 29 d9 a5 d9 30 dd a2 ee 9d e7 a0 44 80 d1 22
       -3.7671362e-16 -5.995389e-18 -3.923743e-19 5.678537e-18
000090 8a bd d5 a2 dd b7 a4 a2 34 6b 3a 22 15 c6 da 21
       -5.793445e-18 -4.464696e-18 2.5264453e-18 1.4824686e-18
0000a0 53 7b db a3 17 fa 41 23 a3 de 90 aa ee 4b a0 a1
       -2.3796257e-17 1.05155095e-17 -2.5734024e-13 -1.086212e-18
0000b0 0a 97 bf 22 c0 de cc a2 af 26 4f bb 6d f0 51 a2
       5.1930573e-18 -5.5530157e-18 -0.003160875 -2.8452062e-18
0000c0 2a 3b 78 22 29 10 82 23 72 f8 42 22 0e cc 5d a2
       3.3641589e-18 1.4101472e-17 2.6423429e-18 -3.005911e-18
0000d0 8d 64 95 a2 3f 41 d3 b3 a6 ad d8 a2 98 b9 7d 22
       -4.0492993e-18 -9.8373214e-08 -5.8730775e-18 3.4386146e-18
0000e0 98 3b ff a2 f1 43 9d a2 e4 60 9e 22 fa 5a 01 23
       -6.9180986e-18 -4.262687e-18 4.2928573e-18 7.012369e-18
0000f0 f1 a4 30 23 13 e3 a0 a3 60 b2 85 a3 4a 4f 53 ab
       9.575907e-18 -1.7443404e-17 -1.4495434e-17 -7.5072294e-13
000100 67 19 54 22 d7 50 c2 ba 30 66 89 21 7f 08 32 2e
       2.8744805e-18 -0.0014825118 9.31053e-19 4.048006e-11
000110 1c 1a b0 a5 fa 8e 23 ae ef 60 4d bc 60 9a 60 b8
       -3.0548826e-16 -3.7188898e-11 -0.012535318 -5.3549535e-05
000120 67 93 00 23 b4 f0 f6 aa 94 4b a9 a2 51 5f 49 a3
       6.9701076e-18 -4.38654e-13 -4.5887563e-18 -1.0916416e-17
000130 be 64 a5 22 a2 16 3b a7 9b 6a 4c a8 bd d1 a3 a5
       4.4830005e-18 -2.5963732e-15 -1.1347391e-14 -2.8418117e-16
000140 ff 16 48 a7 32 58 fa a2 a8 cd 1d 23 25 38 44 2e
       -2.7768042e-15 -6.7856016e-18 8.5545365e-18 4.4615107e-11
000150 18 39 21 a2 a8 aa 8b 23 85 87 fe 34 35 af f3 bc
       -2.1849794e-18 1.5142686e-17 4.740979e-07 -0.029746631
000160 e2 b4 8b aa 01 3f da ac 11 29 6a ab e3 37 e5 29
       -2.4816873e-13 -6.2029275e-12 -8.319049e-13 1.0179338e-13
000170 c3 08 99 21 1a 44 40 a2 cc ef 24 a1 10 2d 0a a3
       1.0370002e-18 -2.6056905e-18 -5.588273e-19 -7.490537e-18
000180 57 fe 50 a8 94 ce 55 21 ee ca 3f 26 c0 8f 85 25
       -1.1601471e-14 7.244061e-19 6.654146e-16 2.316923e-16
000190 db b3 32 a1 3d 3a 06 a3 d8 6f a8 27 20 2a f8 20
       -6.054678e-19 -7.276487e-18 4.675063e-15 4.204071e-19
0001a0 06 53 0b 27 6e 29 ef a0 eb 34 a0 b0 fe 34 68 a1
       1.9335132e-15 -4.051559e-19 -1.1656572e-09 -7.867479e-19
0001b0 b8 4d 1a a1 53 8a 93 a2 08 e3 e3 bc 6b 13 bd 22
       -5.228009e-19 -3.9990886e-18 -0.027818218 5.1249112e-18
0001c0 b6 78 c6 a3 6d 91 52 22 93 e9 28 a3 d5 49 71 a2
       -2.1518326e-17 2.8537295e-18 -9.1567595e-18 -3.2700677e-18
0001d0 92 57 35 a7 5b 03 25 bb 35 1e 00 80 bf d6 cb a2
       -2.5166268e-15 -0.0025179002 -1.0836e-41 -5.525063e-18
0001e0 a0 ca c7 a7 2b b7 ae 23 11 27 ab a1 ee 7b a6 a2
       -5.545328e-15 1.8942692e-17 -1.1597752e-18 -4.5125606e-18
0001f0 47 82 f6 a5 b4 41 83 21 db cc 2a 23 b9 8c 31 ae
       -4.2762477e-16 8.894297e-19 9.259098e-18 -4.0370127e-11
000200 1d 82 0e 22 77 dc 1b bb ec fe 06 a1 c2 f5 1b ae
       1.931347e-18 -0.002378253 -4.573835e-19 -3.5461196e-11
000210 f2 3c 93 a6 cc 33 03 2f 89 8b 8d bc 91 44 06 b9
       -1.0216693e-15 1.1932783e-10 -0.01727845 -0.00012804779
000220 f9 23 d1 a2 c8 07 fb 27 4e 9b 36 22 36 8c f6 a2
       -5.668765e-18 6.967493e-15 2.4747817e-18 -6.6826888e-18
000230 ca e5 2c 22 a3 57 75 a7 f8 7d c7 a7 b6 9b 86 26
       2.3431996e-18 -3.4048088e-15 -5.537017e-15 9.340323e-16
000240 9f ab 3f a7 da 95 4c a3 da 00 ce a3 53 16 56 ae
       -2.659961e-15 -1.10905945e-17 -2.2334925e-17 -4.8677794e-11
000250 ec 2b 4e a2 97 66 02 a4 e7 4a 01 b8 cc b5 07 bd
       -2.7941458e-18 -2.8276153e-17 -3.0825755e-05 -0.03313236
000260 23 de 2b aa e5 e7 39 2e ef ba 2f 2b 81 79 8c 29
       -1.526492e-13 4.2270094e-11 6.243191e-13 6.2383265e-14
000270 79 0a e4 22 0d 93 00 23 15 5b 99 a1 37 ca d0 a2
       6.1810612e-18 6.970033e-18 -1.0391792e-18 -5.6592616e-18
000280 13 40 92 aa ce 39 02 a2 77 99 35 28 80 ad a3 a6
       -2.597927e-13 -1.7648887e-18 1.0080796e-14 -1.1357424e-15
000290 80 43 2e a3 88 77 e6 a2 fb c5 7f a8 c3 52 71 a2
       -9.4468526e-18 -6.2468184e-18 -1.4198274e-14 -3.2705404e-18
0002a0 ee be a6 26 c5 6a e9 22 3d 5d 13 b1 0e 29 17 23
       1.1570315e-15 6.3267823e-18 -2.1444315e-09 8.19442e-18
0002b0 3b ea 9a a1 36 04 fd 22 30 b3 05 bd f3 9c 47 23
       -1.0497446e-18 6.8580246e-18 -0.03264159 1.0821047e-17
0002c0 91 80 3f 25 90 29 91 22 6e 32 ae 23 36 bd 04 a4
       1.6610169e-16 3.9346335e-18 1.8886476e-17 -2.8783205e-17
0002d0 70 54 0a a7 59 5d 96 bb 67 54 92 21 10 0e 11 a3
       -1.919712e-15 -0.0045887646 9.915686e-19 -7.863444e-18
0002e0 3a 5d bc 28 e7 e6 c5 a3 ac b2 d0 22 28 2b 94 a2
       2.0912623e-14 -2.1456574e-17 5.656769e-18 -4.0161174e-18
0002f0 0b b1 e8 a5 17 9a fc 21 a1 bc 0e a3 99 b8 a2 af
       -4.0365554e-16 1.7116971e-18 -7.737779e-18 -2.9598793e-10
000300 28 ec 0c 24 45 80 5d 31 8c ca 61 23 88 40 9a 23
       3.0557693e-17 3.2232645e-09 1.2240165e-17 1.6724044e-17
000310 fa 14 31 23 86 95 22 29 62 f0 22 b8 23 9e 89 ae
       9.599631e-18 3.6100917e-14 -3.8847684e-05 -6.2581294e-11
000320 ce 14 29 22 69 c2 48 a4 46 38 f6 a2 36 6d d1 a3
       2.2914785e-18 -4.353276e-17 -6.6738015e-18 -2.2706078e-17
000330 61 1d 00 24 40 ce 38 a2 52 05 95 a1 54 3d dd a2
       2.778046e-17 -2.5045838e-18 -1.0098041e-18 -5.9967104e-18
000340 09 cd be a1 1f 9b 3b a2 ab 58 e8 22 dc 3b 57 23
       -1.2929173e-18 -2.5425346e-18 6.2977607e-18 1.1667849e-17
000350 bf ca b8 22 38 1d 3f 22 d7 5b 29 2c a1 38 40 bb
       5.0087966e-18 2.5900795e-18 2.4067326e-12 -0.0029330628
000360 6f c9 6b 23 d1 2e 09 28 29 e3 df 22 d6 87 82 a6
       1.2782031e-17 7.615179e-15 6.0684786e-18 -9.05738e-16
000370 e2 5c dd 23 6e 0c f3 a2 9b e8 9f a2 1c c4 c8 a2
       2.4000205e-17 -6.5878442e-18 -4.3343317e-18 -5.4417748e-18
000380 fa b3 88 25 e8 82 fb 20 fe e5 91 22 9a 66 bb 22
       2.3714196e-16 4.260768e-19 3.9545842e-18 5.0795085e-18
000390 b4 9b f6 21 d8 3f ac a2 ad d1 84 a2 97 7c 1d a2
       1.6710823e-18 -4.668829e-18 -3.6000675e-18 -2.1343425e-18
0003a0 5e a7 03 24 d5 b3 c2 a2 59 a7 de 27 52 61 1c a3
       2.8547862e-17 -5.277421e-18 6.1798817e-15 -8.477385e-18
0003b0 56 99 9e a2 d3 32 3a 22 ad 6a 2e bb 7e d4 e3 a2
       -4.2988337e-18 2.5234607e-18 -0.0026613877 -6.175346e-18
0003c0 88 74 31 22 6e 9e 27 a4 e7 84 d7 a2 82 a3 a5 22
       2.4049664e-18 -3.6346548e-17 -5.8416583e-18 4.489646e-18
0003d0 05 73 f6 a2 a4 45 0a b4 48 ae 1b a2 73 5d 8f 22
       -6.6800215e-18 -1.2877587e-07 -2.109868e-18 3.885917e-18
0003e0 55 de e7 a2 eb 23 53 a2 44 98 1d a2 c3 e1 4a a2
       -6.284808e-18 -2.8614847e-18 -2.1358076e-18 -2.7495622e-18
0003f0 da d5 a9 22 0f 3f bc 23 db f6 cf 22 8c c4 3e 2a
       4.6033966e-18 2.0409707e-17 5.636883e-18 1.6943581e-13

bias f4 [64]
000000 48 f6 1f b8 cc 0b 56 bc e7 57 91 bc 2a 90 be b7
       -3.813792e-05 -0.013064336 -0.01774211 -2.2716897e-05
000010 47 ee cb 3d 4a b1 65 3f a3 5d 4a bd da 55 a4 bc
       0.09957557 0.89723647 -0.049405705 -0.020060468
000020 f3 4e e5 bc 80 0d c9 bc 26 73 ca bc 63 ed a4 bb
       -0.027991747 -0.02454257 -0.02471311 -0.0050331815
000030 86 34 b0 bc e7 61 81 bc 52 36 ac bb 3e 61 87 bb
       -0.02150942 -0.015793754 -0.005255499 -0.004131465
000040 12 f4 e8 ba 97 b8 90 bc de 7f 02 b9 1e 30 db 3d
       -0.0017772934 -0.017666144 -0.000124454 0.10702537
000050 66 27 c6 bc 09 20 33 bc d5 a6 ab bb 2a 13 d2 bc
       -0.024188709 -0.010932931 -0.005238394 -0.025643904
000060 e2 07 85 bc 93 73 db bc 5c a6 16 bc 83 4d 3c ba
       -0.01623911 -0.026788509 -0.009194937 -0.0007183181
000070 6a e7 f8 bb f9 06 b1 bc 93 b3 99 bc 3d 41 03 bc
       -0.007595946 -0.02160977 -0.018762385 -0.0080111595
000080 dc bc 4e b3 3d 39 b2 bb df 2c c6 b2 fb af 84 ba
       -4.813488e-08 -0.0054389522 -2.3070639e-08 -0.0010123247
000090 b7 fd 89 ba 51 50 d6 3e c5 15 b7 bb 1f b1 88 ba
       -0.0010527883 0.41858152 -0.005587312 -0.0010428763
0000a0 38 ca 8e bb 3a 3a 07 b9 c5 41 0c bc 7c 78 89 bc
       -0.0043576024 -0.00012896294 -0.008560603 -0.016781084
0000b0 9a 45 81 3c de 06 69 b9 ea e5 d4 b9 db 5c e4 b8
       0.015780259 -0.0002222317 -0.0004060709 -0.00010889183
0000c0 b3 79 96 bc 1d 29 00 3b 0a 4c 36 bb 85 8e 28 3f
       -0.018368578 0.0019555755 -0.002781632 0.6584247
0000d0 0d 88 b4 bb 55 94 d2 bc 20 ee c5 bc 4f 75 d6 b8
       -0.0055093826 -0.025705496 -0.024161398 -0.000102261656
0000e0 d5 36 cd bc cd 07 9a bc 79 b9 55 bb 0e 37 6e bc
       -0.02505056 -0.018802548 -0.003261177 -0.014539493
0000f0 b1 31 4f 3d 43 47 3b bb 1d 97 f0 b3 66 fa ae b7
       0.0505845 -0.002857641 -1.1203358e-07 -2.0859017e-05

weight f4 [1, 64]
000000 f2 a8 cf 3b 46 1b 6c bc 54 1e 0b bc c6 00 53 3c
       0.0063372785 -0.014410799 -0.0084911175 0.012878602
000010 56 ab eb be 15 f6 fa bf cb a7 40 3d 71 af f4 bc
       -0.46029156 -1.9606348 0.04703502 -0.029868813
000020 b5 91 5a 3e 5c e9 e2 bc 95 83 ff 3c 88 83 4f 3c
       0.21344645 -0.027699165 0.031190673 0.012665637
000030 bd d2 1e bd dc a9 27 bc f5 fa 76 bc 3a 31 04 3d
       -0.038775194 -0.010233369 -0.015074481 0.03227351
000040 1f fc a8 3e f8 72 9f bc 5d 7d 1f bc 53 50 d5 be
       0.33004853 -0.019464001 -0.009734479 -0.41662845
000050 07 0e 08 bd b8 2e 14 bc 33 14 95 3a d5 f3 18 bd
       -0.033216503 -0.009044342 0.0011373818 -0.03734191
000060 52 02 c8 38 03 08 41 bd b2 fd 22 bd 48 4a a6 2a
       9.537175e-05 -0.04712678 -0.039792724 2.9539067e-13
000070 51 50 0a 3f a3 7a a4 bc bb b3 05 bc 3b 85 05 3c
       0.54028803 -0.020078009 -0.008160527 0.00814944
000080 60 06 c4 3b 4b 09 2b bd 30 e6 fa 3b 64 ed e6 3b
       0.0059822053 -0.04175691 0.007656835 0.007047342
000090 93 1d 77 3b 35 d9 a7 bf 70 41 47 3c 0f a1 4a 3b
       0.0037706837 -1.3113161 0.012161598 0.0030918752
0000a0 1b aa 00 3a ad 5b 33 3a 9e e1 8c bc f2 7d bc 3b
       0.000490816 0.0006841969 -0.017197426 0.0057523185
0000b0 ce 79 11 3f 03 10 4e 3c c7 4c d5 b9 e6 0e f5 3b
       0.56826484 0.01257706 -0.0004068373 0.0074785827
0000c0 58 e3 fa bc 0b 11 5a 39 5f 88 b7 3e 00 9f d4 bf
       -0.030625984 0.00020796449 0.3584623 -1.6611023
0000d0 7f 42 ba 3b 2e 56 07 bd 7b 60 19 bd f4 a7 37 37
       0.0056841965 -0.03304117 -0.037445527 1.0946755e-05
0000e0 b2 86 0a bd 7d 38 8e bc 7d 30 9a 39 c0 63 9d bc
       -0.03381986 -0.01736092 0.00029409296 -0.019212604
0000f0 62 24 91 bf 4a f1 24 bb 2c 7b dd 22 65 68 08 3c
       -1.1339228 -0.0025168234 6.0032583e-18 0.008325671

weight f4 [1, 64]
000000 f7 1b c4 3c d5 93 0e bd 50 d8 73 bc 01 1b e3 3c
       0.023939116 -0.034808952 -0.014883116 0.027722837
000010 45 f7 fc bd 43 dd 69 be 8a 82 01 bd 94 29 0f bd
       -0.123518504 -0.22838311 -0.031618632 -0.03495176
000020 8d 2a 31 bd 34 f4 28 bd cc 68 ff bc 39 19 e5 3b
       -0.04325347 -0.041248515 -0.0311779 0.006991532
000030 5b 87 26 bd 38 07 9a bc 06 96 28 bd 19 5e 3e bc
       -0.04065643 -0.01880227 -0.0411587 -0.011619114
000040 97 d9 72 bd c7 99 f6 bc 78 ed fb bc e0 65 4a 3f
       -0.05928954 -0.030102624 -0.030752882 0.790617
000050 40 4f 2d bd 90 dd 03 bd 9f 56 8a bc 07 42 22 bd
       -0.042311907 -0.03219372 -0.016887007 -0.03961375
000060 8b fa b7 3b 1f 47 f4 bc 8b 83 96 bc 66 1b d7 3a
       0.005614584 -0.02981907 -0.018373271 0.0016411364
000070 f4 de d2 3d 01 02 f6 bc f2 1e df bc 0b e7 7d 3c
       0.10296431 -0.030030252 -0.027236436 0.0154969795
000080 0a dc b6 3c 3f ed 72 bc a6 d3 c1 3c 3b 36 c7 3c
       0.02232172 -0.014827072 0.023660492 0.024317851
000090 31 83 96 3c 14 05 09 bd 18 68 35 3c ab 93 97 3c
       0.018373104 -0.03345211 0.011072181 0.01850303
0000a0 01 b3 1f 3c ec 09 63 3c cb 29 31 bd 48 6b e2 3c
       0.009747268 0.013857346 -0.043252748 0.027639046
0000b0 44 2f 00 bd da 23 d7 3c a5 13 fa bb 21 77 da 3c
       -0.031295076 0.026262213 -0.0076317363 0.026668133
0000c0 ee 74 47 bd 11 35 c2 3b 24 1c 80 bd 69 17 ed bd
       -0.048695497 0.005926736 -0.062553674 -0.11576731
0000d0 b2 31 35 3c 14 66 23 bd 9a 66 2e bd 95 46 aa 3b
       0.011059212 -0.03989227 -0.042578317 0.0051964023
0000e0 a1 c9 2e bd 39 4a f1 bc 64 e9 e9 3b 26 51 07 bd
       -0.042672757 -0.029454337 0.007138418 -0.033036374
0000f0 b4 4c 55 bd 4e 2f 17 bd 49 f2 bf 33 1c 55 ee 3c
       -0.052075103 -0.036910348 8.938202e-08 0.029093318

weight f4 [1, 64]
000000 ce bb ce 3d 8c e2 ab 3d 5c e5 9c 3d 20 6a 85 bc
       0.10094415 0.0839282 0.07660934 -0.016285956
000010 54 cc b3 bd 9e 0b b9 3d 40 ac c9 bc d4 f0 7f 3d
       -0.08779207 0.09035419 -0.024618268 0.06248553
000020 6c a7 72 3d 80 f4 ef 3b 54 12 99 bd 60 ab bd bd
       0.059241697 0.007322848 -0.07474199 -0.09261203
000030 68 62 89 3d 14 15 d5 bd 82 43 ae 3d d8 27 e6 3d
       0.06708223 -0.10404411 0.0850897 0.11238068
000040 0c 56 32 bd 4c 40 4c bd 00 32 30 bc 14 60 50 bd
       -0.043539092 -0.049866006 -0.010754108 -0.050872877
000050 00 28 7c 3c aa e4 91 bd c4 a9 7e 3d b0 08 2d bd
       0.015390396 -0.07123692 0.06217362 -0.042244613
000060 ea ac f0 bd aa 9e ae 3d 38 bd 72 3d 80 4d 41 3d
       -0.11751731 0.085263565 0.059262484 0.04719305
000070 c4 08 5d bd 3c 39 76 bd 06 4f c5 bd 0a 7f 80 bd
       -0.053963438 -0.060113177 -0.09634213 -0.06274231
000080 7c 10 1e bd 06 1b e5 bd 0c 86 06 bd ec 2e 1e bd
       -0.03858994 -0.11186795 -0.03284268 -0.038618967
000090 b4 32 2d bd 50 ea 34 3c 7c ab a5 bd 72 24 ec 3d
       -0.042284682 0.011042193 -0.08089349 0.11530389
0000a0 6e 76 bb 3d 40 33 ef 3b f0 33 75 bd 88 4d 9a 3d
       0.09153448 0.0072998106 -0.059863985 0.07534319
0000b0 28 e4 0d bd 72 81 ab bd c0 e1 7c 3b 00 c0 0a bd
       -0.034641415 -0.08374299 0.0038586706 -0.03387451
0000c0 82 90 82 bd 48 c3 5e bd 20 88 5f bd b8 df f5 3c
       -0.06375219 -0.054385453 -0.05457318 0.030013904
0000d0 78 2b 86 bc 60 60 9f bd 54 de d3 3d 2c a4 45 bd
       -0.01637815 -0.07782054 0.1034514 -0.04825227
0000e0 b4 d6 90 3d 20 f6 d2 bc 14 fe d0 3d 68 bb f5 bd
       0.07072201 -0.025752127 0.102047116 -0.119986355
0000f0 a8 52 2b 3d 82 31 89 3d e4 f0 8b bd c0 90 b7 3c
       0.041826874 0.06698896 -0.068330556 0.02240789

weight f4 [1, 64]
000000 3a 11 dd 3d 24 95 cd bd 5a de c2 bd 90 11 50 3d
       0.10794301 -0.10038212 -0.095150664 0.050798
000010 6c 5d 50 bd 12 ee db bd d0 78 63 bc 8a 1b a3 bd
       -0.050870344 -0.10738768 -0.013883784 -0.07964237
000020 54 6a 20 3d 50 00 bb 3c 88 fa ff bd cc e1 05 bd
       0.039163902 0.022827297 -0.12498957 -0.03268604
000030 14 6c 4c 3d e8 e7 ae bc 90 55 35 bd 7a 38 b0 3d
       0.04990776 -0.021350816 -0.044271052 0.08604522
000040 1c f1 5d bd 90 4c c9 3c 40 a9 4e bb 84 e8 7d 3d
       -0.054185018 0.02457264 -0.0031533986 0.061989322
000050 0a cd ed bd e4 90 42 3d 52 dd dc 3d 46 82 b4 3d
       -0.11611374 0.04750146 0.10784401 0.0881391
000060 b0 bd f9 3d 8c e1 7d 3d ac 0f e8 bd 30 0d cb bd
       0.12194383 0.061982676 -0.11331114 -0.09914625
000070 18 ed 7f 3d 50 51 bf 3c a0 41 17 3d 6c 0f 97 3d
       0.06248197 0.023354203 0.03692782 0.07375988
000080 b2 e4 a0 3d 30 46 c4 bd c8 96 9a bc 20 1d 21 3d
       0.0785612 -0.095837 -0.018870726 0.039334416
000090 dc e3 c3 bd 88 88 12 bd dc c3 35 bd 70 ab b5 bd
       -0.09564945 -0.035774738 -0.04437624 -0.0887059
0000a0 48 aa d8 3d 86 b9 93 bd 98 87 a1 bc 3c 25 9e 3d
       0.105793536 -0.0721312 -0.019717976 0.07721946
0000b0 36 70 fc bd 0e 7a ad 3d 44 e9 9f 3d 48 06 ef 3c
       -0.1232609 0.08470546 0.07808164 0.0291778
0000c0 3e d0 ef bd 26 eb dc 3d ea 3d d9 3d c0 05 0f 3d
       -0.11709641 0.107870385 0.10607512 0.034917593
0000d0 14 a1 bf 3d 94 35 eb 3d 0e 32 d3 3d b8 53 df bd
       0.09356895 0.114848286 0.103122815 -0.1090464
0000e0 b8 66 e0 bc c8 27 eb bc a8 17 72 3d 52 d5 95 bd
       -0.02739273 -0.028705493 0.05910459 -0.07316078
0000f0 0c 93 bc 3d ca 75 c9 bd 82 89 aa bd 40 8e 2f 3d
       0.092077345 -0.098369196 -0.08327009 0.04286027
