pth/VIScaler_test1_179.pth (torch, 42162 bytes, 10 tensors)

weight f4 [64, 3]
000000 01 5b e1 b9 97 1a b4 b7 9f 36 01 80 7d 50 17 b3
       -0.00042983147 -2.1470054e-05 -1.1143e-40 -3.523063e-08
000010 5e e5 3a 20 77 e6 03 80 e5 98 83 3c 28 2c c4 bc
       1.5830704e-19 -3.58182e-40 0.016064117 -0.023946837
000020 7e 88 a9 ba fa 53 68 b6 ee 12 55 2b 35 7b 0a 00
       -0.0012934355 -3.4619575e-06 7.569907e-13 9.62553e-40
000030 0c 70 20 3d bd 66 ad be 64 43 c0 bc da 5f 96 b6
       0.039169356 -0.33867446 -0.023469634 -4.481507e-06
000040 b7 a3 2d 35 8e a6 4c aa bb b9 18 3d 17 73 ea bd
       6.468576e-07 -1.8176625e-13 0.0372865 -0.11447733
000050 bc 94 da be f7 d9 ee 3d fb 46 87 bd 72 d5 2c 3e
       -0.426916 0.11662667 -0.06605335 0.16878298
000060 85 fc ad 3c cd 21 18 3d 6d 63 95 bd 04 8a 2f bb
       0.021238575 0.03714161 -0.072943546 -0.0026785145
000070 46 f8 5c 39 12 ef a1 08 f3 9c b3 3c 7d 35 8f bc
       0.00021073324 9.74604e-34 0.021925425 -0.01748156
000080 73 00 2b 3a 1a 3d 1e 3a 8e 43 f6 3a 23 5c 16 bc
       0.0006523199 0.00060363265 0.0018788443 -0.009177241
000090 90 fa 8d bb 35 72 a7 bb 42 ff 23 b9 62 2a e4 ba
       -0.004332848 -0.00511005 -0.00015639982 -0.0017407651
0000a0 50 8c 02 36 a5 44 02 80 74 55 29 3e 64 2d d8 3b
       1.9453182e-06 -2.08296e-40 0.16536504 0.006597208
0000b0 fa f3 58 3e 60 d0 d7 3d f2 43 d1 bc b8 e7 31 bf
       0.2118682 0.10537791 -0.025545094 -0.694942
0000c0 be 5c 8a 3e 19 d0 c3 3b 3d cc 84 3f ed 04 b2 bc
       0.27023882 0.005975735 1.0374829 -0.021730864
0000d0 c2 fa 9e 3a 5e 37 56 bb fa 37 c2 bd de 20 2f bd
       0.0012129175 -0.003268681 -0.09483333 -0.042755954
0000e0 c3 5b e8 3d 7c 13 8f b9 46 8f 20 af be 2c 08 80
       0.11345627 -0.00027289602 -1.4602816e-10 -7.50734e-40
0000f0 9c 96 db b9 94 00 57 bc 35 b1 23 bc 51 7d 90 3c
       -0.00041883148 -0.013122696 -0.00999098 0.01763788
000100 17 7b 6a 3c 5e 2a c0 bb ff c3 a4 bb 68 a6 02 bb
       0.0143115735 -0.0058644256 -0.0050282474 -0.0019935612
000110 98 77 ad 38 a9 fe e2 3d fb 32 39 bc b7 32 8e 3e
       8.271559e-05 0.11083729 -0.011303659 0.27773067
000120 e0 66 11 ab 12 79 30 a3 ff c3 0a 00 2f a3 18 af
       -5.1657116e-13 -9.566617e-18 9.88665e-40 -1.3882294e-10
000130 f7 f6 11 8c 1b 3d 03 80 1c 5b aa bb b0 d4 13 3a
       -1.1244712e-31 -2.97427e-40 -0.0051988494 0.0005639298
000140 9a b0 8c a5 f7 1d c6 3e bc 5d 0a be 4c 37 62 3f
       -2.4405799e-16 0.38694736 -0.1351232 0.88365626
000150 bf 24 ca ba 52 ab e4 37 06 bb 0c 00 a0 3e d5 bb
       -0.0015422328 2.7259495e-05 1.169117e-39 -0.0065077096
000160 82 95 21 bb 5f fa 83 38 d1 4a 32 bd 29 05 94 bc
       -0.0024655764 6.293202e-05 -0.04352838 -0.018068867
000170 77 ac ad ba d9 fb 76 bd a2 23 0b be 51 9c 52 3e
       -0.0013250251 -0.060298774 -0.13587812 0.20567442
000180 a2 88 da b2 ad 26 f6 01 99 d1 04 80 ca 6c ab bc
       -2.5440674e-08 9.0421625e-38 -4.42531e-40 -0.020925898
000190 ad 07 02 bc 8c 96 57 b9 07 d4 fe 3d 98 66 86 bc
       -0.0079364 -0.00020560081 0.12442785 -0.016406342
0001a0 6b 3e 0d bf bb 45 9f 3e 14 d6 17 bc ba 69 88 3e
       -0.5517337 0.31107888 -0.009267349 0.26643163
0001b0 22 d6 b7 3d 82 88 d4 bb 42 54 05 c0 ad a5 71 be
       0.089763895 -0.0064859996 -2.0832677 -0.23598357
0001c0 4a e3 7b 3b 6c cc 09 3f 29 8f 23 bc ba 3d 23 bc
       0.0038435035 0.5382755 -0.0099828625 -0.009963447
0001d0 b1 69 51 ba 70 dd cd 3e c4 28 7a bd b6 22 21 3f
       -0.00079884665 0.40208006 -0.061074033 0.6294359
0001e0 bf 1b 59 a0 15 2f 0b 80 10 f6 04 00 75 3a a6 b7
       -1.8389795e-19 -1.02708e-39 4.55613e-40 -1.9815963e-05
0001f0 d2 ac 2c 2f 34 c5 00 80 0d 28 17 3e a1 4c 65 bb
       1.5704707e-10 -7.0743e-41 0.14761372 -0.0034988301
000200 67 24 1e 3e 26 b8 a1 be 08 b9 17 3e 59 7b 93 bd
       0.15443574 -0.31585807 0.14816678 -0.07201261
000210 5f b2 1d bc 28 46 9b bb 3c a8 dd b6 b8 56 7b a4
       -0.0096250465 -0.004738588 -6.6058983e-06 -5.4500403e-17
000220 75 7a 04 80 19 4b 07 00 00 fd e7 b3 db 6f d2 26
       -4.11271e-40 6.69788e-40 -1.0802796e-07 1.4601996e-15
000230 b9 f7 03 00 c3 84 83 b5 b3 03 34 22 85 83 06 80
       3.64373e-40 -9.798899e-07 2.4396507e-18 -5.98193e-40
000240 b1 b1 f3 3e db f5 35 bd f8 b4 50 c0 34 93 d5 b9
       0.47596505 -0.04442392 -3.2610455 -0.000407362
000250 b8 a4 c6 b2 c7 31 05 00 90 a5 05 80 81 d1 00 80
       -2.312514e-08 4.77034e-40 -5.1857e-40 -7.5156e-41
000260 52 59 01 80 e1 65 95 b1 f3 16 01 00 fb 9a 0b 00
       -1.23878e-40 -4.348053e-09 1.00068e-40 1.065787e-39
000270 87 f7 20 3e 93 1a 13 be f9 b9 c1 3d 47 c0 ec bb
       0.15719424 -0.14365606 0.094592996 -0.0072250697
000280 c4 99 3a 3c 42 b0 36 be 4f 45 fd bb 57 f7 00 ba
       0.0113892 -0.17840675 -0.0077292095 -0.0004919669
000290 2b 7e 06 9c fa 41 ee 3b 44 5b bb ba ac f8 65 c0
       -4.449995e-22 0.0072710486 -0.0014294167 -3.5933027
0002a0 dd 62 df 3e 4c fc 50 3c a9 62 ac 3e 45 43 5e bb
       0.43630114 0.012755465 0.33669022 -0.0033914607
0002b0 b0 36 4c bc 3f 64 72 be 8c 12 eb b9 4b 9c c0 b4
       -0.01246421 -0.23671053 -0.0004483651 -3.5876505e-07
0002c0 3b f5 02 00 3d d6 37 bb cc 84 6d bc 8b d2 93 bb
       2.71643e-40 -0.002805128 -0.014496993 -0.0045111827
0002d0 b8 ad 34 3e 42 08 be bb 0c c2 c2 3e 7b 39 a8 ba
       0.17644393 -0.0057993243 0.3803867 -0.0012834513
0002e0 cc 07 30 39 3f 69 be b4 58 60 30 3b b8 23 6e bb
       0.00016787573 -3.5466834e-07 0.0026912894 -0.0036337208
0002f0 18 93 0f bd 12 c5 67 3c d7 c1 d1 39 b7 44 a4 c0
       -0.03505239 0.014146106 0.00040008008 -5.133388

bias f4 [64]
000000 92 4f 6f af 9e a4 06 80 d1 84 28 bd 9a 05 a8 17
       -2.1765192e-10 -6.10066e-40 -0.04114229 1.085816e-24
000010 0c 96 f8 bd 82 03 8d 2d 32 5d 09 3f 49 1c 4a be
       -0.12137994 1.6031402e-11 0.5365783 -0.19737352
000020 82 36 fd 3d ac 81 1b b8 09 69 96 bd 7e f6 d3 bc
       0.12363912 -3.7075646e-05 -0.073442526 -0.025874373
000030 af 05 1f bd cb 33 80 b2 b5 52 78 be 63 90 2e 3f
       -0.03882378 -1.4924714e-08 -0.242503 0.68189067
000040 b2 7c e8 be d4 54 26 bc cf f6 8b 3e 29 58 00 80
       -0.45407635 -0.010152061 0.27336738 -3.1626e-41
000050 03 b4 8f bd bd 78 14 3b 5f 5d 39 ba 9c 39 3b be
       -0.070167564 0.0022654973 -0.00070711033 -0.18283695
000060 ef 03 0a 80 77 f5 05 80 6c f5 80 b8 f8 60 d4 be
       -9.19766e-40 -5.47234e-40 -6.149229e-05 -0.4148023
000070 99 42 7d b3 a7 fc 34 bb 57 d4 5d bc e0 70 d7 3e
       -5.8966723e-08 -0.0027616413 -0.013539395 0.42078304
000080 1c a5 05 80 ff 8b a5 bb 83 37 a7 bf 24 52 c5 be
       -5.18408e-40 -0.005052089 -1.3063816 -0.3853923
000090 16 27 1a be dc 39 0a 3f e9 26 87 bd 25 55 82 bb
       -0.15053973 0.53994536 -0.065992184 -0.003977435
0000a0 8d dc 03 80 f0 bc 95 a0 e1 1c 64 be 80 b0 18 bd
       -3.54625e-40 -2.536661e-19 -0.22276641 -0.0372777
0000b0 e0 7f 1a bc 23 f3 02 80 9b d1 04 80 98 ba 04 80
       -0.009429902 -2.70892e-40 -4.42534e-40 -4.34279e-40
0000c0 b8 1d 9c 3f 7e c2 61 a9 3d 68 02 80 ce 20 02 80
       1.219657 -5.012873e-14 -2.21065e-40 -1.95439e-40
0000d0 ff db 72 be 1b 0b 1c 3f cc f9 72 b8 b3 40 e1 3e
       -0.23716734 0.60954446 -5.7929938e-05 0.43994674
0000e0 dc 78 8c be a1 2f 09 3f b9 49 cb ae 3c 48 4a bd
       -0.27435958 0.535883 -9.244467e-11 -0.049385294
0000f0 3c 6b 87 be 15 21 29 bb f0 10 12 be 67 2a 8c 3e
       -0.26449 -0.0025807072 -0.14264274 0.273761

weight f4 [64, 64]
000000 12 dd 02 80 dc 97 43 2e 56 ff 18 a0 53 68 0e 00
       -2.62976e-40 4.4472745e-11 -1.2959384e-19 1.323121e-39
000010 4e a3 5c 1f 80 ea 67 2e b2 13 50 a0 8e 32 f1 20
       4.6721895e-20 5.2731597e-11 -1.7624802e-19 4.0860442e-19
000020 ed f7 af a0 67 c4 09 80 88 49 84 9f c8 80 a5 20
       -2.9810217e-19 -8.96975e-40 -5.602582e-20 2.8037308e-19
000030 19 91 09 80 4e 35 0b 00 04 d4 cb 20 3a 3f 02 a3
       -8.7857e-40 1.029313e-39 3.4529838e-19 -7.060703e-18
000040 a5 1e 6e a2 91 1e 02 00 10 b7 09 1a e8 82 38 01
       -3.2271238e-18 1.94636e-40 2.8478813e-23 3.3889383e-38
000050 64 b8 b4 9b d7 e0 cd 25 69 64 db b6 65 49 d0 20
       -2.9897662e-22 3.5714189e-16 -6.538398e-06 3.528514e-19
000060 39 24 b7 ad 3e da b5 a8 7f 75 05 80 a6 78 53 ad
       -2.0820777e-11 -2.0189684e-14 -5.01327e-40 -1.2020751e-11
000070 fd 0d 0a 80 39 da 4a 17 fe 33 a7 99 73 68 84 9e
       -9.23373e-40 6.5545156e-25 -1.7288395e-23 -1.4019243e-20
000080 91 24 03 80 79 f8 52 98 be 24 2f 20 e6 8b bb 25
       -2.88624e-40 -2.726731e-24 1.4835234e-19 3.2534128e-16
000090 9f 34 a5 a0 b4 5b 95 9d 02 2e 3c ae 46 c1 d9 b0
       -2.798691e-19 -3.953479e-21 -4.2787114e-11 -1.584376e-09
0000a0 fb 5d 12 25 ce e6 04 80 88 a8 17 1e 20 11 0b 80
       1.2695323e-16 -4.50139e-40 8.028725e-21 -1.016334e-39
0000b0 ca 6a 0c 80 7f d9 01 00 5d c9 9b ab 43 ef 02 80
       -1.140335e-39 1.69858e-40 -1.1069302e-12 -2.69502e-40
0000c0 df 34 88 b3 c2 a3 2d a7 90 dc 01 80 08 0a 03 80
       -6.342611e-08 -2.4097346e-15 -1.70958e-40 -2.79105e-40
0000d0 b5 01 1a 20 91 f8 f7 1f 11 f7 01 80 17 28 27 9e
       1.3044872e-19 1.0501979e-19 -1.80466e-40 -8.849197e-21
0000e0 c5 6d 77 b0 3a 2d 1f 9f 54 00 8a 2d d6 9a 7c 9c
       -9.001407e-10 -3.370697e-20 1.568893e-11 -8.3579927e-22
0000f0 3b e1 06 20 ae 3d 9d b2 98 ef 79 1b 02 54 e5 1c
       1.1424764e-19 -1.8305254e-08 2.0674214e-22 1.5175664e-21
000100 f6 14 2c 25 30 54 82 b3 c1 c0 01 80 b6 61 8b b1
       1.4925724e-16 -6.06891e-08 -1.60983e-40 -4.056541e-09
000110 0c 97 04 80 05 cd 00 00 a7 ce 04 80 3b 44 29 0b
       -4.21527e-40 7.3547e-41 -4.41475e-40 3.2599547e-32
000120 0c d6 03 80 d3 c3 06 00 b8 77 02 00 b1 e8 06 00
       -3.52292e-40 6.21261e-40 2.26618e-40 6.34487e-40
000130 64 b6 0d 80 01 d6 04 80 a2 78 86 1d d8 3b 6d 97
       -1.259291e-39 -4.44112e-40 3.5594236e-21 -7.6654364e-25
000140 13 69 00 29 84 1a 02 80 61 6e 03 80 82 db 03 00
       2.8512847e-14 -1.93183e-40 -3.15103e-40 3.54251e-40
000150 89 6d 08 00 90 ec 0c 80 77 b1 09 80 30 3a ee 0e
       7.73978e-40 -1.186889e-39 -8.90182e-40 5.8727562e-30
000160 51 0a 08 00 60 f9 81 a6 50 b2 0d 80 8f 5a f6 2c
       7.38385e-40 -9.018766e-16 -1.257828e-39 7.0017945e-12
000170 2d 3d 02 80 00 b3 08 00 bf 31 05 00 fc ea 03 80
       -2.05617e-40 7.98897e-40 4.77023e-40 -3.59803e-40
000180 07 62 05 00 72 f3 02 80 7f 40 04 00 16 1b 3f 2c
       4.94343e-40 -2.71003e-40 3.90479e-40 2.7157768e-12
000190 1d 22 19 00 71 cb 01 80 a8 fd 0a 80 42 f0 10 b1
       2.308125e-39 -1.64817e-40 -1.00935e-39 -2.1091329e-09
0001a0 49 05 05 80 28 45 01 36 ef d0 f2 1b ea 9b 07 80
       -4.61073e-40 1.9262752e-06 4.0170562e-22 -6.9878e-40
0001b0 0a 42 04 80 36 32 0a 80 0c f3 e1 b2 df 2c fb ac
       -3.91032e-40 -9.36367e-40 -2.6303972e-08 -7.1388308e-12
0001c0 e0 90 d3 b3 f5 1a 26 31 9b 43 01 00 51 1f 02 80
       -9.851806e-08 2.4171503e-09 1.16088e-40 -1.94905e-40
0001d0 29 37 48 19 7c 59 04 80 d7 f8 02 80 ab 68 05 00
       1.0350897e-23 -3.99443e-40 -2.72938e-40 4.96725e-40
0001e0 c3 8e 4c b1 a5 7f 04 80 2c 75 06 00 61 05 06 00
       -2.9767058e-09 -4.13132e-40 5.93046e-40 5.52943e-40
0001f0 2d 62 01 1f 64 b7 ca 2e 1f 56 06 00 0e 8b 06 00
       2.7398022e-20 9.218473e-11 5.81907e-40 6.00896e-40
000200 bc b3 05 00 fe db 05 00 56 55 12 02 73 71 0a 80
       5.23654e-40 5.38096e-40 1.0750876e-37 -9.59053e-40
000210 82 b1 e4 b6 e0 7c 02 b5 9b 5c a9 ba ba 93 3d 3b
       -6.815594e-06 -4.861049e-07 -0.0012921275 0.0028927163
000220 e8 40 cf 89 b0 77 05 00 61 2f 94 ba 0f af 0c b5
       -4.9894475e-33 5.02113e-40 -0.0011305624 -5.240881e-07
000230 9a 72 03 80 ee 53 03 80 93 59 f0 39 cf c3 b3 bc
       -3.16618e-40 -3.05615e-40 0.00045843105 -0.021943955
000240 f0 66 e3 ba 7c 68 b0 ab e4 bd 05 00 b4 6e 0c 00
       -0.0017349403 -1.2534552e-12 5.27297e-40 1.141739e-39
000250 dd 11 05 b5 a8 a2 ef 35 dd 3c a8 a5 48 ab 66 b9
       -4.9572355e-07 1.7854227e-06 -2.9184597e-16 -0.00021998317
000260 99 37 3b b0 30 71 0b 2e 36 c2 84 35 41 c7 39 bb
       -6.810921e-10 3.170547e-11 9.891289e-07 -0.0028347524
000270 00 12 5b b1 b0 61 3a 0e 8d 4b 00 00 1c f9 01 80
       -3.1878926e-09 2.2973305e-30 2.7103e-41 -1.81199e-40
000280 a2 30 30 af 0a d6 01 00 bd fa 33 3c de 08 8f 3a
       -1.6024385e-10 1.68618e-40 0.010985074 0.0010912677
000290 45 7c 37 3c 38 17 0e 00 c4 b8 7b a7 d2 69 87 bc
       0.011199062 1.294026e-39 -3.493341e-15 -0.016529951
0002a0 64 bb cd 2f 16 8c 93 22 7b 55 81 3a dc 66 03 80
       3.7422432e-10 3.999275e-18 0.0009867394 -3.12405e-40
0002b0 83 5e 4b af 83 e9 17 2b 72 b1 ab 15 0a bc 07 80
       -1.849632e-10 5.397004e-13 6.934631e-26 -7.10304e-40
0002c0 4f 8f cd bc 4a 9b 06 80 fd 28 04 80 a0 5e 6f 16
       -0.025092749 -6.0672e-40 -3.82046e-40 1.9336125e-25
0002d0 b5 d3 82 3b ac 31 ac b6 2e 3a 23 25 be 58 ff 35
       0.0039925226 -5.131782e-06 1.4157708e-16 1.9024808e-06
0002e0 b3 10 f9 bb cc 31 f4 b5 a6 a1 92 ac 6e 35 6d 36
       -0.0076008677 -1.819391e-06 -4.167516e-12 3.5346852e-06
0002f0 f2 50 04 b9 ea 8d c5 a9 0d 67 f4 25 02 64 95 34
       -0.00012618655 -8.7731756e-14 4.2397083e-16 2.7826178e-07
000300 36 a4 b2 1a 01 53 26 a8 b6 0d e8 27 96 49 99 a7
       7.388437e-23 -9.23285e-15 6.44078e-15 -4.2545813e-15
000310 62 5a 3c b1 db 0e 91 b2 b4 ad 78 b7 b0 f3 15 ba
       -2.7408977e-09 -1.6886977e-08 -1.4822395e-05 -0.0005720211
000320 df 7b 27 b1 e2 5a ad 01 6b 46 12 a8 58 90 18 a6
       -2.437211e-09 6.3680574e-38 -8.1198975e-15 -5.2931216e-16
000330 79 9f 02 00 7c cd 0c 00 14 5e cc ba d2 0b 80 ba
       2.40879e-40 1.17574e-39 -0.0015592002 -0.0009769148
000340 40 9e 7b bb 76 54 5d af 58 cd 44 a7 dc bb b5 b5
       -0.0038393885 -2.012984e-10 -2.7311781e-15 -1.3540225e-06
000350 d4 48 00 22 e6 51 cf a5 b1 60 8a 33 0d 6a 0b ba
       1.738579e-18 -3.5964272e-16 6.443714e-08 -0.0005318232
000360 34 a1 db 2f 3c 15 ba 25 6c ed 7e a7 14 f4 c9 bb
       3.995041e-10 3.2280246e-16 -3.5378288e-15 -0.0061631296
000370 88 a5 02 00 80 a5 8f 1d fc cf e1 23 0a 25 c4 a5
       2.43052e-40 3.8022908e-21 2.4482634e-17 -3.402568e-16
000380 a0 21 5e a6 4c 3d f9 35 72 d2 8d b8 ae 60 92 bb
       -7.7067293e-16 1.8569785e-06 -6.7626024e-05 -0.0044670915
000390 f0 cd 90 b8 24 a4 a1 26 d3 15 19 b5 43 00 ce bb
       -6.904814e-05 1.121611e-15 -5.70287e-07 -0.0062866523
0003a0 6c c3 04 80 28 7d 06 00 48 02 9c ba 18 10 fa a6
       -4.37446e-40 5.9591e-40 -0.0011902535 -1.7351597e-15
0003b0 06 e3 c8 02 fe 0a c1 aa b0 b6 d5 32 e5 a7 e1 a9
       2.9517664e-37 -3.4291314e-13 2.487954e-08 -1.0021132e-13
0003c0 7f ee d9 bb 21 c4 b5 ab 29 23 06 00 28 37 a2 34
       -0.0066507454 -1.291526e-12 5.63626e-40 3.0214983e-07
0003d0 72 d3 bb ba 44 97 94 29 50 06 c6 a4 28 ef b8 26
       -0.0014329983 6.598761e-14 -8.5879506e-17 1.2832388e-15
0003e0 80 4c cb bb 80 9f eb a7 22 11 c4 ab 85 1f d6 a3
       -0.006204188 -6.5398533e-15 -1.3931393e-12 -2.3215276e-17
0003f0 5d 60 f3 ba 1e a1 2a aa cc 5a ab a6 45 76 02 a6
       -0.0018568147 -1.5154932e-13 -1.1890119e-15 -4.5263095e-16

bias f4 [64]
000000 b1 e7 d6 22 e4 0e 04 80 ed 93 6b ba 53 a1 a9 b6
       5.825013e-18 -3.72684e-40 -0.0008986581 -5.055373e-06
000010 ee 58 26 be 6f f9 39 a4 bf c1 94 33 46 74 13 2e
       -0.16244861 -4.032676e-17 6.927029e-08 3.3527202e-11
000020 d5 da 1a 3f ba 16 38 2f 33 a6 0e bb e0 db 07 3d
       0.6049016 1.6742777e-10 -0.0021766543 0.033168674
000030 4c ea 9f 3c 7d 28 13 af ce c6 9e 9f 5c 1d 90 b9
       0.019520901 -1.3383956e-10 -6.72445e-20 -0.00027487695
000040 ba a8 05 00 75 1b 2f bd 90 27 1c 24 64 d5 03 80
       5.19705e-40 -0.042750794 3.386062e-17 -3.52057e-40
000050 c7 56 42 be 98 b0 03 80 c5 d7 ef bb 53 fa 18 3f
       -0.18978415 -3.38856e-40 -0.007319423 0.59756964
000060 ed 38 32 bc 02 3d 2b bb fe f7 d1 a6 bc 53 34 b0
       -0.01087783 -0.0026128893 -1.4569507e-15 -6.560261e-10
000070 fd e5 65 ac b5 a5 68 3f 22 db ac b6 ec 0e 62 9d
       -3.2670526e-12 0.9087785 -5.15151e-06 -2.9918565e-21
000080 8b e4 a1 bc 7e 91 a4 bc b0 81 9c 91 41 60 51 bc
       -0.019762298 -0.020088907 -2.4692386e-28 -0.012779296
000090 9d 52 94 06 61 6d e2 bd ee f0 55 ab 86 b3 a6 b0
       5.57928e-35 -0.110560186 -7.600716e-13 -1.2129113e-09
0000a0 fa 02 a3 bd c5 c2 97 be b2 89 60 3a 76 d0 46 3f
       -0.07959552 -0.29640785 0.000856544 0.77661836
0000b0 29 12 70 be 9a 9e 9d bd 0d 01 b3 bb 11 f8 bf be
       -0.23444428 -0.076962665 -0.0054627717 -0.37493947
0000c0 0e 4e 61 b1 d8 0a a3 3e 1f 67 e3 b6 9e 18 63 bb
       -3.2786178e-09 0.3184421 -6.777132e-06 -0.0034652124
0000d0 ae 1f 8b 3f ca 60 c6 3d 04 ea 04 80 f7 e3 a3 3e
       1.0869043 0.0968643 -4.51291e-40 0.3200986
0000e0 f9 c0 6e bd 60 f3 5f b9 4f ce 0d b6 42 e8 29 bc
       -0.0582895 -0.00021357602 -2.1130725e-06 -0.010370316
0000f0 81 dc 12 bc c8 05 03 80 e9 a8 56 be 3a 19 b1 96
       -0.008963705 -2.7758e-40 -0.20962872 -2.8611812e-25

weight f4 [64, 64]
000000 d5 56 01 80 e8 ce ee a5 30 6e 05 80 ce bc cf a4
       -1.22985e-40 -4.1426624e-16 -4.98705e-40 -9.009179e-17
000010 cf 5d 4b b2 52 32 b3 a4 33 50 00 00 52 5e 01 80
       -1.1837485e-08 -7.771412e-17 2.877e-41 -1.25671e-40
000020 70 51 ec b0 33 51 01 80 c5 f6 0b 00 6c 3c 9a a1
       -1.7194406e-09 -1.20964e-40 1.098715e-39 -1.0451439e-18
000030 66 f6 9f 0a 08 0c 07 00 8d 13 03 80 2f c8 00 00
       1.5403828e-32 6.47164e-40 -2.8252e-40 7.1812e-41
000040 db e9 03 00 a0 c1 e8 1c 7f 3e 04 00 e3 38 07 80
       3.59398e-40 1.5402523e-21 3.89761e-40 -6.63256e-40
000050 98 2c d2 b4 72 f2 08 80 9e e1 bb 32 5b f5 14 b2
       -3.9147994e-07 -8.21657e-40 2.1872264e-08 -8.670521e-09
000060 4c 30 01 80 aa 6b 39 2d 79 a7 06 00 f5 75 0b 00
       -1.09161e-40 1.0539939e-11 6.11091e-40 1.052505e-39
000070 02 15 01 00 0c bf bc b6 00 74 05 00 8e 11 e2 a7
       9.9372e-41 -5.6250774e-06 5.0079e-40 -6.2746634e-15
000080 0d 57 00 00 f1 c6 00 80 1e bb a1 1e 94 ad fd a9
       3.1228e-41 -7.1367e-41 1.7123928e-20 -1.1265568e-13
000090 0f dc 03 00 e8 20 30 ad 61 6a 93 b2 e0 e9 70 b2
       3.54449e-40 -1.0011748e-11 -1.7161428e-08 -1.4023016e-08
0000a0 03 ad 53 b5 57 63 27 b8 30 0f 01 00 bd ea 02 00
       -7.885539e-07 -3.990842e-05 9.7284e-41 2.67879e-40
0000b0 1d 04 ed b5 3e 26 ec a7 ec 69 11 21 93 ca a6 b9
       -1.7659073e-06 -6.554462e-15 4.9268097e-19 -0.00031812917
0000c0 18 db 01 80 0e c2 0b 80 11 2d 05 00 c5 ca 59 8c
       -1.70432e-40 -1.079804e-39 4.75344e-40 -1.6778091e-31
0000d0 81 f6 38 b8 13 75 07 98 72 7a 01 80 86 41 00 80
       -4.4098593e-05 -1.7507448e-24 -1.3576e-40 -2.3505e-41
0000e0 c5 d2 00 80 2d b2 00 80 7e 5b 07 00 9d 1a f1 08
       -7.561e-41 -6.3917e-41 6.7567e-40 1.4510917e-33
0000f0 84 79 75 a6 66 9e 09 00 59 44 40 b8 1c 02 0c 80
       -8.5166135e-16 8.83342e-40 -4.584002e-05 -1.102783e-39
000100 ae f4 50 28 8c e5 06 80 aa 21 7e 81 f8 0d f0 02
       1.1599376e-14 -6.33359e-40 -4.6676585e-38 3.5272848e-37
000110 82 78 40 af 30 41 04 80 64 93 01 80 82 a6 0c 80
       -1.7505111e-10 -3.90727e-40 -1.44709e-40 -1.161758e-39
000120 4f 13 93 a7 c8 10 07 80 3d 04 06 00 f0 c5 03 80
       -4.082163e-15 -6.48868e-40 5.52533e-40 -3.46513e-40
000130 75 22 03 80 f2 fc 04 00 c3 30 05 80 e9 15 1f 02
       -2.87867e-40 4.58082e-40 -4.7667e-40 1.1687763e-37
000140 3b 22 02 80 ad b4 7e 2e b8 8a 0b 00 64 31 0a 00
       -1.9595e-40 5.7913386e-11 1.059953e-39 9.36073e-40
000150 4e a5 ab b1 fb c5 0b 00 a8 58 0b 00 0d 36 0c a9
       -4.995548e-09 1.081212e-39 1.041994e-39 -3.1133126e-14
000160 1a f1 0d 00 4e ed 01 00 99 41 04 80 a3 65 06 80
       1.280352e-39 1.76964e-40 -3.90874e-40 -5.87473e-40
000170 e9 e4 03 00 b0 b3 9d b3 cb 87 01 80 96 88 01 80
       3.57624e-40 -7.343567e-08 -1.40549e-40 -1.40833e-40
000180 fd 25 03 80 90 8e 07 00 c0 e4 08 00 95 fd 01 00
       -2.89134e-40 6.9399e-40 8.16744e-40 1.82804e-40
000190 ad 88 04 00 bd 78 30 2c 04 d1 03 80 af 42 07 00
       4.16372e-40 2.5078128e-12 -3.50487e-40 6.6677e-40
0001a0 a5 06 9e 33 dc f7 d0 37 20 d3 02 00 e3 4a 05 80
       7.358657e-08 2.491095e-05 2.59408e-40 -4.86042e-40
0001b0 c8 77 18 33 d3 52 04 2c cf 21 b0 10 ac 3a 8e ba
       3.54992e-08 1.8804305e-12 6.947185e-29 -0.0010851226
0001c0 f7 34 03 00 2f be 02 80 0b 3a 00 00 0d e8 0e 80
       2.94507e-40 -2.51896e-40 2.0822e-41 -1.368941e-39
0001d0 63 41 c2 b7 ff 6f 04 80 8e 19 06 80 54 0b 05 80
       -2.315705e-05 -4.07519e-40 -5.6018e-40 -4.63241e-40
0001e0 88 80 0a 80 58 3a 00 00 47 b9 07 80 6d 9f 04 00
       -9.64463e-40 2.093e-41 -7.09313e-40 4.24533e-40
0001f0 33 1a 03 80 44 d2 00 00 bd ac 02 38 f5 8c 02 80
       -2.84905e-40 7.5429e-41 3.115529e-05 -2.34237e-40
000200 18 e5 e9 2a 8a 0d 00 80 4f cf 02 80 98 57 d8 2d
       4.154808e-13 -4.857e-42 -2.5804e-40 2.4595256e-11
000210 92 4a 33 b9 33 e1 93 b7 6c 03 07 80 a4 e4 91 b2
       -0.0001709855 -1.7628632e-05 -6.44076e-40 -1.6984195e-08
000220 0b 9e d8 b5 16 06 0a 00 b4 f7 05 00 fb 2c 12 94
       -1.6139251e-06 9.20538e-40 5.48037e-40 -7.379987e-27
000230 65 74 02 00 71 6c 00 80 8e 71 0b 80 1a ad 00 00
       2.25425e-40 -3.8901e-41 -1.050926e-39 6.2097e-41
000240 20 88 b9 ae 4a 8a 03 00 96 3b 02 80 3f 87 0e 80
       -8.4370066e-11 3.25115e-40 -2.05046e-40 -1.334214e-39
000250 91 55 42 ba a0 03 05 80 66 f7 70 a4 61 b7 8b b6
       -0.0007413263 -4.60478e-40 -5.225126e-17 -4.163871e-06
000260 dc 17 49 a7 1a dc 05 80 77 d8 dc 26 32 d4 01 80
       -2.7907288e-15 -5.38135e-40 1.532424e-15 -1.67957e-40
000270 da 2b 91 25 4a 8a 62 ba 3f 51 36 36 e4 76 f0 24
       2.5183205e-16 -0.00086418225 2.7167405e-06 1.0428482e-16
000280 6c 6a a6 b0 59 5b 0d 00 a3 a2 03 00 a1 e0 04 80
       -1.2108337e-09 1.226631e-39 3.3385e-40 -4.47924e-40
000290 b2 8e 05 a4 63 11 c2 b4 32 b4 78 a6 30 c9 4b 25
       -2.8960645e-17 -3.6147966e-07 -8.6286495e-16 1.7675608e-16
0002a0 b0 a2 1c ba 77 62 04 bb de 31 1e b6 09 80 ae a5
       -0.000597517 -0.0020200291 -2.3572861e-06 -3.0270948e-16
0002b0 35 72 55 ba 89 35 b5 a0 d8 61 04 00 e3 03 5a bb
       -0.00081423233 -3.069802e-19 4.02442e-40 -0.0033266477
0002c0 e8 35 9a 32 30 e9 0a 00 e6 d4 fb 85 c5 0c 06 80
       1.7952473e-08 1.002007e-39 -2.3682133e-35 -5.55594e-40
0002d0 41 bc 4a bb 04 bb bd b3 1c ce 07 00 20 0e 04 00
       -0.0030934962 -8.835016e-08 7.16787e-40 3.72409e-40
0002e0 fc 56 74 b8 ff fb 1f 05 f8 2d 53 31 a8 36 0c 80
       -5.8255144e-05 7.5224284e-36 3.0730671e-09 -1.121633e-39
0002f0 aa 8b 88 b2 d5 3b 47 a8 b8 7e 06 bb 4b b0 96 21
       -1.5895996e-08 -1.1059693e-14 -0.0020522308 1.021106e-18
000300 a1 c2 0c 80 54 55 06 80 1d 0e 0b 00 eb b7 8c 82
       -1.171846e-39 -5.81623e-40 1.015253e-39 -2.0676715e-37
000310 6b 3d f7 b8 53 48 03 00 0b a3 01 00 00 6d 9b ab
       -0.00011789318 3.01452e-40 1.50324e-40 -1.1043666e-12
000320 a3 e6 05 bb 5d 78 05 80 60 be 43 27 02 d9 c6 b6
       -0.002043166 -5.02356e-40 2.7164889e-15 -5.926123e-06
000330 1b 6a 50 ae 40 35 04 80 6f 47 2a 25 32 ac 11 32
       -4.7387965e-11 -3.86444e-40 1.4769352e-16 8.4792635e-09
000340 39 27 03 00 30 e5 04 00 91 7c 00 00 88 33 00 80
       2.89577e-40 4.49559e-40 4.4686e-41 -1.8486e-41
000350 1c 33 9f 37 22 a7 05 80 f3 34 05 00 68 2d cd ba
       1.8978077e-05 -5.19133e-40 4.78172e-40 -0.0015653791
000360 62 85 55 80 f0 99 a0 29 24 17 00 00 ad 0f 06 00
       -7.853866e-39 7.132131e-14 8.301e-42 5.56636e-40
000370 34 5f 02 00 c5 b3 57 bb b0 45 06 00 d7 c1 c9 a4
       2.17823e-40 -0.0032913547 5.76012e-40 -8.749823e-17
000380 3f 7a 6a 80 be 00 01 80 9a 22 04 00 02 f1 4e 2f
       -9.778416e-39 -9.2102e-41 3.79755e-40 1.8821214e-10
000390 97 4c 04 00 00 99 00 b6 73 3f 06 00 71 25 07 80
       3.94817e-40 -1.9162544e-06 5.73774e-40 -6.5628e-40
0003a0 65 d1 bc b9 c0 71 c0 39 3c ce 74 01 da ba d9 37
       -0.00036014165 0.00036705844 4.4963688e-38 2.5955425e-05
0003b0 04 21 31 3a 0a 9f 0b 27 24 01 02 80 a4 d7 6a 3a
       0.0006756934 1.937634e-15 -1.8408e-40 0.00089585246
0003c0 0b 76 01 00 ed 3a d1 2b ec b1 e9 32 73 12 0c 80
       1.34181e-40 1.4866698e-12 2.720568e-08 -1.108644e-39
0003d0 f0 a8 a2 bb bb ae 8d b7 31 2e 05 80 1b 0b 99 b1
       -0.0049639866 -1.6889875e-05 -4.75748e-40 -4.4541486e-09
0003e0 46 9d 98 3a df f9 00 80 db 00 02 00 47 29 0c 80
       0.0011643551 -8.9637e-41 1.83978e-40 -1.116833e-39
0003f0 a0 43 00 80 a6 be ae 2d fe a8 e1 39 db cc 04 80
       -2.4259e-41 1.9866175e-11 0.00043041253 -4.4083e-40

bias f4 [64]
000000 b2 ea 32 9d 2e 60 02 80 23 80 3a b2 47 7c 69 ba
       -2.3679438e-21 -2.18174e-40 -1.085576e-08 -0.00089067634
000010 64 23 2b bc 15 b0 9c b7 44 f1 c3 bd 53 86 18 bd
       -0.0104454495 -1.8678644e-05 -0.09567502 -0.037237477
000020 52 c2 0d 3e 1b d6 ba ba 83 ef bb b7 58 6d d1 ac
       0.13843659 -0.0014254482 -2.2403668e-05 -5.952277e-12
000030 2e bb 0e b4 9a 0c 3c bd 3a 7a 42 2e 59 5e a1 b1
       -1.3292876e-07 -0.045910455 4.4219052e-11 -4.696443e-09
000040 c1 dc dc be 15 8d a4 ad 2c df f2 ac 77 6b 8e ba
       -0.43137172 -1.8707294e-11 -6.9028307e-12 -0.0010865767
000050 19 9b 1e bd dc cf 4d b7 09 86 34 a2 15 9e 08 00
       -0.03872213 -1.2267348e-05 -2.4465507e-18 7.91393e-40
000060 68 1f de bc ce d6 70 26 e6 a1 79 af 96 d0 e7 ba
       -0.027114585 8.355784e-16 -2.2703936e-10 -0.0017686065
000070 1d 67 68 3f 5a 0e b8 bd e1 79 91 8f 9e 7c 9e be
       0.9078234 -0.08987112 -1.434505e-29 -0.3095445
000080 78 51 08 bb 10 3e 8b 27 29 40 40 ae ac 93 05 00
       -0.0020800512 3.864754e-15 -4.371273e-11 5.12152e-40
000090 80 cd fd be c8 8e 20 3b ec 86 18 3f 65 f5 12 96
       -0.49570847 0.0024499167 0.59580874 -1.1871219e-25
0000a0 bb 61 8e b5 9b f4 03 00 b4 a4 84 aa 4c 8b 58 be
       -1.0608268e-06 3.63254e-40 -2.3562196e-13 -0.21146888
0000b0 38 b5 cb 35 37 b9 21 b8 77 68 15 9a eb 90 d2 bb
       1.517742e-06 -3.8557886e-05 -3.0896864e-23 -0.006425967
0000c0 0c b2 24 80 d1 4c c9 be 23 5e 9d be 27 a6 1a ae
       -3.369949e-39 -0.3931642 -0.30735883 -3.516312e-11
0000d0 28 30 e3 bd 2d 28 43 3f 1a 1f 38 bd 34 13 0a 80
       -0.110931695 0.7623318 -0.044951536 -9.25244e-40
0000e0 eb 74 be 39 f2 99 4d 3f 15 c6 c4 bb a7 0d bf b1
       0.00036326735 0.80313027 -0.0060050585 -5.5603837e-09
0000f0 96 2a 99 bc d4 af 13 a2 b4 eb 90 bc 28 9e 4b 90
       -0.018697064 -2.0015298e-18 -0.017690517 -4.015653e-29

weight f4 [1, 64]
000000 14 c9 a6 ba 15 25 a4 3a c5 7f 1d bb d0 a0 d9 3a
       -0.0012724721 0.0012523258 -0.0024032455 0.0016603712
000010 5d 70 c7 3c e4 4a 06 3a 42 df 25 bd f4 c0 43 3c
       0.024345571 0.0005122854 -0.04049612 0.011947859
000020 b0 bc d3 be e6 12 29 3b 28 f3 17 3a 7d 3c 00 3c
       -0.41354895 0.0025798618 0.0005796426 0.0078269215
000030 05 4d 2e 3a b7 6b 2b 3d 1e d5 01 3a 03 d0 4c 3c
       0.000664905 0.04185077 0.00049527164 0.012500766
000040 4b f0 b0 3f 68 b4 e4 b4 71 b3 2e bb dc 91 76 bc
       1.3823332 -4.2599572e-07 -0.0026657248 -0.015049424
000050 77 6a b4 bc 54 86 5a 3a ce cb 7e 3b 15 ee c6 39
       -0.022023423 0.00083360565 0.0038878801 0.00037942888
000060 fe 1f 8b bc 8d e9 b0 b5 0e 08 6a 38 ee 25 8a 3b
       -0.016983029 -1.3180994e-06 5.579745e-05 0.0042159474
000070 ee b4 88 bf a1 8f c8 3d 95 aa cf ba eb fd 02 bf
       -1.0680215 0.0979302 -0.0015843684 -0.511687
000080 6d 0e 7b 3b c8 65 f6 39 8a f8 6e b3 89 e1 2f b9
       0.003830816 0.0004699661 -5.5639738e-08 -0.00016773319
000090 63 d8 17 3f 4d 79 da 3a f3 b7 22 bf 59 90 9e 3a
       0.59314555 0.001666823 -0.63561934 0.0012097462
0000a0 20 8a 02 3c 42 4f 66 39 40 aa 02 b7 29 a4 ac 3d
       0.007967502 0.00021964035 -7.788243e-06 0.084297486
0000b0 2d 33 8b b5 3d e9 8d bc d1 97 9e b4 f8 a9 5c 3c
       -1.0371201e-06 -0.01732313 -2.9540254e-07 0.013468258
0000c0 ce 53 a2 b9 d0 0f c9 3e 7e 5e 18 bf 52 83 90 38
       -0.00030961487 0.39269876 -0.59519184 6.8909154e-05
0000d0 a1 47 bd 3d 05 f7 5d bf bd 31 15 3d 87 7e 3f 39
       0.09242178 -0.86705047 0.036424387 0.00018262315
0000e0 3b ce 66 37 3a 6e 6a bf a7 ac 80 3c 33 25 a6 38
       1.3757085e-05 -0.9157444 0.015707327 7.922426e-05
0000f0 66 35 60 bc 51 44 b7 b2 1e 42 90 bc 68 7e 54 b4
       -0.013684606 -2.133507e-08 -0.017609652 -1.9790025e-07

weight f4 [1, 64]
000000 16 cf ac b8 17 20 f8 38 13 2b 4c 3c c1 b7 e7 bb
       -8.240172e-05 0.00011831539 0.012461442 -0.0070714657
000010 cc 29 bf 3b ba 2a d5 3b a4 95 52 3e d7 8e 6b 3c
       0.00583384 0.0065053375 0.20564896 0.014377317
000020 13 7d dd 3d 5c ea 18 3c bc 79 53 bb 63 34 8c b8
       0.10814872 0.009333219 -0.0032268604 -6.685478e-05
000030 e0 e8 b7 b9 e5 c7 33 3d c4 70 97 38 94 13 a0 3a
       -0.00035077985 0.043891806 7.221245e-05 0.0012212866
000040 84 91 16 3d da 7f 48 b6 a0 45 35 3a 16 af db 3b
       0.03675987 -2.9876742e-06 0.0006914977 0.0067042215
000050 84 fd de bc 36 f8 07 3b d1 30 9e 3a d9 09 6e b9
       -0.027220495 0.002074731 0.0012068992 -0.00022701117
000060 78 bb 93 bc e1 02 f5 34 cb f4 e5 b7 6b 74 e6 39
       -0.018033728 4.56369e-07 -2.7412918e-05 0.00043955757
000070 31 37 91 bd 80 fb 06 3d 11 5b 2f b7 67 e8 4e be
       -0.07090605 0.032954693 -1.0452016e-05 -0.20205842
000080 31 44 36 bc 63 b2 2b ba bb 00 f7 33 81 b3 b1 36
       -0.011124657 -0.0006549714 1.1501967e-07 5.295908e-06
000090 da 0d 08 3e 05 d5 16 39 f2 ac e7 bc df a9 80 b7
       0.13286534 0.0001438447 -0.028280709 -1.5337891e-05
0000a0 c9 ad 2a bc 58 9a fe b1 91 c3 90 30 9e d9 02 bf
       -0.01041741 -7.40992e-09 1.0532962e-09 -0.5111331
0000b0 d3 b1 6f b7 cf 59 72 3b 98 5d 19 ba d2 ca 56 3a
       -1.4286913e-05 0.00369798 -0.00058504334 0.0008193675
0000c0 2b 22 2f b2 6b 17 73 be 6b c3 cb be 6f 08 99 ba
       -1.019411e-08 -0.23739402 -0.3979753 -0.0011675487
0000d0 47 0c aa bd 5e cc 43 bd 5b e3 2e bc 0c d8 66 35
       -0.08303123 -0.04780232 -0.010674323 8.5996066e-07
0000e0 a9 0e 00 b9 9d 86 54 bd 4f 66 ce bc 62 e5 c7 39
       -0.00012212493 -0.05188619 -0.025195269 0.0003812714
0000f0 bd f6 9a 3c b5 f6 82 b4 73 7c ec bb 65 d8 88 b8
       0.018916482 -2.439389e-07 -0.007216984 -6.525292e-05

weight f4 [1, 64]
000000 f4 56 9e bd 4c 17 f4 bd ea 1d eb 3d 8a f8 e3 bd
       -0.07731429 -0.11918506 0.11480315 -0.111313894
000010 28 01 50 bd f0 13 43 3c b2 18 9d bd 54 63 14 3d
       -0.050782353 0.011906609 -0.07670726 0.03622754
000020 e8 21 db 3d 80 da 38 bc 14 e9 7a bd 60 b9 4f bd
       0.106998265 -0.011282563 -0.061257437 -0.050713897
000030 60 bf 82 3b a0 f3 d0 3d a0 6c fc bd f0 1c c3 3d
       0.003990099 0.10202718 -0.12325406 0.09527004
000040 48 ea 71 bd c0 bd 12 3b 88 d0 65 3d 94 4a 92 bd
       -0.05906132 0.0022390932 0.056107074 -0.07143131
000050 56 09 a6 bd 34 e6 be bd 74 03 0d bd cc f1 ce 3d
       -0.081072494 -0.093212515 -0.03442712 0.10104713
000060 20 c6 f8 3d 00 f7 d1 3b e0 cc d7 3c d0 97 b3 bd
       0.12147164 0.0064076185 0.02634281 -0.0876919
000070 58 13 f1 bc 70 3d e6 3c 68 49 37 3d 30 f3 2b 3c
       -0.02942817 0.028105468 0.04474774 0.010494992
000080 d4 89 27 bd 54 aa 65 3d 48 81 b7 3c 44 b2 03 bd
       -0.040902928 0.05607064 0.022400513 -0.03215243
000090 38 6e d2 bc 94 bb 00 3d 8e fb f1 3d cc ee ae bd
       -0.025687322 0.03142889 0.118155584 -0.08541641
0000a0 dc ff e6 3d 60 72 a9 bb dc 07 ef bd c8 26 12 bd
       0.1127927 -0.0051711053 -0.11671421 -0.035681516
0000b0 46 8f e2 bd f0 78 1e bc a0 7f ac bb a6 ad d4 bd
       -0.110624835 -0.009672388 -0.0052642375 -0.10384683
0000c0 00 77 01 3a 3e d5 b2 bd 30 71 cc 3d 78 2e b1 3c
       0.0004938692 -0.08732079 0.09982526 0.021628603
0000d0 a2 d5 a3 3d 10 5b 77 3d 80 cf 60 3b ac c3 78 3d
       0.079997316 0.06038958 0.0034303367 0.060733482
0000e0 0c 69 a3 3d 38 9f ad bc b8 eb 15 3d fc 21 f8 bd
       0.079790205 -0.021194085 0.036601752 -0.12115857
0000f0 d0 a4 4f bc 84 ec 6d bd 78 12 37 bd 00 27 66 bc
       -0.012673572 -0.058086887 -0.044695348 -0.014047384

weight f4 [1, 64]
000000 64 ed 8f bd ac b1 f6 3d 42 b9 91 3d d0 91 5e bd
       -0.070277005 0.12045607 0.07115413 -0.054338276
000010 8c 04 55 bd b0 8e 26 3d ca 5c ec 3d 64 c1 c1 bd
       -0.05200629 0.04066342 0.115411356 -0.094607145
000020 d6 ac 9a 3d f4 01 66 bd 9a 7d ad bd be 15 a3 3d
       0.07552497 -0.056154206 -0.08471222 0.07963131
000030 48 14 f3 3d 64 f4 a1 bd 86 6d c5 bd f4 22 50 bd
       0.11869103 -0.07907942 -0.096400306 -0.050814584
000040 7a 5d fc bd 88 2f 39 3d cc 54 b2 bd 34 5c 0d 3d
       -0.12322517 0.045211345 -0.0870758 0.03451176
000050 20 8d c5 bd 00 68 b7 3c d8 9b 9a 3d fa 20 9b bd
       -0.09646058 0.022388458 0.07549256 -0.07574649
000060 28 a0 5a 3d c0 44 d2 bb c0 7e 27 bb d4 f4 df bd
       0.053375393 -0.006416887 -0.0025557727 -0.10935369
000070 50 0b 95 bd 24 4e 43 bd 26 0c d3 3d 18 e7 e7 bd
       -0.07277548 -0.047681943 0.103050515 -0.113233745
000080 1e 72 ed bd 12 a6 e3 3d 64 6f 0c 3d d0 97 b0 bc
       -0.11594032 0.1111566 0.034285918 -0.021556765
000090 d0 1d 53 3d 94 e4 d3 3d 9e 00 b9 3d b8 0c 4c 3d
       0.051542103 0.10346332 0.09033321 0.049816817
0000a0 32 6a c0 3d 30 82 a2 3d 6e 8b 8e bd a0 e4 c9 bc
       0.09395255 0.079349875 -0.06960188 -0.02464515
0000b0 12 c3 dc bd e0 ed ca bc 14 29 10 3d 78 63 87 3d
       -0.10779394 -0.02477163 0.035195425 0.06610769
0000c0 98 5c bf bc 8e aa 92 bd ac ea a4 bd e8 6a 8f bd
       -0.023359582 -0.07161437 -0.080525726 -0.070028126
0000d0 c0 ec 42 3b 82 cb e4 bd 20 ed 6d 3c 58 22 97 bc
       0.0029743165 -0.111716285 0.014521867 -0.018448994
0000e0 d4 a1 f8 bd 30 2a 62 bc d0 d2 a5 3c 54 ad 3b 3d
       -0.12140241 -0.013804004 0.020242125 0.045819595
0000f0 e0 72 d7 bd 58 a2 27 bd ac 45 85 bd f0 72 ca 3d
       -0.105199575 -0.040926307 -0.065074295 0.09885204
