pth/VIScaler_test1_63_loss_3.6509077548980713.pth (torch, 42640 bytes, 10 tensors)

weight f4 [64, 3]
000000 53 8c ab bb e7 d4 80 b8 d7 b0 03 80 21 c6 d5 bd
       -0.005235234 -6.143172e-05 -3.38945e-40 -0.10438181
000010 3c b5 46 3e e6 ea 0c 3f b6 d4 eb 3d c7 15 e7 3c
       0.19405073 0.55045927 0.11515181 0.028208626
000020 8d e7 45 3e c4 df 04 3e eb 98 a3 3c ef 6f 7e c0
       0.19326611 0.12975985 0.019970378 -3.975582
000030 9e 3f 0d 3d 5a 33 8b bc 2d 8a bf bf 12 61 65 3c
       0.0344845 -0.01699226 -1.4964043 0.014000194
000040 26 e7 f2 3d 06 b1 41 3f a1 fb 93 3b 9f 0c 2a bc
       0.11860494 0.7566074 0.0045160805 -0.010378986
000050 60 f3 ea be 25 38 4c bb 76 7b 16 b9 fa 99 04 80
       -0.45888805 -0.0031161394 -0.00014351108 -4.22578e-40
000060 0a d4 9e b7 72 a3 bc 2e 47 50 01 80 5c c1 0a 3d
       -1.8933806e-05 8.578284e-11 -1.20634e-40 0.033875808
000070 1a d0 7e 3e 88 d0 87 3c 77 a7 81 3d 5d 3c 58 bd
       0.24884072 0.016578928 0.063307695 -0.052791942
000080 cc aa ff bf 89 37 ec bc e5 d7 31 bb 6e 2b ec bc
       -1.9973998 -0.028835075 -0.002713674 -0.028829303
000090 8e a3 6d 3c 39 4f 04 be 3c 4a e2 be a6 8e 99 3d
       0.0145043265 -0.12920846 -0.4419726 0.07497911
0000a0 67 26 1b be 47 19 13 3d 71 ff 9e 3d 6c 80 56 bd
       -0.15151368 0.03591278 0.07763565 -0.052368566
0000b0 1c 0d 94 c0 b1 f3 ab bd 4a dd ed bc bb 74 3a 3c
       -4.6266003 -0.0839609 -0.029036183 0.01138037
0000c0 ea 51 2a 3f bc b8 81 bc ca 9b 0c 3f 3d bc 2f 3b
       0.6653124 -0.015835159 0.54925215 0.002681508
0000d0 db c0 a5 3d e4 75 30 3f 8c eb 83 3e 87 d1 5a 3e
       0.08093425 0.68929887 0.25765646 0.21368991
0000e0 5a b2 a0 3e 40 a9 30 be e7 40 5d bd 3a 40 02 3d
       0.3138607 -0.17252064 -0.054016974 0.031799532
0000f0 bf aa f2 bc b0 38 49 be 2d b3 12 3f 26 a6 d2 3d
       -0.029622434 -0.19650531 0.5730465 0.102855965
000100 c8 3b 80 bd 23 47 87 3e ca 37 8f 3d c5 5a 74 be
       -0.06261402 0.2642146 0.06993063 -0.23862751
000110 37 8d 1e bf d9 c7 d1 b4 24 cf 4c 33 dd df 9e 94
       -0.61934227 -3.9074692e-07 4.7685845e-08 -1.6042221e-26
000120 ea 18 92 3d aa 6c b9 bd 0d c9 da 3e 66 4b 61 be
       0.07133658 -0.09053929 0.42731515 -0.22001418
000130 dc c2 a2 3d 91 fe b9 bd 42 a0 7a bd 47 06 fe 3d
       0.07947323 -0.09081758 -0.06118799 0.12403541
000140 36 7a 16 3f 3e 20 4b 3f c4 89 b9 be 32 d2 b9 3f
       0.5878023 0.7934607 -0.3623792 1.4517272
000150 cc 75 c9 b2 94 85 b9 10 94 e9 00 00 41 da fb bc
       -2.3453048e-08 7.3175443e-29 8.3792e-41 -0.03074372
000160 58 dc 2f 3e aa d7 cd 3e 8a 49 5a bc f2 50 43 bb
       0.17173898 0.402036 -0.013323197 -0.0029802886
000170 a3 9c 62 b9 2c 68 0d 3e 50 c9 ea 3c fa 0e 5b bf
       -0.00021611391 0.1380927 0.028660446 -0.8556973
000180 c2 c3 8d 3d 67 d9 02 be 4e 7d b2 be e9 0b 02 bf
       0.069221035 -0.12778245 -0.34861225 -0.50799423
000190 d8 d0 98 be 2f 10 c7 3d ba 08 a1 3e 4d fd 1b be
       -0.29846835 0.09719884 0.3145197 -0.15233345
0001a0 10 f8 2d c0 8c 69 c2 3d 54 cf a9 bd a9 b1 36 bf
       -2.7182655 0.09492788 -0.08291498 -0.7136484
0001b0 40 a2 81 3e 8d 1b 78 3c 7a d2 d3 bf 99 ef 6b bd
       0.253191 0.015143287 -1.6548607 -0.057601545
0001c0 b6 e9 56 bb b0 aa 00 39 7b 1c 37 bd fb 4d 95 bb
       -0.0032793111 0.00012270617 -0.044704895 -0.004556415
0001d0 3a 3a 0f ba cb 7a 94 3d 7d 32 97 bd 0e 60 fb bf
       -0.00054636935 0.072499834 -0.07382677 -1.9638689
0001e0 3a a1 f3 3d 23 69 42 3d 89 6e 80 3e a5 da f0 3a
       0.11895986 0.047463547 0.25084332 0.0018375708
0001f0 fa 36 26 bd 7f 9f 30 3f 77 ee 0e ba 99 55 a3 2e
       -0.040579773 0.6899337 -0.0005452404 7.427587e-11
000200 aa 8e 00 00 4d 9a b2 be 32 67 02 3e a3 31 d0 bd
       5.1178e-41 -0.34883347 0.12734678 -0.101657175
000210 bb 3c 53 3c 72 ae 4c be 7b 48 7a be 94 c1 8b 3d
       0.012892897 -0.1998842 -0.24441712 0.068240315
000220 41 1b 3c bd cc 87 2e 3f 1e ba ef 3e 01 44 49 be
       -0.04592443 0.6817596 0.46821684 -0.19654848
000230 df 30 ae bf 33 ce f2 bc 46 0a 72 bb 2f b6 d8 b8
       -1.3608664 -0.02963934 -0.0036932393 -0.00010333617
000240 7f f5 f3 3e 2f 63 e0 3d 76 a3 1a c0 c3 45 6f ba
       0.47648236 0.10956418 -2.4162269 -0.0009127522
000250 05 1a 77 b4 bc 19 04 00 24 f0 e1 bc af a8 3b be
       -2.3013133e-07 3.76574e-40 -0.027580328 -0.18326066
000260 09 77 20 bf fb b3 98 3d 67 b4 7e 3c fb c8 04 3f
       -0.62681633 0.074562036 0.015545941 0.5186917
000270 de 81 2e 3c 81 34 17 3e 89 a4 3a 3f a5 57 f3 3d
       0.01065108 0.14766122 0.7290731 0.11881951
000280 97 18 c7 bc 5a e0 47 bb 9f 07 92 3e 21 b3 c2 3d
       -0.024303718 -0.0030498714 0.2852144 0.095068224
000290 7e ad 95 3f 05 fe 82 3d 1f 70 e2 bc dd dd 83 c0
       1.1693571 0.06396107 -0.027641354 -4.120833
0002a0 16 80 91 ab 49 0b ea 1a 48 19 00 80 f9 50 e6 3d
       -1.0338421e-12 9.6798364e-23 -9.069e-42 0.11245913
0002b0 21 9a b5 bd 4b 1d 4f 3e 12 b6 67 be c7 4b 04 be
       -0.088672884 0.20226018 -0.22628048 -0.12919532
0002c0 d1 c0 15 3e ee ed 28 b7 24 ee 95 2f e5 6a 01 80
       0.14624335 -1.0068978e-05 2.727215e-10 -1.30182e-40
0002d0 5a 18 39 bd f4 2c f4 bb 34 71 8c bc 77 40 ae a8
       -0.04518924 -0.007451648 -0.017143823 -1.9345838e-14
0002e0 58 64 93 26 ce 47 01 00 2f 80 c5 3e 4c f9 70 3e
       1.0227372e-15 1.17594e-40 0.3857436 0.23532599
0002f0 f5 74 78 bc 94 36 b2 3d 21 5d ff 3c b0 c0 93 c0
       -0.0151646035 0.08701816 0.031172337 -4.6172714

bias f4 [64]
000000 24 81 60 b4 f5 ca bd 3e 8b 1a b8 3e d9 e5 0c 3e
       -2.0908607e-07 0.37068906 0.3595775 0.13759555
000010 c2 32 8d be 64 89 0e 3f d9 4b 74 be 36 20 3a b5
       -0.27577788 0.5567839 -0.23857059 -6.933727e-07
000020 da de 41 90 48 5a a6 bd 18 a1 20 bf ec ea 97 bc
       -3.8234217e-29 -0.081226885 -0.6274581 -0.018544637
000030 11 4b e1 bd d4 01 bd 3e 2e 58 46 be ce 78 38 be
       -0.11000646 0.36915457 -0.19369575 -0.18014833
000040 b6 59 0f 3e 86 ef e1 3e 9f 56 fc 3e d4 3c 1c bd
       0.13999066 0.44128054 0.49284837 -0.038143948
000050 07 fa 9d 3e 44 43 00 3f 5f 31 0e bd 38 c5 53 9a
       0.30854818 0.5010264 -0.034715053 -4.379309e-23
000060 45 f0 a0 be 19 76 28 bd 74 7e 9a be b3 44 2e 3f
       -0.3143331 -0.04112825 -0.301746 0.68073577
000070 ef 6b 02 80 d8 19 5b be 01 2c f9 bc 39 f4 32 3f
       -2.2239e-40 -0.21396577 -0.03041649 0.69903904
000080 1b 05 76 3d 7a c0 15 3b 56 dd 9e bf 67 34 03 3f
       0.060063463 0.002285032 -1.2411296 0.51251835
000090 39 97 0f 3f ae a9 11 bd de 00 dd bc df d5 04 bf
       0.5609012 -0.03556221 -0.026977953 -0.5188884
0000a0 fc ee 7d 3e 5a 71 9f be 6e f0 fc ae 90 fc c7 bd
       0.24798197 -0.31141168 -1.1502342e-10 -0.09764969
0000b0 67 29 09 bf e2 26 73 be 59 5a 1b 3d b6 50 cd bc
       -0.535788 -0.23745301 0.03792796 -0.0250629
0000c0 93 c8 98 3f af 7a fa b3 13 07 b7 bd 93 26 17 3e
       1.193621 -1.1663848e-07 -0.08936896 0.14760809
0000d0 80 ad f4 3e dd 78 0a 3f 0d d7 3f 3c b7 41 85 3e
       0.4778862 0.5409067 0.011708987 0.260267
0000e0 7d 96 01 80 6d bb dc 3e 7f 5c b4 3d d9 f0 40 94
       -1.4582e-40 0.43111745 0.08806705 -9.741022e-27
0000f0 bc 39 4c be a6 2d 5a 04 44 97 d9 bb f9 bf 7d 3c
       -0.19943899 2.5646738e-36 -0.0066403467 0.015487664

weight f4 [64, 64]
000000 3a 5e 00 80 31 33 01 80 9b d0 86 a8 7d 5c 03 80
       -3.3802e-41 -1.102e-40 -1.4967457e-14 -3.08685e-40
000010 b7 5a 00 00 42 ea 00 00 70 c1 01 00 b9 9d 03 80
       3.2542e-41 8.4036e-41 1.61228e-40 -3.32087e-40
000020 c1 0b 01 80 0a f2 02 80 71 a8 18 ab d9 6f 01 80
       -9.6052e-41 -2.70498e-40 -5.423501e-13 -1.31959e-40
000030 65 85 e5 9f 9e 67 04 04 92 bc 01 80 a0 55 02 00
       -9.7205955e-20 1.5564104e-36 -1.59482e-40 2.14387e-40
000040 f9 be ad b5 90 0f 02 00 c8 4f 94 00 5c a0 43 ab
       -1.2945085e-06 1.89254e-40 1.3620274e-38 -6.950046e-13
000050 05 5f 00 80 64 a0 ff aa 77 6c 00 80 d4 aa a5 30
       -3.4087e-41 -4.5408393e-13 -3.891e-41 1.2053882e-09
000060 3b a8 45 8e a4 8c 03 00 c5 d6 01 80 cd 73 2b b6
       -2.4363125e-30 3.25959e-40 -1.6888e-40 -2.554839e-06
000070 85 0e 03 00 81 ef 00 80 b0 40 00 00 07 ea ee 8e
       2.80715e-40 -8.5918e-41 2.3206e-41 -5.889689e-30
000080 c7 17 23 9f a8 99 01 00 61 c9 2b ad 42 95 00 00
       -3.453626e-20 1.46957e-40 -9.76494e-12 5.3544e-41
000090 50 16 05 b0 9c c2 02 80 aa e0 00 00 77 17 02 80
       -4.8416826e-10 -2.53484e-40 8.0594e-41 -1.92089e-40
0000a0 e5 19 93 a9 13 b7 01 80 c4 9a ce ac a0 65 00 00
       -6.5326034e-14 -1.5751e-40 -5.8720546e-12 3.6456e-41
0000b0 87 89 04 80 ee 35 87 8c d5 f7 58 b2 0d 16 00 00
       -4.16677e-40 -2.08325e-31 -1.2629205e-08 7.91e-42
0000c0 7c 85 33 b6 76 d2 00 80 8c a4 0d 95 8b a3 39 a8
       -2.6750777e-06 -7.5499e-41 -2.8604528e-26 -1.0305026e-14
0000d0 58 d4 02 80 7b 41 27 a5 40 41 40 b0 e3 03 03 80
       -2.59846e-40 -1.4507127e-16 -6.994192e-10 -2.76901e-40
0000e0 d2 66 01 80 8c 7b 84 a6 f3 93 03 80 19 63 01 00
       -1.2872e-40 -9.192827e-16 -3.2858e-40 1.27385e-40
0000f0 91 1d 54 9d b0 d3 00 00 bf 5d 02 00 d2 cf 01 80
       -2.8073252e-21 7.5939e-41 2.17301e-40 -1.66387e-40
000100 e8 9f c3 ae 63 f2 00 00 30 92 03 80 df bb 02 00
       -8.8959784e-11 8.6952e-41 -3.27949e-40 2.51066e-40
000110 4f 1a 00 00 c8 b6 00 00 74 fd f2 01 5f 4b 00 00
       9.438e-42 6.557e-41 8.926045e-38 2.7038e-41
000120 79 75 00 80 9e 77 01 80 2c 6a 32 aa 96 3e 02 00
       -4.2141e-41 -1.34746e-40 -1.5846412e-13 2.06123e-40
000130 ab a3 00 00 6d 5d 01 80 64 9a 01 80 fb 16 00 00
       5.8713e-41 -1.2535e-40 -1.4722e-40 8.244e-42
000140 a5 1d 02 00 60 58 00 00 1d 45 00 00 2d 2a 01 00
       1.94305e-40 3.1703e-41 2.4793e-41 1.06965e-40
000150 aa 8b 00 80 ce b5 01 00 20 37 01 80 fc 1f 00 00
       -5.0102e-41 1.57055e-40 -1.1161e-40 1.1474e-41
000160 e5 ab 12 a7 0d 98 01 80 25 e6 01 00 8a 78 72 b5
       -2.0354754e-15 -1.46381e-40 1.74396e-40 -9.032743e-07
000170 dd e9 01 80 93 d1 8e 1f d2 43 00 80 bf a8 01 80
       -1.7573e-40 6.048605e-20 -2.433e-41 -1.5237e-40
000180 4c 63 02 00 9c b1 01 80 ba 3a 8f b0 41 88 01 80
       2.19292e-40 -1.5555e-40 -1.042131e-09 -1.40714e-40
000190 78 2d 76 a9 5b 15 01 00 21 10 00 80 40 7c 01 80
       -5.466241e-14 9.9496e-41 -5.786e-42 -1.36408e-40
0001a0 eb 76 00 00 33 81 ac a1 eb 0d 01 80 36 49 02 00
       4.266e-41 -1.1689372e-18 -9.6828e-41 2.09934e-40
0001b0 71 69 27 a1 01 8c de a7 d6 a4 53 b1 d4 3a 03 00
       -5.672135e-19 -6.176917e-15 -3.079824e-09 2.9661e-40
0001c0 d0 e9 a5 b2 69 b3 00 80 6c 89 00 80 6b d3 02 80
       -1.9314854e-08 -6.436e-41 -4.9298e-41 -2.59513e-40
0001d0 2b 3c 01 00 93 b1 00 00 8d fc 2c b0 6c 16 00 00
       1.1342e-40 6.3702e-41 -6.293213e-10 8.043e-42
0001e0 c3 8d 00 80 60 62 01 00 01 4b 01 00 fc a9 02 00
       -5.0855e-41 1.27126e-40 1.18742e-40 2.4465e-40
0001f0 2f 2b 01 00 d9 f8 01 00 60 9f 00 80 3e 7b 01 80
       1.07327e-40 1.81105e-40 -5.7173e-41 -1.36046e-40
000200 af e9 94 ad 29 89 02 00 e7 79 a3 a0 c7 7e 12 80
       -1.6929428e-11 2.32875e-40 -2.7693942e-19 -1.698518e-39
000210 4a 18 9f 24 62 c9 02 80 5b 46 51 a8 b4 51 00 80
       6.8996405e-17 -2.55914e-40 -1.16170865e-14 -2.931e-41
000220 f8 37 00 00 2d 87 02 80 e2 51 8a b6 8b e4 2c 0c
       2.0078e-41 -2.32163e-40 -4.122253e-06 1.3319173e-31
000230 be 3d 42 8f ef 1c 01 80 f9 2b 01 80 61 aa 04 00
       -9.5768296e-30 -1.02215e-40 -1.0761e-40 4.28462e-40
000240 8f 41 00 b6 bb 34 02 00 30 6e 82 08 f4 75 6d b0
       -1.9111646e-06 2.02587e-40 7.849995e-34 -8.638772e-10
000250 33 6c 02 80 73 29 8a a5 5b 3a 01 00 4d d5 00 80
       -2.22486e-40 -2.396727e-16 1.1277e-40 -7.6518e-41
000260 9c 87 85 b4 27 57 00 80 5f 39 d0 02 ad b5 f9 b9
       -2.487185e-07 -3.1264e-41 3.0595783e-37 -0.0004762834
000270 20 d2 00 80 76 67 0a ac 36 40 00 80 c3 7c 00 80
       -7.5379e-41 -1.9668412e-12 -2.3035e-41 -4.4756e-41
000280 08 98 7d 90 01 e9 3a 1b 39 69 d2 37 91 5c 01 00
       -5.0012573e-29 1.5460847e-22 2.5082949e-05 1.25042e-40
000290 f1 a2 d3 b6 94 47 01 00 a5 83 00 80 06 b7 e6 30
       -6.307259e-06 1.17513e-40 -4.7225e-41 1.6786721e-09
0002a0 8b d4 9f 9a 82 ea 3b b2 96 1a 01 80 e8 7f 03 00
       -6.610424e-23 -1.09381535e-08 -1.01373e-40 3.2139e-40
0002b0 08 60 aa 32 df fb d1 b4 2c 8d a5 b8 46 46 00 00
       1.9834275e-08 -3.9112544e-07 -7.8941084e-05 2.521e-41
0002c0 54 04 9e b9 d4 d3 02 80 df aa 00 80 31 78 68 97
       -0.00030139333 -2.5966e-40 -6.1297e-41 -7.5114946e-25
0002d0 3c 10 01 00 a5 8b 61 a2 39 95 2a b8 f2 19 04 00
       9.7659e-41 -3.0567113e-18 -4.0670133e-05 3.7665e-40
0002e0 00 b4 00 80 c7 f6 cb a3 4d 9e 00 00 43 35 02 00
       -6.4572e-41 -2.2113818e-17 5.6788e-41 2.02778e-40
0002f0 70 7b 6c 04 ff 59 00 80 24 b1 00 80 49 e8 00 80
       2.7798346e-36 -3.2285e-41 -6.3546e-41 -8.3328e-41
000300 e3 7d 00 00 d7 dc 01 80 48 74 0c b6 28 b4 aa aa
       4.516e-41 -1.71058e-40 -2.092931e-06 -3.0323075e-13
000310 96 cb 19 ae aa ad 00 00 bc 52 5b b0 2e 47 01 80
       -3.4968993e-11 6.2299e-41 -7.978931e-10 -1.1737e-40
000320 62 bb 18 b3 d5 87 02 80 1d 3f 14 b9 75 07 01 00
       -3.556068e-08 -2.32398e-40 -0.00014137891 9.451e-41
000330 fc f3 d2 9d eb 74 b9 b4 7c 0a 21 a2 bc 69 00 00
       -5.583881e-21 -3.4544004e-07 -2.182512e-18 3.793e-41
000340 da 02 b5 b9 a9 b1 02 80 08 0c 02 00 94 30 cf 32
       -0.00034525135 -2.47403e-40 1.87987e-40 2.4120062e-08
000350 a6 10 02 80 80 73 02 80 1a 6b 01 00 92 75 01 80
       -1.89643e-40 -2.25105e-40 1.30256e-40 -1.34012e-40
000360 08 1a 30 b7 cd db 01 80 2f 08 04 00 04 7d 83 ba
       -1.0496478e-05 -1.70685e-40 3.70278e-40 -0.0010031764
000370 04 78 02 00 d1 d4 db 2e 6c 06 00 00 05 9d 8c b2
       2.26724e-40 9.996771e-11 2.304e-42 -1.636955e-08
000380 97 2c df b4 f7 80 02 00 34 e1 06 ba f5 22 00 00
       -4.156943e-07 2.29935e-40 -0.0005145252 1.254e-41
000390 1f 62 25 b9 75 47 01 00 7e 42 01 00 e5 76 8f b4
       -0.00015772179 1.1747e-40 1.15688e-40 -2.6722333e-07
0003a0 16 42 01 80 cb 6c 5c b4 96 05 00 80 50 77 01 00
       -1.15543e-40 -2.0528675e-07 -2.004e-42 1.34637e-40
0003b0 27 af 02 b7 fe fb b1 b6 4d 05 3a ba c1 0a 00 80
       -7.789385e-06 -5.304347e-06 -0.0007096127 -3.858e-42
0003c0 9d f4 90 ba 62 6e 00 80 8e eb 7e b4 9e 6b 03 80
       -0.0011059229 -3.9598e-41 -2.3741288e-07 -3.14112e-40
0003d0 1f 60 01 00 cf 67 b8 b5 a6 d9 c5 b9 89 fb 86 9e
       1.26317e-40 -1.3739281e-06 -0.0003773693 -1.4291834e-20
0003e0 67 54 00 00 e8 70 71 b6 6e 27 01 80 ff 0d 00 00
       3.0278e-41 -3.5977519e-06 -1.0598e-40 5.021e-42
0003f0 60 f8 00 80 ba 46 00 00 c0 b6 00 80 11 c4 55 a3
       -8.91e-41 2.5372e-41 -6.5558e-41 -1.1588272e-17

bias f4 [64]
000000 8a bb b2 aa 3e 2d 27 03 cf 9a f0 b0 71 38 9c b6
       -3.1749283e-13 4.9128825e-37 -1.7506298e-09 -4.655733e-06
000010 9f 2b aa be 62 e3 9d a8 eb fb 96 b8 56 b5 2c 3e
       -0.33236405 -1.7529113e-14 -7.199481e-05 0.16866049
000020 3c 8e 9d 3e fa 1d 87 b1 f7 00 c3 be bb c6 aa 3e
       0.3077258 -3.932425e-09 -0.38086674 0.33354744
000030 80 60 74 be f2 51 9c bb 76 44 25 ba 22 91 13 af
       -0.23864937 -0.004770511 -0.0006304452 -1.3421134e-10
000040 dd c9 d6 aa cb 55 d1 34 d8 83 43 be ed 3c d6 b8
       -3.8154107e-13 3.8991706e-07 -0.19093263 -0.000102156635
000050 15 a0 07 b9 f2 5b 08 bd 83 37 82 be 19 bf 12 3f
       -0.00012934238 -0.03329081 -0.25432977 0.5732284
000060 e1 4d 1c b0 de 6e 9b b1 75 31 47 ba e6 a2 ea b9
       -5.686314e-10 -4.523698e-09 -0.0007598617 -0.00044753327
000070 2e 10 8e bc 43 67 4f 3f 11 9b 8b bd 99 e6 73 be
       -0.0173417 0.8101694 -0.06816686 -0.23818435
000080 1a 04 0e be a6 5f 1d bd a3 2f 85 3e 7c 7a 31 bd
       -0.13868752 -0.038421296 0.26012906 -0.0433297
000090 26 3f ec be 3d 6e 4c b5 a4 c4 36 bf 32 ac f3 b1
       -0.46141928 -7.615634e-07 -0.713938 -7.091807e-09
0000a0 88 5b be bd c0 48 f4 ab 09 b2 0c bc 37 f8 0f 3f
       -0.09294802 -1.7357435e-12 -0.008587369 0.5623812
0000b0 fa 9c 6d 3e 22 3b 96 be c8 b8 08 ba ed 91 f1 bd
       0.23204413 -0.2934199 -0.0005215523 -0.11795411
0000c0 9b 1a 10 b9 79 40 00 3f da dc 85 bd df 5b 2f be
       -0.00013742821 0.5009838 -0.06536265 -0.1712489
0000d0 ab f7 27 3f 3d 0e 26 3e 16 c5 68 be da ef 97 ba
       0.65612286 0.16216369 -0.22731432 -0.0011591867
0000e0 88 85 e5 bc e6 90 bb b7 4d e8 76 bc f0 60 a3 b7
       -0.028017774 -2.235961e-05 -0.015070033 -1.9476254e-05
0000f0 d6 59 e1 bd 67 73 81 af d0 3e 74 9e 36 22 bd be
       -0.11003463 -2.3546962e-10 -1.2930242e-20 -0.36940163

weight f4 [64, 64]
000000 77 ee 00 00 85 ad 01 80 65 cf 00 80 ba 1d 00 80
       8.5545e-41 -1.54083e-40 -7.4399e-41 -1.0664e-41
000010 c0 2c 03 80 f3 90 00 00 33 50 00 00 88 54 00 80
       -2.9156e-40 5.1998e-41 2.877e-41 -3.0324e-41
000020 51 0d d9 b9 37 8b 01 00 46 05 02 80 ea a7 c4 bc
       -0.00041399387 1.41776e-40 -1.85563e-40 -0.024005849
000030 d8 9e 01 00 d6 4c 03 80 09 a8 00 80 2f c8 00 00
       1.48818e-40 -3.0307e-40 -6.028e-41 7.1812e-41
000040 8c 63 00 80 99 91 00 80 7f 3e 04 00 c3 84 02 80
       -3.571e-41 -5.223e-41 3.89761e-40 -2.31297e-40
000050 bb 73 00 80 b6 cf 00 80 1d 1c 00 80 f9 45 ec bc
       -4.1516e-41 -7.4513e-41 -1.0085e-41 -0.02884196
000060 61 34 01 80 09 18 00 00 25 57 00 80 49 cd 02 80
       -1.10626e-40 8.622e-42 -3.1262e-41 -2.57313e-40
000070 2b cd 00 00 33 56 08 bd f9 1a 00 00 1f f3 e5 bc
       7.36e-41 -0.03328533 9.676e-42 -0.02807003
000080 79 c7 01 80 fa e5 00 80 82 19 01 80 85 69 60 00
       -1.63393e-40 -8.25e-41 -1.00986e-40 8.854061e-39
000090 3b 83 c5 ba 03 1c 00 80 bb 5e 04 80 6d fe 00 00
       -0.0015069017 -1.0049e-41 -4.01325e-40 9.1271e-41
0000a0 f8 0b 04 00 c1 fa 00 80 1b cc 00 80 b2 3b ff bc
       3.71636e-40 -8.9954e-41 -7.3219e-41 -0.031156395
0000b0 26 54 00 00 55 57 bb af 76 24 00 00 e7 ac 00 80
       3.0187e-41 -3.4077155e-10 1.308e-41 -6.2026e-41
0000c0 c3 c3 14 af cd c7 f6 bc 1c 09 00 80 33 84 00 80
       -1.353007e-10 -0.03012457 -3.268e-42 -4.7424e-41
0000d0 48 ea b3 bb 9c 52 02 80 8a 3f 85 bc 2d c0 f4 bb
       -0.005490575 -2.13306e-40 -0.01626565 -0.007469198
0000e0 cb 69 00 80 46 f1 00 00 1b 00 01 80 ad 2c 00 00
       -3.7951e-41 8.6553e-41 -9.1873e-41 1.6027e-41
0000f0 7e 2a 00 80 47 13 00 80 9a 16 00 80 15 37 8b bb
       -1.5243e-41 -6.915e-42 -8.108e-42 -0.0042485096
000100 9a f9 00 80 0c b8 01 00 73 87 00 80 9c 75 03 00
       -8.954e-41 1.57859e-40 -4.859e-41 3.17697e-40
000110 c0 b8 00 80 93 9d 03 80 04 49 00 80 67 e6 38 bb
       -6.6276e-41 -3.32033e-40 -2.6193e-41 -0.0028213502
000120 8e 09 30 a7 27 f1 02 80 e7 97 02 00 4a 6c 57 26
       -2.4430086e-15 -2.7018e-40 2.38163e-40 7.473987e-16
000130 03 4b 02 00 81 e7 00 00 6a d1 37 29 32 f6 01 00
       2.1058e-40 8.3048e-41 4.08158e-14 1.80154e-40
000140 ea 92 00 80 c6 a5 00 80 cd fd 00 00 96 c3 00 80
       -5.2703e-41 -5.9468e-41 9.1047e-41 -7.0163e-41
000150 50 fe f8 a1 86 f3 00 80 1c 6e 62 a5 90 ec 42 b0
       -1.687245e-18 -8.736e-41 -1.9639682e-16 -7.0912964e-10
000160 42 2b 02 80 a7 0a 01 80 4f 97 00 80 e7 06 00 80
       -1.99189e-40 -9.5657e-41 -5.4279e-41 -2.476e-42
000170 9b 1d 02 00 06 d6 1b b8 38 39 01 00 21 9e 0d b3
       1.94291e-40 -3.7154205e-05 1.12362e-40 -3.2972938e-08
000180 3c 70 01 00 af ae 03 80 16 48 e3 b8 d7 f3 43 a4
       1.32098e-40 -3.38171e-40 -0.000108376305 -4.2490425e-17
000190 da 5d 1d 26 45 24 00 80 46 c8 8b 27 de 5c 01 00
       5.459751e-16 -1.3011e-41 3.8797387e-15 1.2515e-40
0001a0 cb ff 01 80 79 c0 02 00 82 e6 00 80 88 21 37 a5
       -1.83597e-40 2.52717e-40 -8.269e-41 -1.588408e-16
0001b0 91 44 02 00 c2 51 8f 27 8e 20 01 80 81 0f 01 00
       2.08268e-40 3.9779115e-15 -1.03514e-40 9.7397e-41
0001c0 70 55 01 00 a2 5d de b9 e4 4f 01 00 4f ec cb b4
       1.22485e-40 -0.00042412902 1.20495e-40 -3.7983634e-07
0001d0 6b 91 d6 b6 7a 82 1f b8 54 f5 04 a4 89 fb 3d b2
       -6.394626e-06 -3.803007e-05 -2.883074e-17 -1.105844e-08
0001e0 c9 47 01 00 25 b2 03 00 08 9c a4 2c 30 0d 00 80
       1.17587e-40 3.39413e-40 4.6784833e-12 -4.731e-42
0001f0 ea 3b 01 00 eb 54 00 80 42 52 00 00 2e ae 3d 24
       1.13329e-40 -3.0463e-41 2.9509e-41 4.1130378e-17
000200 d2 e7 1b b9 9e 70 21 b4 27 fd 79 b8 01 11 41 bb
       -0.00014868312 -1.5035263e-07 -5.9601993e-05 -0.0029459598
000210 65 a5 0f 3f e9 6a 76 39 a4 19 2d 29 5a 0b 1f be
       0.5611175 0.00023500215 3.8435956e-14 -0.15531674
000220 f5 94 2d be 34 da 0a bb e1 9c 6f be 1b b2 19 3f
       -0.16951354 -0.0021187188 -0.23399688 0.6003739
000230 c2 71 76 3f 12 0f cf bc 69 1b 8a 39 da e4 8b 16
       0.9626733 -0.02527574 0.00026341833 2.2601087e-25
000240 87 48 3b 35 6d c4 8b 3a 55 7f 59 3e 3d d1 8a bb
       6.976847e-07 0.0010663398 0.2123998 -0.004236369
000250 f7 6c 6d bb 67 8b 96 bc 13 03 19 3d e5 28 0c 3f
       -0.0036228278 -0.01837702 0.037356447 0.547499
000260 11 89 52 b4 2c 54 f7 37 67 32 aa 32 2c 6a 9f bc
       -1.9607639e-07 2.948389e-05 1.9813525e-08 -0.019459806
000270 66 21 d7 bb d2 a6 05 3f 4b a7 22 3b 33 4b 09 3f
       -0.0065652607 0.5220767 0.0024818953 0.5363037
000280 4d ee 0b bc 9d 60 43 bd 80 19 aa 3e db ae f8 3d
       -0.008540702 -0.04769956 0.3322258 0.12142726
000290 59 c5 ce bd 2a e6 14 39 ba bb c8 bd 12 16 da 2a
       -0.10096235 0.00014200123 -0.09801431 3.8739893e-13
0002a0 96 ac f8 3d d6 9c 2a b5 60 1f 7b ba 83 97 07 3f
       0.12142293 -6.355816e-07 -0.00095795654 0.52965564
0002b0 93 83 01 3f c5 b6 a2 3e 91 4c 27 3c 2e 0b 6f bb
       0.5059139 0.31780067 0.010211126 -0.003647517
0002c0 e8 b1 87 2b c5 a1 97 3e c7 88 42 bd 93 5d 9a bd
       9.641706e-13 0.29615608 -0.047493722 -0.07537379
0002d0 68 e8 92 be 10 9e 88 3e 79 a7 d5 3e 2a 74 93 be
       -0.28692937 0.26683092 0.41729334 -0.28799564
0002e0 32 f7 30 bd ad 19 b6 35 b6 1d 99 3c df cb 3f b9
       -0.043204494 1.3567529e-06 0.018690925 -0.00018291127
0002f0 7a bb 62 be c0 a2 3d ba c3 0c 6c b8 35 54 2e 3e
       -0.22141829 -0.00072340295 -5.627867e-05 0.1702431
000300 ff 2e 01 80 dc 95 a0 35 c6 ac 01 00 3b 6a 00 00
       -1.08695e-40 1.1964544e-06 1.53815e-40 3.8108e-41
000310 85 00 e9 3e bf b1 00 00 00 83 35 21 32 57 8b 3e
       0.4550821 6.3763e-41 6.149856e-19 0.27214962
000320 09 e4 fc be 1e 6d 00 00 f9 2a d1 3c 3d f9 9b 3e
       -0.49392727 3.9144e-41 0.025533186 0.3046359
000330 a9 4e e3 3e 6c 12 94 9f 10 1b 01 80 f1 bc 01 00
       0.4439595 -6.2710915e-20 -1.01544e-40 1.59615e-40
000340 02 8d ee b9 eb ef 82 2d ad 77 84 39 3a 00 01 00
       -0.00045499956 1.4885834e-11 0.00025266167 9.1917e-41
000350 cd 21 96 3c de 1d dd 3c f8 cd 88 3c 55 04 8d 3e
       0.018326664 0.02699178 0.016699776 0.27542368
000360 c9 ca 01 00 fb 71 d9 2c c1 9b 37 3c 51 2f 00 00
       1.64581e-40 6.1801653e-12 0.011206568 1.6974e-41
000370 66 3f 11 bc 16 87 8a 3e c2 5b 87 2d dd 11 9a 3e
       -0.008865213 0.27056187 1.5388472e-11 0.30091754
000380 9e 24 ea 3e 2b f0 09 3d 64 79 a3 be 3b 8a 35 3f
       0.45731062 0.033676308 -0.3192855 0.7091405
000390 e7 55 2a 3f 66 3b b8 1d 6f 57 dd 3e 56 a0 01 00
       0.66537327 4.876581e-21 0.4323077 1.49353e-40
0003a0 d7 00 98 3a d9 e2 01 80 b8 85 14 3c 09 47 97 3e
       0.001159693 -1.73213e-40 0.009065084 0.29546383
0003b0 b0 23 13 be 3b 55 09 3f 30 72 03 80 7b c8 55 3c
       -0.14369082 0.53645676 -3.16469e-40 0.013048287
0003c0 7f 93 cc 39 13 70 12 3e ab 80 74 ba ce b4 99 3d
       0.00039019805 0.14300565 -0.00093270343 0.07505189
0003d0 20 e5 6d be 59 9c 3f bd 2d c6 95 3e 9e da ab 3e
       -0.23231936 -0.046779964 0.2925276 0.3356523
0003e0 c5 19 ea b6 3a f8 d0 39 3d 1f e1 3c d6 42 00 00
       -6.9767434e-06 0.00039857795 0.027480716 2.3976e-41
0003f0 1e cb b8 b9 36 6c 01 00 6c 70 00 00 bf 33 25 3e
       -0.0003524655 1.30654e-40 4.033e-41 0.16133021

bias f4 [64]
000000 1a a3 a1 bb 0c 11 b5 2a e1 71 9c 3d 92 08 0e 3c
       -0.0049327733 3.2163887e-13 0.07638908 0.0086690355
000010 39 e1 65 be 83 72 3c b1 d6 56 b3 bb e1 fa d7 bb
       -0.22449197 -2.7422693e-09 -0.005472998 -0.0065911864
000020 4e ad a4 3e ac e5 5b bc 2f 74 08 bb 02 b6 95 bc
       0.3216347 -0.013421457 -0.0020821204 -0.018275265
000030 b0 f0 1e bb 1c 33 97 3e 2a 5e 5b b6 5b 7b 11 bc
       -0.0024252348 0.2953118 -3.2688354e-06 -0.008879508
000040 46 ac e1 bd e7 41 43 bc b3 ea 46 3d 04 2d 5e af
       -0.11019187 -0.011917568 0.04856367 -2.0206775e-10
000050 6b 4b 1e bd c8 0e 05 b7 ce 52 4d be 40 d7 32 bd
       -0.038646143 -7.930859e-06 -0.20051119 -0.04366231
000060 19 88 52 35 25 41 9b b8 fa 6f 01 80 ef 14 51 bd
       7.8429144e-07 -7.40311e-05 -1.32005e-40 -0.051045354
000070 d0 c4 2d 3f ed a6 fe 3d c0 fd fc be 65 06 04 af
       0.6787844 0.12434182 -0.49412346 -1.2007602e-10
000080 ee 74 d5 9e d6 68 88 b9 98 de 1e bd de 03 f1 17
       -2.2600613e-20 -0.0002601805 -0.0387865 1.5575236e-24
000090 43 50 02 00 62 34 02 80 a9 3a 0c 3f 71 8d f9 a6
       2.12463e-40 -2.02462e-40 0.5477701 -1.7316184e-15
0000a0 9c 5d aa bd 5b f1 a7 3d 57 ab 1b bd cd bc ee 13
       -0.08318636 0.08200332 -0.0380052 6.026582e-27
0000b0 33 a2 0b ba 95 68 0c bc 8e db 9f b4 ef 6a 59 be
       -0.0005326599 -0.008569856 -2.9775805e-07 -0.21232198
0000c0 6f dc 7c bd 9d c5 a6 ba 0c 16 a7 be 78 af f1 ba
       -0.06173366 -0.0012723688 -0.32634008 -0.0018439135
0000d0 3b 65 c0 bd d1 31 1b 3f 97 ae 29 bf c2 50 10 af
       -0.09394308 0.6062289 -0.6628203 -1.3125415e-10
0000e0 2c 8c c1 be 42 4f 22 3f 72 97 93 3e fa 4d 7b bd
       -0.37802255 0.6340219 0.2882648 -0.06135366
0000f0 a8 92 7b 22 7e 89 64 b9 c7 cb ae bc c5 ef 8c b2
       3.4094482e-18 -0.00021794994 -0.021337403 -1.640718e-08

weight f4 [1, 64]
000000 c2 a7 03 00 1d b9 bb ba 5a 8d 23 be aa 48 94 3f
       3.35687e-40 -0.0014322136 -0.1597189 1.1584675
000010 db 63 0e 3f 0f 75 01 00 90 2e d1 3c 18 7f 58 3e
       0.5562112 1.33828e-40 0.025534898 0.21142232
000020 ba bd 19 be 1e 28 15 3e b6 07 04 00 e6 6d 52 3e
       -0.15013781 0.14566085 3.70108e-40 0.20549735
000030 4e 68 b1 2d d5 d3 e9 be 21 e6 01 00 f7 dc ef 3d
       2.016889e-11 -0.45669428 1.7439e-40 0.117120676
000040 2a f8 91 bc 25 87 4e 3d 42 f5 d6 3e 0f 9c 03 80
       -0.01781853 0.050421853 0.41983992 -3.3149e-40
000050 e2 44 0a 40 6b 21 a2 0a 47 90 26 3f 45 c4 8b 3e
       2.1604543 1.5612603e-32 0.650639 0.2729818
000060 76 9c 01 80 31 18 02 80 07 a0 00 80 a0 e7 c5 3e
       -1.47963e-40 -1.92349e-40 -5.7407e-41 0.38653278
000070 06 a2 87 bf bf f0 78 be b0 d0 1a 3d 94 0f 02 00
       -1.0596321 -0.24310587 0.037796676 1.8926e-40
000080 05 a4 93 ba ec a8 03 80 d5 d7 2b bd 25 11 2f 89
       -0.0011264092 -3.36104e-40 -0.04195388 -2.107292e-33
000090 4f 98 02 00 63 f2 01 00 7a f2 50 bf e6 d2 02 80
       2.38309e-40 1.78787e-40 -0.8161999 -2.59327e-40
0000a0 13 09 3b 3f 16 53 da 3d db 84 5f 3e 97 24 04 80
       0.7306072 0.10660379 0.21828024 -3.80468e-40
0000b0 c0 83 62 bd 6b 47 0d 16 dc 9e e2 80 af 83 36 3d
       -0.055301428 1.1412425e-25 -2.081181e-38 0.044559177
0000c0 6c a5 8f ba a3 64 44 3d 1b 61 1f 3e 04 8b 13 bd
       -0.0010959334 0.047947537 0.15564387 -0.036021248
0000d0 a1 21 8a be c9 50 71 bf cc 66 d4 3e 73 37 11 bc
       -0.26978782 -0.94263893 0.41484678 -0.008863318
0000e0 fc 9c b5 3e dc c9 79 bf 98 4e 0e bf 77 80 91 3d
       0.35471332 -0.9757364 -0.55588675 0.07104581
0000f0 39 27 4e 3c 8d ac de 3a c2 b4 62 3e 07 6b 56 2d
       0.012582594 0.001698868 0.22139266 1.21882565e-11

weight f4 [1, 64]
000000 f8 fd 3d bd 58 b8 0d b4 bc 26 bb 3e d3 44 02 bc
       -0.04638478 -1.3198712e-07 0.3655299 -0.007950979
000010 b0 60 9c bd 3a cd 52 bd 11 2b 00 3d e3 fa 92 3c
       -0.07635629 -0.05146525 0.03129107 0.017941898
000020 3e 71 e4 bd 76 3d 4e 3d cf 40 dd 3c b3 91 91 bd
       -0.11154412 0.050351582 0.027008442 -0.07107868
000030 fe c2 a7 bc 29 df 7c bc 7a a5 56 3d a8 96 65 3d
       -0.020478722 -0.015434065 0.052403904 0.05605188
000040 d9 02 dd bd a4 51 c1 b9 ab 75 25 3e ae 45 97 3c
       -0.10791559 -0.00036872656 0.16158168 0.018465843
000050 1d af d7 3e f0 c6 96 3c d3 e2 ce 3c a1 c3 ff bc
       0.42125788 0.018405408 0.025254643 -0.031221213
000060 be 1c 8b bb 7d e9 06 bd 2a 29 21 00 c9 77 c0 3c
       -0.0042453697 -0.032937516 3.045338e-39 0.023494618
000070 67 a8 db bd cf ce b5 3d 4b c7 21 3e 85 0d ad 3c
       -0.107254796 0.08877336 0.1579868 0.02112461
000080 40 c7 7e bb 47 87 6a bb 10 a6 1a bd 3d ff bb 36
       -0.0038876086 -0.0035786198 -0.037756026 5.602748e-06
000090 4c 48 0a 39 59 18 de 3b c8 7f a7 bd ba ca bd bb
       0.00013187638 0.006777805 -0.08178669 -0.005791989
0000a0 06 0a 6c be 10 86 26 3e 51 89 d7 bc e1 e4 64 bb
       -0.23050699 0.16262078 -0.026310595 -0.0034926462
0000b0 0a c4 87 bd e9 96 47 3d 4f fe 1b bc ab 91 e9 3d
       -0.06629188 0.048727904 -0.009521081 0.11404737
0000c0 2d 74 f9 3c ce b5 2b be 24 a1 42 bd 89 94 01 bc
       0.030450905 -0.16768572 -0.047516957 -0.007908949
0000d0 b3 70 2d 3e c3 e1 b7 bd 50 07 62 bd 33 4d 8c 3a
       0.16937523 -0.089786075 -0.055182755 0.001070416
0000e0 d7 6f 71 bd b8 a4 bf bd fa 52 83 bb 48 8a d9 bc
       -0.05894455 -0.093575895 -0.0040076943 -0.026555195
0000f0 18 15 e9 3b 7d 43 24 bc bb b9 82 3d 67 f2 c1 bb
       0.0071131103 -0.010025856 0.063830815 -0.005918789

weight f4 [1, 64]
000000 f4 56 9e bd 4c 17 f4 bd ea 1d eb 3d 8a f8 e3 bd
       -0.07731429 -0.11918506 0.11480315 -0.111313894
000010 28 01 50 bd f0 13 43 3c b2 18 9d bd 54 63 14 3d
       -0.050782353 0.011906609 -0.07670726 0.03622754
000020 e8 21 db 3d 80 da 38 bc 14 e9 7a bd 60 b9 4f bd
       0.106998265 -0.011282563 -0.061257437 -0.050713897
000030 60 bf 82 3b a0 f3 d0 3d a0 6c fc bd f0 1c c3 3d
       0.003990099 0.10202718 -0.12325406 0.09527004
000040 48 ea 71 bd c0 bd 12 3b 88 d0 65 3d 94 4a 92 bd
       -0.05906132 0.0022390932 0.056107074 -0.07143131
000050 56 09 a6 bd 34 e6 be bd 74 03 0d bd cc f1 ce 3d
       -0.081072494 -0.093212515 -0.03442712 0.10104713
000060 20 c6 f8 3d 00 f7 d1 3b e0 cc d7 3c d0 97 b3 bd
       0.12147164 0.0064076185 0.02634281 -0.0876919
000070 58 13 f1 bc 70 3d e6 3c 68 49 37 3d 30 f3 2b 3c
       -0.02942817 0.028105468 0.04474774 0.010494992
000080 d4 89 27 bd 54 aa 65 3d 48 81 b7 3c 44 b2 03 bd
       -0.040902928 0.05607064 0.022400513 -0.03215243
000090 38 6e d2 bc 94 bb 00 3d 8e fb f1 3d cc ee ae bd
       -0.025687322 0.03142889 0.118155584 -0.08541641
0000a0 dc ff e6 3d 60 72 a9 bb dc 07 ef bd c8 26 12 bd
       0.1127927 -0.0051711053 -0.11671421 -0.035681516
0000b0 46 8f e2 bd f0 78 1e bc a0 7f ac bb a6 ad d4 bd
       -0.110624835 -0.009672388 -0.0052642375 -0.10384683
0000c0 00 77 01 3a 3e d5 b2 bd 30 71 cc 3d 78 2e b1 3c
       0.0004938692 -0.08732079 0.09982526 0.021628603
0000d0 a2 d5 a3 3d 10 5b 77 3d 80 cf 60 3b ac c3 78 3d
       0.079997316 0.06038958 0.0034303367 0.060733482
0000e0 0c 69 a3 3d 38 9f ad bc b8 eb 15 3d fc 21 f8 bd
       0.079790205 -0.021194085 0.036601752 -0.12115857
0000f0 d0 a4 4f bc 84 ec 6d bd 78 12 37 bd 00 27 66 bc
       -0.012673572 -0.058086887 -0.044695348 -0.014047384

weight f4 [1, 64]
000000 64 ed 8f bd ac b1 f6 3d 42 b9 91 3d d0 91 5e bd
       -0.070277005 0.12045607 0.07115413 -0.054338276
000010 8c 04 55 bd b0 8e 26 3d ca 5c ec 3d 64 c1 c1 bd
       -0.05200629 0.04066342 0.115411356 -0.094607145
000020 d6 ac 9a 3d f4 01 66 bd 9a 7d ad bd be 15 a3 3d
       0.07552497 -0.056154206 -0.08471222 0.07963131
000030 48 14 f3 3d 64 f4 a1 bd 86 6d c5 bd f4 22 50 bd
       0.11869103 -0.07907942 -0.096400306 -0.050814584
000040 7a 5d fc bd 88 2f 39 3d cc 54 b2 bd 34 5c 0d 3d
       -0.12322517 0.045211345 -0.0870758 0.03451176
000050 20 8d c5 bd 00 68 b7 3c d8 9b 9a 3d fa 20 9b bd
       -0.09646058 0.022388458 0.07549256 -0.07574649
000060 28 a0 5a 3d c0 44 d2 bb c0 7e 27 bb d4 f4 df bd
       0.053375393 -0.006416887 -0.0025557727 -0.10935369
000070 50 0b 95 bd 24 4e 43 bd 26 0c d3 3d 18 e7 e7 bd
       -0.07277548 -0.047681943 0.103050515 -0.113233745
000080 1e 72 ed bd 12 a6 e3 3d 64 6f 0c 3d d0 97 b0 bc
       -0.11594032 0.1111566 0.034285918 -0.021556765
000090 d0 1d 53 3d 94 e4 d3 3d 9e 00 b9 3d b8 0c 4c 3d
       0.051542103 0.10346332 0.09033321 0.049816817
0000a0 32 6a c0 3d 30 82 a2 3d 6e 8b 8e bd a0 e4 c9 bc
       0.09395255 0.079349875 -0.06960188 -0.02464515
0000b0 12 c3 dc bd e0 ed ca bc 14 29 10 3d 78 63 87 3d
       -0.10779394 -0.02477163 0.035195425 0.06610769
0000c0 98 5c bf bc 8e aa 92 bd ac ea a4 bd e8 6a 8f bd
       -0.023359582 -0.07161437 -0.080525726 -0.070028126
0000d0 c0 ec 42 3b 82 cb e4 bd 20 ed 6d 3c 58 22 97 bc
       0.0029743165 -0.111716285 0.014521867 -0.018448994
0000e0 d4 a1 f8 bd 30 2a 62 bc d0 d2 a5 3c 54 ad 3b 3d
       -0.12140241 -0.013804004 0.020242125 0.045819595
0000f0 e0 72 d7 bd 58 a2 27 bd ac 45 85 bd f0 72 ca 3d
       -0.105199575 -0.040926307 -0.065074295 0.09885204
