pth/VIScaler_test1_56_loss_4.2535295486450195.pth (torch, 42640 bytes, 10 tensors)

weight f4 [64, 3]
00000000: 937c f3bd 1a5d 11bc ba40 6bbb 2c6c a3be
00000010: a2ad 083e bd51 ddbd 62be c83d 18ad ce3c
00000020: fa12 073f 40d4 2d3e ec8b 013d e154 6bc0
00000030: c7a3 bb3c e861 c7bd d7cf 62bf 9899 a0be
00000040: 0122 063e f069 dabd cb87 b73d 1a8d 723d
00000050: a9f5 edbf acdb cdbd 01e0 46bc cd9e d6bb
00000060: 657f a4bc 6383 813b 50be c0b5 8d16 3ebd
00000070: 4ddd b93d 16ef 24be 737e ac3e 1920 44bd
00000080: 9e9e 99bf b400 b6bc 3244 653a 6cac a1b5
00000090: 1195 8d3d 2594 513d d014 853e 3395 3f3c
000000a0: 8e24 963b 18ea 123e d993 f43d fda5 f13b
000000b0: fadf 64c0 f037 88bc 7372 0fbd c994 813e
000000c0: 6d46 353f 1f97 523d afab 093f d15d 7abe
000000d0: d29c df3d 1063 ecbd ffd2 81ba bf4f 23b8
000000e0: 6c07 8bb4 5549 1eba cd3f 1739 3d92 3c38
000000f0: f8d9 3dbe 72c1 eebd 0f08 e03e 33e2 ab3d
00000100: 3e10 65bc 5fcb 133f 76f4 5cbd aeef febd
00000110: 42bd 3fbf b69e 4cbd 63da 3dbb dc73 13af
00000120: a708 433e 46ed cabd 8c25 413f fdf6 44be
00000130: d827 ae3d fa6d 98bd 65db 64bc 3cd7 5b3e
00000140: d256 1c3f 7bb7 4f3f 71f4 c4be 74b8 b03f
00000150: 46b0 6abd 5577 5f3b b783 cd2e 70c0 0e3d
00000160: 4622 403e 6a56 053f cc90 1ebd 7888 0f3b
00000170: a766 13b2 6e49 6e3c a2d1 003d f253 2bbf
00000180: 4eac 983d d026 3c3d f83f 6c3e 2876 64be
00000190: 2ff2 c3be 2a50 b5bd ce22 173f ffea 2fbe
000001a0: 5f66 cabf 6e55 fab9 bb2f a7bd 8417 1dbf
000001b0: 94e3 943e 73e0 733d 44a2 a4bf 1af3 0fbd
000001c0: 1872 3abd ef0d 1bbd 0ea2 2cbd 5bd8 d03b
000001d0: 87c3 9ab0 d004 593e 5e1a 98be 7839 a4bf
000001e0: ddae 983d 809c a93d 9fec 1d3f a75c d33d
000001f0: a5ae d7bc 93c4 513f b419 90bc 4cc8 483b
00000200: 39ca acba 343b a1be af45 0a3e 2a6f fbbd
00000210: af2d 3a3e f9fd a4be af75 a53e 4365 2f3e
00000220: a939 61bd e759 493f e5a4 113f 7389 efbd
00000230: 7965 81bf 5ff6 b0bc 0e9a 223b 36b3 6aae
00000240: 17d3 013f 7fd5 0d3e 59e8 07c0 8090 a4bc
00000250: 0dc9 70ba 5fdd c73b 9f8c 8f3d a0e1 583d
00000260: 4d33 15be 86b7 643d 3785 803d b46a 463f
00000270: 20dc 8dbe 100e 023e 5dff 49be c399 d23d
00000280: e8aa b3bc 9eec 5a3e 2eb5 aa3e 7833 253e
00000290: e62c 8d3f 9bcd b83d 697c 8dbd b0a3 50c0
000002a0: 58c4 72bd 9ee3 bb3b b58f 96b8 15d0 f43d
000002b0: 2fe1 99bc dda6 c43e c76f 1abd 84eb 51bd
000002c0: 4a65 46be 0bee 80bb 535b 7a3a e151 86b7
000002d0: b731 f53d a376 d53d 1ca6 d03e 7827 65bd
000002e0: 0380 f73b e1c0 c4b0 0b2e 54bd d67e f23a
000002f0: fe7f 2fb4 1b9d 003e 6bfc 1f3d b29d 6bc0
-0.11888995 -0.008872295 -0.0035896734 -0.31918466 0.13347486 -0.10806606 0.09801938 0.025229022
0.5276333 0.16975498 0.03162758 -3.6770556 0.022905244 -0.09735471 -0.8859839 -0.31367183
0.13098909 -0.10664737 0.08961447 0.059216596 -1.8590595 -0.10051665 -0.012138368 -0.0065496922
-0.020080278 0.00395243 -1.4360503e-06 -0.046408225 0.09075413 -0.16106829 0.33690223 -0.047882173
-1.2001531 -0.022217132 0.00087458186 -1.2045616e-06 0.06913198 0.051166672 0.2599244 0.011693287
0.0045819944 0.14347112 0.11942262 0.0073745237 -3.5761704 -0.016628236 -0.035021257 0.25308827
0.70810586 0.05141365 0.53777593 -0.2444985 0.10918583 -0.11542332 -0.0009904801 -3.8936498e-05
-2.5896168e-07 -0.0006038149 0.0001442425 4.4958888e-05 -0.1854018 -0.116579905 0.43756148 0.083927535
-0.013980923 0.57732195 -0.053944074 -0.12448059 -0.7489816 -0.049956046 -0.002896928 -1.3410734e-10
0.1904627 -0.099085376 0.75447917 -0.19234844 0.08503693 -0.07442851 -0.013968323 0.21468824
0.6106998 0.81139344 -0.38467744 1.3806291 -0.057297014 0.0034098227 9.345718e-11 0.03485149
0.18763074 0.5208498 -0.038712308 0.002190141 -8.579867e-09 0.014543874 0.03144992 -0.66924965
0.074547395 0.045935452 0.23071277 -0.22310698 -0.3827071 -0.08853181 0.5903748 -0.17179488
-1.5812491 -0.00047747366 -0.08163401 -0.61364007 0.29079878 0.059540223 -1.286202 -0.03514395
-0.045518965 -0.037855085 -0.042146735 0.006373448 -1.1260547e-09 0.21193242 -0.29707617 -1.2830038
0.074552275 0.08281803 0.6168918 0.103204064 -0.026328394 0.81940573 -0.017590381 0.0030636964
-0.0013182826 -0.3149048 0.13503145 -0.12277062 0.1818149 -0.32225016 0.32316348 0.17128472
-0.05498663 0.78652805 0.56892234 -0.11696138 -1.0109092 -0.021601854 0.0024811062 -5.336461e-11
0.5071272 0.13850974 -2.1235564 -0.020088434 -0.00091852323 0.0060993875 0.07009243 0.052949548
-0.14570351 0.055839084 0.06275409 0.77506566 -0.27707005 0.12700677 -0.1972632 0.10283234
-0.02193208 0.21379325 0.33341354 0.16132915 1.1029327 0.09023591 -0.06908495 -3.2599907
-0.05926928 0.005733921 -7.179325e-05 0.11953751 -0.018784134 0.38408557 -0.037704255 -0.051249996
-0.19374576 -0.003934627 0.00095503515 -1.6012173e-05 0.11972373 0.10423019 0.4075173 -0.055945843
0.007553102 -1.4315696e-09 -0.051801722 0.0018500935 -1.6344708e-07 0.12559931 0.039059084 -3.6815

bias f4 [64]
00000000: 714c 58bd e832 75be 96df 0c3f 630f d03d
00000010: 89a0 6d3d 380e 70be 47dc aebd 6b2f bcbc
00000020: 6d19 cbbc b1ec efbd 3e02 e53e d605 7fbb
00000030: 5fde c33e 4b6e 963e 6d5e b73d a2f8 83be
00000040: 7dda bc3e 8a4e 7fbe cc86 c9b7 4159 02ba
00000050: 30aa 843e 2c7b 3d3f 6db6 eb3a 526e 98bb
00000060: ced7 17bd a586 49be 4d7a 42be 8e82 293f
00000070: 09b3 84bb 3a72 9abd 9f31 d5bc 7cb2 f03e
00000080: 52f8 b73e 3970 083d 6032 e33d 9a25 9b3e
00000090: 6dcd 483f e0ca 09bf 8dca b2bc fced fa3d
000000a0: fc18 103f 85a8 11be 1b2a 2cbd e17f 85be
000000b0: 5b69 debd 40f4 51bd 572d 073f 37ea b6ba
000000c0: 5693 ae3f 893d 03bd 7c24 973e ae72 0f3f
000000d0: deea 95be 9560 093f d31f 223e f7a1 453e
000000e0: 2b6a 9abc 7cd6 fd3e ad14 6fbd 4a18 debc
000000f0: 3f95 343e 4a66 88bc 03f4 54bc 1293 cf3d
-0.052807275 -0.239452 0.55028665 0.10159185 0.058014426 -0.23442924 -0.08538108 -0.02297183
-0.024792397 -0.11715067 0.44728273 -0.003891339 0.38255593 0.29381022 0.08953557 -0.2577563
0.36885443 -0.24932304 -2.4023837e-05 -0.00049724063 0.25911093 0.7401607 0.0017983444 -0.004651823
-0.03707104 -0.19680269 -0.18991967 0.66214836 -0.004049663 -0.07541318 -0.026024638 0.47011173
0.3593164 0.03331015 0.11093593 0.30302125 0.78438455 -0.5382519 -0.0218251 0.12252423
0.56288123 -0.14224441 -0.042032342 -0.26074126 -0.10859939 -0.051258326 0.5280356 -0.00139553
1.3638713 -0.032041106 0.29520023 0.5603436 -0.29280752 0.53663 0.15832452 0.19300066
-0.018849453 0.495777 -0.058369327 -0.027111191 0.17635058 -0.016650338 -0.01299763 0.10135473

weight f4 [64, 64]
00000000: 3a5e 0080 dae0 a51d ef4c 0bb0 b61a 6a31
00000010: 3f40 22b0 3851 c81c b686 10b0 b99d 0380
00000020: c10b 0180 b019 bb2f 7328 75b1 8903 518d
00000030: 5bf4 55b0 77b0 97b0 227e 80b0 b3db eaaa
00000040: c7ab 27b2 0231 0300 a43f 0195 6cc8 adb6
00000050: b63f f6ab 73dc f3b0 e89a 68ae ab6a 8923
00000060: 88c5 3bb1 79a4 0300 cea0 8d31 5dc7 beb1
00000070: 850e 0300 6a53 0e31 b040 0000 019b 3930
00000080: 732e 13b0 0aec 33ae 0806 c3b1 86f0 4bb0
00000090: 36b3 81b1 1236 3014 aae0 0000 37ae 9bb1
000000a0: ba6c ac30 3e8a b9b0 6a1e 5034 c1ac b01b
000000b0: f21d 83b1 47ed 19b1 ce01 c5b1 0d16 0000
000000c0: baae cfb1 76d2 0080 8a38 1131 da79 a6b0
000000d0: 5446 0100 4af0 16b1 20dd 6cb1 b0e4 aab0
000000e0: d266 0180 d00f ce31 3514 952b 1963 0100
000000f0: 2c12 01b0 b0d3 0000 bf5d 0200 1087 c4af
00000100: 2a10 d9b3 9f48 89a8 3092 0380 dfa7 7233
00000110: a934 89ba 7853 dea7 5411 93b9 5f4b 0000
00000120: 7975 0080 a20d 033a 62e0 40bc 963e 0200
00000130: aba3 0000 5446 fc9e 57f2 14b6 48b8 72b0
00000140: a9d9 aab8 9497 85a5 1d45 0000 2d2a 0100
00000150: aa8b 0080 ceb5 0100 f334 4621 fc1f 0000
00000160: b453 19bc cdc5 799b 3c1e 4a3b 45fc 85bc
00000170: dde9 0180 f198 4e3b d243 0080 ecab a599
00000180: 3eb9 a302 9cb1 0180 7a9e 87bc 857e 3b24
00000190: e42e 18bc 5b15 0100 2110 0080 622d d738
000001a0: eb76 0000 70a3 e2bb eb0d 0180 483f 15aa
000001b0: 5789 1cbc f4df 16bc 2a1a 9abc d43a 0300
000001c0: baa5 63bc 69b3 0080 6c89 0080 6bd3 0280
000001d0: 46c2 08a9 93b1 0000 3c08 e3bb 8f66 3db1
000001e0: c38d 0080 bd22 07b1 f40b 099d fca9 0200
000001f0: 2f2b 0100 d9f8 0100 609f 0080 72f3 d3b6
00000200: 0ae2 4d2d 2989 0200 b876 1e3b d49d bcb6
00000210: 6299 07bb 62c9 0280 426d e1ba b451 0080
00000220: f837 0000 6752 0280 dd3f c3ba bc2e 5baa
00000230: 7549 afb4 6a3c 1ab9 d358 6b38 068e 21b9
00000240: 8ca2 77bb bb34 0200 d583 0100 50b3 5b1d
00000250: 8e64 f2ba 1df0 ecbb 998b 05bb 4dd5 0080
00000260: 0db0 6c39 2757 0080 3465 1bbc 356e 953a
00000270: 20d2 0080 4f23 b5bc 3640 0080 417b 62b4
00000280: 0d92 202e ce70 92bc b94e bd3c 01a7 a7ba
00000290: b865 69bc 74a6 95b8 a583 0080 6536 a63a
000002a0: 3710 cea9 cd3d fcbb 961a 0180 e87f 0300
000002b0: f2e9 0cbc c4cd b8bb f1e1 1e3b 4646 0000
000002c0: 8afc 2abc d4d3 0280 9390 25b4 de48 7eab
000002d0: 3c10 0100 c84e 42bb 2a93 9abc 44bf 88b9
000002e0: 00b4 0080 20ee 4cbb f63e 6bbb 4335 0200
000002f0: 82f4 0100 ff59 0080 24b1 0080 3542 143a
00000300: e37d 0000 d7dc 0180 3c6a 8fbb a2fe 97bc
00000310: 09e7 21bc aaad 0000 3bfb 5fbc 2e47 0180
00000320: 600e 0fb2 ae13 0136 9a3e 2abc 32a6 c91f
00000330: 164b 6dbc 1a13 f9ba 9422 80bc 2a54 b9b3
00000340: 5323 1dbb a9b1 0280 080c 0200 c3c2 0836
00000350: ee5e f0ac f8b2 a1ad 052f 7baa 9275 0180
00000360: 4a09 82bb cddb 0180 7433 7c3b e6e9 b5bb
00000370: 0478 0200 4b7f 7436 a057 0b8d 178e fabb
00000380: 06b4 7cbb e2f4 dc9f 2da3 51bc 3718 e7b5
00000390: 32f1 29bc fd63 1da7 7e42 0100 9aba 36bc
000003a0: a425 84bb a631 cbba 9605 0080 5077 0100
000003b0: 03cf 24bc 5748 27bb 7385 34bc eef9 8d98
000003c0: 061c 38bc 626e 0080 a52f cabb 6d24 87ac
000003d0: 1f60 0100 c77c 94bb 2fd6 42bc 516b 66bc
000003e0: 6754 0000 47fc 51bb 06e3 c020 ff0d 0000
000003f0: 75ba 7ca6 ba46 0000 c0b6 0080 246c 6cbc
-3.3802e-41 4.3907627e-21 -5.0677235e-10 3.4066665e-09 -5.9026556e-10 1.3255884e-21 -5.257833e-10 -3.32087e-40
-9.6052e-41 3.4033354e-10 -3.5675185e-09 -6.4407353e-31 -7.78362e-10 -1.103685e-09 -9.349075e-10 -4.1719197e-13
-9.759737e-09 2.93087e-40 -2.6101546e-26 -5.179134e-06 -1.7497035e-12 -1.7743232e-09 -5.2888277e-11 1.4898745e-17
-2.7324365e-09 3.34508e-40 4.1219215e-09 -5.5523928e-09 2.80715e-40 2.0711135e-09 2.3206e-41 6.752288e-10
-5.3544297e-10 -4.0909533e-11 -5.6759326e-09 -7.4192774e-10 -3.774768e-09 8.896393e-27 8.0594e-41 -4.5308997e-09
1.2545549e-09 -1.3499812e-09 1.9382574e-07 2.9228397e-22 -3.816006e-09 -2.2399307e-09 -5.7336598e-09 7.91e-42
-6.044357e-09 -7.5499e-41 2.1132416e-09 -1.2112722e-09 1.17064e-40 -2.1964461e-09 -3.4468215e-09 -1.2434125e-09
-1.2872e-40 5.9971867e-09 1.0592695e-12 1.27385e-40 -4.695575e-10 7.5939e-41 2.17301e-40 -3.574816e-10
-1.010779e-07 -1.524155e-14 -3.27949e-40 5.6497694e-08 -0.0010467964 -6.1707875e-15 -0.00028050935 2.7038e-41
-4.2141e-41 0.0004999285 -0.011772247 2.06123e-40 5.8713e-41 -2.6710625e-20 -2.219478e-06 -8.8300967e-10
-8.146774e-05 -2.3174536e-16 2.4793e-41 1.06965e-40 -5.0102e-41 1.57055e-40 6.7155087e-19 1.1474e-41
-0.009358335 -2.066071e-22 0.0030840775 -0.016355643 -1.7573e-40 0.0031524266 -2.433e-41 -1.7130039e-23
2.4057021e-37 -1.5555e-40 -0.01655506 4.0656327e-17 -0.009288523 9.9496e-41 -5.786e-42 0.00010260452
4.266e-41 -0.006916456 -9.6828e-41 -1.3255814e-13 -0.009554229 -0.009208668 -0.018811304 2.9661e-40
-0.013894493 -6.436e-41 -4.9298e-41 -2.59513e-40 -3.036657e-14 6.3702e-41 -0.006928472 -2.7561418e-09
-5.0855e-41 -1.9664832e-09 -1.8137979e-21 2.4465e-40 1.07327e-40 1.81105e-40 -5.7173e-41 -6.316631e-06
1.1703092e-11 2.32875e-40 0.0024179649 -5.62121e-06 -0.0020690789 -2.55914e-40 -0.0017198699 -2.931e-41
2.0078e-41 -2.13231e-40 -0.0014896352 -1.9467322e-13 -3.2649737e-07 -0.0001470909 5.611109e-05 -0.00015407064
-0.0037786094 2.02587e-40 1.39128e-40 2.9077111e-21 -0.0018493102 -0.007230772 -0.0020377396 -7.6518e-41
0.00022572298 -3.1264e-41 -0.009484578 0.0011400642 -7.5379e-41 -0.022111563 -2.3035e-41 -2.109273e-07
3.6509507e-11 -0.017876055 0.023108827 -0.001279086 -0.014245443 -7.135878e-05 -4.7225e-41 0.0012681006
-9.1510505e-14 -0.007697797 -1.01373e-40 3.2139e-40 -0.008600699 -0.0056397635 0.0024243558 2.521e-41
-0.010436187 -2.5966e-40 -1.5419418e-07 -9.034005e-13 9.7659e-41 -0.0029649008 -0.018869001 -0.00026082445
-6.4572e-41 -0.0031269863 -0.0035895682 2.02778e-40 1.79548e-40 -3.2285e-41 -6.3546e-41 0.00056556176
4.516e-41 -1.71058e-40 -0.004376678 -0.018554036 -0.009881743 6.2299e-41 -0.013670738 -1.1737e-40
-8.326964e-09 1.9233953e-06 -0.010390902 8.540176e-20 -0.014483234 -0.0019002885 -0.015641488 -8.630043e-08
-0.0023977354 -2.47403e-40 1.87987e-40 2.0378945e-06 -6.8317496e-12 -1.8383059e-11 -2.2309592e-13 -1.34012e-40
-0.0039683925 -1.70685e-40 0.0038482817 -0.0055515645 2.26724e-40 3.6432928e-06 -4.2938157e-31 -0.007646333
-0.003855945 -9.357875e-20 -0.012795252 -1.7217889e-06 -0.010372447 -2.184233e-15 1.15688e-40 -0.011152888
-0.0040328074 -0.0015502467 -2.004e-42 1.34637e-40 -0.010059121 -0.0025525296 -0.011018145 -3.670001e-24
-0.01123715 -3.9598e-41 -0.0061702305 -3.840975e-12 1.26317e-40 -0.004531476 -0.011891886 -0.014063672
3.0278e-41 -0.0032041238 3.2676297e-19 5.021e-42 -8.768276e-16 2.5372e-41 -6.5558e-41 -0.01443008

bias f4 [64]
00000000: 27e3 59b0 4477 34bb f611 5abd d0a6 a1bb
00000010: 6530 0bbe 65cf 15b4 cbdc 65be cb9b 74bc
00000020: 30dc 9c3e 2d31 0180 f849 adbe 6a5d 223f
00000030: 3cbe ac3c 6d6b 69b9 2e33 22b8 ee45 9ebd
00000040: bdc9 d1ba 36bc 9fbc 9acd 69be 7893 26ab
00000050: 5a3f 2ebd 18dc 95b7 9cda 9abe 0a7d 253f
00000060: b4bc 873b 21da babc 5f1d 3fbd 1d84 20b7
00000070: 5642 31bd 3089 5d3f dc45 dcbc f3ea 0e3d
00000080: d401 01bd 702d b3b7 2613 93ba 481f cd3c
00000090: 2dc8 65b2 7663 c32d 961d f7be f788 12bd
000000a0: 4804 c1bd bbe7 573a 4fc4 a4bc a223 373f
000000b0: 7843 c73e d282 4dbd 9f42 7cbc ae95 9335
000000c0: b519 ecbc 5ed6 d43e f1ab f8a7 9cb4 333b
000000d0: fb0f da3e 570c 2abd 05c6 553e a4dc bb3c
000000e0: 2222 a8b9 e010 21b7 07e5 d8b7 4a13 e9bd
000000f0: bc18 18b9 1d59 0080 2e1b 0100 cd4b 4abc
-7.9266943e-10 -0.0027536908 -0.053239785 -0.0049332157 -0.1359268 -1.3952156e-07 -0.22447507 -0.014929722
0.3063674 -1.09476e-40 -0.33845496 0.6342379 0.021086805 -0.00022260631 -3.8671475e-05 -0.07728182
-0.0016005557 -0.019498926 -0.22832337 -5.91797e-13 -0.042540886 -1.7864673e-05 -0.3024491 0.6464392
0.004142368 -0.02280909 -0.04665887 -9.567503e-06 -0.043276154 0.86537457 -0.02688878 0.034892034
-0.031495884 -2.1359621e-05 -0.0011220917 0.02503933 -1.3375069e-08 2.2213103e-11 -0.4826476 -0.03577515
-0.09424645 0.00082361297 -0.020113138 0.71538746 0.38918662 -0.050173588 -0.015396743 1.0995916e-06
-0.028820852 0.415698 -6.9020247e-15 0.0027420884 0.42590317 -0.041515674 0.2087632 0.022932358
-0.00032068888 -9.600277e-06 -2.5855856e-05 -0.11380632 -0.00014505064 -3.1968e-41 1.01586e-40 -0.012347174

weight f4 [64, 64]
00000000: 77ee 0000 85ad 0180 65cf 0080 ba1d 0080
00000010: a851 0000 f390 0000 0bb9 e59c 8854 0080
00000020: 630a 0000 378b 0100 758d 0000 891f 0080
00000030: a504 0000 d64c 0380 09a8 0080 2fc8 0000
00000040: 8c63 0080 9991 0080 1d0a 0000 ecda 0080
00000050: bb73 0080 b6cf 0080 ca75 0000 e51b 0080
00000060: 6134 0180 0918 0000 2557 0080 49cd 0280
00000070: 2bcd 0000 7dba f098 f91a 0000 69bd 0080
00000080: 79c7 0180 fae5 0080 8219 0180 0691 0080
00000090: e6cc 0200 031c 0080 5d27 d4b1 6dfe 0000
000000a0: d73e 0000 c1fa 0080 1bcc 0080 2298 c606
000000b0: a425 0080 803b 0080 7624 0000 e7ac 0080
000000c0: a17b 2133 fe0a 0000 1c09 0080 3384 0080
000000d0: 9812 0080 9c52 0280 59ac 0080 8c29 0180
000000e0: cb69 0080 46f1 0000 1b00 0180 ad2c 0000
000000f0: 7e2a 0080 4713 0080 9a16 0080 701f 0100
00000100: 9af9 0080 0cb8 0100 7387 0080 9c75 0300
00000110: c0b8 0080 939d 0380 0449 0080 0c52 0080
00000120: 98b4 2093 27f1 0280 13db 3fb8 9822 46ba
00000130: e1c1 a4b8 81e7 0000 a076 6eb7 cc16 3c89
00000140: ea92 0080 c6a5 0080 cdfd 0000 96c3 0080
00000150: 2ea5 7b0b 86f3 0080 e4a1 0280 1840 fbba
00000160: 422b 0280 a70a 0180 4f97 0080 e706 0080
00000170: 9b1d 0200 3c8b d5bb 3839 0100 e4ef 9bbc
00000180: 3c70 0100 afae 0380 4d40 0100 ac40 32b5
00000190: 4056 0200 4524 0080 3e41 f5b5 de5c 0100
000001a0: 77f4 82b5 79c0 0200 82e6 0080 794e 86bb
000001b0: eb86 13b2 ade3 0280 8e20 0180 810f 0100
000001c0: 7055 0100 dd7a d6b9 e44f 0100 3d9f 0080
000001d0: 2c21 4b94 0561 0080 06ae dab7 31b1 3cbc
000001e0: c947 0100 25b2 0300 1649 962d 300d 0080
000001f0: ea3b 0100 eb54 0080 4252 0000 eac0 f0b4
00000200: 3daf 9130 4fe6 96bc d88c 56bc 22ff 47bc
00000210: ec3a 173f 1b73 82b4 4726 d0ba 0471 7aae
00000220: f8c2 6b3d e182 0080 7447 93be 96df 143f
00000230: b340 833f b7f4 0180 bef6 b8b0 5903 903d
00000240: f54d 0abd bda7 a4bc b90a 8e3e 1909 0100
00000250: 23bc 723c 3b11 1bba 002e 87be f374 023f
00000260: c820 643c e10d 2c80 4917 1dbc 0908 0180
00000270: 4cbc 4931 dc67 f93e e88f d833 bfce f73e
00000280: 8022 4232 ab67 49bb 7452 4bbc 70ad 2c3e
00000290: da7d f3b4 887c 269f ed77 023e e298 6b3d
000002a0: 7ee6 583e 0eac 29bb 868d 2700 952c fb3e
000002b0: 4ec4 363f d10a ca3e 5b8a 0100 8bd2 f738
000002c0: e0ff 2eb4 197c 923e be89 0100 c2b3 58b7
000002d0: 5d91 09bd 06dc ef38 ae89 ce3e c1be c7be
000002e0: 7b78 0080 6a92 a2b7 e25d 3030 67f2 91bd
000002f0: 8089 c5b6 d67d 0200 a788 0080 3bb8 6e3e
00000300: ff2e 0180 ea6a 0330 c6ac 0100 3b6a 0000
00000310: ebff f405 8d80 0280 d06e 0080 e030 0280
00000320: b681 929f 1e6d 0000 dafd 0280 0ad7 b4a8
00000330: 3c82 93a6 0139 0180 101b 0180 f1bc 0100
00000340: 94cb 0000 9938 0080 bbb9 9e9b 3a00 0100
00000350: b0a7 0180 758b 0235 d481 0180 2f75 c3a7
00000360: c9ca 0100 4a05 0200 9ae2 0200 512f 0000
00000370: 6139 0000 91f1 eaad ec5a 0080 a7f3 0080
00000380: b99b 0200 bae7 0080 a695 0000 9990 0300
00000390: c302 0080 e366 0000 2aca 44ab 56a0 0100
000003a0: 1294 1000 f0e9 0100 0e54 0200 79f5 12ab
000003b0: 2ce3 cca6 9d36 0180 f1a6 0180 becd 0100
000003c0: 7dd8 0080 ac00 d695 29a0 0080 2470 0300
000003d0: a4d5 e19c 2bd4 0080 0c68 0080 f581 0000
000003e0: d6a8 0100 f3c9 0180 f103 0180 d642 0000
000003f0: 196a 0000 366c 0100 6c70 0000 cd10 0280
8.5545e-41 -1.54083e-40 -7.4399e-41 -1.0664e-41 2.9293e-41 5.1998e-41 -1.5201781e-21 -3.0324e-41
3.726e-42 1.41776e-40 5.0745e-41 -1.1313e-41 1.666e-42 -3.0307e-40 -6.028e-41 7.1812e-41
-3.571e-41 -5.223e-41 3.628e-42 -7.8534e-41 -4.1516e-41 -7.4513e-41 4.2255e-41 -1.0007e-41
-1.10626e-40 8.622e-42 -3.1262e-41 -2.57313e-40 7.36e-41 -6.222685e-24 9.676e-42 -6.7948e-41
-1.63393e-40 -8.25e-41 -1.00986e-40 -5.2025e-41 2.57175e-40 -1.0049e-41 -6.174487e-09 9.1271e-41
2.2543e-41 -8.9954e-41 -7.3219e-41 7.470286e-35 -1.3503e-41 -2.1345e-41 1.308e-41 -6.2026e-41
3.7598173e-08 3.943e-42 -3.268e-42 -4.7424e-41 -6.67e-42 -2.13306e-40 -6.1827e-41 -1.0674e-40
-3.7951e-41 8.6553e-41 -9.1873e-41 1.6027e-41 -1.5243e-41 -6.915e-42 -8.108e-42 1.03113e-40
-8.954e-41 1.57859e-40 -4.859e-41 3.17697e-40 -6.6276e-41 -3.32033e-40 -2.6193e-41 -2.9433e-41
-2.0283879e-27 -2.7018e-40 -4.5741977e-05 -0.00075582555 -7.856242e-05 8.3048e-41 -1.4213525e-05 -2.2640396e-33
-5.2703e-41 -5.9468e-41 9.1047e-41 -7.0163e-41 4.846511e-32 -8.736e-41 -2.41746e-40 -0.0019168882
-1.99189e-40 -9.5657e-41 -5.4279e-41 -2.476e-42 1.94291e-40 -0.006516842 1.12362e-40 -0.019035287
1.32098e-40 -3.38171e-40 1.14902e-40 -6.640428e-07 2.14612e-40 -1.3011e-41 -1.827291e-06 1.2515e-40
-9.756903e-07 2.52717e-40 -8.269e-41 -0.00409871 -8.587203e-09 -2.65346e-40 -1.03514e-40 9.7397e-41
1.22485e-40 -0.000409088 1.20495e-40 -5.7124e-41 -1.0255423e-26 -3.4804e-41 -2.6068661e-05 -0.011516855
1.17587e-40 3.39413e-40 1.7085482e-11 -4.731e-42 1.13329e-40 -3.0463e-41 2.9509e-41 -4.4843847e-07
1.0599944e-09 -0.018420367 -0.013095103 -0.0122068245 0.5907428 -2.4298137e-07 -0.0015880548 -5.6943797e-11
0.057558984 -4.695e-41 -0.28765452 0.58153665 1.025412 -1.79623e-40 -1.345789e-09 0.070318885
-0.033765752 -0.020099515 0.27742556 9.5099e-41 0.014815363 -0.00059153483 -0.26402283 0.509597
0.013923831 -4.04574e-39 -0.009588071 -9.4718e-41 2.9356384e-09 0.4871205 1.008446e-07 0.48399922
1.1300131e-08 -0.0030731957 -0.012409795 0.16863036 -4.5353846e-07 -3.5254877e-20 0.1274106 0.057518847
0.21181676 -0.0025889906 3.632353e-39 0.4905745 0.7139329 0.39461377 1.41468e-40 0.000118170945
-1.62981e-07 0.28610304 1.41248e-40 -1.2916456e-05 -0.033585895 0.00011437391 0.40339416 -0.3901272
-4.322e-41 -1.9380084e-05 6.416184e-10 -0.07126313 -5.8870646e-06 2.28812e-40 -4.9022e-41 0.23312466
-1.08695e-40 4.7809456e-10 1.53815e-40 3.8108e-41 2.3039659e-35 -2.29786e-40 -3.9752e-41 -2.01204e-40
-6.2047994e-20 3.9144e-41 -2.74736e-40 -2.0077273e-14 -1.0235474e-15 -1.12285e-40 -1.01544e-40 1.59615e-40
7.303e-41 -2.0303e-41 -2.6258933e-22 9.1917e-41 -1.5199e-40 4.863171e-07 -1.38409e-40 -5.4250423e-15
1.64581e-40 1.85568e-40 2.6496e-40 1.6974e-41 2.0584e-41 -2.6709997e-11 -3.2617e-41 -8.7406e-41
2.39534e-40 -8.3128e-41 5.3684e-41 3.27378e-40 -9.91e-43 3.6909e-41 -6.9913747e-13 1.49353e-40
1.522486e-39 1.75756e-40 2.13824e-40 -5.221028e-13 -1.4216919e-15 -1.11427e-40 -1.51723e-40 1.65642e-40
-7.7661e-41 -8.643497e-26 -5.7455e-41 3.15735e-40 -1.4944476e-21 -7.6112e-41 -3.7325e-41 4.662e-41
1.52402e-40 -1.64281e-40 -9.325e-41 2.3976e-41 3.806e-41 1.30654e-40 4.033e-41 -1.89698e-40

bias f4 [64]
00000000: 2da4 0000 3d2c 7eb2 5bd7 8b3e 407e 0100
00000010: cbd7 adbe 93c1 ef98 fc68 90bd 960b 4cbe
00000020: 0eb0 5c3e aade 01be cd51 62b9 ec56 6fbe
00000030: f68f cbb3 fa01 8f3e 798b d608 689c ddbd
00000040: 1a6f 0080 785c bc91 4007 2a3d b3d7 44bc
00000050: e9bb 5f3e 0e4f ac96 2c3f a08e 12f6 c7be
00000060: b7da 0300 b6df 5d02 38a3 0280 dd5b 369a
00000070: 07ed 063f 7beb 273e e1c0 79be 40e7 8dab
00000080: 4f33 4d39 2165 dfbb 670e 00bb c688 bf8c
00000090: 7ea9 8ebc d46b 0080 1aec d23e 052c 53bc
000000a0: 5198 1dbf 4b4d ae95 2529 0dbe d330 90bb
000000b0: 7408 86bd 7515 f3ba b334 aaba d818 193d
000000c0: 5707 3fbc f4f0 a8be b472 e9be d504 0dbc
000000d0: d431 113e eeaa ed3e 3073 d3be de8a e5bb
000000e0: 4734 58be 24fb fa3e 0e33 af3e 434d a4be
000000f0: a9dd b803 7c70 6bbc 154b 01be 65eb 81b9
5.8895e-41 -1.47948045e-08 0.2731274 1.37125e-40 -0.339537 -6.1975512e-24 -0.07051274 -0.19926295
0.21551535 -0.12682596 -0.00021583513 -0.23373002 -9.4791105e-08 0.27931195 1.2912446e-33 -0.10820848
-3.9856e-41 -2.9718158e-28 0.04151082 -0.012014317 0.21849026 -2.783799e-25 -3.9503878e-30 -0.39054924
3.53967e-40 1.6300718e-37 -2.42223e-40 -3.7710924e-23 0.52705425 0.16398422 -0.24389984 -1.0082837e-12
0.00019569437 -0.0068174754 -0.0019539834 -2.9510527e-31 -0.017414805 -3.8681e-41 0.41195756 -0.012888913
-0.6156054 -7.039999e-26 -0.13785227 -0.0044003516 -0.06544581 -0.0018545823 -0.0012985676 0.03737721
-0.011659465 -0.32996333 -0.45595324 -0.008607109 0.14179164 0.46419472 -0.4129882 -0.0070050796
-0.21113692 0.4901973 0.3421864 -0.32090196 1.0865439e-36 -0.01437008 -0.12626298 -0.0002478018

weight f4 [1, 64]
00000000: fa6d 0a34 d807 b2b5 2f07 2cbe 1969 0100
00000010: 3df7 f53e 27ff 1cb8 b9ca 9b3e 73a8 843e
00000020: 955a dcbd ade8 293e af3f 0380 fe24 8c3e
00000030: cc45 d8bb 8bae 0ebf 0b44 a8b8 5c67 153e
00000040: bfeb 51b4 e2cd 48b7 b3d1 2fbe 0f9c 0380
00000050: 40cd 0e40 b505 68b7 d24f 70ae d32b e43e
00000060: af11 1c25 33a4 99b2 13a9 0ba2 156b abaf
00000070: 5dd6 88bf 41b4 bbbe 13c6 b33d db00 20b8
00000080: f022 12bb a79a 311e ee8e 793d 908f b7b4
00000090: b6d6 7c37 09e4 b1b1 7d8d 54bf e6d2 0280
000000a0: 44a6 443f 9005 7d33 0a4d 703e de09 6438
000000b0: ae18 93bd 89f5 0100 0289 0000 c5a2 afbe
000000c0: 5007 0100 89d3 573d 652c 263e d4bb 3b39
000000d0: df84 babe 4cbc 74bf ceea 043f 0a9e f3bc
000000e0: 53bd da3e 1a67 7dbf 8498 21bf 340b 973d
000000f0: 2aab 28b6 caa9 fa3d 9a8f 783e 3ca7 0100
1.2892261e-07 -1.3264316e-06 -0.16799615 1.29537e-40 0.4804019 -3.7430927e-05 0.30428103 0.25909767
-0.10759465 0.16592665 -2.98352e-40 0.27371973 -0.0066001173 -0.5573508 -8.023538e-05 0.1459021
-1.9550406e-07 -1.1968865e-05 -0.17169838 -3.3149e-40 2.2312775 -1.3829606e-05 -5.4640577e-11 0.44564685
1.3536835e-16 -1.7886213e-08 -1.892752e-18 -3.1180805e-10 -1.0690418 -0.3666096 0.08778014 -3.814777e-05
-0.0022298656 9.402283e-21 0.060927324 -3.4190862e-07 1.5070362e-05 -5.1773026e-09 -0.83028394 -2.59327e-40
0.768162 5.8911212e-08 0.23466888 5.4368626e-05 -0.07182442 1.79917e-40 4.9149e-41 -0.3430387
9.4459e-41 0.05269197 0.16227873 0.00017903681 -0.36429498 -0.9559982 0.51920784 -0.029738445
0.42722568 -0.98985445 -0.63123345 0.07375184 -2.5133581e-06 0.12239416 0.2427353 1.51828e-40

weight f4 [1, 64]
00000000: 149d 3127 15d6 1cb2 6ace b93e cf38 86bc
00000010: f256 5abd 85fa cb3a 6f5e 4fbd 574a d13c
00000020: ddc2 20be 05e8 703d 8642 8cbd dc63 76be
00000030: ee9b 6cbc cfc6 63bd d7e5 23bb 1c8e 8a3d
00000040: 5df6 9abb 6340 5a3b aaae 6abd 676a f63c
00000050: 695e db3e 27c7 1c3a 0e22 1bbc f7ec 38bd
00000060: 331c 84bc fbee 9cbb 9d81 29aa 1f7d 8cbb
00000070: caa3 05be f7ce 38bd d76f 1e3e a9e0 87bc
00000080: 493c 5bbc 4290 71bd eece 293d 7282 bc3a
00000090: 9979 593d 1fcd 13bb 7b71 debd 472e 2ebc
000000a0: 72e6 80be 8b91 b9bb 264f e4bc d577 39bd
000000b0: 6490 99bd 3216 75bd 8104 80bd 10d9 243e
000000c0: 4e72 86bc 4034 95be 93fd 4fbd d859 e1bb
000000d0: 6226 243e c612 ebbd 3cc8 4dbc a571 13bd
000000e0: 60f5 b0b7 fc31 f1bd 0ded 23bd 1ab9 e4bc
000000f0: a5c5 fa38 9f2d 5639 aea5 953d d033 8bbd
2.4648837e-15 -9.129072e-09 0.36290294 -0.01638451 -0.053305574 0.0015562332 -0.05062717 0.025548143
-0.15699334 0.05881502 -0.06848626 -0.24061531 -0.014441473 -0.05560952 -0.0025008821 0.067653865
-0.004729076 0.0033302538 -0.05729548 0.030080033 0.42845467 0.0005980604 -0.0094685685 -0.045147862
-0.016126728 -0.004789231 -1.5055184e-13 -0.0042873765 -0.13050762 -0.045119252 0.15472351 -0.016586618
-0.013381072 -0.058975466 0.04145711 0.0014382137 0.05309448 -0.0022552682 -0.108614884 -0.010631151
-0.25175816 -0.005663102 -0.027869772 -0.045280296 -0.074982435 -0.05983562 -0.06250859 0.16098428
-0.016411927 -0.29141426 -0.050778937 -0.0068771653 0.16030267 -0.1147819 -0.012559947 -0.03599705
-2.1095097e-05 -0.11777112 -0.04002099 -0.027920295 0.00011957743 0.00020425626 0.073069915 -0.06796992

weight f4 [1, 64]
00000000: f456 9ebd 4c17 f4bd ea1d eb3d 8af8 e3bd
00000010: 2801 50bd f013 433c b218 9dbd 5463 143d
00000020: e821 db3d 80da 38bc 14e9 7abd 60b9 4fbd
00000030: 60bf 823b a0f3 d03d a06c fcbd f01c c33d
00000040: 48ea 71bd c0bd 123b 88d0 653d 944a 92bd
00000050: 5609 a6bd 34e6 bebd 7403 0dbd ccf1 ce3d
00000060: 20c6 f83d 00f7 d13b e0cc d73c d097 b3bd
00000070: 5813 f1bc 703d e63c 6849 373d 30f3 2b3c
00000080: d489 27bd 54aa 653d 4881 b73c 44b2 03bd
00000090: 386e d2bc 94bb 003d 8efb f13d ccee aebd
000000a0: dcff e63d 6072 a9bb dc07 efbd c826 12bd
000000b0: 468f e2bd f078 1ebc a07f acbb a6ad d4bd
000000c0: 0077 013a 3ed5 b2bd 3071 cc3d 782e b13c
000000d0: a2d5 a33d 105b 773d 80cf 603b acc3 783d
000000e0: 0c69 a33d 389f adbc b8eb 153d fc21 f8bd
000000f0: d0a4 4fbc 84ec 6dbd 7812 37bd 0027 66bc
-0.07731429 -0.11918506 0.11480315 -0.111313894 -0.050782353 0.011906609 -0.07670726 0.03622754
0.106998265 -0.011282563 -0.061257437 -0.050713897 0.003990099 0.10202718 -0.12325406 0.09527004
-0.05906132 0.0022390932 0.056107074 -0.07143131 -0.081072494 -0.093212515 -0.03442712 0.10104713
0.12147164 0.0064076185 0.02634281 -0.0876919 -0.02942817 0.028105468 0.04474774 0.010494992
-0.040902928 0.05607064 0.022400513 -0.03215243 -0.025687322 0.03142889 0.118155584 -0.08541641
0.1127927 -0.0051711053 -0.11671421 -0.035681516 -0.110624835 -0.009672388 -0.0052642375 -0.10384683
0.0004938692 -0.08732079 0.09982526 0.021628603 0.079997316 0.06038958 0.0034303367 0.060733482
0.079790205 -0.021194085 0.036601752 -0.12115857 -0.012673572 -0.058086887 -0.044695348 -0.014047384

weight f4 [1, 64]
00000000: 64ed 8fbd acb1 f63d 42b9 913d d091 5ebd
00000010: 8c04 55bd b08e 263d ca5c ec3d 64c1 c1bd
00000020: d6ac 9a3d f401 66bd 9a7d adbd be15 a33d
00000030: 4814 f33d 64f4 a1bd 866d c5bd f422 50bd
00000040: 7a5d fcbd 882f 393d cc54 b2bd 345c 0d3d
00000050: 208d c5bd 0068 b73c d89b 9a3d fa20 9bbd
00000060: 28a0 5a3d c044 d2bb c07e 27bb d4f4 dfbd
00000070: 500b 95bd 244e 43bd 260c d33d 18e7 e7bd
00000080: 1e72 edbd 12a6 e33d 646f 0c3d d097 b0bc
00000090: d01d 533d 94e4 d33d 9e00 b93d b80c 4c3d
000000a0: 326a c03d 3082 a23d 6e8b 8ebd a0e4 c9bc
000000b0: 12c3 dcbd e0ed cabc 1429 103d 7863 873d
000000c0: 985c bfbc 8eaa 92bd acea a4bd e86a 8fbd
000000d0: c0ec 423b 82cb e4bd 20ed 6d3c 5822 97bc
000000e0: d4a1 f8bd 302a 62bc d0d2 a53c 54ad 3b3d
000000f0: e072 d7bd 58a2 27bd ac45 85bd f072 ca3d
-0.070277005 0.12045607 0.07115413 -0.054338276 -0.05200629 0.04066342 0.115411356 -0.094607145
0.07552497 -0.056154206 -0.08471222 0.07963131 0.11869103 -0.07907942 -0.096400306 -0.050814584
-0.12322517 0.045211345 -0.0870758 0.03451176 -0.09646058 0.022388458 0.07549256 -0.07574649
0.053375393 -0.006416887 -0.0025557727 -0.10935369 -0.07277548 -0.047681943 0.103050515 -0.113233745
-0.11594032 0.1111566 0.034285918 -0.021556765 0.051542103 0.10346332 0.09033321 0.049816817
0.09395255 0.079349875 -0.06960188 -0.02464515 -0.10779394 -0.02477163 0.035195425 0.06610769
-0.023359582 -0.07161437 -0.080525726 -0.070028126 0.0029743165 -0.111716285 0.014521867 -0.018448994
-0.12140241 -0.013804004 0.020242125 0.045819595 -0.105199575 -0.040926307 -0.065074295 0.09885204
