pth/VIScaler_test1_159.pth (torch, 42162 bytes, 10 tensors)

weight f4 [64, 3]
-5.6883744e-14 -4.3932e-41 -7.95548e-40 -0.003711413 3.1318687e-06 3.42281e-40 -1.6623795e-12 4.9680157e-18
4.46661e-40 -0.00079716835 -0.0018855393 -0.0034784584 0.02648938 -0.31856862 0.013327989 -0.0011239622
-3.7265772e-07 -3.15184e-40 0.031770542 -0.113941476 -0.46829173 0.12569672 -0.04834023 0.1294614
-0.0060779448 0.015128393 -0.34566435 -0.023956703 0.03390159 -0.010032165 -1.4151084e-15 1.50115e-40
6.38625e-40 -0.0027575048 -0.017956968 -0.02901173 -0.00048691468 -1.9320598e-05 1.26381444e-20 0.013297205
-0.0712637 -0.2080992 0.16762473 0.011761795 0.14125384 0.120114274 -0.018820299 -0.66834676
0.26691812 0.0064934073 1.0528016 -1.830077e-10 9.9202155e-21 -4.83847e-40 -0.070847 -0.055466145
0.04131749 0.03172902 0.005898067 -0.03433384 -0.010196978 -0.0033445607 -0.0002472608 -4.686286e-12
7.7152367e-17 6.69594e-40 -0.0024586688 0.00014620341 -1.6522153e-35 0.12849666 -0.0040763463 0.29648066
-0.010937896 -0.010316858 -0.014437568 -0.027758112 0.0064638997 -0.00090305315 -2.8397127e-17 -1.23911e-40
-6.22652e-40 0.39468512 -0.14277999 0.9967846 -1.8202486e-15 1.220842e-39 1.60569e-40 -0.0010167615
0.00025369495 1.1237966e-05 -0.038378276 -0.12383266 0.009065122 -0.051204067 -0.12826298 0.20413005
-8.0349935e-05 -1.6526888e-08 5.61112e-40 -0.0020246678 -0.029618913 -0.32680866 0.1346422 -0.015742347
-0.6039258 0.30865458 -0.009941213 0.15726638 0.10807685 -0.0066640833 -2.2283998 -0.20837747
0.0016093876 0.45878577 -1.8238244e-10 -2.5355512e-31 -4.55044e-40 0.4057166 -0.052039173 0.64302444
-8.4407775e-06 -1.6267669e-15 2.053e-40 -0.023637062 -0.0039988062 -0.0005788512 0.16557063 0.006452358
0.13676168 -0.35574406 0.1546396 -0.06725921 -7.043523e-08 -2.2395412e-28 -5.30707e-40 0.0033744758
-0.01248094 -0.022799969 -0.0034040583 -0.00036940578 -3.967598e-10 -0.025659092 -0.015504958 -0.006290966
0.48821974 -0.042608526 -3.3030853 -2.2675713e-29 -1.326671e-39 -5.10768e-40 -5.1857e-40 -7.5156e-41
-1.23878e-40 -0.00040463166 -3.0763388e-06 -1.89838e-40 0.16795179 -0.15784533 0.09597962 -0.00227679
0.02048844 -0.07789265 -2.267787e-06 2.3340574e-28 -9.67933e-40 0.0054269657 -0.0059209764 -3.88543
0.44022834 0.01953694 0.29689032 -0.004873132 -0.013845503 -0.18142487 -0.027438918 -0.01759122
-0.0069328886 -0.01678767 -0.010812773 -0.0060852394 0.17766687 -0.00613395 0.33328113 -3.705595e-06
1.6827506e-12 8.81114e-40 0.057255566 -0.04648259 0.4004152 0.010462479 0.0012582096 -5.278045
00000000: 3f17 80a9 777a 0080 aaa9 0880 2d3b 73bb
00000010: 182d 5236 24ba 0300 89f5 e9ab 9549 b722
00000020: 1cdd 0400 10f9 50ba 3324 f7ba d9f6 63bb
00000030: 4200 d93c 6d1b a3be a35d 5a3c ea51 93ba
00000040: b011 c8b4 9b6e 0380 d421 023d 265a e9bd
00000050: efc3 efbe a4b6 003e 6800 46bd 8791 043e
00000060: 7f29 c7bb 14dd 773c ebfa b0be d940 c4bc
00000070: 65dc 0a3d f35d 24bc 49f0 cba6 76a2 0100
00000080: 3af4 0600 41b7 34bb 7e1a 93bc 02aa edbc
00000090: 9548 ffb9 ab12 a2b7 51ba 6e1e 85dc 593c
000000a0: b4f2 91bd f517 55be d1a5 2b3e 8bb4 403c
000000b0: d9a4 103e 79fe f53d 072d 9abc c618 2bbf
000000c0: 7ea9 883e a6c6 d43b 34c2 863f 1738 49af
000000d0: 3863 3b1e c544 0580 3b18 91bd 7830 63bd
000000e0: 873c 293d 4af6 013d 9244 c13b a4a1 0cbd
000000f0: 3a11 27bc 6b30 5bbb c8a2 81b9 50e2 a4ac
00000100: b8e6 b124 8e4a 0700 9e21 21bb 2e4e 1939
00000110: 94b1 af85 a194 033e df92 85bb 50cc 973e
00000120: dc34 33bc 0a08 29bc 8d8b 6cbc fb64 e3bc
00000130: 1fcf d33b dfba 6cba 69f5 02a4 6a59 0180
00000140: b3c7 0680 2b14 ca3e eb34 12be 472d 7f3f
00000150: a929 03a7 364b 0d00 9abf 0100 db44 85ba
00000160: 5c02 8539 b28a 3c37 8a32 1dbd fa9b fdbd
00000170: e185 143c 5bbb 51bd 5f57 03be 7807 513e
00000180: 8b81 a8b8 03f7 8db2 271c 0600 4ab0 04bb
00000190: 5da3 f2bc 7753 a7be a5df 093e 18f6 80bc
000001a0: e29a 1abf f907 9e3e 78e0 22bc 700a 213e
000001b0: 6557 dd3d 625e dabb 1a9e 0ec0 e760 55be
000001c0: 16f2 d23a f8e5 ea3e 1888 48af 1291 a48c
000001d0: 7af4 0480 16ba cf3e 0727 55bd 409d 243f
000001e0: dd9c 0db7 1b71 eaa6 4b3c 0200 83a2 c1bc
000001f0: 6b08 83bb 0cbe 17ba 598b 293e 4d6e d33b
00000200: 410b 0c3e 1624 b6be d859 1e3e 32bf 89bd
00000210: 2d42 97b3 a2f2 8d91 65c7 0580 4f26 5d3b
00000220: db7c 4cbc 00c7 babc 9f16 5fbb ceac c1b9
00000230: fa1e daaf 0433 d2bc 8208 7ebc 7324 cebb
00000240: f0f7 f93e 4786 2ebd c065 53c0 84f5 e58f
00000250: 3872 0e80 d08f 0580 90a5 0580 81d1 0080
00000260: 5259 0180 be24 d4b9 1973 4eb6 3111 0280
00000270: 8efb 2b3e 35a2 21be f790 c43d 3336 15bb
00000280: 5fd7 a73c 2f86 9fbd 4930 18b6 3ff0 9311
00000290: 348a 0a80 b0d4 b13b c004 c2bb e3aa 78c0
000002a0: 9c65 e13e ef0b a03c 0202 983e cbae 9fbb
000002b0: 40d8 62bc 71c7 39be 95c7 e0bc 761b 90bc
000002c0: 492d e3bb 4c86 89bc 0f28 31bc b066 c7bb
000002d0: 4eee 353e 4dff c8bb d3a3 aa3e a3ad 78b6
000002e0: 7bd3 ec2b 3098 0900 d084 6a3d 8764 3ebd
000002f0: 3903 cd3e d16a 2b3c 82ea a43a bfe5 a8c0

bias f4 [64]
-4.31002e-40 -4.5516366e-08 -2.71998e-40 -0.031189507 -0.10779758 -2.926172e-16 0.56865287 -0.20894505
0.30183944 -0.057261836 -5.38036e-40 -0.043408338 -6.2572944e-06 0.1767675 -0.24159807 0.6765562
-0.46770874 7.149705e-37 0.23351145 -0.023973359 -0.0022165072 9.98022e-40 -3.918679e-06 -0.20241126
-0.037391994 -0.014856105 -5.6379e-40 -0.3899824 -2.16826e-40 2.2362086e-05 -0.033544738 0.40249142
-4.4660083e-15 0.2156712 -1.3864812 -0.37734202 -0.17654389 0.4787502 -4.1596e-40 0.041613333
-1.3624063e-13 -0.008404565 -0.23153183 -0.004587713 2.57762e-40 -0.024798928 -6.958731e-05 -0.006060462
1.2037416 -4.07746e-40 -2.21065e-40 -1.6735237e-09 -0.23954737 0.6290318 -5.35854e-40 0.4731919
-0.23682202 0.56964064 -0.040125106 0.0025675383 -0.26451558 -3.9163e-40 -0.22820175 0.2883104
00000000: 75b1 0480 c67d 43b3 38f6 0280 2381 ffbc
00000010: fac4 dcbd adae a8a5 3c93 113f b1f5 55be
00000020: b38a 9a3e 638b 6abd d3db 0580 f1cc 31bd
00000030: c0f5 d1b6 8a02 353e 7c65 77be ca32 2d3f
00000040: 8577 efbe b74a 7303 a01d 6f3e c763 c4bc
00000050: d242 11bb 14de 0a00 327d 83b6 e644 4fbe
00000060: 5928 19bd 0567 73bc 9e23 0680 c6ab c7be
00000070: 6c5c 0280 3796 bb37 3566 09bd 5b13 ce3e
00000080: a8e7 a0a7 e9d8 5c3e 3778 b1bf f932 c1be
00000090: ecc7 34be bf1e f53e 8787 0480 be72 2a3d
000000a0: b064 19aa 4db3 09bc ae16 6dbe 8754 96bb
000000b0: 89ce 0200 1f27 cbbc 67ef 91b8 d796 c6bb
000000c0: 3414 9a3f a170 0480 3d68 0280 e101 e6b0
000000d0: e84b 75be 3a08 213f bed5 0580 3546 f23e
000000e0: 7981 72be f8d3 113f 395a 24bd 2544 283b
000000f0: 966e 87be b543 0480 b8ad 69be 6c9d 933e

weight f4 [64, 64]
-2.62976e-40 7.798305e-12 -1.63921e-40 9.030173e-37 -0.0012040191 -4.39102e-13 -0.00095740124 -0.0008880017
-1.6075224e-06 -2.4574856e-36 -9.03483e-40 -4.19294e-40 1.5637837e-05 -4.107857e-05 -0.0011461605 -0.0020236557
-0.0025490809 -1.6765196e-16 -3.9859964e-12 -2.6402486e-06 5.552782e-38 8.74758e-40 -7.8883716e-08 -0.00083185075
-3.23855e-40 5.690111e-38 -7.07298e-40 -0.003478074 -9.23373e-40 -2.2657971e-36 -2.1386899e-10 -1.8204011e-05
2.9857003e-13 -2.166292e-06 -5.4478747e-05 -0.0023530778 -7.337672e-05 2.304177e-25 -2.2454247e-14 -0.0031580396
-5.769562e-07 7.170054e-37 -0.0011539953 5.0516514e-37 -1.0271011e-37 1.69858e-40 -1.4112575e-37 -2.69502e-40
-0.002594593 -3.2538416e-11 -1.70958e-40 1.3604708e-11 -0.0023359796 -0.0004912453 -1.80466e-40 4.916309e-08
-0.0026536537 -0.00029287086 6.483526e-37 -2.7792943e-11 -0.0014152647 4.5105e-41 -6.532763e-05 4.204902e-13
1.1348121e-05 -9.883967e-09 -1.60983e-40 6.983235e-39 1.11698e-39 7.3547e-41 1.14835e-39 1.140534e-39
9.933804e-13 -3.6617551e-13 2.26618e-40 -6.334e-42 3.51667e-40 -8.82312e-40 6.6486015e-13 -1.893887e-12
-1.1750644e-12 -5.83226e-40 9.28748e-40 -5.196914e-13 7.558649e-38 -2.54713e-40 -3.7172383e-12 -3.0112054e-13
2.71415e-40 2.0940897e-15 4.8928e-40 -2.1767934e-38 -5.36383e-40 -4.3497896e-11 4.22711e-40 -3.716e-40
-2.6908e-41 4.15332e-40 8.62774e-40 -3.9522246e-13 9.77145e-40 2.114049e-12 1.04486535e-08 4.119455e-13
-1.9620956e-12 -1.7990172e-37 5.3879167e-13 -1.0458284e-12 -3.91032e-40 9.8e-41 -3.77388e-38 1.02003e-40
-2.7486836e-11 -7.6962254e-17 1.16088e-40 -5.658989e-17 -4.71844e-40 2.8393414e-12 5.27445e-40 -1.132937e-39
1.2229913e-12 2.885628e-13 2.423916e-39 -4.86155e-40 3.1337514e-13 2.4556e-40 4.47777e-40 -1.97832e-39
-1.1945698e-09 -9.473159e-09 1.1677816e-16 -9.59053e-40 -8.30166e-40 -4.597235e-13 -8.186845e-15 -0.00014070756
-6.9513e-41 8.18235e-40 -1.1523429e-08 -6.41133e-40 -3.04005e-40 -5.1867425e-19 -0.0004480621 -0.00014547254
-0.0014677268 -1.195321e-16 1.1861e-40 1.1483032e-14 -5.629659e-39 -9.1994e-41 -1.295907e-11 -0.00017005052
8.537746e-06 2.49557e-40 -1.5192613e-13 -0.0027208542 -2.2377731e-14 4.1524375e-38 -1.240385e-39 -2.35432e-40
3.76309e-40 1.163511e-39 -0.00011209612 -0.0019314542 -7.5421245e-05 -9.04795e-40 2.2481932e-15 -0.0029026142
-1.03878e-40 7.5687e-40 -0.00044782896 9.78961e-40 -1.9660002e-08 1.936094e-17 -2.9494337e-38 -3.02668e-40
-0.0036829428 9.917572e-15 -3.82046e-40 -2.926529e-18 -0.00027904395 -1.2410029e-37 -3.31613e-40 5.35306e-40
-0.0033163112 -4.47408e-40 -3.196149e-39 5.86407e-40 -0.0005129141 -3.34e-41 -5.16852e-07 5.24458e-40
-4.36624e-40 6.328173e-13 -2.88889e-40 1.0849933e-15 -1.9948457e-12 -4.6232956e-14 -1.3998932e-12 4.3971753e-12
9.4073566e-14 -1.1775174e-12 -8.13259e-40 1.5579559e-12 7.18643e-40 -2.4575559e-12 -4.425653e-12 8.213726e-14
-4.058098e-12 1.97498e-40 -2.4244217e-14 2.5430227e-12 -1.1161855e-14 7.3605e-40 -1.9423096e-09 5.9266884e-12
4.6793767e-11 -1.5681072e-37 -1.71642e-40 -1.39868325e-11 2.43052e-40 3.4822918e-09 1.1349135e-12 -3.2817824e-14
1.39993e-40 3.722179e-13 -9.784228e-14 -7.567839e-12 1.4010308e-12 4.3800928e-13 -2.9869926e-11 -1.0205746e-11
-4.37446e-40 4.250093e-39 -5.993352e-12 -2.1733995e-13 -4.54553e-40 1.0953536e-11 -8.6150406e-38 1.2714523e-13
-5.870584e-11 -3.13301e-40 5.63626e-40 -2.3122565e-11 -1.2159414e-12 -3.0506318e-12 -2.84279e-40 1.4066904e-12
-1.35563e-11 -2.8836534e-12 -6.8640365e-14 -5.011391e-13 -5.232022e-12 7.703548e-15 -1.0119065e-12 -7.4794294e-13
00000000: 12dd 0280 7230 092d f2c8 0180 f3a3 9903
00000010: 2dd0 9dba 4431 f7aa 1cfa 7aba c9c8 68ba
00000020: 0dc2 d7b5 4c0f 5184 8bd6 0980 d290 0480
00000030: 002e 8337 c74b 2cb8 c43a 96ba 4f9f 04bb
00000040: 7b0e 27bb 204a 41a5 aa3e 8cac 202f 31b6
00000050: 3e29 9701 7886 0900 c866 a9b3 8f10 5aba
00000060: c786 0380 49e6 9a01 a9b3 0780 66f0 63bb
00000070: fd0d 0a80 b1c0 4084 c526 6baf d1b4 98b7
00000080: 7a14 a82a 9d60 11b6 1c80 64b8 1836 1abb
00000090: d4e1 99b8 249f 8e16 f83f caa8 1df7 4ebb
000000a0: 21e0 1ab5 fbfb 7303 a841 97ba 17e6 2b03
000000b0: 40cd 0b82 7fd9 0100 2617 4082 43ef 0280
000000c0: 0c0a 2abb 001b 0fae 90dc 0180 2856 6f2d
000000d0: 3c17 19bb eac6 00ba 11f7 0180 6427 5333
000000e0: ece8 2dbb 768c 99b9 7a9f 5c03 2578 f4ad
000000f0: 6780 b9ba bc7d 0000 8100 89b8 06b7 ec2a
00000100: cf63 3e37 26ce 29b2 c1c0 0180 6b0a 4c00
00000110: b029 0c00 05cd 0000 2281 0c00 586b 0c00
00000120: 4dce 8b2b 7423 ceaa b877 0200 a811 0080
00000130: 4ed4 0300 879b 0980 3924 3b2b 3c45 05ac
00000140: 2860 a5ab cc59 0680 f91c 0a00 b647 12ab
00000150: 18c4 cd01 09c6 0280 e8c9 82ac 0b84 a9aa
00000160: 98f4 0200 23e5 1627 ea53 0500 2508 ed80
00000170: 38d7 0580 474e 3fae 599a 0400 df0b 0480
00000180: 024b 0080 c785 0400 1065 0900 8f7d deaa
00000190: e2a3 0a00 52c3 142c aa81 3332 9ae7 e72a
000001a0: f911 0aac 9ade 7482 08a8 172b f02f 93ab
000001b0: 0a42 0480 2f11 0100 3678 4d81 581c 0100
000001c0: dac6 f1ad 7f76 b1a4 9b43 0100 c67c 82a4
000001d0: 4f23 0580 07cd 472c 4dbe 0500 2b56 0c80
000001e0: e81e ac2b 4872 a22a e464 1a00 344b 0580
000001f0: 1e6a b02a 85ac 0200 38e0 0400 c08a 1580
00000200: 302e a4b0 65bf 22b2 d4a2 0625 7371 0a80
00000210: 2a0a 0980 9266 01ab 297b 13a8 e68a 13b9
00000220: c6c1 0080 e8e8 0800 94f8 45b2 38fb 0680
00000230: 714f 0380 eb15 19a1 e1e9 eab9 fd89 18b9
00000240: bd60 c0ba a6cf 09a5 a34a 0100 23dc 4e28
00000250: 334d 3d80 7100 0180 76fa 63ad 974f 32b9
00000260: 573d 0f37 aab7 0200 ba0d 2baa 5c50 32bb
00000270: 898f c9a8 8814 6201 b081 0d80 4a90 0280
00000280: ff18 0400 65ab 0c00 2515 ebb8 d928 fdba
00000290: 792b 9eb8 33da 0980 d8ff 2127 c939 3ebb
000002a0: 9221 0180 d83d 0800 96ca eab9 f2a8 0a00
000002b0: cde0 a8b2 ba92 b223 1b95 2081 b74b 0380
000002c0: 875d 71bb baa8 3228 fd28 0480 92f0 57a2
000002d0: a54c 92b9 a4ea 2882 679c 0380 37d4 0500
000002e0: 7856 59bb 31df 0480 90cd 2280 aa62 0600
000002f0: 1575 06ba 1b5d 0080 cdbd 0ab5 fab5 0500
00000300: 21c1 0480 4b1f 322b 4e25 0380 305d 9c26
00000310: f25f 0cac f836 50a9 7804 c5ab 3cb6 9a2c
00000320: b8d5 d329 89b8 a5ab 09db 0880 4743 db2b
00000330: 49d3 0700 64ef 2cac bdb6 9bac e8f4 b829
00000340: 19c8 8eac 8b26 0200 5c5f daa8 06f3 322c
00000350: f812 49a8 cf03 0800 7979 05b1 dd86 d02c
00000360: 19cd 4d2e 9070 5582 78de 0180 180f 76ad
00000370: 88a5 0200 204d 6f31 91b9 9f2b 60cc 13a9
00000380: 3e86 0100 418a d12a 3c52 dca9 8422 05ad
00000390: 742d c52b ca93 f62a 8c5e 03ae 988a 33ad
000003a0: 6cc3 0480 8847 2e00 51df d2ac fab3 74aa
000003b0: 1cf3 0480 57b2 402d 1286 ea81 1e27 0f2a
000003c0: 7318 81ae 5b69 0380 2923 0600 6363 cbad
000003d0: e820 abab 4cab 56ac 7418 0380 5df9 c52b
000003e0: 267c 6ead 48eb 4aac 7a90 9aa9 e10e 0dab
000003f0: dd15 b8ac 58c6 0a28 c669 8eab f886 52ab

bias f4 [64]
-0.0018387869 -3.4152685e-12 -2.1167202e-33 -4.597221e-12 -0.21050376 -6.448911e-30 2.5331558e-20 -0.03997233
0.60282433 -1.04480456e-07 -0.033209495 0.10776926 0.10572433 -1.6975179e-08 -0.05253442 -0.0012160792
-8.589965e-05 0.00056727324 -0.0024198864 -0.07011445 -0.2207567 -8.938075e-06 -8.35597e-40 0.6158199
-0.026789937 -0.04043562 -0.0058337157 -9.433954e-10 -0.0004967479 0.89645445 -0.0011904333 -0.011396037
-7.8440233e-11 -0.016709168 -8.9632294e-07 -2.134015e-15 -2.0131032e-09 -0.124557756 -5.3088544e-15 -7.658103e-05
-3.80584e-40 -0.32611626 -9.505049e-12 0.78485173 -0.26179922 -0.1043208 -7.8448515e-12 -0.3588743
-1.5403524e-05 0.3780415 -1.7398757e-21 -0.01532405 1.075524 0.21745661 -4.067265e-13 0.2939244
6.78e-43 -3.343012e-05 -2.3620194e-33 2.9519263e-09 -1.35476e-05 0.00010642196 -0.22254509 -6.79064e-08
00000000: 7303 f1ba 0254 70ac a9d9 2f89 16c0 a1ac
00000010: 4c8e 57be a9cc 028f f33f ef1e 07ba 23bd
00000020: b252 1a3f bd5e e0b3 ae06 08bd 21b6 dc3d
00000030: ff85 d83d d0d0 91b2 552e 57bd d964 9fba
00000040: 0625 b4b8 10b5 143a f596 1ebb 2a98 8fbd
00000050: 0b0e 62be bdf4 15b7 4e19 0980 5fa6 1d3f
00000060: 9276 dbbc d29f 25bd c128 bfbb c6a8 81b0
00000070: 3038 02ba 0a7e 653f 5008 9cba 72b6 3abc
00000080: ed7d acae aae1 88bc d89a 70b5 a1c5 19a7
00000090: e356 0ab1 2318 ffbd 8a45 bfa7 219a a0b8
000000a0: ea24 0480 b6f8 a6be ef36 27ad 0bec 483f
000000b0: 8c0a 86be 25a6 d5bd 1202 0aad 5fbe b7be
000000c0: d136 81b7 a88e c13e 1776 039d b911 7bbc
000000d0: c5aa 893f f2ac 5e3e 77f7 e4aa 427d 963e
000000e0: e401 0000 5137 0cb8 993a 4489 d6da 4a31
000000f0: 804a 63b7 db2e df38 dce2 63be f0d3 91b3

weight f4 [64, 64]
-1.22985e-40 -2.242456e-09 -4.98705e-40 -1.33876e-40 9.0119196e-05 -3.3747262e-15 2.877e-41 -1.25671e-40
-1.2869905e-05 1.41776e-40 1.098715e-39 -6.0965723e-21 -4.5474e-40 6.47164e-40 -2.8252e-40 7.1812e-41
3.59398e-40 -5.548429e-16 3.89761e-40 -6.638619e-26 0.00015084559 -8.21657e-40 -2.6322808e-10 -5.099124e-06
-1.09161e-40 2.3464647e-38 6.11091e-40 9.37609e-40 9.9372e-41 -0.00043793075 7.676483e-11 4.914898e-14
3.1228e-41 -7.1367e-41 1.31449e-40 2.342851e-10 3.54449e-40 7.3462725e-05 2.4608756e-16 -3.6424865e-19
-2.05095e-40 0.000856475 9.7284e-41 -4.3702e-40 0.0002561925 0.00010798399 1.2282057e-14 0.00023746832
-1.70432e-40 -1.087167e-39 4.75344e-40 9.261428e-25 -0.0045885094 -3.5420536e-14 1.15028e-40 -6.26542e-40
-3.7951e-41 -6.3917e-41 6.7567e-40 -3.72183e-40 -1.5243e-41 8.83342e-40 0.00078394834 4.722495e-11
4.6039277e-15 -3.65944e-14 5.21317e-40 -1.722634e-14 -0.021046089 1.9944232e-32 3.1254726e-23 0.0010375631
0.0060156537 8.80954e-10 0.0020713161 -0.08275516 -0.03706753 5.289032e-11 0.0027160228 4.06224e-40
4.22882e-35 -3.611519e-06 -6.183541e-14 0.0035038488 -0.013370754 2.136687e-15 -1.247886e-39 -0.012063841
8.722385e-09 -0.004056528 1.951853e-05 6.778738e-17 -1.06028615e-17 0.0062558264 1.4470928e-07 -5.9936394e-07
-1.2408414e-31 -0.00391316 3.7464082e-07 -5.5841604e-15 -5.056976e-35 0.027047044 -2.9778e-40 3.680475e-08
-1.268729e-39 0.00900606 3.1237258e-13 0.0004274678 0.0027344814 0.033587124 4.59081e-40 -0.041005924
1.3899081e-27 0.009566396 4.01139e-40 1.1427545e-05 0.026330953 0.08449477 8.37797e-40 0.03197249
1.343212e-39 -1.09278844e-13 -1.319384e-39 -1.64592e-40 -6.47305e-40 -6.313013e-17 0.015828347 -1.2821083e-17
1.06738535e-05 4.42957e-40 -1.2889467e-06 -1.30614e-40 -2.0306816e-05 -9.648741e-08 -6.44076e-40 -2.1763208e-17
-4.279294e-06 2.48167e-40 -3.3655168e-09 -1.4090281e-30 8.28488e-40 -3.8901e-41 -1.050926e-39 6.2097e-41
-3.6578e-40 -2.5868306e-38 -2.05046e-40 -1.4237e-40 -5.8635964e-05 -4.60478e-40 -1.2087074e-05 -1.9231413e-06
-8.5746965e-11 -5.38135e-40 -3.94466e-40 -1.67957e-40 3.42503e-40 -0.00018340992 -6.97592e-40 4.5605208e-38
1.34284e-40 -1.6127202e-09 3.3385e-40 -4.47924e-40 6.759683e-13 -1.9645062e-05 -3.0940962e-38 -4.750307e-16
-3.66896e-40 -0.0005391537 3.5731e-40 -1.599592e-11 -6.5054555e-05 -2.1114523e-05 5.7092e-40 -0.0027833031
1.3803748e-13 2.17424e-40 1.10348e-40 -3.1157202e-38 -0.0019812726 -9.617239e-12 -9.2573e-41 -1.160106e-39
9.703919e-10 -9.1212e-41 -2.6519974e-08 -1.1068852e-14 -1.659398e-11 -3.2314506e-38 -0.0005683766 -4.022334e-16
3.788176e-38 2.0506e-40 6.1738e-40 -1.43256e-40 -4.1961943e-08 3.827697e-17 1.50324e-40 -2.3931106e-38
-1.9528644e-08 -2.1436082e-12 -1.2331762e-10 -8.270348e-09 6.3798886e-09 4.696e-41 -5.9014143e-38 -2.6333117e-07
-1.36947e-40 -5.447813e-07 2.4895e-40 4.913365e-11 -5.2635535e-08 2.00289e-40 1.59269e-40 -1.6005027e-08
8.6582e-41 -1.5828451e-15 -2.0687906e-07 7.275349e-10 -2.04363e-40 -2.0142508e-08 1.209127e-39 6.0516e-41
1.7488e-41 -9.2102e-41 -1.15623e-40 1.5081e-40 -5.2094222e-09 -3.8642707e-08 -9.21197e-40 2.917297e-38
2.8652e-40 -8.8154614e-08 3.59256e-40 1.6871388e-10 -4.1706308e-08 -3.929283e-08 1.03187e-40 -9.665616e-08
-2.6040589e-17 7.22765e-11 9.56694e-40 -1.93732e-40 -3.06365e-08 -9.813287e-09 -1.4484e-40 5.7673734e-11
7.0014e-41 6.32e-41 -4.7397348e-14 1.6061604e-18 4.1041397e-09 -2.01652e-40 -8.240234e-08 -7.252938e-17
00000000: d556 0180 b419 1ab1 306e 0580 3175 0180
00000010: 60fe bc38 b62c 73a7 3350 0000 525e 0180
00000020: d2eb 57b7 378b 0100 c5f6 0b00 6e52 e69d
00000030: a1f3 0480 080c 0700 8d13 0380 2fc8 0000
00000040: dbe9 0300 2eec 1fa6 7f3e 0400 3f5d a495
00000050: 4e2c 1e39 72f2 0880 0fb6 90af 2419 abb6
00000060: 4c30 0180 e481 ff00 79a7 0600 ac35 0a00
00000070: 0215 0100 129a e5b9 c2ce a82e ea58 5d29
00000080: 0d57 0000 f1c6 0080 6d6e 0100 b2cc 802f
00000090: 0fdc 0300 0010 9a38 1ddc 8d25 b303 d7a0
000000a0: b93b 0280 1085 603a 300f 0100 3cc2 0480
000000b0: 9351 8639 7775 e238 fe40 5d28 eb00 7939
000000c0: 18db 0180 94d6 0b80 112d 0500 4c50 8f17
000000d0: 355b 96bb 1985 1fa9 a740 0100 8bd2 0680
000000e0: cb69 0080 2db2 0080 7e5b 0700 7f0d 0480
000000f0: 7e2a 0080 669e 0900 e281 4d3a 91b2 4f2e
00000100: bddf a527 79ce 24a9 38ad 0500 3c29 9ba8
00000110: d968 acbc dd1c cf0a 7a23 171a d7fe 873a
00000120: f61e c53b a027 7230 ebbe 073b 8a7b a9bd
00000130: 1fd4 17bd 359d 682e 4dff 313b 636c 0400
00000140: b7d7 6006 6d5d 72b6 b03d 8ba9 d4a0 653b
00000150: 0211 5bbc ebf6 1927 9996 0d80 6ba7 45bc
00000160: 74d9 1532 a0ec 84bb b9bb a337 9b4e 9c24
00000170: 9996 43a3 adfd cc3b 6261 1b34 fae3 20b5
00000180: 0712 218c f739 80bb 3e22 c934 ca30 c9a7
00000190: ff6f 8686 c391 dd3c 173e 0380 4013 1e33
000001a0: b3d0 0d80 278e 133c a2d9 af2a c21d e039
000001b0: fc34 333b a792 093d bbff 0400 d4f5 27bd
000001c0: 5f3d dc12 5fbc 1c3c 365e 0400 efb8 3f37
000001d0: 03b4 d73c 980b ad3d 701f 0900 96f5 023d
000001e0: 54a0 0e00 f712 f6a9 e85d 0e80 d1ca 0180
000001f0: 6c0c 0780 7491 91a4 73aa 813c da81 6ca3
00000200: da13 3337 c9d2 0400 dfff acb5 196c 0180
00000210: 8e58 aab7 8434 cfb3 6c03 0780 ecba c8a3
00000220: db96 8fb6 cab3 0200 cc46 67b1 bda0 e48d
00000230: 7d05 0900 716c 0080 8e71 0b80 1aad 0000
00000240: a5fb 0380 28d7 0c81 963b 0280 df8c 0180
00000250: e3ef 75b8 a003 0580 96c9 4ab7 510f 01b6
00000260: 408f bcae 1adc 0580 9c4b 0480 32d4 0180
00000270: c2ba 0300 ba51 40b9 9a98 0780 624c 7801
00000280: 5476 0100 8ca6 ddb0 a3a2 0300 a1e0 0480
00000290: a644 3e2b 73cb a4b7 6875 2881 14eb 08a6
000002a0: c2fe 0380 fe55 0dba 09e4 0300 9cb3 8cad
000002b0: e66d 88b8 181f b1b7 7e37 0600 1468 36bb
000002c0: 986a 1b2a 175e 0200 9b33 0100 cda2 2981
000002d0: 3dd8 01bb 3230 29ad 0e02 0180 e7a1 0c80
000002e0: a15e 8530 43fe 0080 0ace e3b2 1266 47a8
000002f0: 52f6 91ad d9ef 2f81 1cff 14ba 2cdf e7a5
00000300: 783f 4e01 a03b 0200 01b9 0600 578f 0180
00000310: a539 34b3 7885 3024 0ba3 0100 184b 0281
00000320: f1bf a7b2 d0d7 16ac d396 07af 6015 0eb2
00000330: 1836 db31 e882 0000 dba6 a081 f65f 8db4
00000340: c17d 0180 163d 12b5 f9b5 0200 9217 582e
00000350: 6211 62b3 532e 0200 fabb 0100 6d7b 89b2
00000360: 5bf1 0000 ad1c e4a6 7c22 5eb4 b8fb 4730
00000370: ae39 0280 d805 adb2 8e2a 0d00 b2a8 0000
00000380: c030 0000 be00 0180 4f42 0180 66a4 0100
00000390: 90fe b2b1 1bf8 25b3 ec07 0a80 30d5 1e01
000003a0: b41e 0300 834f bdb3 76e9 0300 bc80 392f
000003b0: 9220 33b3 ecc2 28b3 a51f 0100 4991 cfb3
000003c0: 9a2e f0a3 0df0 9e2e e06a 0a00 0c1c 0280
000003d0: 3095 03b3 4b97 28b2 c193 0180 daa6 7d2e
000003e0: 2cc3 0000 2db0 0000 6c75 55a9 0607 ed21
000003f0: 6504 8d31 2032 0280 2af5 b0b3 ca3d a7a4

bias f4 [64]
-3.301535e-23 -0.03360655 -4.1152565e-10 -1.6993619e-08 -0.029062176 -1.9683746e-09 -0.059893645 -9.721e-41
0.12271767 -1.1259963e-09 -2.5880556e-32 -4.040817e-07 -6.5830596e-16 0.0007137728 -4.433191e-38 -0.10762646
-0.44434577 2.410256e-35 5.017315e-20 -0.0022757996 -5.353906e-32 -3.020564e-09 -2.8585e-41 -1.20970835e-05
-4.57724e-40 -2.08852e-15 -0.011247563 -2.60329e-40 0.95373195 -0.16402724 -3.5345496e-10 -0.23477052
2.0439842e-23 5.2722146e-11 -1.2809231e-25 -0.04963146 -0.55329454 -0.0050402735 0.65577644 3.4937834e-32
-7.99484e-40 -0.027918277 -1.1258444e-06 -0.20599562 1.4837718e-17 -8.0743555e-17 0.0068606585 -2.5694574e-17
-2.4324087e-27 -0.46664765 -0.24037246 -6.354064e-16 -0.18377212 0.8142221 -3.2513947e-07 6.1485116e-35
-3.455479e-05 0.8540017 -6.420891e-16 -0.010026285 -3.7145014e-08 -0.05923865 -1.3447003e-08 -0.0131515525
00000000: 06a7 1f9a 06a7 09bd 163d e2af 5df9 91b2
00000010: cd13 eebc 0344 07b1 0a53 75bd fb0e 0180
00000020: 6753 fb3d 79c1 9ab0 2961 068b 91f0 d8b4
00000030: 68be 3da6 7b1c 3b3a aa5d 7181 436b dcbd
00000040: 4a81 e3be b426 0006 9eef 6c1f 9525 15bb
00000050: cffe 8a8b 5392 4fb1 af4f 0080 94f4 4ab7
00000060: f3fb 0480 657e 16a7 b347 38bc b1d5 0280
00000070: c727 743f c2f6 27be 5d50 c2af af67 70be
00000080: 99ae c519 dcdf 672e 1392 1e96 5c4a 4bbd
00000090: b6a4 0dbf e128 a5bb f7e0 273f 5968 350b
000000a0: a3b4 0880 dfb4 e4bc b81b 97b5 84f0 52be
000000b0: 92da 8823 952e baa4 60cf e03b 99fd eca3
000000c0: 1cb7 4093 71ec eebe 3324 76be b824 37a6
000000d0: c22e 3cbe dc70 503f d48e aeb4 9a74 a306
000000e0: ecee 10b8 db9f 5a3f d011 39a6 4a45 24bc
000000f0: 6089 1fb3 3aa4 72bd 8b04 67b2 9c79 57bc

weight f4 [1, 64]
-0.004216198 0.0003505346 0.001877064 -1.9225952e-08 0.003418383 0.00015184509 -0.07355187 -6.546899e-08
-0.3238594 0.0034742283 -0.0039345836 -0.0078099673 0.0028704095 -0.0041203466 0.0019440524 -0.13366911
1.4126604 -8.689506e-37 -0.0009747385 -0.0017838385 0.0018543006 -0.0009814997 3.09519e-40 1.8562785e-05
0.0009163867 0.00044690035 0.002225882 0.0014626875 -1.0449339 0.13841507 -0.00014783916 -0.44068485
-6.0371067e-06 -8.711952e-06 0.0008105166 0.04463086 0.60881776 -0.008340542 -0.6139303 -7.081805e-06
-1.2854727e-05 0.035584413 -0.008037802 0.11501033 -5.4635176e-09 0.0011693281 -0.02153039 -0.005633741
-6.640506e-05 0.4120863 -0.5175019 0.005625238 0.11434777 -0.84383744 0.0021395364 0.0018253895
0.0012112766 -0.89249134 0.0014927263 -0.0060421317 1.157367e-06 0.033710986 -0.001527145 0.009079959
00000000: 0828 8abb f5c7 b739 d107 f63a 5126 a5b2
00000010: f306 603b 9b38 1f39 5da2 96bd f597 8cb3
00000020: e6d0 a5be e1af 633b aeed 80bb c1ea ffbb
00000030: 7b1d 3c3b f903 87bb 93cf fe3a 8ee0 08be
00000040: 0ed2 b43f 23d8 9383 9885 7fba b0cf e9ba
00000050: 010c f33a aaa5 80ba d05e 0300 47b7 9b37
00000060: ac39 703a f34d ea39 1ae0 113b a6b7 bf3a
00000070: 65c0 85bf aebc 0d3e 4605 1bb9 72a1 e1be
00000080: 5a92 cab6 8d29 12b7 d978 543a d9ce 363d
00000090: 7bdb 1b3f c5a6 08bc 892a 1dbf 3ea0 edb6
000000a0: a2aa 57b7 f6c0 113d fcb0 03bc 898a eb3d
000000b0: 9cb9 bbb1 2444 993a 8060 b0bc 3f9b b8bb
000000c0: f242 8bb8 fafc d23e 017b 04bf eb53 b83b
000000d0: 2a2f ea3d bb05 58bf 7737 0c3b e841 ef3a
000000e0: b3c3 9e3a 507a 64bf 95a7 c33a 13fd c5bb
000000f0: d456 9b35 8814 0a3d 7c2a c8ba 1cc4 143c

weight f4 [1, 64]
0.003139174 0.038545646 -0.0005731048 -1.038925e-08 -0.028182777 -0.0024549013 0.21993725 3.0584451e-06
0.089604944 0.003571167 0.0051540076 0.003757813 3.197854e-05 0.090234205 0.0037498754 -0.10689471
0.05175298 -6.353314e-14 6.8115094e-07 6.811681e-05 3.517705e-05 0.001000628 3.66086e-40 -6.837464e-05
2.7890824e-06 0.00039798452 0.02926144 0.0005819433 -0.062089752 0.03749513 0.0017667757 -0.17713489
2.3857804e-06 7.0053864e-07 -0.0006176738 -0.017935881 0.12642322 0.01200731 -0.021198535 -0.0006287613
9.948117e-07 0.0054092673 0.0043983934 -0.49040425 -2.5689648e-08 -6.1030583e-05 -0.0074666375 0.0012352066
-6.829926e-08 -0.22043072 -0.3654796 -0.009990995 -0.08714204 -0.039984986 0.008092049 2.9299219e-05
-0.0046036383 -0.043843012 0.0004283779 0.009546062 -4.0420257e-08 -0.036976647 -0.00018077694 0.0018298501
00000000: 9aba 4d3b 0ae2 1d3d 693c 16ba 687c 32b2
00000010: 91df e6bc 69e2 20bb 3b37 613e b03f 4d36
00000020: cc82 b73d 3d0a 6a3b f3e2 a83b a445 763b
00000030: b220 0638 b6cc b83d 78c0 753b 9deb dabd
00000040: effa 533d 5d10 8fa9 56d8 3635 efd9 8e38
00000050: 128b 1338 8127 833a 80fc 0300 5b64 8fb8
00000060: 122c 3b36 94a8 d039 b0b5 ef3c 8e8d 183a
00000070: d351 7ebd 7e94 193d 2893 e73a d962 35be
00000080: 651b 2036 a60c 3c35 63eb 21ba 45ee 92bc
00000090: 1775 013e 4fba 443c 8da8 adbc 75d3 24ba
000000a0: 7885 8535 3940 b13b 6620 903b 4416 fbbe
000000b0: 22ac dcb2 17fb 7fb8 b2aa f4bb a8e6 a13a
000000c0: eaab 92b3 97b8 61be 2420 bbbe 45b1 23bc
000000d0: 8777 b2bd 4cc7 23bd 8394 043c 98c7 f537
000000e0: 1eda 96bb bb94 33bd e997 e039 1667 1c3c
000000f0: 8b9a 2db3 d374 17bd f18e 3db9 95d7 ef3a

weight f4 [1, 64]
-0.07731429 -0.11918506 0.11480315 -0.111313894 -0.050782353 0.011906609 -0.07670726 0.03622754
0.106998265 -0.011282563 -0.061257437 -0.050713897 0.003990099 0.10202718 -0.12325406 0.09527004
-0.05906132 0.0022390932 0.056107074 -0.07143131 -0.081072494 -0.093212515 -0.03442712 0.10104713
0.12147164 0.0064076185 0.02634281 -0.0876919 -0.02942817 0.028105468 0.04474774 0.010494992
-0.040902928 0.05607064 0.022400513 -0.03215243 -0.025687322 0.03142889 0.118155584 -0.08541641
0.1127927 -0.0051711053 -0.11671421 -0.035681516 -0.110624835 -0.009672388 -0.0052642375 -0.10384683
0.0004938692 -0.08732079 0.09982526 0.021628603 0.079997316 0.06038958 0.0034303367 0.060733482
0.079790205 -0.021194085 0.036601752 -0.12115857 -0.012673572 -0.058086887 -0.044695348 -0.014047384
00000000: f456 9ebd 4c17 f4bd ea1d eb3d 8af8 e3bd
00000010: 2801 50bd f013 433c b218 9dbd 5463 143d
00000020: e821 db3d 80da 38bc 14e9 7abd 60b9 4fbd
00000030: 60bf 823b a0f3 d03d a06c fcbd f01c c33d
00000040: 48ea 71bd c0bd 123b 88d0 653d 944a 92bd
00000050: 5609 a6bd 34e6 bebd 7403 0dbd ccf1 ce3d
00000060: 20c6 f83d 00f7 d13b e0cc d73c d097 b3bd
00000070: 5813 f1bc 703d e63c 6849 373d 30f3 2b3c
00000080: d489 27bd 54aa 653d 4881 b73c 44b2 03bd
00000090: 386e d2bc 94bb 003d 8efb f13d ccee aebd
000000a0: dcff e63d 6072 a9bb dc07 efbd c826 12bd
000000b0: 468f e2bd f078 1ebc a07f acbb a6ad d4bd
000000c0: 0077 013a 3ed5 b2bd 3071 cc3d 782e b13c
000000d0: a2d5 a33d 105b 773d 80cf 603b acc3 783d
000000e0: 0c69 a33d 389f adbc b8eb 153d fc21 f8bd
000000f0: d0a4 4fbc 84ec 6dbd 7812 37bd 0027 66bc

weight f4 [1, 64]
-0.070277005 0.12045607 0.07115413 -0.054338276 -0.05200629 0.04066342 0.115411356 -0.094607145
0.07552497 -0.056154206 -0.08471222 0.07963131 0.11869103 -0.07907942 -0.096400306 -0.050814584
-0.12322517 0.045211345 -0.0870758 0.03451176 -0.09646058 0.022388458 0.07549256 -0.07574649
0.053375393 -0.006416887 -0.0025557727 -0.10935369 -0.07277548 -0.047681943 0.103050515 -0.113233745
-0.11594032 0.1111566 0.034285918 -0.021556765 0.051542103 0.10346332 0.09033321 0.049816817
0.09395255 0.079349875 -0.06960188 -0.02464515 -0.10779394 -0.02477163 0.035195425 0.06610769
-0.023359582 -0.07161437 -0.080525726 -0.070028126 0.0029743165 -0.111716285 0.014521867 -0.018448994
-0.12140241 -0.013804004 0.020242125 0.045819595 -0.105199575 -0.040926307 -0.065074295 0.09885204
00000000: 64ed 8fbd acb1 f63d 42b9 913d d091 5ebd
00000010: 8c04 55bd b08e 263d ca5c ec3d 64c1 c1bd
00000020: d6ac 9a3d f401 66bd 9a7d adbd be15 a33d
00000030: 4814 f33d 64f4 a1bd 866d c5bd f422 50bd
00000040: 7a5d fcbd 882f 393d cc54 b2bd 345c 0d3d
00000050: 208d c5bd 0068 b73c d89b 9a3d fa20 9bbd
00000060: 28a0 5a3d c044 d2bb c07e 27bb d4f4 dfbd
00000070: 500b 95bd 244e 43bd 260c d33d 18e7 e7bd
00000080: 1e72 edbd 12a6 e33d 646f 0c3d d097 b0bc
00000090: d01d 533d 94e4 d33d 9e00 b93d b80c 4c3d
000000a0: 326a c03d 3082 a23d 6e8b 8ebd a0e4 c9bc
000000b0: 12c3 dcbd e0ed cabc 1429 103d 7863 873d
000000c0: 985c bfbc 8eaa 92bd acea a4bd e86a 8fbd
000000d0: c0ec 423b 82cb e4bd 20ed 6d3c 5822 97bc
000000e0: d4a1 f8bd 302a 62bc d0d2 a53c 54ad 3b3d
000000f0: e072 d7bd 58a2 27bd ac45 85bd f072 ca3d
