pth/VIScaler_test1_66_loss_3.6336874961853027.pth (torch, 42640 bytes, 10 tensors)

weight f4 [64, 3]
-7.8492064e-08 -8.269544e-13 -3.38945e-40 -0.20085973 0.06430998 0.42590025 0.1519328 0.07768392
-0.16071399 0.17431813 0.012670877 -4.1606393 0.004041036 -0.002966549 -0.8601678 0.083106555
0.14721197 0.57662493 -0.026888268 -0.12077124 -0.075412415 -1.269469e-08 -1.5271992e-11 -4.22578e-40
-7.4078894e-17 2.53237e-40 -1.20634e-40 -0.028620461 0.21093734 0.12088905 0.052488927 -0.04257316
-1.7153349 -0.025072228 -0.0016094177 -1.4807156e-05 -0.027290696 -0.2233534 -0.30698037 0.12242158
-0.10187786 -0.23361164 0.08091798 0.0038090353 -4.670544 0.018631514 -0.010795931 0.76828593
0.6035771 -0.03007568 0.63687575 0.0721689 0.11503309 0.5171606 0.20687173 0.14605378
0.40837315 0.032359816 0.04054121 0.642762 -0.06254532 -0.07171716 0.3912854 0.16035798
-0.028249314 0.089164846 0.017865337 -0.3423034 -0.44781965 0.3693093 0.018679237 0.5993133
0.004794692 -0.11334073 0.2636959 -0.1666616 0.19746287 -0.11572662 0.020795407 0.19638701
0.55091363 0.7381499 -0.34148985 1.5407704 -0.05771116 0.0069718887 -0.063018344 -0.04909677
0.16570486 0.33732024 -0.009106034 -0.00027218365 -7.3129966e-16 0.17143938 0.044445828 -0.8587226
-0.03178738 -0.11023693 -0.36581802 -0.17103475 -0.3396794 0.5995106 0.36526823 -0.08103604
-2.3304148 0.1419133 -0.09507915 -0.758522 0.29588732 0.019917948 -1.836549 -0.036849473
-0.0020351636 9.070083e-24 -0.009191273 -0.0006805355 -4.480009e-18 0.026244657 -0.080106124 -1.7074695
0.1606036 0.09554463 0.019020619 -0.004187931 -0.003806353 0.515127 -2.2178948e-09 3.07348e-40
5.1178e-41 -0.2988328 0.21156132 -0.3211978 -0.034602765 -0.13881955 -0.23377374 0.0042032767
-0.102990046 0.58519995 0.49336025 -0.18180254 -1.603028 -0.0013562092 -1.9765066e-05 -2.1531484e-20
0.52209 0.12150419 -2.5873113 -1.5344279e-08 -3.3683655e-21 3.76574e-40 -0.016031655 -0.21271591
-0.4263762 0.12361504 0.063004866 0.25387335 0.07609217 0.16645852 0.53588396 0.1666789
-0.0130191175 -0.22764479 0.22635138 0.058767427 1.2366221 0.063430876 0.0017650194 -4.524118
0.113723814 0.12596968 0.22292532 0.16151284 -0.0822548 -0.02957536 0.05757301 -0.015712947
0.7285763 -2.6320465e-15 2.43058e-40 -1.30182e-40 -0.044200577 -0.0066061313 -0.000109760964 0.062522426
-0.10208591 0.018732069 0.33313957 0.15653911 0.10863369 0.12288262 0.05039552 -4.768918
00000000: 788f a8b3 58c4 68ab d7b0 0380 2cae 4dbe
00000010: f3b4 833d 990f da3e 4694 1b3e bf18 9f3d
00000020: 3592 24be 7480 323e 8399 4f3c f523 85c0
00000030: ab6a 843b 6f6a 42bb f533 5cbf c533 aa3d
00000040: bcbe 163e b19d 133f c944 dcbc e956 f7bd
00000050: d371 9abd d617 5ab2 7855 86ad fa99 0480
00000060: 76d0 aaa4 ecc1 0200 4750 0180 7575 eabc
00000070: f5ff 573e ae94 f73d a1fe 563d 3261 2ebd
00000080: 1890 dbbf 4664 cdbc 19f3 d2ba 406c 78b7
00000090: bd90 dfbc c1b6 64be 882c 9dbe 2ab8 fa3d
000000a0: 57a5 d0bd e437 6fbe 53b8 a53d 02a1 793b
000000b0: 1975 95c0 1ea1 983c 6be1 30bc 63ae 443f
000000c0: 0784 1a3f 4661 f6bc 4a0a 233f 4acd 933d
000000d0: 7896 eb3d a364 043f 2fd6 533e 1f8f 153e
000000e0: 4916 d13e ba8b 043d 8a0e 263d 0d8c 243f
000000f0: c317 80bd 72e0 92bd 8f56 c83e e234 243e
00000100: 1b6b e7bc 0f9c b63d 545a 923c 6442 afbe
00000110: 9e48 e5be 1c16 bd3e 3305 993c 996c 193f
00000120: cb1c 9d3b 2f1f e8bd 2603 873e 57a9 2abe
00000130: b533 4a3e 1402 edbd 215b aa3c ad19 493e
00000140: ad08 0d3f 64f7 3c3f c2d7 aebe f737 c53f
00000150: 8a62 6cbd 7174 e43b c30f 81bd b219 49bd
00000160: 89ae 293e 3db5 ac3e 7a31 15bc dfb3 8eb9
00000170: 64c8 52a6 ce8d 2f3e d40c 363d 3fd5 5bbf
00000180: 7c33 02bd e6c3 e1bd 804c bbbe bc23 2fbe
00000190: 75ea adbe 8779 193f 7004 bb3e 39f6 a5bd
000001a0: 8425 15c0 b851 113e dbb8 c2bd 7f2e 42bf
000001b0: 8b7e 973e f72a a33c 0a14 ebbf 79ef 16bd
000001c0: 6160 05bb e070 2f19 fe96 16bc f765 32ba
000001d0: 7d48 a5a2 09ff d63c ae0e a4bd 5c8e dabf
000001e0: 4575 243e e7ac c33d 21d1 9b3c e93a 89bb
000001f0: 0274 79bb 5ddf 033f 9e69 18b1 c358 0300
00000200: aa8e 0000 9d00 99be 88a3 583e 0a74 a4be
00000210: a1bb 0dbd b626 0ebe 6262 6fbe a4bb 893b
00000220: 72ec d2bd aacf 153f b799 fc3e 722a 3abe
00000230: 0630 cdbf d4c2 b1ba 28cd a5b7 ef5b cb9e
00000240: b1a7 053f 30d7 f83d 8296 25c0 6dce 83b2
00000250: aa81 7e9d bc19 0400 d154 83bc 33d2 59be
00000260: fb4d dabe e229 fd3d b208 813d b0fb 813e
00000270: 36d6 9b3d 1a74 2a3e b12f 093f e0ad 2a3e
00000280: 234e 55bc b71b 69be a8c8 673e 1db6 703d
00000290: a249 9e3f 0ce8 813d 3958 e73a 93c5 90c0
000002a0: 08e8 e83d 32fe 003e 8946 643e 9f63 253e
000002b0: 3475 a8bd 0648 f2bc add1 6b3d 70b8 80bc
000002c0: fa83 3a3f b0a8 3da7 8ca5 0200 e56a 0180
000002d0: aa0b 35bd 3f78 d8bb 782f e6b8 c20b 803d
000002e0: 6b12 d1bd ff73 993c 4591 aa3e ca4b 203e
000002f0: 577b de3d e2a9 fb3d 886b 4e3d fa9a 98c0

bias f4 [64]
-1.7539497e-30 0.1944429 0.07932902 0.16736417 -0.30485836 0.40005517 -0.24413593 -4.885777e-25
-1.60461e-40 -0.086992875 -0.6597842 -0.0058199 0.08799839 0.15904826 -0.248851 0.6253718
0.08844081 0.26486525 0.47495446 0.5398349 -0.027442407 0.37467745 0.12545936 0.75836134
-0.40323353 0.055570893 -0.23083621 0.6655766 -0.08735224 -0.21486716 -0.00075598987 0.6557708
-0.03591084 0.52580756 -1.2527465 0.5360829 0.4755302 -4.238988e-05 -0.00023624295 -0.61082745
-0.0777363 -0.3199675 -1.10115e-40 -0.089533925 -0.5760899 -0.26794282 -0.13631804 -7.0523725e-05
1.1251493 -5.6609617e-31 0.31468418 -0.12369442 0.32849574 0.41857007 -0.042133402 0.38208738
0.26953256 0.29786983 0.56882507 -1.51566e-40 -0.11887038 -0.049947668 0.0049021896 0.15778647
00000000: 1c4c 0e8e 0a1c 473e 4177 a23d 8361 2b3e
00000010: 6516 9cbe 08d4 cc3e c5fe 79be 1d35 1797
00000020: 4dbf 0180 5229 b2bd 9ee7 28bf dcb4 bebb
00000030: 8038 b43d 8cdd 223e ccd2 7ebe 5e18 203f
00000040: 7520 b53d 6b9c 873e 3b2d f33e 9f32 0a3f
00000050: e6ce e0bc b9d5 bf3e 6b78 003e f823 423f
00000060: a074 cebe 4e9e 633d 5460 6cbe 3a63 2a3f
00000070: bbe5 b2bd 2306 5cbe 9f2d 46ba 98e0 273f
00000080: 3f17 13bd 539b 063f ff59 a0bf bb3c 093f
00000090: b278 f33e c9cb 31b8 fcb7 77b9 305f 1cbf
000000a0: 3634 9fbd c8d2 a3be f532 0180 905d b7bd
000000b0: a17a 13bf cd2f 89be f596 0bbe 23e6 93b8
000000c0: e404 903f 6eb5 378d 491e a13e 8053 fdbd
000000d0: 9830 a83e d14e d63e 1394 2cbd f5a0 c33e
000000e0: 2c00 8a3e 6582 983e 859e 113f 81a6 0180
000000f0: 5072 f3bd ed95 4cbd 8ca2 a03b c792 213e

weight f4 [64, 64]
-3.3802e-41 -6.230161e-23 -1.4003654e-08 -1.2556902e-16 2.96352e-40 -4.6715133e-08 1.61228e-40 -3.32087e-40
-9.6052e-41 -7.4249644e-17 1.0399e-41 -1.31959e-40 3.07692e-40 -9.070869e-13 1.69982e-40 3.735e-41
-0.00013094314 -1.2541465e-09 -5.4169495e-06 -9.624e-42 -1.7282307e-27 -1.9183748e-08 -2.1530471e-20 2.3473066e-29
-4.10212e-40 -2.08693e-40 1.45352e-40 -0.00041828104 2.80715e-40 3.8583033e-28 2.3206e-41 -1.0230713e-07
-6.155252e-33 -3.647224e-31 -2.9819136e-16 -6.14212e-11 -1.1014163e-06 -2.53484e-40 8.0594e-41 -3.40497e-40
-9.446789e-09 -2.47511e-40 -1.2377472e-12 -3.9736e-40 -5.8129e-41 -2.13705e-40 -2.8749444e-06 7.91e-42
-0.00023490113 -7.5499e-41 -1.680511e-27 -2.1787301e-11 -2.8037887e-08 -4.7031268e-08 -4.4232303e-07 -1.3685633e-32
-1.2872e-40 -3.739797e-09 -2.72246e-40 1.27385e-40 -8.9092e-41 7.5939e-41 -6.788004e-06 -2.961324e-23
-2.3417404e-13 8.6952e-41 -3.27949e-40 2.51066e-40 9.438e-42 6.557e-41 5.1753e-41 2.7038e-41
-4.2141e-41 -1.34746e-40 -1.58293e-40 2.06123e-40 5.8713e-41 -1.2535e-40 -1.4722e-40 8.244e-42
1.94305e-40 3.1703e-41 2.4793e-41 1.06965e-40 -5.0102e-41 1.57055e-40 -1.1161e-40 1.1474e-41
-1.97244e-40 -1.46381e-40 1.74396e-40 -1.2419058e-23 -1.7573e-40 4.07697e-40 -2.433e-41 -1.5237e-40
2.19292e-40 -1.5555e-40 -1.48235e-40 -1.40714e-40 -1.74394e-40 9.9496e-41 -5.786e-42 -1.36408e-40
4.266e-41 -2.00943e-40 -9.6828e-41 2.09934e-40 -1.89657e-40 -1.82686e-40 -1.35302e-40 2.9661e-40
-1.3747451e-35 -6.436e-41 -4.9298e-41 -2.59513e-40 1.1342e-40 6.3702e-41 -2.00216e-40 8.043e-42
-5.0855e-41 1.27126e-40 1.18742e-40 2.4465e-40 1.07327e-40 1.81105e-40 -5.7173e-41 -1.36046e-40
9.530992e-12 4.4326e-40 2.04077e-40 4.65031e-40 1.56173e-40 -3.3324e-41 -1.75347e-40 -2.931e-41
2.0078e-41 -1.386e-41 -3.1982577e-16 2.9862093e-07 2.29687e-40 -2.543e-41 1.36045e-40 4.28462e-40
-4.6373787e-17 -1.25995e-40 2.811e-41 8.6389e-41 2.37264e-40 -2.63434e-40 2.10663e-40 6.2588e-41
-9.443512e-20 -3.75991e-40 -3.7303e-41 -2.8129358e-07 -7.5379e-41 -2.47893e-40 -2.3035e-41 2.31552e-40
-2.982e-41 -1.00515e-40 -4.5104587e-11 3.16139e-40 -1.2735328e-15 1.17513e-40 -4.7225e-41 3.6568745e-32
-7.0785e-41 9.499298e-37 -1.01373e-40 1.265563e-38 -4.27681e-22 -7.763384e-20 -3.2811123e-10 2.521e-41
-1.8639368e-09 -2.5966e-40 -2.95722e-40 -1.95941e-40 4.11582e-40 1.33783e-40 -1.0321437e-12 3.2455e-40
-6.4572e-41 7.3093e-41 2.71434e-40 2.02778e-40 -3.6333e-41 -3.2285e-41 -3.49578e-40 7.0044e-41
4.516e-41 2.3595334e-05 -0.02540074 -0.019128002 -1.65587e-40 -0.011398544 -6.0798045e-27 -1.1737e-40
1.8815418e-06 0.00030873113 -4.6661436e-05 9.451e-41 -1.612642e-07 -0.020976236 -0.00032145032 2.3837654e-09
-0.050215516 -0.009897693 -0.022420892 -0.007707941 1.3917722e-08 -0.022780353 -0.0023360674 -0.030904584
-3.8511754e-08 7.70752e-14 1.14303475e-05 -0.049484447 2.26724e-40 3.4220514e-07 2.304e-42 -0.025575101
-1.7814115e-09 1.3825581e-08 -0.030418064 -0.021356093 -0.03819519 1.1747e-40 1.15688e-40 -1.0102145e-05
-0.022604201 -8.485375e-15 -2.004e-42 6.769828e-10 -1.501304e-10 -2.047591e-07 -0.052616928 -3.858e-42
-0.04413817 -3.9598e-41 -0.00032273406 -0.016675415 -0.010591 -0.027029745 -0.033173177 -0.0044806316
3.0278e-41 -0.02699936 -0.012718267 5.021e-42 -8.91e-41 2.5372e-41 -0.030443754 -0.005928722
00000000: 3a5e 0080 d4a2 969a b994 70b2 6fc5 10a5
00000010: 1c3a 0300 d5a3 48b3 70c1 0100 b99d 0380
00000020: c10b 0180 4135 aba4 fd1c 0000 d96f 0180
00000030: b859 0300 8052 7fab d7d9 0100 1e68 0000
00000040: c84d 09b9 5b5e acb0 3ec3 b5b6 d41a 0080
00000050: afec 0893 82c9 a4b2 7c59 cb9e 900b ee0f
00000060: 8177 0480 c045 0280 2f95 0100 bb4c dbb9
00000070: 850e 0300 8d8c f411 b040 0000 f1b3 dbb3
00000080: dead ff89 e7b7 ec8c 47e5 aba5 1011 87ae
00000090: 60d4 93b5 9cc2 0280 aae0 0000 2bb5 0380
000000a0: 6b4b 22b2 f6b1 0280 8b32 aeab ae53 0480
000000b0: 0aa2 0080 b953 0280 2bef 40b6 0d16 0000
000000c0: cb4f 76b9 76d2 0080 d024 0593 a4a4 bfad
000000d0: f7d7 f0b2 6dff 49b3 6a78 edb4 a71e 8e8a
000000e0: d266 0180 9a7f 80b1 e9f6 0280 1963 0100
000000f0: 5af8 0080 b0d3 0000 83c4 e3b6 6a33 0f9a
00000100: 09d4 83aa 63f2 0000 3092 0380 dfbb 0200
00000110: 4f1a 0000 c8b6 0000 4490 0000 5f4b 0000
00000120: 7975 0080 9e77 0180 42b9 0180 963e 0200
00000130: aba3 0000 6d5d 0180 649a 0180 fb16 0000
00000140: a51d 0200 6058 0000 1d45 0000 2d2a 0100
00000150: aa8b 0080 ceb5 0100 2037 0180 fc1f 0000
00000160: d625 0280 0d98 0180 25e6 0100 3238 7099
00000170: dde9 0180 7e70 0400 d243 0080 bfa8 0180
00000180: 4c63 0200 9cb1 0180 389d 0180 4188 0180
00000190: 24e6 0180 5b15 0100 2110 0080 407c 0180
000001a0: eb76 0000 2630 0280 eb0d 0180 3649 0200
000001b0: b010 0280 41fd 0180 2b79 0180 d43a 0300
000001c0: 1f30 9285 69b3 0080 6c89 0080 6bd3 0280
000001d0: 2b3c 0100 93b1 0000 1f2e 0280 6c16 0000
000001e0: c38d 0080 6062 0100 014b 0100 fca9 0200
000001f0: 2f2b 0100 d9f8 0100 609f 0080 3e7b 0180
00000200: c6ab 272d a1d3 0400 e238 0200 5110 0500
00000210: 59b3 0100 e55c 0080 cce8 0180 b451 0080
00000220: f837 0000 a326 0080 f45d b8a5 2652 a034
00000230: 4680 0200 e346 0080 3d7b 0100 61aa 0400
00000240: 81dc 55a4 395f 0180 5c4e 0000 d1f0 0000
00000250: 6595 0200 59de 0280 3e4b 0200 78ae 0000
00000260: 87fa de9f 1c18 0480 fc67 0080 b204 97b4
00000270: 20d2 0080 06b3 0280 3640 0080 7985 0200
00000280: 2053 0080 3218 0180 405f 46ae 4471 0300
00000290: 1189 b7a6 9447 0100 a583 0080 33e0 3d0b
000002a0: 52c5 0080 479f a103 961a 0180 bfce 8900
000002b0: 3742 019c c74e b79f 8d61 b4af 4646 0000
000002c0: b916 00b1 d4d3 0280 5a38 0380 3422 0280
000002d0: 537b 0400 ef74 0100 e542 91ab b788 0300
000002e0: 00b4 0080 c1cb 0000 a6f4 0200 4335 0200
000002f0: 4865 0080 ff59 0080 7bce 0380 41c3 0000
00000300: e37d 0000 98ee c537 3615 d0bc 54b2 9cbc
00000310: 97cd 0180 f5c0 3abc 8bd8 f093 2e47 0180
00000320: 4989 fc35 31dd a139 56b6 43b8 7507 0100
00000330: f727 2db4 5bd6 abbc 5588 a8b9 a5cf 2331
00000340: c9ae 4dbd ef29 22bc 05ac b7bc e592 fcbb
00000350: ca1a 6f32 dd9d babc b518 19bb 9c2b fdbc
00000360: 1f68 25b3 d48e ad29 f8c4 3f37 34b0 4abd
00000370: 0478 0200 51b8 b734 6c06 0000 e082 d1bc
00000380: d8d5 f4b0 8c85 6d32 4e2f f9bc f9f2 aebc
00000390: 8f72 1cbd 7547 0100 7e42 0100 627c 29b7
000003a0: 722c b9bc e3db 18a8 9605 0080 6e16 3a30
000003b0: f311 25af c1db 5bb4 d984 57bd c10a 0080
000003c0: 3aca 34bd 626e 0080 a234 a9b9 e19a 88bc
000003d0: e085 2dbc 7c6d ddbc 99e0 07bd 43d2 92bb
000003e0: 6754 0000 c32d ddbc 4760 50bc ff0d 0000
000003f0: 60f8 0080 ba46 0000 2e65 f9bc ba45 c2bb

bias f4 [64]
-2.8879935e-08 -2.94514e-40 4.0425647e-35 -0.014527023 -0.2486701 -0.02046589 -1.6270442e-05 0.13837035
0.41337314 0.004575774 -0.25391924 0.22690603 -0.21933617 -0.027201826 -9.361079e-10 -0.00010422793
-4.6113e-41 1.3516e-40 -0.18549193 -0.04691791 -1.350252e-39 -0.0001277506 -0.2293157 0.48949775
-0.06510824 -0.003541461 2.8361e-40 -1.4656203e-12 -6.3435393e-16 0.7388988 -0.0010612644 -0.25303262
-0.18123062 -0.0005106946 0.11462405 -0.037423674 -0.5060455 -8.8593e-41 -0.72477347 0.03437206
-0.032387435 -0.000640664 -0.016557034 0.58103174 0.10527348 -0.3058197 -8.1278224e-13 -0.003137199
-0.021700082 0.4268931 -0.010814864 -0.275957 0.6741676 -0.017327 -0.26350823 -0.083948344
-0.00045365313 -0.10460542 -1.4948168e-07 -5.196072e-20 -0.0050542974 1.97229e-40 0.36808562 -0.65510625
00000000: a613 f8b2 fc34 0380 8af0 5606 c002 6ebc
00000010: 60a3 7ebe 15a8 a7bc 827c 88b7 f5b0 0d3e
00000020: a5a5 d33e 60f0 953b b401 82be 0e5a 683e
00000030: a999 60be 5dd6 debc 5ea8 80b0 f294 dab8
00000040: 8b80 0080 c578 0100 99f1 3dbe ff2c 40bd
00000050: f4b3 0e80 caf4 05b9 bcd1 6abe 739f fa3e
00000060: 7857 85bd db17 68bb 9716 0300 8944 ceab
00000070: 0fd7 36a6 7928 3d3f 201a 8bba 7e8d 81be
00000080: 8594 39be 22e0 05ba 04c0 ea3d 9149 19bd
00000090: 338c 01bf f6f6 0080 c18a 39bf b8c9 0c3d
000000a0: b0a8 04bd 3cf2 27ba 9ea2 87bc 7fbe 143f
000000b0: 9f99 d73d 6694 9cbe 22c7 64ab 7799 4dbb
000000c0: 5fc4 b1bc bb91 da3e d430 31bc 3c4a 8dbe
000000d0: 3f96 2c3f 5af1 8dbc 8dea 86be 1ced abbd
000000e0: 4bd8 edb9 5e3b d6bd 3681 20b4 a860 759f
000000f0: 859e a5bb cb25 0200 b875 bc3e 0bb5 27bf

weight f4 [64, 64]
8.5545e-41 -1.54083e-40 -7.4399e-41 -1.0664e-41 -2.9156e-40 5.1998e-41 2.877e-41 -3.0324e-41
-5.277738e-16 1.41776e-40 -1.85563e-40 -0.00058305985 1.48818e-40 -3.0307e-40 -6.028e-41 7.1812e-41
-3.571e-41 -5.223e-41 3.89761e-40 -2.31297e-40 -4.1516e-41 -7.4513e-41 -1.0085e-41 -0.0018299376
-1.10626e-40 8.622e-42 -3.1262e-41 -2.57313e-40 7.36e-41 -0.004505357 9.676e-42 -0.0013309482
-1.63393e-40 -8.25e-41 -1.00986e-40 -1.8719358e-38 -3.1636416e-11 -1.0049e-41 -4.01325e-40 9.1271e-41
3.71636e-40 -8.9954e-41 -7.3219e-41 -0.0029075283 3.0187e-41 -2.89873e-40 1.308e-41 -6.2026e-41
-2.059512e-12 -0.0026344005 -3.268e-42 -4.7424e-41 -6.0090564e-08 -2.13306e-40 -3.0376648e-05 -1.9496461e-07
-3.7951e-41 8.6553e-41 -9.1873e-41 1.6027e-41 -1.5243e-41 -6.915e-42 -8.108e-42 -2.2856876e-09
-8.954e-41 1.57859e-40 -4.859e-41 3.17697e-40 -6.6276e-41 -3.32033e-40 -2.6193e-41 -6.9657473e-25
-3.94603e-40 -2.7018e-40 2.38163e-40 1.97128e-40 2.1058e-40 8.3048e-41 7.0492916e-08 1.80154e-40
-5.2703e-41 -5.9468e-41 9.1047e-41 -7.0163e-41 -3.9892e-09 -8.736e-41 4.457617e-39 1.70171e-40
-1.99189e-40 -9.5657e-41 -5.4279e-41 -2.476e-42 1.94291e-40 -1.256e-42 1.12362e-40 6.2386e-41
1.32098e-40 -3.38171e-40 5.1503e-41 -3.89312e-40 2.74558e-40 -1.3011e-41 -1.43682e-40 1.2515e-40
-1.83597e-40 2.52717e-40 -8.269e-41 1.25013e-40 2.08268e-40 7.1381e-41 -1.03514e-40 9.7397e-41
1.22485e-40 1.69407e-40 1.20495e-40 5.8692e-41 3.09023e-40 8.1699e-41 3.03364e-40 2.97775e-40
1.17587e-40 3.39413e-40 6.2623095e-13 -4.731e-42 1.13329e-40 -3.0463e-41 2.9509e-41 -1.12806e-40
-0.011667514 -9.934003e-29 -2.930411e-10 0.02473795 0.45627722 -0.056522246 -0.0054843533 -0.0058189174
-0.20472164 0.0015392042 -0.20246108 0.63163215 0.8958912 0.019907622 4.8332997e-05 -1.0022397e-05
-3.14973e-40 -8.0909834e-11 0.16489874 -0.042340696 -1.8733419e-16 -3.3017463e-07 0.03565903 0.5774112
0.23247829 -0.011677452 -7.1323e-41 -0.00038261354 -1.99898e-40 0.56606025 0.000103782324 0.6259318
0.19048965 -0.000108643915 0.51978344 0.0920491 -0.0992531 -1.3718077e-12 -0.07235757 -0.1600885
0.031505235 -0.00017852269 -0.020825673 0.45950955 0.26034093 0.26340717 9.50611e-05 -5.233099e-05
-0.017465463 0.3690927 -0.019976728 0.043611404 -0.2472982 0.44410157 0.38383925 -0.21989886
-0.018389877 0.12875699 6.4783853e-06 -4.8416034e-14 -0.11114973 -7.725628e-10 0.7611594 0.28850666
1.1377115e-19 2.9318848e-08 -2.146e-40 0.050602004 0.37181312 0.016114391 2.0903622e-28 0.19524255
-0.1315312 0.0018549407 0.024113735 0.28459054 0.42936763 -0.04401169 -1.01544e-40 0.013795058
1.3506089e-26 -5.2437e-41 0.07399768 0.014321153 8.39644e-06 0.0064734058 0.016460512 0.24628927
0.57469636 0.00011029379 3.0520701e-27 1.6974e-41 -6.722031e-10 0.22508043 -1.3814e-41 0.21985306
0.37855193 0.011771562 -0.3267303 0.595919 0.62407357 2.0259e-41 0.38843188 0.2647399
-0.030689105 0.014490255 0.012245838 0.27286503 -0.00016332664 0.51560116 -3.16469e-40 0.0003570432
-0.0003159674 0.08515692 -3.9011098e-20 0.02500946 -0.25277048 -0.09775508 0.2914962 0.24909276
-1.6578957e-29 -0.030502776 0.009682347 2.3976e-41 -0.00032859386 3.03894e-40 0.23888898 0.32077804
00000000: 77ee 0000 85ad 0180 65cf 0080 ba1d 0080
00000010: c02c 0380 f390 0000 3350 0000 8854 0080
00000020: d51e 18a6 378b 0100 4605 0280 7cd8 18ba
00000030: d89e 0100 d64c 0380 09a8 0080 2fc8 0000
00000040: 8c63 0080 9991 0080 7f3e 0400 c384 0280
00000050: bb73 0080 b6cf 0080 1d1c 0080 84da efba
00000060: 6134 0180 0918 0000 2557 0080 49cd 0280
00000070: 2bcd 0000 aca1 93bb f91a 0000 3673 aeba
00000080: 79c7 0180 fae5 0080 8219 0180 f4d5 cb80
00000090: 7023 0bae 031c 0080 bb5e 0480 6dfe 0000
000000a0: f80b 0400 c1fa 0080 1bcc 0080 3b8c 3ebb
000000b0: 2654 0000 0c28 0380 7624 0000 e7ac 0080
000000c0: dfec 10ac e8a5 2cbb 1c09 0080 3384 0080
000000d0: 230b 81b3 9c52 0280 5bd1 feb7 7757 51b4
000000e0: cb69 0080 46f1 0000 1b00 0180 ad2c 0000
000000f0: 7e2a 0080 4713 0080 9a16 0080 3e12 1db1
00000100: 9af9 0080 0cb8 0100 7387 0080 9c75 0300
00000110: c0b8 0080 939d 0380 0449 0080 5694 5797
00000120: fe4b 0480 27f1 0280 e797 0200 8325 0200
00000130: 034b 0200 81e7 0000 e461 9733 32f6 0100
00000140: ea92 0080 c6a5 0080 cdfd 0000 96c3 0080
00000150: 6011 89b1 86f3 0080 068a 3000 5eda 0100
00000160: 422b 0280 a70a 0180 4f97 0080 e706 0080
00000170: 9b1d 0200 8003 0080 3839 0100 e8ad 0000
00000180: 3c70 0100 afae 0380 928f 0000 3e3d 0480
00000190: 5bfd 0200 4524 0080 8790 0180 de5c 0100
000001a0: cbff 0180 79c0 0200 82e6 0080 7c5c 0100
000001b0: 9144 0200 fbc6 0000 8e20 0180 810f 0100
000001c0: 7055 0100 3dd8 0100 e44f 0100 9ca3 0000
000001d0: 6e5d 0300 bee3 0000 a84d 0300 133e 0300
000001e0: c947 0100 25b2 0300 b244 302b 300d 0080
000001f0: ea3b 0100 eb54 0080 4252 0000 753a 0180
00000200: 1a29 3fbc 5edb fb90 de19 a1af 3ea7 ca3c
00000210: 2b9d e93e df83 67bd 17b6 b3bb 9eac bebb
00000220: 8da2 51be 1fbf c93a f551 4fbe a5b2 213f
00000230: 2059 653f 4f15 a33c 29b9 4a38 de25 28b7
00000240: 046e 0380 30ec b1ae 37db 283e 706d 2dbd
00000250: 4bfb 57a5 db42 b1b4 340f 123d 38d1 133f
00000260: ca0e 6e3e c952 3fbc d2c6 0080 8599 c8b9
00000270: 3c2d 0280 53e9 103f b6a5 d938 113d 203f
00000280: b80f 433e c2d7 e3b8 8710 053f 3d84 bc3d
00000290: 3645 cbbd 9510 c1ab 3530 94bd 3dee 23be
000002a0: a20b 013d d231 3bb9 9a9a aabc d644 eb3e
000002b0: 684b 853e 4edd 863e 8a5b c738 f97d 5bb8
000002c0: bb13 8fbc b8f9 bc3e 3ca6 a3bc dfa1 323d
000002d0: bd3b 7dbe 4861 e33e 9486 c43e 2b2d 61be
000002e0: 5ea6 96bc dfd8 033e e860 d936 e30b 5aa9
000002f0: 78a2 e3bd 465c 54b0 58db 423f 25b7 933e
00000300: 3851 0620 d4d8 fb32 3856 0280 0c44 4f3d
00000310: 4a5e be3e 5402 843c 117e 8411 aaed 473e
00000320: 1db0 06be 7b21 f33a 2b8a c53c dab5 913e
00000330: 13d6 db3e 9a45 34bd 101b 0180 ab04 623c
00000340: 01c2 8514 2c92 0080 188c 973d 45a3 6a3c
00000350: 6fde 0c37 dd1e d43b 32d8 863c 4133 7c3e
00000360: 4d1f 133f 874d e738 56cf 7113 512f 0000
00000370: 17c6 38b0 7c7b 663e 8226 0080 2921 613e
00000380: 8fd1 c13e 82dd 403c 3249 a7be 268e 183f
00000390: 49c3 1f3f 7938 0000 8be0 c63e fd8b 873e
000003a0: b867 fbbc 8968 6d3c c4a2 483c f7b4 8b3e
000003b0: a942 2bb9 70fe 033f 3072 0380 8731 bb39
000003c0: 6da8 a5b9 c066 ae3d 8639 389f a4e0 cc3c
000003d0: 226b 81be d133 c8bd fd3e 953e 2c12 7f3e
000003e0: 6f21 a88f f5e0 f9bc b5a2 1e3c d642 0000
000003f0: 1f47 acb9 224f 0300 509f 743e 053d a43e

bias f4 [64]
-9.043063e-09 -2.8144e-40 -0.07428066 0.014230014 -0.29143986 -4.0492e-41 -2.776116e-13 -0.03625078
0.39469618 -4.668421e-06 -1.6960401e-08 -1.9776645e-07 -6.925232e-05 0.2545187 -8.134166e-23 -5.122584e-07
-0.0040011303 -1.0450028e-24 -0.08853948 -9.888033e-16 -0.038580786 1.196137e-38 -0.3096489 -1.478306e-05
-2.404912e-13 -1.0790613e-24 2.88784e-40 -0.26246625 0.6821349 -0.059191674 -0.46222582 -8.8495e-41
-0.0007856451 -1.5044782e-19 -1.5518213e-09 4.6394e-41 0.035762016 -0.006499967 0.54328644 0.00020160788
-0.011645314 0.038862135 -0.0004286505 -0.018783236 -0.18832894 -2.6712817e-07 -4.61689e-40 -0.19336148
-1.1623271e-06 -2.8878666e-12 -0.07867506 -8.379511e-17 -0.08801292 0.60261875 -0.7500577 -2.0873726e-08
-0.23811182 0.6314453 0.22320823 -0.00019035138 -1.1547677e-34 -0.005162377 -3.9960352e-05 -0.00015039214
00000000: d05b 1bb2 8a10 0380 7520 98bd 0125 693c
00000010: 9b37 95be e070 0080 0c48 9caa b37b 14bd
00000020: 9e15 ca3e 6ea5 9cb6 51b0 91b2 a159 54b4
00000030: 8e3b 91b8 4650 823e 0dac c49a 2182 09b5
00000040: ea1b 83bb d3b4 a197 3054 b5bd 6780 8ea6
00000050: e306 1ebd 6f3f 8200 4d8a 9ebe c204 78b7
00000060: 6f62 87aa 06fa a697 0325 0300 fa61 86be
00000070: 65a0 2e3f f872 72bd dda8 ecbe b0f6 0080
00000080: c0f3 4dba 109e 31a0 dc47 d5b0 5481 0000
00000090: 317b 123d adfd d4bb d214 0b3f b466 5339
000000a0: fdcb 3ebc e72d 1f3d 7fbc e0b9 4ddf 99bc
000000b0: 4dd9 40be d169 8fb4 0007 0580 8d00 46be
000000c0: 4101 9cb5 2e37 4bac 6420 a1bd e737 c1a4
000000d0: 1e40 b4bd 3945 1a3f c803 40bf cf4d b3b2
000000e0: 96d3 73be 66a6 213f b390 643e 0f99 47b9
000000f0: b57e 1987 2829 a9bb 1a9b 27b8 95b2 1db9

weight f4 [1, 64]
3.35687e-40 -4.9940736e-28 -0.1860914 1.0710367 0.48323268 1.33828e-40 0.014950573 0.028162178
-0.17302476 0.09309084 3.70108e-40 0.081127115 1.52194e-40 -0.2872172 1.7439e-40 0.055059344
-0.017467702 0.019362196 0.37312528 1.49131e-39 2.1519904 -2.98572e-40 0.630873 0.05066215
4.15676e-31 -1.92349e-40 3.30048e-40 0.3152709 -1.0608085 0.24268089 0.024954984 1.8926e-40
0.00669202 -3.36104e-40 -0.03171607 -1.60524e-40 1.164161 0.00415051 -0.80716246 0.027009979
0.61594033 0.075508706 0.17020616 0.05463343 0.30602106 -6.8002e-41 -2.391185e-12 0.041185964
-0.0009517843 0.042496372 0.1509764 -0.003988363 -0.26345235 -0.9377436 0.33976546 0.0030096117
0.35271874 -0.97132945 -0.44621918 0.062484205 1.12792016e-07 0.016843028 0.1613648 -0.03358611
00000000: c2a7 0300 bd44 1e92 be8e 3ebe bb17 893f
00000010: 466a f73e 0f75 0100 40f3 743c 5eb4 e63c
00000020: 672d 31be 69a6 be3d b607 0400 f925 a63d
00000030: 41a8 0100 220e 93be 21e6 0100 e885 613d
00000040: 6d18 8fbc 789d 9e3c 470a bf3e 2a3d 1000
00000050: 36ba 0940 4c40 0380 e580 213f 1d83 4f3d
00000060: 03e5 060d 3118 0280 0a98 0300 306b a13e
00000070: 93c8 87bf 5781 783e 656e cc3c 940f 0200
00000080: bc48 db3b eca8 0380 b6e8 01bd 7abf 0180
00000090: 3a03 953f 0001 883b 33a2 4ebf 0844 dd3c
000000a0: 44ae 1d3f 4fa4 9a3d 864a 2e3e 4ec7 5f3d
000000b0: cbae 9c3e 90bd 0080 c243 28ac 9db2 283d
000000c0: 2a81 79ba ad10 2e3d 8f99 1a3e d0b0 82bb
000000d0: 3ae3 86be f70f 70bf bdf5 ad3e e83c 453b
000000e0: 8d97 b43e 0ca9 78bf d776 e4be 70ef 7f3d
000000f0: 1138 f233 64fa 893c d03c 253e 9791 09bd

weight f4 [1, 64]
-0.031999506 -4.0367e-41 0.40140742 0.061195932 -0.036963817 -0.014159261 0.010080311 0.055318158
-0.092766434 0.029491892 0.014120703 -0.0010608386 -0.019730963 -0.030785 0.029993238 0.029371232
-0.067382894 -2.3894101e-05 0.15064557 0.0034237637 0.42059815 9.3098715e-05 0.020215092 -0.008706218
-0.0011448335 -0.013270464 -9.769487e-06 0.14784737 -0.09222309 0.096409574 0.1577274 0.013769497
0.035706706 -1.7930195e-07 -0.013635207 9.467777e-16 0.022946041 0.008902187 -0.06851208 0.037439335
-0.15254211 0.12519538 -0.02158856 0.014417708 0.014997287 0.027952766 -1.331103e-05 0.11369053
0.014742511 -0.024945829 -0.045422003 -0.00012322175 0.16916052 -0.075807646 -0.05594097 -0.0024646777
-0.058085587 -0.07938066 -0.07296271 -0.022353794 -0.005155863 0.022946663 0.04009575 0.037169505
00000000: ea11 03bd 8770 0080 4685 cd3e 96a8 7a3d
00000010: 5f67 17bd 3ffc 67bc e427 253c 4b95 623d
00000020: 54fc bdbd fb98 f13c 855a 673c d60b 8bba
00000030: d4a2 a1bc d330 fcbc 61b4 f53c f09b f03c
00000040: 0b00 8abd 3170 c8b7 d542 1a3e 3961 603b
00000050: a458 d73e fe3d c338 1f9a a53c 86a4 0ebc
00000060: 3d0e 96ba 5c6c 59bc a1e7 23b7 4d65 173e
00000070: 76df bcbd 6272 c53d 4b83 213e 7599 613c
00000080: 3241 123d 2586 40b4 3466 5fbc ef71 8826
00000090: 56f9 bb3c 7bda 113c 1050 8cbd fd59 193d
000000a0: 0034 1cbe 3833 003e 7eda b0bc 4038 6c3c
000000b0: 2eb7 753c 33fd e43c 7052 5fb7 95d6 e83d
000000c0: 938a 713c 325b ccbc 6c0c 3abd 1635 01b9
000000d0: 6a38 2d3e 0a41 9bbd 5c22 65bd 6e86 21bb
000000e0: 27eb 6dbd 5492 a2bd 796d 95bd 4e1f b7bc
000000f0: 83f2 a8bb a4fa bb3c 713b 243d 0d3f 183d

weight f4 [1, 64]
-0.07731429 -0.11918506 0.11480315 -0.111313894 -0.050782353 0.011906609 -0.07670726 0.03622754
0.106998265 -0.011282563 -0.061257437 -0.050713897 0.003990099 0.10202718 -0.12325406 0.09527004
-0.05906132 0.0022390932 0.056107074 -0.07143131 -0.081072494 -0.093212515 -0.03442712 0.10104713
0.12147164 0.0064076185 0.02634281 -0.0876919 -0.02942817 0.028105468 0.04474774 0.010494992
-0.040902928 0.05607064 0.022400513 -0.03215243 -0.025687322 0.03142889 0.118155584 -0.08541641
0.1127927 -0.0051711053 -0.11671421 -0.035681516 -0.110624835 -0.009672388 -0.0052642375 -0.10384683
0.0004938692 -0.08732079 0.09982526 0.021628603 0.079997316 0.06038958 0.0034303367 0.060733482
0.079790205 -0.021194085 0.036601752 -0.12115857 -0.012673572 -0.058086887 -0.044695348 -0.014047384
00000000: f456 9ebd 4c17 f4bd ea1d eb3d 8af8 e3bd
00000010: 2801 50bd f013 433c b218 9dbd 5463 143d
00000020: e821 db3d 80da 38bc 14e9 7abd 60b9 4fbd
00000030: 60bf 823b a0f3 d03d a06c fcbd f01c c33d
00000040: 48ea 71bd c0bd 123b 88d0 653d 944a 92bd
00000050: 5609 a6bd 34e6 bebd 7403 0dbd ccf1 ce3d
00000060: 20c6 f83d 00f7 d13b e0cc d73c d097 b3bd
00000070: 5813 f1bc 703d e63c 6849 373d 30f3 2b3c
00000080: d489 27bd 54aa 653d 4881 b73c 44b2 03bd
00000090: 386e d2bc 94bb 003d 8efb f13d ccee aebd
000000a0: dcff e63d 6072 a9bb dc07 efbd c826 12bd
000000b0: 468f e2bd f078 1ebc a07f acbb a6ad d4bd
000000c0: 0077 013a 3ed5 b2bd 3071 cc3d 782e b13c
000000d0: a2d5 a33d 105b 773d 80cf 603b acc3 783d
000000e0: 0c69 a33d 389f adbc b8eb 153d fc21 f8bd
000000f0: d0a4 4fbc 84ec 6dbd 7812 37bd 0027 66bc

weight f4 [1, 64]
-0.070277005 0.12045607 0.07115413 -0.054338276 -0.05200629 0.04066342 0.115411356 -0.094607145
0.07552497 -0.056154206 -0.08471222 0.07963131 0.11869103 -0.07907942 -0.096400306 -0.050814584
-0.12322517 0.045211345 -0.0870758 0.03451176 -0.09646058 0.022388458 0.07549256 -0.07574649
0.053375393 -0.006416887 -0.0025557727 -0.10935369 -0.07277548 -0.047681943 0.103050515 -0.113233745
-0.11594032 0.1111566 0.034285918 -0.021556765 0.051542103 0.10346332 0.09033321 0.049816817
0.09395255 0.079349875 -0.06960188 -0.02464515 -0.10779394 -0.02477163 0.035195425 0.06610769
-0.023359582 -0.07161437 -0.080525726 -0.070028126 0.0029743165 -0.111716285 0.014521867 -0.018448994
-0.12140241 -0.013804004 0.020242125 0.045819595 -0.105199575 -0.040926307 -0.065074295 0.09885204
00000000: 64ed 8fbd acb1 f63d 42b9 913d d091 5ebd
00000010: 8c04 55bd b08e 263d ca5c ec3d 64c1 c1bd
00000020: d6ac 9a3d f401 66bd 9a7d adbd be15 a33d
00000030: 4814 f33d 64f4 a1bd 866d c5bd f422 50bd
00000040: 7a5d fcbd 882f 393d cc54 b2bd 345c 0d3d
00000050: 208d c5bd 0068 b73c d89b 9a3d fa20 9bbd
00000060: 28a0 5a3d c044 d2bb c07e 27bb d4f4 dfbd
00000070: 500b 95bd 244e 43bd 260c d33d 18e7 e7bd
00000080: 1e72 edbd 12a6 e33d 646f 0c3d d097 b0bc
00000090: d01d 533d 94e4 d33d 9e00 b93d b80c 4c3d
000000a0: 326a c03d 3082 a23d 6e8b 8ebd a0e4 c9bc
000000b0: 12c3 dcbd e0ed cabc 1429 103d 7863 873d
000000c0: 985c bfbc 8eaa 92bd acea a4bd e86a 8fbd
000000d0: c0ec 423b 82cb e4bd 20ed 6d3c 5822 97bc
000000e0: d4a1 f8bd 302a 62bc d0d2 a53c 54ad 3b3d
000000f0: e072 d7bd 58a2 27bd ac45 85bd f072 ca3d
