pth/VIScaler_test1_192_loss_2.0575263500213623.pth (torch, 42658 bytes, 10 tensors)

weight f4 [64, 3]
0	0x9ec59cbe	-2.0923013e-20
1	0x800a793c	-9.61846e-40
2	0x8006fba9	-6.41292e-40
3	0xbb5e3d04	-0.003391088
4	0xbc071728	-0.008245267
5	0xba3a935f	-0.0007117297
6	0xbae16812	-0.0017197153
7	0xb831cece	-4.239269e-05
8	0x8007f1a3	-7.29531e-40
9	0xa984d12d	-5.898264e-14
10	0x80155ed1	-1.962559e-39
11	0x000fa67d	1.437257e-39
12	0x3d381f10	0.0449515
13	0xbeb06918	-0.3445518
14	0xbd367f10	-0.04455477
15	0xbc472aae	-0.012156172
16	0xbb840cbc	-0.0040298384
17	0xbb0668a1	-0.002050914
18	0x3d14ef57	0.036361065
19	0xbdf693b5	-0.12039892
20	0xbebe84b5	-0.37210622
21	0x3dec8da1	0.11550451
22	0xbd91ccfa	-0.07119174
23	0x3e195cdb	0.14976828
24	0xbb1b64f1	-0.0023711289
25	0x3c7cf2c1	0.015438736
26	0xbd69e7d6	-0.05710586
27	0xbc04c90e	-0.008104576
28	0xbb18eedb	-0.0023335728
29	0xb8b2897b	-8.513309e-05
30	0xbb533f10	-0.0032233633
31	0xb9086d7b	-0.00013010755
32	0x14606392	1.1328747e-26
33	0xb490d55a	-2.6977324e-07
34	0x938018eb	-3.2336314e-27
35	0x00074a1e	6.69437e-40
36	0xb389dc2e	-6.41961e-08
37	0xab04ebe0	-4.7223163e-13
38	0x80018aff	-1.41698e-40
39	0x3b061693	0.0020460233
40	0x3aeac723	0.001791213
41	0xbbaf79cf	-0.005355097
42	0x3e28b9a9	0.16477074
43	0x3b8699dc	0.004107697
44	0x3e5e2678	0.21694362
45	0x3dce5688	0.10075098
46	0xbcbe4def	-0.023230521
47	0xbf2d61eb	-0.67727536
48	0x3e8b47ff	0.27203366
49	0x3bdc9bc1	0.0067324345
50	0x3f811677	1.0084981
51	0xbab4a7a1	-0.0013782867
52	0x389598bf	7.133325e-05
53	0xb91f2039	-0.00015175426
54	0xbdcc3bcf	-0.09972345
55	0xbd5e3dcc	-0.054258153
56	0x3e0c074c	0.13674659
57	0xbacfc957	-0.0015852851
58	0xbb709f1b	-0.0036715928
59	0xb9d6e445	-0.00040987335
60	0xb622aec5	-2.424161e-06
61	0xaf41676d	-1.7589992e-10
62	0x8012346c	-1.671844e-39
63	0xb9b637b1	-0.00034755238
64	0xb6f907ea	-7.4216996e-06
65	0x800a4dd6	-9.46277e-40
66	0xbb03c67e	-0.0020107324
67	0x3c64b4d1	0.013959126
68	0xbc86abd4	-0.016439356
69	0x3dd55547	0.10416656
70	0xbc3adb9e	-0.0114049
71	0x3e75f338	0.24018562
72	0xb30b4e3f	-3.2434624e-08
73	0x2f8e4f2e	2.588591e-10
74	0xa27460c4	-3.3119394e-18
75	0xbaaf7063	-0.0013384934
76	0xb8aa2998	-8.113979e-05
77	0x96b46213	-2.9142462e-25
78	0xab2aa542	-6.0625474e-13
79	0x2552ed26	1.8294946e-16
80	0x80149695	-1.890729e-39
81	0x3ec4be7c	0.38426578
82	0xbe07358f	-0.13204025
83	0x3f4ed4bd	0.8079336
84	0xb8a4a18a	-7.8502184e-05
85	0x32c064b3	2.2397534e-08
86	0x00068436	5.98441e-40
87	0xb2421d6e	-1.1298978e-08
88	0x2ff8e79c	4.5275506e-10
89	0x9783bb61	-8.512978e-25
90	0xbba186c2	-0.0049293945
91	0xbc5ee903	-0.013605359
92	0x3aeeda76	0.0018223065
93	0xbd432fea	-0.047653116
94	0xbe104df9	-0.14092244
95	0x3e4fb80c	0.20285052
96	0x3b968834	0.0045938734
97	0xbc830808	-0.01599504
98	0xbc7e8a5e	-0.015535919
99	0xbb70aaf5	-0.0036722992
100	0xb98293be	-0.0002490561
101	0xafb9de04	-3.3809056e-10
102	0x3dfc06e0	0.12305999
103	0xbc80eb56	-0.015737217
104	0xbef65335	-0.48110357
105	0x3e9fac60	0.311862
106	0xbc370115	-0.011169692
107	0x3e9704b0	0.29495764
108	0x3dacce76	0.08437817
109	0xbc136d7b	-0.00899827
110	0xbff8ff0e	-1.9452837
111	0xbe7630f0	-0.24042106
112	0x3c3604f4	0.011109579
113	0x3f0aea14	0.54263425
114	0xb77a243b	-1.4909597e-05
115	0xa144e201	-6.6706497e-19
116	0x0001a726	1.51797e-40
117	0x3ecd34f2	0.40079457
118	0xbd7f52ff	-0.06233501
119	0x3f1b6687	0.6070332
120	0xacfb6ffe	-7.1462827e-12
121	0x800547c2	-4.8492e-40
122	0x8004519a	-3.96615e-40
123	0xb89e4150	-7.5461925e-05
124	0xaebc733c	-8.56972e-11
125	0x8000aa96	-6.1195e-41
126	0x3e116c9d	0.14201589
127	0xbbafdca8	-0.0053668804
128	0x3e0b0765	0.1357704
129	0xbe94ed05	-0.29087082
130	0x3e1314a8	0.14363348
131	0xbd75a66f	-0.059973177
132	0x3c172dad	0.009227199
133	0x3c32376f	0.010877474
134	0xbc47cf61	-0.012195439
135	0xa94af1ea	-4.5062837e-14
136	0x16bb2036	3.0231807e-25
137	0x00025475	2.13968e-40
138	0xbbcf5363	-0.006327079
139	0xb9ebe2eb	-0.0004499176
140	0x9d8a650e	-3.6632784e-21
141	0xb40c4216	-1.3062558e-07
142	0xa9b580f8	-8.060387e-14
143	0x8002211b	-1.95547e-40
144	0x3ef1cf51	0.47228482
145	0xbd272fa0	-0.040816903
146	0xc04d952f	-3.2122304
147	0x3af35a32	0.0018566309
148	0xbbf167e1	-0.0073671197
149	0xbbeff7ef	-0.007323257
150	0x8005a590	-5.1857e-40
151	0x8000d181	-7.5156e-41
152	0x80015952	-1.23878e-40
153	0xb9e74f11	-0.00044118662
154	0xb5d02b4b	-1.5509808e-06
155	0x800120fe	-1.03671e-40
156	0x3e1f584c	0.15561026
157	0xbe10c5e2	-0.14137986
158	0x3d93a4b0	0.07209146
159	0xbc161fbd	-0.00916284
160	0x3c097071	0.0083886245
161	0xbe40264c	-0.18764609
162	0xbb8a3955	-0.0042182603
163	0xbc681726	-0.014165675
164	0x3b699442	0.0035641347
165	0x3bca10d3	0.0061665564
166	0xbadf2e7f	-0.0017027407
167	0xc05b1f7c	-3.4237967
168	0x3edeb83f	0.43499944
169	0x3c34e6e4	0.011041377
170	0x3eadf706	0.33977526
171	0xbb0d8313	-0.002159302
172	0xbc3e55eb	-0.011617164
173	0xbe5ccafc	-0.21561807
174	0x39ec73a2	0.0004509958
175	0xb9ee62a4	-0.0004546839
176	0xbb0bed64	-0.0021351213
177	0xaebbd228	-8.541107e-11
178	0x03a4c185	9.683484e-37
179	0x00123d62	1.675059e-39
180	0x3e3499ac	0.17636746
181	0xbbed6687	-0.007244888
182	0x3ec14afc	0.3775252
183	0x9f92a399	-6.2104055e-20
184	0x80049406	-4.20443e-40
185	0x00041435	3.74591e-40
186	0xb98dea5f	-0.00027068236
187	0xb10335f6	-1.9093682e-09
188	0x8000786f	-4.3203e-41
189	0x3c46f0b2	0.012142347
190	0x3ae00066	0.0017089962
191	0xc0a00059	-5.0000424

bias f4 [64]
0	0x000e7375	1.327115e-39
1	0xbc9daeaf	-0.019248335
2	0xaf0deba3	-1.290759e-10
3	0x80012640	-1.05557e-40
4	0xbdfc8b67	-0.123312764
5	0xbaf473d1	-0.0018650239
6	0x3f066093	0.5249111
7	0xbe3be0c4	-0.1834746
8	0x3d41bf74	0.047301725
9	0xbb08b09e	-0.0020857225
10	0xb8b6495e	-8.692102e-05
11	0x800798de	-6.97687e-40
12	0x000866e2	7.71591e-40
13	0xbcb62cdd	-0.02223819
14	0xbe72efbf	-0.23724268
15	0x3f2de4c1	0.67927176
16	0xbee18941	-0.4405003
17	0xbb9b4c23	-0.004739301
18	0x3e988181	0.29786304
19	0xbca87730	-0.020564646
20	0x8005461e	-4.84331e-40
21	0xb39866e4	-7.096767e-08
22	0xbcddf42c	-0.02709397
23	0xbe2900a0	-0.16504145
24	0xab4f21ab	-7.3587897e-13
25	0xb5c38c83	-1.4569526e-06
26	0x8003310e	-2.93104e-40
27	0xbed4bb0e	-0.4154896
28	0xa8e18e03	-2.5041606e-14
29	0x987c03fc	-3.2572248e-24
30	0xbc46da8a	-0.012137065
31	0x3eda9206	0.42689532
32	0xbc96cc60	-0.018408
33	0xb9f372fa	-0.00046434236
34	0xbfa1fe52	-1.2655737
35	0xbec41212	-0.38295037
36	0xbe088b0c	-0.13334292
37	0x3f0cddb4	0.5502579
38	0x0004a961	4.28104e-40
39	0xbc5e7163	-0.013576838
40	0x8007fc67	-7.33393e-40
41	0x800509b8	-4.62664e-40
42	0xbe55da2b	-0.20884006
43	0xbd6c012f	-0.057618316
44	0xbc0d14f2	-0.008610951
45	0x000b0e6e	1.015367e-39
46	0xb811567b	-3.4651235e-05
47	0xa4e795ac	-1.00433835e-16
48	0x3f9c212b	1.2197622
49	0xbc88b5f9	-0.016688334
50	0x8002683d	-2.21065e-40
51	0xad9957f8	-1.7433152e-11
52	0xbe651fc1	-0.22375394
53	0x3f18c530	0.59675884
54	0xbc766285	-0.015038137
55	0x3ed7d4ea	0.42154628
56	0xbe900d70	-0.28135252
57	0x3f040457	0.5156912
58	0xbc26d924	-0.010183606
59	0x00040a79	3.71099e-40
60	0xbe83a9be	-0.2571544
61	0x801049ba	-1.495816e-39
62	0x80041362	-3.74295e-40
63	0x3e883511	0.26602986

weight f4 [64, 64]
0	0x8002dd12	-2.62976e-40
1	0x12821bea	8.211035e-28
2	0x000a32c7	9.3657e-40
3	0x000e6853	1.323121e-39
4	0x94ff9745	-2.5808085e-26
5	0x119bfe6e	2.4611492e-28
6	0x9714e30b	-4.810795e-25
7	0x1784dbf4	8.585824e-25
8	0x16c08301	3.1101948e-25
9	0x10ef87c0	9.4478034e-29
10	0x800677b9	-5.93961e-40
11	0x02e11c4e	3.3077025e-37
12	0x800d6e6a	-1.23347e-39
13	0x973f43b4	-6.180088e-25
14	0x98ea1bef	-6.0515788e-24
15	0x98dce230	-5.709706e-24
16	0x99386e84	-9.5348955e-24
17	0x00021e91	1.94636e-40
18	0x15054a34	2.6917672e-26
19	0x1112334e	1.1533179e-28
20	0x000c6234	1.137255e-39
21	0x80ee7018	-2.189706e-38
22	0x155a5192	4.4089097e-26
23	0x1701b310	4.1908157e-25
24	0x00033c18	2.97064e-40
25	0x82078c63	-9.958523e-38
26	0x8005757f	-5.01327e-40
27	0x9938e8dd	-9.5596034e-24
28	0x800a0dfd	-9.23373e-40
29	0x000e7d1e	1.33058e-39
30	0x122acef8	5.389765e-28
31	0x95150efa	-3.0102125e-26
32	0x16bf3450	3.0890728e-25
33	0x015169e4	3.846321e-38
34	0x98d7307f	-5.5625166e-24
35	0x9936a523	-9.4425286e-24
36	0x1895e51d	3.8746943e-24
37	0x13342a98	2.2740194e-27
38	0x0002e372	2.65263e-40
39	0x993b8bab	-9.695879e-24
40	0x82d83d12	-3.17734e-37
41	0x8004e6ce	-4.50139e-40
42	0x9885c730	-3.4580822e-24
43	0x954f0892	-4.1810078e-26
44	0x1986c205	1.3933639e-23
45	0x028d05c0	2.0721388e-37
46	0x811f37c0	-2.9243686e-38
47	0x8002ef43	-2.69502e-40
48	0x995d47f7	-1.14399654e-23
49	0x95f19d1c	-9.7587e-26
50	0x8001dc90	-1.70958e-40
51	0x00129cb5	1.709255e-39
52	0x981a7106	-1.9961096e-24
53	0x159f2784	6.4281933e-26
54	0x13c06a90	4.8572693e-27
55	0x13976db1	3.8225923e-27
56	0x9944d1cf	-1.0175333e-23
57	0x16b2023d	2.8758864e-25
58	0x938f6e0a	-3.620678e-27
59	0x800ea0ff	-1.343451e-39
60	0x99034c16	-6.787907e-24
61	0x826705cc	-1.6972863e-37
62	0x01a0eb90	5.9112733e-38
63	0x131e9bb0	2.0019164e-27
64	0x01b96bf8	6.8113195e-38
65	0x0124568c	3.0184137e-38
66	0x000fba05	1.444264e-39
67	0x0334677f	5.3016053e-37
68	0x00056d31	4.98348e-40
69	0x0000cd05	7.3547e-41
70	0x0004cdd4	4.41179e-40
71	0x8000b1ab	-6.3735e-41
72	0x0001f531	1.79794e-40
73	0x0006c3d3	6.21261e-40
74	0x80001c1f	-1.0088e-41
75	0x0006e8b1	6.34487e-40
76	0x815e755c	-4.0859162e-38
77	0x8004d601	-4.44112e-40
78	0x80075d12	-6.76236e-40
79	0x80065770	-5.8238e-40
80	0x800c8188	-1.148493e-39
81	0x80021a84	-1.93183e-40
82	0x80096c64	-8.65403e-40
83	0x0003db82	3.54251e-40
84	0x01060566	2.4615786e-38
85	0x818868a8	-5.0108684e-38
86	0x8009b177	-8.90182e-40
87	0x80028a9d	-2.33396e-40
88	0x81242f9e	-3.0156206e-38
89	0x02a56443	2.4302118e-37
90	0x800db250	-1.257828e-39
91	0x80097451	-8.68246e-40
92	0x80023d2d	-2.05617e-40
93	0x0008b300	7.98897e-40
94	0x820ab074	-1.0189278e-37
95	0x801314ac	-1.75229e-39
96	0x02ee6a90	3.503212e-37
97	0x81e10cdc	-8.26704e-38
98	0x000b36ca	1.029845e-39
99	0x800ee076	-1.366218e-39
100	0x000825f1	7.48295e-40
101	0x000c6f4c	1.141952e-39
102	0x82351e70	-1.3306515e-37
103	0x800b0e73	-1.015374e-39
104	0x80050549	-4.61073e-40
105	0x82db4068	-3.2216125e-37
106	0x80063902	-5.71464e-40
107	0x00018848	1.40724e-40
108	0x8004420a	-3.91032e-40
109	0x800a3236	-9.36367e-40
110	0x8010dc08	-1.5483e-39
111	0x0310968a	4.2490607e-37
112	0x8f9dfa49	-1.5577802e-29
113	0x00ad0af0	1.5891464e-38
114	0x0001439b	1.16088e-40
115	0x82a88b7c	-2.4765441e-37
116	0x800414b5	-3.7477e-40
117	0x0011a8f1	1.621808e-39
118	0x8002f8d7	-2.72938e-40
119	0x00150d14	1.933237e-39
120	0x80135516	-1.775398e-39
121	0x00094f94	8.55067e-40
122	0x0006752c	5.93046e-40
123	0x000a4d0e	9.45997e-40
124	0x8007ce8d	-7.16945e-40
125	0x830cfe90	-4.1434526e-37
126	0x800397b4	-3.29927e-40
127	0x0002048b	1.85301e-40
128	0x0005b3bc	5.23654e-40
129	0x87eb54b0	-3.5408645e-34
130	0x01645434	4.19374e-38
131	0x800a7173	-9.59053e-40
132	0x0b287a8b	3.2447814e-32
133	0x8108e14c	-2.5140898e-38
134	0x0ca24050	2.4998759e-31
135	0x080fe704	4.3304055e-34
136	0x88afefae	-1.0588778e-33
137	0x01a17258	5.9306135e-38
138	0x800a4a2d	-9.44964e-40
139	0x8338d231	-5.431403e-37
140	0x8003729a	-3.16618e-40
141	0x0721ef16	1.2182555e-34
142	0x8a9ccd4d	-1.5099479e-32
143	0x9e14421d	-7.848727e-21
144	0xa1ed0a9d	-1.6062554e-18
145	0x0232152f	1.3083454e-37
146	0x892b5912	-2.0625257e-33
147	0x87ac676b	-2.5940467e-34
148	0x8004bab6	-4.34321e-40
149	0x827c5088	-1.8537147e-37
150	0x077ff9d2	1.9257483e-34
151	0x07fd46b4	3.8108765e-34
152	0x822cce36	-1.2695744e-37
153	0x0288dab0	2.0108924e-37
154	0x824cbc49	-1.5041588e-37
155	0xaca31d96	-4.6360233e-12
156	0x810d34d4	-2.5935512e-38
157	0x00095c48	8.59624e-40
158	0x875dada2	-1.6677218e-34
159	0x8a031e28	-6.313092e-33
160	0x07d03d94	3.1332554e-34
161	0x0001d60a	1.68618e-40
162	0x88261d4d	-4.998825e-34
163	0xa56f17b8	-2.0737982e-16
164	0x08ec5e76	1.4225941e-33
165	0x893a0918	-2.2393211e-33
166	0x81bbabbc	-6.893938e-38
167	0xb01975d3	-5.5828514e-10
168	0x029aed93	2.2764627e-37
169	0x824c4544	-1.5007431e-37
170	0x86fe67a5	-9.569647e-35
171	0x088576ac	8.032546e-34
172	0x0006320e	5.68969e-40
173	0x022eb27f	1.2834727e-37
174	0x04117e50	1.7102668e-36
175	0x8007bc0a	-7.10304e-40
176	0xb412e11a	-1.3679201e-07
177	0x880ce166	-4.239467e-34
178	0x800428fd	-3.82046e-40
179	0x01897bf2	5.0503705e-38
180	0x8891a013	-8.764503e-34
181	0x8b0ee99a	-2.7523947e-32
182	0x88107b36	-4.3478258e-34
183	0x07d2cd18	3.1717831e-34
184	0xaf3a587f	-1.6948042e-10
185	0x8a4b5b52	-9.79127e-33
186	0x821ff19b	-1.1750812e-37
187	0x000149d6	1.18323e-40
188	0x0c3d3556	1.457608e-31
189	0x81b1f198	-6.53662e-38
190	0x8006291e	-5.65763e-40
191	0x07629169	1.7045082e-34
192	0x00bf9720	1.7594793e-38
193	0x2eaae3b8	7.771156e-11
194	0x009a9128	1.4194739e-38
195	0x825760d8	-1.5823498e-37
196	0x3323cc0a	3.8136967e-08
197	0x2e951c9c	6.7808176e-11
198	0xb695ae79	-4.4608573e-06
199	0xba9be941	-0.0011895077
200	0x31e40b6b	6.6369714e-09
201	0x2102e170	4.4344077e-19
202	0x8011f5c1	-1.649363e-39
203	0x8002faca	-2.73637e-40
204	0x81dda18a	-8.1414376e-38
205	0x32cd9ec1	2.3937334e-08
206	0xbb44989f	-0.0029998196
207	0xbb0422be	-0.002016231
208	0xbba61266	-0.0050681112
209	0x017943e4	4.5782786e-38
210	0xb2866db9	-1.564955e-08
211	0x2a3b5a70	1.6640313e-13
212	0x8179a5c0	-4.5852997e-38
213	0x82bac656	-2.7444083e-37
214	0x2da78f80	1.9049429e-11
215	0xba9de960	-0.0012047701
216	0x194d1a3d	1.060355e-23
217	0x82db2c56	-3.2204605e-37
218	0x82a58ec8	-2.4326523e-37
219	0xbbcbcbd9	-0.006219369
220	0x81dbe7ec	-8.0780686e-38
221	0x8265a97c	-1.6872903e-37
222	0xb1a5226f	-4.8060467e-09
223	0xb1c99c66	-5.8676504e-09
224	0xb1c9e0cb	-5.875426e-09
225	0x02b5474e	2.6636487e-37
226	0xba08ced3	-0.00052188075
227	0xbbb88797	-0.005631398
228	0xba20c993	-0.00061335525
229	0x3084feef	9.67672e-10
230	0x830d67d3	-4.155536e-37
231	0xbbdb9301	-0.006700874
232	0x8004c36c	-4.37446e-40
233	0x00067d28	5.9591e-40
234	0xbb19e6fb	-0.0023483622
235	0xb202932c	-7.600459e-09
236	0xb3aa3488	-7.925797e-08
237	0x02191164	1.1245656e-37
238	0x0290c762	2.1273338e-37
239	0x8008eb78	-8.19154e-40
240	0xbbfad0bf	-0.007654279
241	0x308395ba	9.574059e-10
242	0x00062329	5.63626e-40
243	0x029714c4	2.2199375e-37
244	0xbb01633b	-0.0019742984
245	0xb21f5e26	-9.276425e-09
246	0xae0f7fc0	-3.26279e-11
247	0x3390011e	6.705726e-08
248	0xbbe5c679	-0.007012185
249	0x31623c44	3.2921585e-09
250	0x2bb83e8c	1.3091347e-12
251	0x0002331a	2.02003e-40
252	0xbb5394eb	-0.0032284807
253	0x03094ba0	4.0347495e-37
254	0x0012137b	1.660027e-39
255	0x33d3cad7	9.8623495e-08

bias f4 [64]
0	0x985eb821	-2.8785789e-24
1	0x80033696	-2.95088e-40
2	0xa34dcaca	-1.11560145e-17
3	0xb77ddb79	-1.5131075e-05
4	0xbde19882	-0.11015417
5	0xbd02631f	-0.03183281
6	0x13d60c02	5.4033035e-27
7	0x000bf26a	1.097152e-39
8	0x3f18cb30	0.5968504
9	0x8006895f	-6.00292e-40
10	0xab9a1bdf	-1.0950094e-12
11	0xbb0d15c8	-0.0021527875
12	0xbc551ab7	-0.013006858
13	0xb38d5089	-6.5804734e-08
14	0x8416d7e0	-1.773154e-36
15	0xb2883018	-1.5854354e-08
16	0x0000eb99	8.4517e-41
17	0x80057b91	-5.03505e-40
18	0x1ab910f8	7.654162e-23
19	0x0000e8ec	8.3557e-41
20	0xbe2b3466	-0.16719207
21	0xb0a24153	-1.1805618e-09
22	0x9ed7b50a	-2.2838886e-20
23	0x3f150567	0.5821137
24	0xbb964ffc	-0.0045871716
25	0xbbae0498	-0.005310606
26	0x80048105	-4.13625e-40
27	0xbd0010f8	-0.031266183
28	0xb71679dc	-8.969069e-06
29	0x3f67bd79	0.9052349
30	0xb04092b6	-7.005768e-10
31	0xbc6cdb47	-0.014456577
32	0xa69ae0c4	-1.0746819e-15
33	0xbbd031dc	-0.0063536
34	0xb8a6beeb	-7.951058e-05
35	0x800893fd	-7.87772e-40
36	0x06afd8eb	6.6146416e-35
37	0x8005a3f6	-5.17996e-40
38	0xbcd8c67f	-0.026461838
39	0xa80897bb	-7.582418e-15
40	0xbda0bd0a	-0.07848556
41	0xbe8d6851	-0.2761865
42	0xa25f5f2f	-3.0272525e-18
43	0x3f4110f5	0.754165
44	0xbe655f0a	-0.22399536
45	0x8005bc18	-5.26653e-40
46	0xbca4c5fc	-0.020113938
47	0xbebc812b	-0.36817297
48	0xbaceada2	-0.0015768299
49	0x3e92c6c6	0.28667277
50	0xa904aba4	-2.9458762e-14
51	0xb66292ad	-3.3762e-06
52	0x3f8a8532	1.0821898
53	0x3da419a6	0.080127046
54	0x03a7af88	9.855678e-37
55	0x3ea7319d	0.3265504
56	0xb60e274a	-2.1182518e-06
57	0xbc9aae62	-0.01888198
58	0x291d401d	3.4916612e-14
59	0x8bfd3314	-9.752891e-32
60	0xb6ff4fb1	-7.6088695e-06
61	0xbbbc158a	-0.0057398723
62	0xbe4bd205	-0.19904335
63	0xbcaea76c	-0.021320067

weight f4 [64, 64]
0	0x8f8491af	-1.307232e-29
1	0x8285a830	-1.9639128e-37
2	0x80056e30	-4.98705e-40
3	0x02826bcb	1.9163653e-37
4	0xb4e0f7e1	-4.1903607e-07
5	0x0001ee22	1.77261e-40
6	0x02585060	1.589224e-37
7	0x01b8249c	6.7643457e-38
8	0xb6cf2eb8	-6.1745195e-06
9	0x80015133	-1.20964e-40
10	0x037a453e	7.3547883e-37
11	0xb6a2538f	-4.8377037e-06
12	0xb66e8a88	-3.55454e-06
13	0x00070c08	6.47164e-40
14	0x8003138d	-2.8252e-40
15	0x0000c82f	7.1812e-41
16	0x81c08904	-7.072627e-38
17	0x0005b859	5.25309e-40
18	0x964d0764	-1.65621e-25
19	0x800738e3	-6.63256e-40
20	0xb57bcab8	-9.379978e-07
21	0x82442638	-1.4410774e-37
22	0x82789f38	-1.8265856e-37
23	0xb6e17c4a	-6.7199917e-06
24	0x8001304c	-1.09161e-40
25	0x1988c25a	1.4140568e-23
26	0x0006a779	6.11091e-40
27	0x00241a24	3.315455e-39
28	0x02c6f1e1	2.9232317e-37
29	0xb658adbe	-3.228764e-06
30	0x8341a523	-5.690717e-37
31	0x000d8bc8	1.244006e-39
32	0x0000570d	3.1228e-41
33	0xa42cf822	-3.750673e-17
34	0x001572a1	1.969667e-39
35	0x028cfce6	2.0716308e-37
36	0x0003dc0f	3.54449e-40
37	0x00065f50	5.85205e-40
38	0x34275864	1.5585243e-07
39	0x820d19e4	-1.0366474e-37
40	0x30b53000	1.3183126e-09
41	0x356b5bfb	8.767817e-07
42	0x00010f30	9.7284e-41
43	0xb7be493b	-2.2683866e-05
44	0xb49b5d98	-2.8939098e-07
45	0x0009dfb7	9.06773e-40
46	0x01521d50	3.859194e-38
47	0xb6117b0e	-2.167831e-06
48	0x8013cc14	-1.818084e-39
49	0xb7f6a15f	-2.940063e-05
50	0x00052d11	4.75344e-40
51	0x8009f2e4	-9.13652e-40
52	0xb6bd26e2	-5.6371655e-06
53	0xb650bb65	-3.1103493e-06
54	0x80017a72	-1.3576e-40
55	0xb796e201	-1.7986635e-05
56	0x8000d2c5	-7.561e-41
57	0x20810ec5	2.1863224e-19
58	0x00075b7e	6.7567e-40
59	0x000abf7c	9.87047e-40
60	0x02520fa2	1.543285e-37
61	0x000589c3	5.08597e-40
62	0x355f20a0	8.312145e-07
63	0x3466ecbc	2.1506543e-07
64	0x81c3e442	-7.195922e-38
65	0x8006e58c	-6.33359e-40
66	0x850e11f7	-6.6801075e-36
67	0x833fb4cf	-5.6337413e-37
68	0xb92744ae	-0.00015951946
69	0xa2f36f16	-6.59829e-18
70	0x80019364	-1.44709e-40
71	0x82d1870e	-3.0787308e-37
72	0xb8a71bb9	-7.968344e-05
73	0x800710c8	-6.48868e-40
74	0x0006043d	5.52533e-40
75	0xb88bdc81	-6.6691086e-05
76	0x35188cc2	5.682924e-07
77	0x02b2a09e	2.624694e-37
78	0x800530c3	-4.7667e-40
79	0x8290c3aa	-2.1271204e-37
80	0x8002223b	-1.9595e-40
81	0x0128c8d8	3.1000825e-38
82	0x1788249d	8.7980365e-25
83	0x000a3164	9.36073e-40
84	0xba2eb697	-0.0006664781
85	0x816715ea	-4.2443722e-38
86	0x0058a5c3	8.140988e-39
87	0xb9125e9b	-0.00013958888
88	0x80243eba	-3.32858e-39
89	0x97e896ec	-1.5030747e-24
90	0x80044199	-3.90874e-40
91	0xb8838cdf	-6.272806e-05
92	0x0003e4e9	3.57624e-40
93	0x3a26e8dc	0.0006367096
94	0x800187cb	-1.40549e-40
95	0x00059c84	5.15325e-40
96	0x800325fd	-2.89134e-40
97	0xb6c20478	-5.782171e-06
98	0x0005437b	4.83385e-40
99	0x0001fd95	1.82804e-40
100	0x822f85da	-1.2895383e-37
101	0x80083401	-7.5334e-40
102	0xba424630	-0.00074109714
103	0x000742af	6.6677e-40
104	0xbab80eaf	-0.0014042462
105	0xbb4fa862	-0.0031686057
106	0x0002d320	2.59408e-40
107	0xb887ba9d	-6.472061e-05
108	0xbb166dff	-0.0022953746
109	0x80083fe9	-7.5761e-40
110	0x00099b3d	8.82208e-40
111	0xbba29db2	-0.0049626464
112	0x8012b939	-1.719484e-39
113	0x3615ac56	2.2303043e-06
114	0x023c155e	1.3818191e-37
115	0x800ee80d	-1.368941e-39
116	0xb97b768e	-0.0002398139
117	0x37964bab	1.7916629e-05
118	0x8006198e	-5.6018e-40
119	0x38994a1f	7.309415e-05
120	0x800a8088	-9.64463e-40
121	0x0946b400	2.3918019e-33
122	0x8007b947	-7.09313e-40
123	0x00049f6d	4.24533e-40
124	0x842afdab	-2.0099883e-36
125	0x0008d47c	8.10909e-40
126	0xbb658f93	-0.0035028204
127	0xb964e4b5	-0.00021828974
128	0x820a36cc	-1.0154365e-37
129	0x80000d8a	-4.857e-42
130	0x8002cf4f	-2.5804e-40
131	0x02b04722	2.5901704e-37
132	0xba203904	-0.00061120116
133	0x0004cec5	4.41517e-40
134	0x8007036c	-6.44076e-40
135	0x812f0184	-3.214351e-38
136	0xba7a720d	-0.0009553738
137	0x000a0616	9.20538e-40
138	0x0005f7b4	5.48037e-40
139	0xb9213b2f	-0.00015376204
140	0xb8cdfd69	-9.822363e-05
141	0x02328c00	1.3117553e-37
142	0x800b718e	-1.050926e-39
143	0x01718080	4.4356903e-38
144	0x0298665e	2.2393149e-37
145	0x00038a4a	3.25115e-40
146	0x80023b96	-2.05046e-40
147	0x800e873f	-1.334214e-39
148	0xbb194f4d	-0.0023393214
149	0x800503a0	-4.60478e-40
150	0x81c90d0c	-7.385446e-38
151	0xbaac07db	-0.00131249
152	0x003196e4	4.554069e-39
153	0x80206c00	-2.977479e-39
154	0x00119dc8	1.617805e-39
155	0x809ee655	-1.4592636e-38
156	0x810ab010	-2.5472916e-38
157	0xbbba2917	-0.005681168
158	0x02fc405e	3.7065017e-37
159	0x80124c8f	-1.680503e-39
160	0x02f059b4	3.5316318e-37
161	0x829a7b56	-2.2699058e-37
162	0x0003a2a3	3.3385e-40
163	0x8004e0a1	-4.47924e-40
164	0x81c41a4e	-7.2036774e-38
165	0x8008f622	-8.2298e-40
166	0xbab7c6a1	-0.0014020988
167	0x033cf184	5.552548e-37
168	0xbae853a5	-0.0017725123
169	0xbb073f38	-0.0020637047
170	0x81c189e2	-7.1094855e-38
171	0xb38220be	-6.0595525e-08
172	0xbafdcac0	-0.0019362792
173	0x0005eac4	5.43396e-40
174	0x000461d8	4.02442e-40
175	0xbab7c3ca	-0.0014020142
176	0x02b569e8	2.6656347e-37
177	0x9147a188	-1.5748108e-28
178	0x02a0df7c	2.363816e-37
179	0x80060cc5	-5.55594e-40
180	0xbc1a7f56	-0.009429773
181	0xb3b0ed0f	-8.2387594e-08
182	0x0007ce1c	7.16787e-40
183	0x915c195e	-1.7362757e-28
184	0x800aced6	-9.92554e-40
185	0x81b0aadc	-6.489736e-38
186	0x02232f70	1.1988963e-37
187	0x800c36a8	-1.121633e-39
188	0x8126f180	-3.0662652e-38
189	0x80052b2a	-4.74662e-40
190	0xbb01369f	-0.0019716395
191	0xbaa3c171	-0.0012493563
192	0x800cc2a1	-1.171846e-39
193	0x80065554	-5.81623e-40
194	0x000b0e1d	1.015253e-39
195	0x82d9dfa4	-3.2013648e-37
196	0xa3a13cf4	-1.748147e-17
197	0x80019ba1	-1.47665e-40
198	0x0001a30b	1.50324e-40
199	0x029619bd	2.2055292e-37
200	0xb0bd5b4e	-1.377751e-09
201	0x8005785d	-5.02356e-40
202	0x820ebc67	-1.0486581e-37
203	0x800625b1	-5.64534e-40
204	0x000a664d	9.55054e-40
205	0x80043540	-3.86444e-40
206	0x0251b22a	1.5406026e-37
207	0x81c072e4	-7.069452e-38
208	0x00032739	2.89577e-40
209	0x0004e530	4.49559e-40
210	0x00007c91	4.4686e-41
211	0x80003388	-1.8486e-41
212	0xb40557ff	-1.2418603e-07
213	0x8005a722	-5.19133e-40
214	0x0289161a	2.0143026e-37
215	0xb0c6201f	-1.4415525e-09
216	0x0330415c	5.179678e-37
217	0x820e96ec	-1.0475825e-37
218	0x00001724	8.301e-42
219	0x00060fad	5.56636e-40
220	0x00025f34	2.17823e-40
221	0xb7026c19	-7.773772e-06
222	0x000645b0	5.76012e-40
223	0x000f735d	1.418917e-39
224	0x0002dc09	2.62605e-40
225	0x800100be	-9.2102e-41
226	0x0004229a	3.79755e-40
227	0x01ca7d08	7.438249e-38
228	0x00044c97	3.94817e-40
229	0x80098e2c	-8.77521e-40
230	0xaf2352c3	-1.4854167e-10
231	0x80072571	-6.5628e-40
232	0xb1df73f3	-6.503336e-09
233	0xb8edd0f7	-0.000113399634
234	0x80053a24	-4.80034e-40
235	0x9fc4555e	-8.315046e-20
236	0xb4b642d3	-3.3948763e-07
237	0x000d7369	1.235263e-39
238	0x80020124	-1.8408e-40
239	0xbac38978	-0.0014918288
240	0x0001760b	1.34181e-40
241	0x00039358	3.28363e-40
242	0x82d1cc3e	-3.082702e-37
243	0x800c1273	-1.108644e-39
244	0xb907b706	-0.00012942785
245	0x00050932	4.62476e-40
246	0x80052e31	-4.75748e-40
247	0x000648ea	5.7717e-40
248	0x0007199e	6.52038e-40
249	0x8000f9e8	-8.965e-41
250	0x000200db	1.83978e-40
251	0x800c2947	-1.116833e-39
252	0x800043a0	-2.4259e-41
253	0x83087e65	-4.01119e-37
254	0xb8ffb7c7	-0.00012193579
255	0x8004ccdb	-4.4083e-40

bias f4 [64]
0	0xb6aa95a8	-5.083817e-06
1	0xb8d803ac	-0.000103003666
2	0xb9cced52	-0.0003908673
3	0xaaa047c3	-2.8471504e-13
4	0x000498ce	4.22158e-40
5	0xb493d477	-2.7535472e-07
6	0xbd8f306b	-0.06991657
7	0x936bba40	-2.9752998e-27
8	0x3e0872ea	0.13325086
9	0xbc8afd45	-0.016966471
10	0x80013cbc	-1.13623e-40
11	0x0003b20a	3.39375e-40
12	0x9bf32370	-4.0223879e-22
13	0xbd31dc49	-0.04342297
14	0xb6ce32a9	-6.145176e-06
15	0x8e8f4435	-3.5317903e-30
16	0xbed302be	-0.4121303
17	0x00026206	2.18835e-40
18	0x849d6b7b	-3.7009228e-36
19	0xba80c9fe	-0.0009825823
20	0xab4d8d3d	-7.302664e-13
21	0xb75a7548	-1.3021119e-05
22	0xbbbaf3a2	-0.005705313
23	0x9a902363	-5.9614174e-23
24	0x014ca342	3.7586014e-38
25	0xb96d87d6	-0.00022652684
26	0xb8f38aa8	-0.0001161297
27	0xbba1f1e1	-0.0049421643
28	0x3f5f5972	0.8724586
29	0xbd4efb1f	-0.050532456
30	0x084bf65c	6.1377684e-34
31	0xbea4e829	-0.32208374
32	0x0003c02c	3.44445e-40
33	0xb913c530	-0.0001409247
34	0x9b41d789	-1.6034229e-22
35	0xb5a62476	-1.2378575e-06
36	0xbee907b3	-0.45513687
37	0x0d9b49ef	9.570411e-31
38	0x3f0ec18e	0.5576409
39	0x0f70f9be	1.1881012e-29
40	0xbc0f97ed	-0.008764249
41	0x00119301	1.613938e-39
42	0x80067a90	-5.9498e-40
43	0xbe4ec120	-0.20190859
44	0xb9558e6c	-0.00020366319
45	0xabe197a4	-1.60293e-12
46	0xb75c14b8	-1.3117846e-05
47	0x0001d26d	1.67322e-40
48	0x31d4b07f	6.1900773e-09
49	0xbeb144b6	-0.34622735
50	0xbea7e16e	-0.32789177
51	0x00094d6b	8.54292e-40
52	0xbd91b3de	-0.07114385
53	0x3f39a1d8	0.7251258
54	0xb5837d24	-9.796681e-07
55	0x8004c7be	-4.38996e-40
56	0xb4b05757	-3.2846103e-07
57	0x3f441e90	0.76609135
58	0xafb272a4	-3.2459468e-10
59	0xb5332f38	-6.675141e-07
60	0x80038fe8	-3.2713e-40
61	0xb586aaf8	-1.0033536e-06
62	0xb7184afb	-9.077364e-06
63	0x000443a3	3.91605e-40

weight f4 [1, 64]
0	0xb734beea	-1.0773287e-05
1	0xba517f2a	-0.0007991666
2	0xbac2c426	-0.0014859482
3	0xb99833fb	-0.00029030428
4	0x33cbebea	9.495837e-08
5	0xbb5b17be	-0.00334309
6	0xbcdd516a	-0.02701636
7	0x39b94c5c	0.00035342842
8	0xbef17878	-0.47162223
9	0x3b9bb577	0.004751857
10	0x232c2918	9.332841e-18
11	0xa55729c3	-1.8662427e-16
12	0xb7e11c85	-2.683537e-05
13	0x3da72439	0.08161206
14	0x36c0fe5f	5.7516586e-06
15	0xb0e2e05c	-1.6507431e-09
16	0x3faf204f	1.3681735
17	0xb7a37b5d	-1.948856e-05
18	0x392b02fe	0.00016308945
19	0x3b7fa81c	0.0039010113
20	0xbb1fe2ab	-0.002439658
21	0x3a2aba58	0.0006512753
22	0x3c79f34e	0.015255762
23	0xb9b25eac	-0.00034021342
24	0xba660643	-0.0008774737
25	0x3985889b	0.00025469516
26	0xbc23e8fb	-0.010004277
27	0xbac021d6	-0.0014658521
28	0xbf8afffd	-1.0859371
29	0x3d9c72c2	0.07639076
30	0xba7a076b	-0.00095378485
31	0xbf17378c	-0.5906913
32	0x391fe099	0.00015247091
33	0x3b5b157b	0.0033429551
34	0xb7ae41b0	-2.0773005e-05
35	0x3a5af6d3	0.000835282
36	0x3f163d5a	0.58687365
37	0x3389e974	6.4220245e-08
38	0xbf27cf1b	-0.6555039
39	0xb93b77f4	-0.00017878396
40	0xbb1df935	-0.0024104838
41	0x2b31bbdf	6.3143756e-13
42	0xb5999c0f	-1.1444807e-06
43	0x3d8c6bbb	0.068564855
44	0xb8f82a6e	-0.00011833465
45	0xb71d9d7d	-9.394597e-06
46	0xba98efb7	-0.001166812
47	0xb1bbadd0	-5.4621765e-09
48	0x332b0626	3.9819632e-08
49	0x3ec58e5d	0.38585177
50	0xbf28d562	-0.65950596
51	0x2fa3cb4c	2.9793978e-10
52	0x3dae9818	0.08525103
53	0xbf62eb3f	-0.8864021
54	0xbaf9ef51	-0.0019068514
55	0x3a1c5180	0.0005963072
56	0x3911cc04	0.0001390428
57	0xbf6f4cb9	-0.93476444
58	0x3239c970	1.0814219e-08
59	0xbb8d8444	-0.004318746
60	0x373919f7	1.1032905e-05
61	0xb7c4f4c6	-2.3479002e-05
62	0xba65f3b0	-0.0008771969
63	0xbb10b438	-0.0022080075

weight f4 [1, 64]
0	0xb6fed038	-7.5940297e-06
1	0x3ac3a01a	0.0014925033
2	0x3bd6b111	0.0065518697
3	0xbb221388	-0.002473088
4	0x3339a24d	4.322128e-08
5	0xba15a282	-0.00057081145
6	0x3e3d3e81	0.18480875
7	0x2ef456c9	1.11112515e-10
8	0x3dd62784	0.10456756
9	0x3d1a684e	0.03769713
10	0x2c142355	2.1051678e-12
11	0x33434c27	4.5471236e-08
12	0x372d96ca	1.0346712e-05
13	0x3cf17c39	0.02947818
14	0xb4d22881	-3.914502e-07
15	0x368b1922	4.1454487e-06
16	0x3d1298ce	0.035790257
17	0x38569b9e	5.1166506e-05
18	0xb802c685	-3.11793e-05
19	0x3b8dd4de	0.0043283543
20	0xbb299004	-0.0025873194
21	0x38bdb4e0	9.045913e-05
22	0xbbb4f7b2	-0.0055226916
23	0x367335ee	3.6241213e-06
24	0xb9acba16	-0.0003294504
25	0x3b232a3f	0.0024897007
26	0x3bd2984b	0.006426846
27	0x3b3cc5f4	0.0028804513
28	0xbd958be9	-0.07302076
29	0x3d123fe2	0.035705455
30	0xb7e5983c	-2.7369817e-05
31	0xbe5be842	-0.21475318
32	0x334a7769	4.7140393e-08
33	0xba8001b4	-0.0009766133
34	0xb99d39f9	-0.00029988567
35	0xba302e37	-0.0006720754
36	0x3e1202f6	0.14258942
37	0x37186bd0	9.085008e-06
38	0xbcf90e8e	-0.030402448
39	0xba76be8f	-0.0009412551
40	0x3c5a111a	0.013309741
41	0x30ade969	1.2653746e-09
42	0xb19f6e28	-4.6400324e-09
43	0xbf05f8e9	-0.5233293
44	0xbb3e4e64	-0.0029038424
45	0xb93ba274	-0.00017894228
46	0xbb10b328	-0.0022079442
47	0x332d808c	4.0396614e-08
48	0xb2e32cd1	-2.6446658e-08
49	0xbe7060bc	-0.23474401
50	0xbed7ad25	-0.42124286
51	0xaa911add	-2.5775814e-13
52	0xbd90d452	-0.07071747
53	0xbd4c504c	-0.049881265
54	0xba825642	-0.000994392
55	0x380e43d1	3.3918597e-05
56	0xbaf7fe06	-0.0018920309
57	0xbd5cfc63	-0.053951632
58	0x2c427785	2.7635405e-12
59	0xbb2ddc01	-0.0026528838
60	0x36650742	3.4127884e-06
61	0x389547b4	7.1182294e-05
62	0x39be546d	0.00036302526
63	0xb8583066	-5.1543488e-05

weight f4 [1, 64]
0	0xbd9e56f4	-0.07731429
1	0xbdf4174c	-0.11918506
2	0x3deb1dea	0.11480315
3	0xbde3f88a	-0.111313894
4	0xbd500128	-0.050782353
5	0x3c4313f0	0.011906609
6	0xbd9d18b2	-0.07670726
7	0x3d146354	0.03622754
8	0x3ddb21e8	0.106998265
9	0xbc38da80	-0.011282563
10	0xbd7ae914	-0.061257437
11	0xbd4fb960	-0.050713897
12	0x3b82bf60	0.003990099
13	0x3dd0f3a0	0.10202718
14	0xbdfc6ca0	-0.12325406
15	0x3dc31cf0	0.09527004
16	0xbd71ea48	-0.05906132
17	0x3b12bdc0	0.0022390932
18	0x3d65d088	0.056107074
19	0xbd924a94	-0.07143131
20	0xbda60956	-0.081072494
21	0xbdbee634	-0.093212515
22	0xbd0d0374	-0.03442712
23	0x3dcef1cc	0.10104713
24	0x3df8c620	0.12147164
25	0x3bd1f700	0.0064076185
26	0x3cd7cce0	0.02634281
27	0xbdb397d0	-0.0876919
28	0xbcf11358	-0.02942817
29	0x3ce63d70	0.028105468
30	0x3d374968	0.04474774
31	0x3c2bf330	0.010494992
32	0xbd2789d4	-0.040902928
33	0x3d65aa54	0.05607064
34	0x3cb78148	0.022400513
35	0xbd03b244	-0.03215243
36	0xbcd26e38	-0.025687322
37	0x3d00bb94	0.03142889
38	0x3df1fb8e	0.118155584
39	0xbdaeeecc	-0.08541641
40	0x3de6ffdc	0.1127927
41	0xbba97260	-0.0051711053
42	0xbdef07dc	-0.11671421
43	0xbd1226c8	-0.035681516
44	0xbde28f46	-0.110624835
45	0xbc1e78f0	-0.009672388
46	0xbbac7fa0	-0.0052642375
47	0xbdd4ada6	-0.10384683
48	0x3a017700	0.0004938692
49	0xbdb2d53e	-0.08732079
50	0x3dcc7130	0.09982526
51	0x3cb12e78	0.021628603
52	0x3da3d5a2	0.079997316
53	0x3d775b10	0.06038958
54	0x3b60cf80	0.0034303367
55	0x3d78c3ac	0.060733482
56	0x3da3690c	0.079790205
57	0xbcad9f38	-0.021194085
58	0x3d15ebb8	0.036601752
59	0xbdf821fc	-0.12115857
60	0xbc4fa4d0	-0.012673572
61	0xbd6dec84	-0.058086887
62	0xbd371278	-0.044695348
63	0xbc662700	-0.014047384

weight f4 [1, 64]
0	0xbd8fed64	-0.070277005
1	0x3df6b1ac	0.12045607
2	0x3d91b942	0.07115413
3	0xbd5e91d0	-0.054338276
4	0xbd55048c	-0.05200629
5	0x3d268eb0	0.04066342
6	0x3dec5cca	0.115411356
7	0xbdc1c164	-0.094607145
8	0x3d9aacd6	0.07552497
9	0xbd6601f4	-0.056154206
10	0xbdad7d9a	-0.08471222
11	0x3da315be	0.07963131
12	0x3df31448	0.11869103
13	0xbda1f464	-0.07907942
14	0xbdc56d86	-0.096400306
15	0xbd5022f4	-0.050814584
16	0xbdfc5d7a	-0.12322517
17	0x3d392f88	0.045211345
18	0xbdb254cc	-0.0870758
19	0x3d0d5c34	0.03451176
20	0xbdc58d20	-0.09646058
21	0x3cb76800	0.022388458
22	0x3d9a9bd8	0.07549256
23	0xbd9b20fa	-0.07574649
24	0x3d5aa028	0.053375393
25	0xbbd244c0	-0.006416887
26	0xbb277ec0	-0.0025557727
27	0xbddff4d4	-0.10935369
28	0xbd950b50	-0.07277548
29	0xbd434e24	-0.047681943
30	0x3dd30c26	0.103050515
31	0xbde7e718	-0.113233745
32	0xbded721e	-0.11594032
33	0x3de3a612	0.1111566
34	0x3d0c6f64	0.034285918
35	0xbcb097d0	-0.021556765
36	0x3d531dd0	0.051542103
37	0x3dd3e494	0.10346332
38	0x3db9009e	0.09033321
39	0x3d4c0cb8	0.049816817
40	0x3dc06a32	0.09395255
41	0x3da28230	0.079349875
42	0xbd8e8b6e	-0.06960188
43	0xbcc9e4a0	-0.02464515
44	0xbddcc312	-0.10779394
45	0xbccaede0	-0.02477163
46	0x3d102914	0.035195425
47	0x3d876378	0.06610769
48	0xbcbf5c98	-0.023359582
49	0xbd92aa8e	-0.07161437
50	0xbda4eaac	-0.080525726
51	0xbd8f6ae8	-0.070028126
52	0x3b42ecc0	0.0029743165
53	0xbde4cb82	-0.111716285
54	0x3c6ded20	0.014521867
55	0xbc972258	-0.018448994
56	0xbdf8a1d4	-0.12140241
57	0xbc622a30	-0.013804004
58	0x3ca5d2d0	0.020242125
59	0x3d3bad54	0.045819595
60	0xbdd772e0	-0.105199575
61	0xbd27a258	-0.040926307
62	0xbd8545ac	-0.065074295
63	0x3dca72f0	0.09885204
