pth/VIScaler_test1_109.pth (torch, 42162 bytes, 10 tensors)

weight f4 [64, 3]
0.050214257 0.016344719 -0.049724612 -0.076855704 0.049935672 0.16553235 -0.002769451 -0.0013632445
-0.00037409694 -0.001303954 -1.7634815e-05 3.1986e-41 0.03799407 -0.258892 -0.27105895 0.007941681
0.038432855 0.2859327 0.058743544 -0.1307047 -0.2785036 -0.044905823 0.05353267 -0.15433641
0.038386792 0.031466614 -0.02613846 -0.026534721 0.18482213 0.47378206 -0.033903427 -0.0035448596
-3.8728485e-05 0.01239671 0.019909896 0.3088648 0.067649655 -0.07766284 0.06663887 0.11131936
-0.024634875 0.08883041 -1.2558765e-12 1.663155e-20 -3.59537e-40 0.18187922 -0.013567856 -0.48348776
0.27767754 -0.019523384 1.0343587 0.0106636975 -0.037347555 -0.038316283 -2.1605582e-07 -2.93566e-11
-4.86e-41 -0.03123996 0.002127284 -2.6813718e-06 0.025295584 0.06754636 0.199355 0.009847848
-0.060070958 -0.21440992 -0.0130345 0.0024516883 -0.0001186364 0.20587604 -0.043147363 0.20577057
-0.0024076665 -0.0035869689 -0.055094704 0.022909472 -0.0020686982 0.1464809 -0.0035921268 -0.01610107
-0.16572745 0.450979 -0.21888722 1.3971635 0.01960658 -0.004623222 0.20637158 -0.017298218
0.035057876 0.26667646 0.10019795 -0.25936848 0.021203214 -0.02232677 -0.06845212 -0.0818062
0.006245002 -0.03461621 -0.5591058 0.10682423 0.04731945 -0.17681113 0.19952117 -0.018364433
-1.091755 0.32211757 0.03599059 -0.26183826 0.17086379 -0.016199438 -2.689327 -0.036891825
-0.11899943 0.23044513 -0.015872275 -0.06429753 -0.05181484 0.44533628 -0.007866734 0.821527
-4.3565151e-07 5.1748e-16 5.1692e-41 -0.012257817 0.0006084199 2.2026902e-33 0.25696394 -0.008988333
0.27485454 -0.5015634 0.20516685 -0.20857935 0.075743385 -0.11018173 -0.7933745 -0.031973306
-0.0032863955 0.034501772 -0.01262498 -0.0017547403 5.2622712e-11 0.02645963 -0.16160528 0.4017114
0.5446281 -0.022801347 -3.4102974 0.087736055 0.043683257 0.1919095 -0.005207213 1.27769235e-05
-8.924122e-13 -1.5785134e-24 2.71607e-40 6.853e-41 0.24914457 -0.1251172 0.09183685 -0.13785224
-0.06294031 0.28032777 0.010032879 -0.053703487 0.17075446 0.020361448 -0.010526884 -5.1551623
0.485891 0.100097306 0.27154103 0.014587242 -0.0052468404 0.23905401 0.118933305 0.03597313
-0.8000349 -1.1472289e-33 -2.78606e-40 1.14904e-40 0.20388535 0.046919107 0.07690195 0.10163241
-0.14414223 0.00025016774 0.12642013 0.007125424 0.5545852 0.019510617 0.0007794605 -5.840114
00000000: 77ad 4d3d 5ce5 853c 09ac 4bbd 8666 9dbd
00000010: 5989 4c3d 5081 293e ad7f 35bb e5ae b2ba
00000020: 7122 c4b9 70e9 aaba 7aee 93b7 2a59 0000
00000030: ac9f 1b3d 7e8d 84be 3dc8 8abe d31d 023c
00000040: c56b 1d3d c565 923e 129d 703d 74d7 05be
00000050: 0698 8ebe 2bef 37bd 1345 5b3d 5d0a 1ebe
00000060: 783b 1d3d 23e3 003d 5320 d6bc 585f d9bc
00000070: 0342 3d3e 9093 f23e 52de 0abd e050 68bb
00000080: 6570 22b8 921b 4b3c 141a a33c 8723 9e3e
00000090: e78b 8a3d b20d 9fbd f679 883d 68fb e33d
000000a0: 14cf c9bc b8ec b53d b8bf b0ab 9f14 9d1e
000000b0: 3eea 0380 8c3e 3a3e b64b 5ebc b58b f7be
000000c0: c02b 8e3e 81ef 9fbc de65 843f cab6 2e3c
000000d0: c0f9 18bd 89f1 1cbd f9fc 67b4 981c 01ae
000000e0: 7a87 0080 f2ea ffbc e769 0b3b 9ef1 33b6
000000f0: af38 cf3c bf55 8a3d b823 4c3e de58 213c
00000100: f70c 76bd 468e 5bbe a88e 55bc 81ac 203b
00000110: 6fcc f8b8 2bd1 523e 4abb 30bd 85b5 523e
00000120: f1c9 1dbb 5a13 6bbb fcaa 61bd a5ac bb3c
00000130: ff92 07bb 17ff 153e e369 6bbb 64e6 83bc
00000140: 75b4 29be b8e6 e63e f923 60be 41d6 b23f
00000150: fa9d a03c 667e 97bb 1253 533e feb4 8dbc
00000160: d998 0f3d d189 883e 9534 cd3d f2cb 84be
00000170: 5db2 ad3c a1e6 b6bc a030 8cbd 028a a7bd
00000180: e0a2 cc3b bac9 0dbd 8f21 0fbf a9c6 da3d
00000190: 0ad2 413d fa0d 35be 474f 4c3e 0271 96bc
000001a0: a1be 8bbf 98ec a43e de6a 133d aa0f 86be
000001b0: ebf6 2e3e afb4 84bc ef1d 2cc0 e21b 17bd
000001c0: f9b5 f3bd cff9 6b3e 9306 82bc 6cae 83bd
000001d0: cc3b 54bd 1e03 e43e 79e3 00bc 984f 523f
000001e0: 7de3 e9b4 4927 1526 1990 0000 03d5 48bc
000001f0: 5e7e 1f3a 0afe 3609 c790 833e cd43 13bc
00000200: bcb9 8c3e 7566 00bf 4217 523e d395 55be
00000210: 591f 9b3d f5a6 e1bd 971a 4bbf 71f6 02bd
00000220: 9160 57bb bb51 0d3d 01d9 4ebc 50ff e5ba
00000230: e86f 672e dec1 d83c db7b 25be 1ead cd3e
00000240: bf6c 0b3f e4c9 babc 5042 5ac0 f6ae b33d
00000250: 37ed 323d ed83 443e 45a1 aabb 785c 5637
00000260: 1331 7bab 5c43 f497 21f5 0200 09bf 0000
00000270: c11f 7f3e b91e 00be f514 bc3d 2329 0dbe
00000280: d9e6 80bd 1f87 8f3e f260 243c 30f8 5bbd
00000290: 42da 2e3e 0dcd a63c f478 2cbc 17f7 a4c0
000002a0: b5c6 f83e d1ff cc3d 6d07 8b3e 54ff 6e3c
000002b0: b0ed abbb 93ca 743e 4e93 f33d 9058 133d
000002c0: 16cf 4cbf b89d be88 a408 0380 4e40 0100
000002d0: 52c7 503e 402e 403d c57e 9d3d a724 d03d
000002e0: 059a 13be f228 8339 4774 013e 647c e93b
000002f0: 4cf9 0d3f bbd4 9f3c b554 4c3a 37e2 bac0

bias f4 [64]
-0.08809553 0.07600243 -0.016911708 -9.644438e-13 0.09725719 0.27958614 0.65565366 -0.039013755
0.3440164 -0.18906465 -0.004221488 0.31180614 -0.1059613 0.29087734 -2.45917e-40 0.58234525
-0.49012518 -0.22054881 -1.17043e-40 -0.012572028 0.1921547 0.096887715 -0.0077209077 -0.12627696
-0.053502616 0.16591135 -0.1133466 -0.1432322 0.19124335 0.20252356 -0.094342284 -0.09496009
-0.14506765 0.52244526 -1.5703896 -0.2634928 -0.40794063 0.2575442 -0.14487791 0.37725505
-6.268486e-38 -2.5513677e-05 0.071677916 0.12959115 0.12865703 0.0013656548 -0.00023709513 -0.21260545
1.0366818 0.08577428 -0.00039301184 -1.00962e-40 0.024025582 0.49847215 0.009462848 0.57893085
0.046174113 0.5806965 -0.071629986 6.734e-41 -0.18737903 0.024104042 -0.23193225 0.31382337
00000000: 6e6b b4bd 29a7 9b3d 6c8a 8abc c0bb 87ab
00000010: c72e c73d ea25 8f3e ebd8 273f e3cc 1fbd
00000020: eb22 b03e 2a9a 41be 6854 8abb 0ea5 9f3e
00000030: 3d02 d9bd e0ed 943e 84ad 0280 9414 153f
00000040: b0f1 fabe 8cd7 61be 4546 0180 e8fa 4dbc
00000050: 34c4 443e 116d c63d abff fcbb bf4e 01be
00000060: 8f25 5bbd aae4 293e 4322 e8bd 76ab 12be
00000070: 4cd5 433e 5662 4f3e 8736 c1bd 707a c2bd
00000080: 9d8c 14be f9be 053f 8702 c9bf 87e8 86be
00000090: 98dd d0be d5dc 833e e05a 14be 9327 c13e
000000a0: f9a4 aa81 3406 d6b7 dfcb 923d 8bb3 043e
000000b0: abbe 033e c5ff b23a bd9c 78b9 3eb5 59be
000000c0: fdb1 843f 6daa af3d 280d ceb9 7119 0180
000000d0: 4cd1 c43c be37 ff3e 100a 1b3c d034 143f
000000e0: 1121 3d3d 87a8 143f beb2 92bd b7bb 0000
000000f0: 4ae0 3fbe d775 c53c a67f 6dbe 75ad a03e

weight f4 [64, 64]
-0.027975958 1.9801e-40 -1.63921e-40 -4.11777e-40 -0.0005558155 -1.1789e-41 -0.04211638 -5.76916e-40
-0.0025677043 -0.0034558603 1.0399e-41 -4.77815e-40 -1.13363485e-05 -0.039897338 -3.33163e-40 -0.05426711
0.052676395 -0.013765073 8.7637e-41 5.7071556e-11 -0.008207673 -0.0083888285 2.163e-41 -0.008490227
2.3682e-41 3.238033e-13 4.02662e-40 -0.0012379471 1.68917e-40 2.56716e-40 0.005482333 2.55067e-40
0.00039636597 -0.06461107 0.074482664 -1.57552e-40 0.09743865 1.36309e-40 6.5060304e-09 -0.03213158
2.6319e-40 -4.31851e-40 -0.012201985 -6.4975e-41 -0.014785052 2.3313099e-08 1.66158e-40 0.016096924
-0.015308483 -0.043070886 -2.9014622e-14 1.3221e-40 -3.4026e-41 -6.148481e-07 -0.0020090584 0.008078636
-0.00046144557 1.1011988e-16 0.009588295 1.88274e-40 0.034623586 -0.015148275 0.040215228 -2.1590673e-05
0.011450124 -0.00084679754 -1.60983e-40 2.3796097e-06 -0.004247508 -0.026539512 -0.03160622 -0.0017429811
-0.021569962 0.0036829934 -2.56248e-40 -0.027026199 0.002654748 -0.019338759 -5.8751e-41 -0.017903635
0.004739469 -7.254581e-10 -5.94679e-40 2.01383e-40 -0.01634349 -0.00062244816 1.1194445e-29 -0.0012178066
7.8966496e-14 -0.01757647 4.8928e-40 -0.010071854 -0.020133378 3.4387916e-29 -0.006825703 2.274387e-23
-9.400853e-08 -0.022430748 0.035517197 0.014224916 0.02477076 -0.0012678005 -1.2565639e-05 -0.014628646
-6.3619954e-09 -5.5958e-41 -0.008455191 -7.0610136e-11 2.5753911e-06 9.8e-41 -1.4261723e-29 -0.008035775
-0.0029698678 -0.011795356 1.16088e-40 9.6495e-41 -0.005016813 -0.00025395834 -0.0007216145 0.006104858
-0.0047212956 -0.036097724 0.019851644 8.4594e-41 0.006377882 -0.0052796616 0.0033910219 0.0004440642
-0.018159702 -0.024358349 -0.0007134328 6.33059e-40 -0.04418139 0.03001786 -0.12450606 0.0178259
-0.19850656 -0.09384704 1.7533787e-09 -0.16450681 -0.010230789 -0.025025347 1.045237e-38 -0.027565591
0.20001167 -0.07407564 -1.23073e-40 0.00059062627 -0.051046047 -0.10013367 -0.00010291855 0.055496965
-0.001881519 0.019763488 -0.0067987 0.06706726 0.010135086 0.0064515877 0.11216536 -0.017082151
0.05984873 -0.086218365 0.1704636 0.2460033 0.3086068 -0.0030747107 -0.019809568 0.022241618
2.6758e-41 6.1846e-41 0.05343988 -0.06645015 0.03322435 0.010343245 -3.4888255e-06 0.10921842
0.08204327 -0.06646756 -3.59905e-06 -7.8917e-41 0.09674149 -0.03172632 0.025210556 0.1833443
0.31792527 -0.0257382 0.123672046 -5.8605e-40 0.13232191 -0.030659724 0.24163349 -0.30219293
0.09451567 0.0038057794 -6.73335e-25 1.6431e-40 0.034125365 -0.08948217 -0.02153755 -0.0157745
-0.013994034 -0.08127653 -2.8085e-41 -0.04775732 0.09688723 0.035460237 2.2510827e-09 0.036017515
0.09274991 0.062462416 -5.967605e-08 4.57211e-40 -0.02599889 0.011118324 1.0194719e-10 0.085206434
-0.0011432322 -0.025635602 -0.016762901 0.07833084 -0.032187365 -0.14672661 0.049796432 0.005588895
0.12879233 0.0049528484 0.2516755 0.08416492 0.24595518 0.017070772 0.070099235 0.045363303
-8.8083e-41 2.33877e-40 0.061544053 0.029044883 0.13458246 -5.508464e-11 -3.4185135e-10 0.058195602
0.07630059 0.03347894 5.63626e-40 1.58101e-40 0.08514114 0.122239575 -0.004736955 0.3497261
0.061595183 -0.063639455 0.12288432 1.96072e-40 0.0789363 0.078045286 0.087611325 0.350698
00000000: d62d e5bc f927 0200 f2c8 0180 de7b 0480
00000010: 26b4 11ba dd20 0080 3a82 2cbd 3548 0680
00000020: ee46 28bb b77b 62bb fd1c 0000 f433 0580
00000030: 3f31 3eb7 646b 23bd b9a0 0380 3047 5ebd
00000040: 34c3 573d e786 61bc 4cf4 0000 dc00 7b2e
00000050: 7a79 06bc 4c71 09bc 4c3c 0000 981a 0bbc
00000060: 0442 0000 f948 b62a 7562 0400 9d42 a2ba
00000070: dfd6 0100 9fcb 0200 24a5 b33b 06c7 0200
00000080: 57cf cf39 cf52 84bd 5e8a 983d 31b7 0180
00000090: ea8d c73d f97b 0100 a68b df31 679c 03bd
000000a0: abdd 0200 d3b3 0480 d6ea 47bc 20b5 0080
000000b0: 013d 72bc 0c42 c832 2ecf 0100 b2dd 833c
000000c0: 6ed0 7abc 196b 30bd 95ab 02a9 8c70 0100
000000d0: da5e 0080 0a0c 25b5 68aa 03bb 415c 043c
000000e0: 2dee f1b9 4eeb fd24 3918 1d3c d50c 0200
000000f0: 76d1 0d3d 7830 78bc b9b8 243d 9e1d b5b7
00000100: 4d99 3b3c 9ffb 5dba c1c0 0180 62b1 1f36
00000110: ae2e 8bbb 6469 d9bc 8675 01bd be74 e4ba
00000120: 7db3 b0bc 605e 713b 51ca 0280 0c66 ddbc
00000130: 48fb 2d3b 516c 9ebc c6a3 0080 a5aa 92bc
00000140: 8c4d 9b3b 9369 47b0 b979 0680 6031 0200
00000150: c8e2 85bc ca2b 23ba e20c 630f cf9e 9fba
00000160: 16d1 b129 87fc 8fbc ea53 0500 6b04 25bc
00000170: c1ee a4bc 115e 2e10 26aa dfbb 18f7 db19
00000180: bce1 c9b3 b0c0 b7bc 7b7a 113d 9f0f 693c
00000190: 0dec ca3c 532c a6ba 02d1 52b7 fdac 6fbc
000001a0: b498 dab1 fd9b 0080 a487 0abc f945 9bae
000001b0: e2d4 2c36 2f11 0100 8da1 908f 7ca8 03bc
000001c0: 1da2 42bb 4f41 41bc 9b43 0100 fd0c 0100
000001d0: 1464 a4bb b625 85b9 bb2a 3dba 430b c83b
000001e0: 19b5 9abb 35db 13bd ea9f a23c d0eb 0000
000001f0: 8dfd d03b 0301 adbb e83b 5e3b 4ad1 e839
00000200: a8c3 94bc 298b c7bc aa05 3bba b6e4 0600
00000210: 8cf7 34bd 04e8 f53c 08fd febd 9f07 923c
00000220: 4e45 4bbe e032 c0bd 87fb f030 7974 28be
00000230: 0a9f 27bc f501 cdbc f4d0 7100 3cd1 e1bc
00000240: dccf 4c3e f8b4 97bd 1457 0180 42d4 1a3a
00000250: a915 51bd e212 cdbd fad5 d7b8 c950 633d
00000260: 4d9d f6ba 0ae7 a13c a1c7 debb 8f5a 893d
00000270: a20d 263c d767 d33b f4b6 e53d deef 8bbc
00000280: f123 753d 4193 b0bd 038e 2e3e 4ae8 7b3e
00000290: b601 9e3e 1681 49bb ad47 a2bc 0e34 b63c
000002a0: 974a 0000 67ac 0000 c7e3 5a3d 0417 88bd
000002b0: 4216 083d b776 293c 9121 6ab6 e8ad df3d
000002c0: 4d06 a83d 2520 88bd 3587 71b6 fddb 0080
000002d0: 6720 c63d 75f3 01bd 5e86 ce3c 9cbe 3b3e
000002e0: 1ac7 a23e ebd8 d2bc c547 fd3d ab61 0680
000002f0: 657f 073e 1a2a fbbc c56e 773e 08b9 9abe
00000300: 6e91 c13d 626a 793b 1863 5097 08ca 0100
00000310: 0ac7 0b3d 6e42 b7bd 846f b0bc 8639 81bc
00000320: 3c47 65bc 4f74 a6bd 4a4e 0080 2e9d 43bd
00000330: d06c c63d c13e 113d 77b1 1a31 1a87 133d
00000340: aaf3 bd3d 97d8 7f3d 4127 80b3 85fa 0400
00000350: a0fb d4bc a129 363c 2a2f e02e b680 ae3d
00000360: 82d8 95ba c101 d2bc 5a52 89bc eb6b a03d
00000370: e6d6 03bd 803f 16be 58f7 4b3d 0d23 b73b
00000380: 23e2 033e 814b a23b 9cdb 803e a85e ac3d
00000390: addb 7b3e 01d8 8b3c 3090 8f3d dfce 393d
000003a0: 8af5 0080 f48b 0200 9e15 7c3d 89ef ed3c
000003b0: fccf 093e cb43 72ae 4def bbaf 835e 6e3d
000003c0: 7c43 9c3d 3721 093d 2923 0600 b9b8 0100
000003d0: 7a5e ae3d be58 fa3d 7538 9bbb 4d0f b33e
000003e0: 3b4b 7c3d 6755 82bd c6aa fb3d 9222 0200
000003f0: 5ba9 a13d 35d6 9f3d 916d b33d b08e b33e

bias f4 [64]
-0.0463564 -0.045846958 -0.28687203 -0.096998736 -0.26800779 -3.02182e-14 -1.2998503e-37 -0.00024061442
0.45264643 -0.0020745052 -0.108347006 0.3526806 0.41660118 -0.0069134412 -4.4595e-41 -0.00085752376
-0.025463367 1.59835e-40 -1.6086339e-06 -0.31186208 -0.2330361 -6.3009265e-32 2.2109781e-11 0.5440565
-1.2272648e-10 3.4891e-41 -6.31436e-40 -4.368149e-14 -4.3586897e-05 0.7118558 -0.025165213 -0.018460864
-0.0141499825 0.007615641 0.054820336 6.2422456e-05 -0.012442366 -2.9066076e-08 0.13742927 -0.081467144
-0.20168197 -0.3782644 -0.11810845 0.72653407 0.0022629355 -0.08327731 -4.9592173e-30 -1.9238072e-07
-5.9893073e-06 0.29498982 1.0783086e-31 -0.00013404939 0.8849606 0.3378262 -0.041453045 0.42644766
2.691414e-39 -0.07421725 -1.2087419e-21 -0.008688125 -0.004462465 -5.0049744e-07 -0.06007425 1.3101743e-10
00000000: 35e0 3dbd 05ca 3bbd e4e0 92be 46a7 c6bd
00000010: 5138 89be 3617 08a9 2ced 3082 714d 7cb9
00000020: 46c1 e73e 6cf4 07bb 09e5 ddbd 8d92 b43e
00000030: c04c d53e 268a e2bb 507c 0080 72cb 60ba
00000040: 8d98 d0bc 8ebd 0100 3de8 d7b5 63ac 9fbe
00000050: 04a1 6ebe d794 a38b cd7a c22d 4947 0b3f
00000060: 6ff0 06af 4361 0000 30e0 0680 54b9 44a9
00000070: 13d1 36b8 2f3c 363f 4727 cebc 3d3b 97bc
00000080: 54d5 67bc a18c f93b 4a8b 603d cde8 8238
00000090: 11db 4bbc faac f9b2 42ba 0c3e 3fd8 a6bd
000000a0: b885 4ebe dfab c1be d8e2 f1bd 23fe 393f
000000b0: c24d 143b 4b8d aabd 752b c98e 3691 4eb4
000000c0: c2f7 c8b6 e808 973e f3f8 0b0c 9c8f 0cb9
000000d0: c78c 623f 8ef7 ac3e abca 29bd 5957 da3e
000000e0: 914e 1d00 37ff 97bd f0a8 b69c a358 0ebc
000000f0: df39 92bb ec59 06b5 6b10 76bd 210e 102f

weight f4 [64, 64]
-1.22985e-40 -1.54083e-40 -0.0005903721 -2.749279e-38 -0.0012106018 5.1998e-41 2.877e-41 -1.25671e-40
-0.0009914183 1.41776e-40 -1.40842e-40 -1.1682937e-17 -1.3507986e-14 -3.0307e-40 -6.028e-41 7.1812e-41
-2.37206e-40 1.37778e-40 3.89761e-40 -0.00017492102 -0.0005372443 -7.4513e-41 -1.09564084e-07 -0.001054617
-1.09161e-40 -1.54204e-40 -3.1262e-41 -3.3843497e-07 7.36e-41 -0.00084402214 -1.15547e-40 -7.4232e-41
3.1228e-41 -8.25e-41 -2.1770538e-06 -1.4073448e-13 -3.75975e-40 -1.0049e-41 -0.00040858486 -7.9002e-41
-7.014414e-07 -0.0008726182 -0.0010822549 -1.4464743e-08 6.9314e-41 -2.89873e-40 3.722388e-10 -6.2026e-41
3.0440323e-12 -3.5960404e-10 7.714e-42 2.76403e-40 -0.00476608 1.9784e-40 1.3751169e-38 -0.00065742
-3.7951e-41 -0.0007286186 -3.869e-40 1.6027e-41 -1.5243e-41 -6.915e-42 -1.66584e-40 4.01757e-38
6.83916e-40 -0.032956354 -0.10013603 0.020790987 -0.07952659 -3.32033e-40 -1.843e-42 -5.3983207e-08
0.13369009 -2.7018e-40 -0.0130469445 0.13468575 0.054433458 -4.37348e-40 9.151464e-11 -7.260156e-12
0.009567212 5.24985e-40 9.1047e-41 -0.033892922 -0.09277859 -8.736e-41 -6.289376e-09 0.105140135
-2.9625703e-18 -3.5611e-41 -5.4279e-41 -7.2334077e-28 1.94291e-40 0.11913737 0.0013795465 0.004472017
-1.717e-42 -3.38171e-40 0.051680814 0.01810294 -0.0017524298 -1.3011e-41 0.27867463 -1.08814e-40
-0.04311612 -0.07627004 -0.050467428 0.27260122 0.010848609 7.1381e-41 7.485531e-30 9.7397e-41
1.5174763e-10 -0.21567917 -7.5317e-41 5.8692e-41 0.15408666 0.28543663 -0.025895987 0.17050906
1.17587e-40 -0.09990604 -2.0148489e-06 -0.0014905789 8.7890527e-07 -3.0463e-41 -0.016089465 1.5604544e-11
0.016354954 0.0076022362 0.1452858 -0.10315601 0.012979295 2.17905e-40 1.95918e-40 -4.129328e-06
-0.10806085 0.003068106 0.005822595 -0.5092952 -0.60890335 0.0005389462 1.1012e-40 1.9638512e-07
-0.03482593 3.4067e-40 -1.9605882e-06 0.25937912 0.11419465 -1.7606e-41 1.753555e-05 0.18978101
1.1055206e-18 -4.36312e-40 -2.28349e-40 1.4137738e-23 -2.7645043e-05 0.47881642 -0.009376982 -0.0012390922
0.011338023 0.0068467953 0.062709026 -0.035656866 -0.016701246 1.8182174e-36 -0.120295405 -0.00010014937
0.015373618 0.10466649 -0.02005676 -0.035486914 -6.2178406e-06 0.07961629 5.0436323e-22 -1.1777e-40
-6.3752684e-12 0.36424977 4.5074e-41 -1.3339409e-05 -0.21690114 -0.39328963 -0.15653917 0.29119813
2.3536803e-38 -0.11554896 -1.60086e-40 0.0039549717 6.698138e-13 -6.18322e-17 -0.01550771 1.25740875e-17
-2.13137e-40 2.0506e-40 -0.033936955 -0.025325982 -0.03306413 2.9769e-40 1.50324e-40 -1.54877e-40
-0.012601229 -1.47164e-40 -3.87978e-40 0.0034288573 0.00020962728 4.696e-41 -2.78994e-40 1.6533e-40
-1.5106e-41 2.448e-42 2.4895e-40 -0.029685447 -0.03234174 2.00289e-40 1.59269e-40 -0.010981351
8.6582e-41 -5.7169e-41 -1.90855e-40 8.7234e-41 -7.6746e-41 -0.009004623 -1.9988446e-14 6.0516e-41
1.7488e-41 -9.2102e-41 -0.019330371 -6.2776e-05 5.0181e-40 2.622e-41 -0.019392714 1.11304e-40
-0.010516924 -0.03566782 -0.032853797 0.00787186 -1.06373e-40 -1.46548e-40 1.03187e-40 -4.7266e-41
-1.20692e-40 8.4925733e-07 8.7157e-41 -1.93732e-40 -0.019188195 -0.017081607 -0.028347306 -0.017730528
7.0014e-41 -0.030565262 5.3926e-41 1.38314e-40 4.62897e-40 -2.01652e-40 -0.026464567 -1.1784e-40
00000000: d556 0180 85ad 0180 33c3 1aba 5baf 1581
00000010: 0ead 9eba f390 0000 3350 0000 525e 0180
00000020: 7af2 81ba 378b 0100 9c88 0180 1c83 57a3
00000030: 9756 73a8 d64c 0380 09a8 0080 2fc8 0000
00000040: 3c95 0280 1280 0100 7f3e 0400 016b 37b9
00000050: dbd5 0cba b6cf 0080 7e49 ebb3 133b 8aba
00000060: 4c30 0180 dcad 0180 2557 0080 26b2 b5b4
00000070: 2bcd 0000 5e41 5dba 1942 0180 eece 0080
00000080: 0d57 0000 fae5 0080 8019 12b6 f473 1eaa
00000090: 1118 0480 031c 0080 5537 d6b9 3adc 0080
000000a0: b04a 3cb5 6bc0 64ba 73da 8dba 9d80 78b2
000000b0: 38c1 0000 0c28 0380 f4a3 cc2f e7ac 0080
000000c0: 6934 562c c5b1 c5af 8115 0000 8002 0300
000000d0: c72c 9cbb 7f27 0200 aabc 9500 b656 2cba
000000e0: cb69 0080 c400 3fba 8536 0480 ad2c 0000
000000f0: 7e2a 0080 4713 0080 5ed0 0180 c1bc 5a01
00000100: 7b72 0700 3efd 06bd 1e14 cdbd dc51 aa3c
00000110: d6de a2bd 939d 0380 2305 0080 2adb 67b3
00000120: 0ee6 083e 27f1 0280 dac2 55bc 10eb 093e
00000130: 9ef5 5e3d 26c3 0480 2a3e c92e ac71 ffac
00000140: ccbf 1c3c 72b7 0500 cdfd 0000 4ed3 0abd
00000150: b402 bebd 86f3 0080 f019 d8b1 b653 d73d
00000160: 5f99 5aa2 4563 0080 4f97 0080 603c 6592
00000170: 9b1d 0200 4bfe f33d e6d1 b43a ff89 923b
00000180: c904 0080 afae 0380 43af 533d 9e4c 943c
00000190: c9b1 e5ba 4524 0080 71ae 8e3e 542f 0180
000001a0: 879a 30bd 7733 9cbd efb6 4ebd 6392 8b3e
000001b0: 5dbe 313c fbc6 0000 19d3 170f 810f 0100
000001c0: 29d9 262f 00db 5cbe f4d1 0080 9ca3 0000
000001d0: e5c8 1d3e c024 923e d223 d4bc ed99 2e3e
000001e0: c947 0100 8a9b ccbd d736 07b6 875f c3ba
000001f0: e9ed 6b35 eb54 0080 0ece 83bc 4f42 892d
00000200: d3fa 853c 2e1c f93b cdc5 143e 7543 d3bd
00000210: 1ca7 543c 6e5f 0200 2422 0200 a88e 8ab6
00000220: 024f ddbd 4712 493b 78cb be3b 2c61 02bf
00000230: 17e1 1bbf 1148 0d3a f832 0100 eedd 5234
00000240: a2a5 0ebd a6b5 0300 a692 03b6 57cd 843e
00000250: e2de e93d 1431 0080 4f19 9337 f455 423e
00000260: 6325 a321 43c0 0480 8b7c 0280 58bb 8819
00000270: 47e7 e7b7 6d27 f53e eaa1 19bc 0969 a2ba
00000280: 1dc3 393c 155b e03b 976d 803d ef0c 12bd
00000290: 0dd1 88bc 45ad 1a04 705d f6bd 4907 d2b8
000002a0: a1e1 7b3c 625b d63d 134e a4bc ba5a 11bd
000002b0: d8a2 d0b6 de0d a33d 376f 181c 4b48 0180
000002c0: 504f e0ac f27e ba3e a67d 0000 53cc 5fb7
000002d0: 551b 5ebe 425d c9be ce4b 20be ec17 953e
000002e0: 8425 0001 efa4 ecbd 41be 0180 b598 813b
000002f0: 2c89 3c2b 4a93 8ea4 0d14 7ebc 73f3 6723
00000300: 2452 0280 a03b 0200 7a01 0bbd 6f78 cfbc
00000310: 416e 07bd d73d 0300 0ba3 0100 bcaf 0180
00000320: 6375 4ebc 3c9a 0180 8639 0480 aeb6 603b
00000330: 65cf 5b39 e882 0000 b909 0380 dfcc 0100
00000340: 1c2a 0080 d306 0000 f9b5 0200 e52e f3bc
00000350: c678 04bd 532e 0200 fabb 0100 20eb 33bc
00000360: 5bf1 0000 5d9f 0080 0714 0280 2cf3 0000
00000370: f0d5 0080 2088 13bc 380a b4a8 b2a8 0000
00000380: c030 0000 be00 0180 ba5a 9ebc 9ca6 83b8
00000390: d876 0500 1749 0000 78dd 9ebc 4536 0100
000003a0: 2d4f 2cbc 6c18 12bd b491 06bd f9f8 003c
000003b0: 8628 0180 8498 0180 a51f 0100 c283 0080
000003c0: 7150 0180 85f8 6335 f5f2 0000 0c1c 0280
000003d0: 9030 9dbc baee 8bbc 9c38 e8bc 9d3f 91bc
000003e0: 2cc3 0000 0064 fabc 5396 0000 9081 0100
000003f0: 5e0a 0500 2032 0280 38cc d8bc 7d48 0180

bias f4 [64]
-1.3448616e-05 0.28439993 -0.38838145 -0.0067835376 -5.2982324e-37 -0.0002936363 -1.9871934e-19 0.0055750487
0.18092038 3.03044e-28 -3.3041177e-33 -0.35463122 -5.29196e-40 -0.035734653 -1.3880663e-11 -0.03758751
-0.22437152 -3.283982e-06 9.371597e-21 -0.03856433 1.06869e-40 1.49081e-40 -0.44969493 -0.017548172
-0.02744772 -0.19476844 -0.2265848 -0.0028981622 0.8942306 2.2121101e-28 4.54133e-40 -1.88208e-40
-4.3147597e-09 0.00011807456 -4.9776783e-05 4.831332e-16 -0.44753513 5.908717e-17 0.6748356 -7.196062e-07
-9.154244e-12 6.328677e-22 -8.4763775e-07 -0.014149587 -3.650385e-39 -8.8507394e-14 -3.6647486e-13 -0.3983027
-2.894085e-16 -0.4558308 0.0028186815 -1.16664395e-07 -0.10639283 0.7796599 2.387097e-19 0.14641741
-5.040898e-05 0.8143463 -2.311626e-09 7.298408e-27 0.0023674166 -0.18322709 0.113188826 -3.9960164e-09
00000000: 5ea1 61b7 de9c 913e efd9 c6be 7048 debb
00000010: 1d4a 3483 32f3 99b9 3c9b 6aa0 e6ae b63b
00000020: 3143 393e b313 c011 683f 8989 3992 b5be
00000030: 2fc3 0580 805e 12bd f330 74ad 5cf5 19bd
00000040: a6c1 65be 6262 5cb6 4306 311e a2f5 1dbd
00000050: e829 0100 949f 0100 6a3e e6be 2fc1 8fbc
00000060: 0ada e0bc 6171 47be d905 68be 18ef 3dbb
00000070: 4cec 643f 8a35 8c11 f0f1 0400 a60c 0280
00000080: 0741 94b1 cc9e f738 6ac7 50b8 f040 0b26
00000090: 5323 e5be e93e 8824 07c2 2c3f f62a 41b5
000000a0: 0d0b 21ad c445 3f1c 3989 63b5 abd3 67bc
000000b0: cabf 2780 0a4d c7a9 984e ceaa 55ee cbbe
000000c0: 28d5 a6a5 a862 e9be a1b9 383b ee88 fab3
000000d0: 7ce4 d9bd cb97 473f cae8 8c20 72ee 153e
000000e0: 3b6e 53b8 0079 503f 8eda 1eb1 538f 1014
000000f0: a926 1b3b e29f 3bbe 8bcf e73d 554d 89b1

weight f4 [1, 64]
-0.0062796283 0.065712 0.037278704 -0.024182664 -0.0029681325 -0.005251179 0.0016093176 0.029007202
-0.17377847 0.00016927726 0.0041043414 0.09017292 7.767116e-05 -0.0060377545 0.015715037 -0.047025036
1.5694485 -0.00805931 -0.008963124 0.010801908 -4.87066e-40 -6.183467e-05 0.6031582 -0.013865155
0.0047324044 0.14143807 -0.034607843 -0.03146245 -1.0423142 -3.2937764e-09 0.00018369402 -0.0028795502
0.01950638 0.005651277 -0.011160442 0.00052055914 0.7220852 0.0069231577 -0.66513485 -0.007935592
0.0024837195 8.540137e-07 0.00026125272 0.29728824 2.3330796e-10 -0.023803538 -0.0050178757 0.42358375
0.0037493815 0.5495393 -0.054105915 -0.010072992 0.2432783 -0.8623314 0.005227608 0.05896437
0.0015597543 -0.90636486 0.008028968 -0.0030132753 0.16885762 0.22752318 0.03314225 -0.001727332
00000000: 57c5 cdbb 0394 863d 8eb1 183d b91a c6bc
00000010: 0085 42bb 1512 acbb bdef d23a 83a0 ed3c
00000020: fcf2 31be 0580 3139 b67d 863b 94ac b83d
00000030: 63e3 a238 5bd8 c5bb d2bc 803c 539d 40bd
00000040: b0e3 c83f 320b 04bc 11da 12bc 7cfa 303c
00000050: be4d 0580 3cad 81b8 9368 1a3f ad2a 63bc
00000060: 4912 9b3b 24d5 103e f4c0 0dbd c5de 00bd
00000070: 8d6a 85bf ba58 62b1 fd9d 4039 d6b6 3cbb
00000080: d8cb 9f3c 592e b93b 49da 36bc 2276 083a
00000090: 93da 383f a8db e23b 4746 2abf 4904 02bc
000000a0: e6c5 223b 603f 6535 bff8 8839 2a36 983e
000000b0: 2d43 802f a3ff c2bc fe6c a4bb f8df d83e
000000c0: 2fb8 753b 9cae 0c3f 2a9e 5dbd 3109 25bc
000000d0: f21d 793e c0c1 5cbf 5b4c ab3b a084 713d
000000e0: ab70 cc3a 8707 68bf ef8b 033c 5f7a 45bb
000000f0: 03e9 2c3e d6fb 683e 2bc0 073d a567 e2ba

weight f4 [1, 64]
-0.007836237 0.1794515 0.40544927 -0.018061427 -0.00031953608 0.045170147 -0.007823775 0.040235158
-0.0049332036 -1.9193641e-07 -0.00018103608 0.04491938 4.6351698e-08 -0.009846399 5.7416906e-05 -0.07432114
0.08725364 -0.007214438 0.003822455 0.011697126 -3.37014e-40 3.6017828e-11 0.21013397 -0.034561202
0.01689447 -0.062851876 0.16108292 -0.018111683 -0.0695909 -8.676603e-09 6.199626e-05 -1.8258506e-05
0.00044368615 0.005655212 0.040213216 -0.0006181291 0.10071971 -0.0017156063 -0.03899923 0.008638072
-0.00020315532 7.988148e-07 0.0044118944 -0.29629087 8.785867e-07 -0.008398848 -0.008834963 0.15743311
-0.0017819186 -0.11289351 -0.06925663 -0.0058095637 -0.11511264 -0.051956683 0.00047618523 0.072039545
-2.8536223e-10 -0.05526399 -0.0040188073 -1.2549066e-06 0.21823214 -0.03327039 0.06604379 -0.010352267
00000000: 8f63 00bc 22c2 373e 0c97 cf3e 8ff5 93bc
00000010: 6887 a7b9 5504 393d 4a2f 00bc 9fcd 243d
00000020: b6a6 a1bb 1417 4eb4 81d4 3db9 62fd 373d
00000030: 3b14 4733 ca52 21bc efd2 7038 af35 98bd
00000040: 09b2 b23d 1867 ecbb 2782 7a3b 4da5 3f3c
00000050: 75ab 0380 7868 1e2e 5c2d 573e 0c90 0dbd
00000060: 4666 8a3c 7cb8 80bd ecf2 243e f45e 94bc
00000070: ac85 8ebd 1b10 15b2 fd03 8238 d829 99b7
00000080: 8c9e e839 5b4f b93b 9db6 243d f109 22ba
00000090: 2346 ce3d 32de e0ba a8bd 1fbd b386 0d3c
000000a0: 1706 55b9 236e 5635 a791 903b 70b3 97be
000000b0: 05d8 6b35 529b 09bc 85c0 10bc 2536 213e
000000c0: 448f e9ba b634 e7bd 6cd6 8dbd 275e bebb
000000d0: 2dc0 ebbd 88d0 54bd 80a8 f939 7889 933d
000000e0: 2ae1 9caf 7e5c 62bd 33b0 83bb 436e a8b5
000000f0: 3f78 5f3e 8846 08bd f741 873d 8e9c 29bc

weight f4 [1, 64]
-0.07731429 -0.11918506 0.11480315 -0.111313894 -0.050782353 0.011906609 -0.07670726 0.03622754
0.106998265 -0.011282563 -0.061257437 -0.050713897 0.003990099 0.10202718 -0.12325406 0.09527004
-0.05906132 0.0022390932 0.056107074 -0.07143131 -0.081072494 -0.093212515 -0.03442712 0.10104713
0.12147164 0.0064076185 0.02634281 -0.0876919 -0.02942817 0.028105468 0.04474774 0.010494992
-0.040902928 0.05607064 0.022400513 -0.03215243 -0.025687322 0.03142889 0.118155584 -0.08541641
0.1127927 -0.0051711053 -0.11671421 -0.035681516 -0.110624835 -0.009672388 -0.0052642375 -0.10384683
0.0004938692 -0.08732079 0.09982526 0.021628603 0.079997316 0.06038958 0.0034303367 0.060733482
0.079790205 -0.021194085 0.036601752 -0.12115857 -0.012673572 -0.058086887 -0.044695348 -0.014047384
00000000: f456 9ebd 4c17 f4bd ea1d eb3d 8af8 e3bd
00000010: 2801 50bd f013 433c b218 9dbd 5463 143d
00000020: e821 db3d 80da 38bc 14e9 7abd 60b9 4fbd
00000030: 60bf 823b a0f3 d03d a06c fcbd f01c c33d
00000040: 48ea 71bd c0bd 123b 88d0 653d 944a 92bd
00000050: 5609 a6bd 34e6 bebd 7403 0dbd ccf1 ce3d
00000060: 20c6 f83d 00f7 d13b e0cc d73c d097 b3bd
00000070: 5813 f1bc 703d e63c 6849 373d 30f3 2b3c
00000080: d489 27bd 54aa 653d 4881 b73c 44b2 03bd
00000090: 386e d2bc 94bb 003d 8efb f13d ccee aebd
000000a0: dcff e63d 6072 a9bb dc07 efbd c826 12bd
000000b0: 468f e2bd f078 1ebc a07f acbb a6ad d4bd
000000c0: 0077 013a 3ed5 b2bd 3071 cc3d 782e b13c
000000d0: a2d5 a33d 105b 773d 80cf 603b acc3 783d
000000e0: 0c69 a33d 389f adbc b8eb 153d fc21 f8bd
000000f0: d0a4 4fbc 84ec 6dbd 7812 37bd 0027 66bc

weight f4 [1, 64]
-0.070277005 0.12045607 0.07115413 -0.054338276 -0.05200629 0.04066342 0.115411356 -0.094607145
0.07552497 -0.056154206 -0.08471222 0.07963131 0.11869103 -0.07907942 -0.096400306 -0.050814584
-0.12322517 0.045211345 -0.0870758 0.03451176 -0.09646058 0.022388458 0.07549256 -0.07574649
0.053375393 -0.006416887 -0.0025557727 -0.10935369 -0.07277548 -0.047681943 0.103050515 -0.113233745
-0.11594032 0.1111566 0.034285918 -0.021556765 0.051542103 0.10346332 0.09033321 0.049816817
0.09395255 0.079349875 -0.06960188 -0.02464515 -0.10779394 -0.02477163 0.035195425 0.06610769
-0.023359582 -0.07161437 -0.080525726 -0.070028126 0.0029743165 -0.111716285 0.014521867 -0.018448994
-0.12140241 -0.013804004 0.020242125 0.045819595 -0.105199575 -0.040926307 -0.065074295 0.09885204
00000000: 64ed 8fbd acb1 f63d 42b9 913d d091 5ebd
00000010: 8c04 55bd b08e 263d ca5c ec3d 64c1 c1bd
00000020: d6ac 9a3d f401 66bd 9a7d adbd be15 a33d
00000030: 4814 f33d 64f4 a1bd 866d c5bd f422 50bd
00000040: 7a5d fcbd 882f 393d cc54 b2bd 345c 0d3d
00000050: 208d c5bd 0068 b73c d89b 9a3d fa20 9bbd
00000060: 28a0 5a3d c044 d2bb c07e 27bb d4f4 dfbd
00000070: 500b 95bd 244e 43bd 260c d33d 18e7 e7bd
00000080: 1e72 edbd 12a6 e33d 646f 0c3d d097 b0bc
00000090: d01d 533d 94e4 d33d 9e00 b93d b80c 4c3d
000000a0: 326a c03d 3082 a23d 6e8b 8ebd a0e4 c9bc
000000b0: 12c3 dcbd e0ed cabc 1429 103d 7863 873d
000000c0: 985c bfbc 8eaa 92bd acea a4bd e86a 8fbd
000000d0: c0ec 423b 82cb e4bd 20ed 6d3c 5822 97bc
000000e0: d4a1 f8bd 302a 62bc d0d2 a53c 54ad 3b3d
000000f0: e072 d7bd 58a2 27bd ac45 85bd f072 ca3d
